results/milestone/programming tutorials/GCP/params/AE/params2.pt (torch_old, 265742 bytes, 8 tensors)

encoder_hidden_layer.weight f4 [128, 128]
0.05685111 0.109050035 -0.06205406 -0.06566647 0.06392453 -0.0030942282 -0.029801432 -0.061710287
0.036824733 -0.02390682 0.087656096 0.013662393 -0.06346317 0.041910052 -0.027081355 -0.03830061
-0.06737619 0.051176738 0.058120795 0.08740349 0.090044126 0.010260474 0.06772575 -0.025389964
-0.015653705 0.007538482 0.048906356 -0.030587176 0.05905808 -0.028670358 0.03388632 0.066944465
0.079051495 -0.053379666 0.031658176 0.09714328 0.041812036 0.06920123 0.06560123 0.091312945
0.0028276164 0.05464708 0.09488895 -0.03311744 0.02848578 -0.0015895572 -0.03864725 -0.0040866933
0.091218546 -0.01873485 -0.0370785 -0.012469977 -0.070645034 -0.021589367 -0.008807799 0.016934758
0.0016560707 0.05968929 -0.034580056 0.006583402 -0.06292407 -0.056844097 -0.05412667 0.031261735
0.042323686 -0.07501723 -0.06030767 0.048460294 -0.0013977407 0.059640422 -0.046501797 0.09770127
-0.057933275 -0.024559919 0.08543641 0.0019354648 0.07963608 -0.029289646 0.01550327 -0.020303816
-0.02391067 0.004680493 0.09018267 -0.06498351 0.045224078 0.08398423 0.08453367 -0.04927851
0.10096335 -0.00149608 0.05943568 0.0007621277 -0.057376698 0.04112727 0.08332357 0.018285593
-0.06434704 0.046865314 0.07900764 0.09738383 0.08174824 0.021572573 0.08955349 -0.016420046
-0.06007323 0.009781989 -0.056395754 0.024017416 -0.017832195 -0.06425082 0.017744865 -0.029100996
0.070450276 -0.019941736 0.039164916 -0.03594144 0.0072412174 -0.014474277 -0.05729208 -0.07676711
-0.009567599 0.022291023 -0.05993082 0.050175652 0.089467674 -0.04214766 -0.012105947 -0.032127127
-0.079756185 -0.12586577 0.029814195 -0.0955556 0.05983685 0.06251287 0.088268876 -0.02976252
0.014713248 0.07285758 -0.05984534 0.015451995 -0.028833348 -0.022641713 -0.09951797 -0.043606665
-0.084185585 -0.08489248 -0.02293938 -0.09209456 -0.1185195 -0.02249196 -0.11185362 0.0118969325
-0.005863518 0.018416833 -0.07933081 -0.0535322 0.028882427 0.0071984073 -0.011461737 -0.07320995
-0.07210311 -0.05925385 0.03697362 -0.041518565 0.06822291 0.032912087 0.03419125 0.07236125
0.03005932 -0.051890314 0.051640823 0.035421696 -0.0027803227 -0.06447415 0.030089712 0.017687732
-0.021378623 0.044027045 0.10940588 0.110992685 0.061014708 0.009503981 0.06970049 0.07052544
0.09432754 0.06406028 -0.010054046 0.034375366 -0.097039856 -0.092372 -0.13867575 -0.16347148
-0.038944997 -0.067454845 -0.08025134 -0.025787195 -0.061190527 0.03566627 0.0059112087 0.0077256667
-0.048204325 0.023040554 0.038173594 -0.0025657453 0.008174983 0.08238012 0.024438063 0.06643324
0.02869139 -0.004824317 0.07911651 -0.03988094 -0.03768926 -0.02097432 -0.08464149 -0.06859488
0.019269213 -0.043597884 0.047341947 0.01988827 -0.06614667 -0.056728404 -0.0058398345 -0.051146884
0.04196559 -0.04033786 -0.015906287 0.009680464 -0.002479493 -0.010276237 -0.03337374 0.043544114
-0.07865185 -0.002964579 0.05843571 -0.008659456 0.039227054 0.018298889 0.024091562 -0.07106617
-0.010266898 -0.06449378 -0.0777302 -0.025144774 -0.043063562 0.011661813 0.018003223 0.024532696
-0.059569303 -0.07951514 0.0004696397 0.023171514 -0.058629286 0.041095193 -0.07886172 -0.039538722
00000000: b6dc 683d a055 df3d 662c 7ebd 247c 86bd
00000010: ddea 823d 89c8 4abb 2222 f4bc edc3 7cbd
00000020: 88d5 163d 3cd8 c3bc 0a85 b33d 3bd8 5f3c
00000030: faf8 81bd e0a9 2b3d b8d9 ddbc 1ae1 1cbd
00000040: 87fc 89bd b39e 513d 1210 6e3d 9a00 b33d
00000050: 0e69 b83d 8c1b 283c ccb3 8a3d 9dfe cfbc
00000060: 333c 80bc 5f05 f73b 0852 483d f591 fabc
00000070: e3e6 713d 19de eabc 62cc 0a3d 2e1a 893d
00000080: c0e5 a13d a3a4 5abd 01ac 013d 0ef3 c63d
00000090: 1943 2b3d 60b9 8d3d f059 863d 4802 bb3d
000000a0: 884f 393b 9ed5 5f3d 2355 c23d 27a6 07bd
000000b0: 035b e93c b058 d0ba 944c 1ebd abe9 85bb
000000c0: cad0 ba3d d479 99bc a0df 17bd e04e 4cbc
000000d0: 58ae 90bd 2fdc b0bc 964e 10bc c3ba 8a3c
000000e0: 8310 d93a c27c 743d d1a3 0dbd 94b9 d73b
000000f0: 56de 80bd 5bd5 68bd edb3 5dbd 4e0c 003d
00000100: 9a5b 2d3d a2a2 99bd 2d05 77bd 4d7e 463d
00000110: 6534 b7ba 8449 743d ab78 3ebd 9a17 c83d
00000120: 714b 6dbd e231 c9bc 49f9 ae3d 6caf fd3a
00000130: 3e18 a33d d7f0 efbc 6d01 7e3c 3054 a6bc
00000140: 4fe0 c3bc d25e 993b b1b1 b83d 1316 85bd
00000150: e23c 393d edff ab3d fd1f ad3d 43d8 49bd
00000160: dfc5 ce3d 1d18 c4ba d472 733d 86c9 473a
00000170: d403 6bbd 1175 283d 8ca5 aa3d abcb 953c
00000180: 62c8 83bd d8f5 3f3d c2ce a13d 2c71 c73d
00000190: 9f6b a73d f7b8 b03c d267 b73d 5583 86bc
000001a0: 590f 76bd a344 203c 3cff 66bd 2cc0 c43c
000001b0: d314 92bc ef95 83bd ae5d 913c 3665 eebc
000001c0: 3c48 903d da5c a3bc 646b 203d 5537 13bd
000001d0: bc47 ed3b 8525 6dbc 1aab 6abd 1338 9dbd
000001e0: 6bc1 1cbc aa9b b63c 057a 75bd fc84 4d3d
000001f0: d43a b73d 06a3 2cbd 0658 46bc bc97 03bd
00000200: 3657 a3bd f5e2 00be e63c f43c a8b2 c3bd
00000210: 7c17 753d bf06 803d 50c6 b43d 87d0 f3bc
00000220: d60f 713c 5b36 953d 6320 75bd 5d2a 7d3c
00000230: ea33 ecbc 1d7b b9bc 14d0 cbbd e79c 32bd
00000240: 7e69 acbd 1cdc adbd 5eeb bbbc 139c bcbd
00000250: 5aba f2bd 0f41 b8bc 8313 e5bd 5aeb 423c
00000260: c122 c0bb e6de 963c 3178 a2bd 9544 5bbd
00000270: d79a ec3c 9ee0 eb3b 02ca 3bbc 19ef 95bd
00000280: ccaa 93bd 2ab4 72bd a771 173d 5f0f 2abd
00000290: 74b8 8b3d d3ce 063d 200c 0c3d 2332 943d
000002a0: f73e f63c f08a 54bd 5485 533d 5716 113d
000002b0: 1336 36bb 060b 84bd b37e f63c dde5 903c
000002c0: 3922 afbc b455 343d 3110 e03d 2250 e33d
000002d0: 8fea 793d 96b6 1b3c 21bf 8e3d a46f 903d
000002e0: cc2e c13d 0932 833d bab9 24bc 2fcd 0c3d
000002f0: d5bc c6bd 882d bdbd 0401 0ebe 1165 27be
00000300: ca84 1fbd c425 8abd d15a a4bd ab3f d3bc
00000310: eba2 7abd cb16 123d d0b2 c13b 9727 fd3b
00000320: e671 45bd 8bbf bc3c ea5b 1c3d 1026 28bb
00000330: 5df0 053c e9b6 a83d 5532 c83c 270e 883d
00000340: 350a eb3c 4e15 9ebb d607 a23d 325a 23bd
00000350: 0e60 1abd 56d2 abbc 8458 adbd 797b 8cbd
00000360: 78da 9d3c b293 32bd a1e9 413d baec a23c
00000370: e877 87bd 0b5c 68bd 155c bfbb 657f 51bd
00000380: 1ce4 2b3d 5039 25bd e74d 82bc cf9a 1e3c
00000390: fd7e 22bb a95d 28bc e7b2 08bd 505b 323d
000003a0: 3914 a1bd 6249 42bb 485a 6f3d 64e0 0dbc
000003b0: 8cac 203d 8de7 953c ab5b c53c 248b 91bd
000003c0: 7e36 28bc 5115 84bd 0331 9fbd 6afc cdbc
000003d0: 6b63 30bd 3011 3f3c 7f7b 933c cbf8 c83c
000003e0: f1fe 73bd d5d8 a2bd f939 f639 30d2 bd3c
000003f0: 4325 70bd 6f53 283d 4182 a1bd 5bf3 21bd

encoder_hidden_layer.bias f4 [128]
0.0019641991 0.0061718486 0.05453486 -0.030817362 -0.06897839 -0.037988823 0.1310427 -0.01771701
-0.017323138 -0.018592807 -0.008495558 -0.07353459 0.05164429 0.041028958 -0.07501485 0.054883927
0.1363161 0.046995293 -0.020516502 0.0236724 0.068267114 0.073553495 0.08596659 0.047427878
-0.017096186 0.10599386 0.039682288 0.07088611 0.2281026 -0.026476221 0.046289846 -0.026480934
0.06915987 -0.013970894 0.016327567 0.006471288 0.047827072 0.061789785 0.13920918 0.14689013
-0.021608023 0.028816909 -0.01645742 0.027648734 0.033270966 0.021512628 0.11010997 -0.028480753
0.07040145 0.033523723 0.015600099 0.034609236 0.08553646 0.104811154 0.0630185 0.078910984
0.044254888 0.18646863 0.057017293 -0.022558542 -0.05265374 0.067885906 0.019992188 0.037036054
0.02832145 0.069233745 -0.058868326 0.012316532 0.10900267 0.05019545 0.15535995 0.051199954
-0.06657327 0.10766072 0.016042622 0.004215408 0.00022833521 0.0044261734 0.10187294 0.018430822
0.029899573 0.08365498 0.10095305 -0.029743895 0.033447463 0.18129458 -0.030775158 0.18509641
0.071537375 -0.020112999 0.08251036 -0.025206143 0.07660891 0.07576031 0.10925542 -0.01075788
0.11231351 0.020803407 0.077662036 0.18081069 0.08017517 0.02328767 0.048311543 -0.069313444
-0.035970513 0.12741128 -0.055191282 0.08192204 0.085564256 -0.015177355 0.045899756 0.030563157
0.04963434 0.06854316 0.123404674 -0.07582621 -0.028961435 0.1188856 -0.009279076 0.08253634
0.09137161 0.018410118 0.0623718 0.029542375 0.05977508 -0.010465728 0.13619031 0.082757995
00000000: cbb9 003b 383d ca3b f25f 5f3d b174 fcbc
00000010: 8b44 8dbd 2b9a 1bbd 0f30 063e 4323 91bc
00000020: 41e9 8dbc f14f 98bc f430 0bbc 4e99 96bd
00000030: f788 533d fb0d 283d 63a1 99bd f8cd 603d
00000040: 7396 0b3e 237e 403d 3912 a8bc 9fec c13c
00000050: a1cf 8b3d 37a3 963d 400f b03d bc43 423d
00000060: 4d0d 8cbc 4f13 d93d e589 223d bd2c 913d
00000070: ba93 693e a9e4 d8bc 6c9a 3d3d 8bee d8bc
00000080: b1a3 8d3d 2de6 64bc 64c1 853c 190d d43b
00000090: 52e6 433d 4917 7d3d da8c 0e3e 5e6a 163e
000000a0: 4f03 b1bc 7011 ec3c b6d1 86bc 997f e23c
000000b0: 2347 083d 403b b03c 5681 e13d 7850 e9bc
000000c0: a32e 903d 2c50 093d 8f97 7f3c 6ac2 0d3d
000000d0: bd2d af3d 3ba7 d63d d80f 813d 159c a13d
000000e0: 9d44 353d a2f1 3e3e f78a 693d b1cc b8bc
000000f0: 73ab 57bd c407 8b3d a8c6 a33c 1eb3 173d
00000100: 6302 e83c 6cca 8d3d ea1f 71bd 48cb 493c
00000110: cb3c df3d bf99 4d3d ae16 1f3e 0bb7 513d
00000120: 9157 88bd 397d dc3d d16b 833c 6821 8a3b
00000130: 446d 6f39 6f09 913b c3a2 d03d 3cfc 963c
00000140: f3ef f43c 4d53 ab3d 79c0 ce3d 78a9 f3bc
00000150: 3500 093d 49a5 393e 2f1c fcbc ea89 3d3e
00000160: 3082 923d 04c4 a4bc 31fb a83d 1d7d cebc
00000170: 22e5 9c3d 3928 9b3d 4ec1 df3d d241 30bc
00000180: a004 e63d e86b aa3c 460d 9f3d 7026 393e
00000190: e132 a43d c9c5 be3c 53e2 453d 35f4 8dbd
000001a0: d155 13bd 1a78 023e 4110 62bd bec6 a73d
000001b0: 503c af3d 71aa 78bc 6201 3c3d 965f fa3c
000001c0: 614d 4b3d 5b60 8c3d 97bb fc3d c64a 9bbd
000001d0: 8840 edbc 4b7a f33d 4407 18bc d008 a93d
000001e0: 0a21 bb3d d1d0 963c 9379 7f3d da02 f23c
000001f0: b7d6 743d 7278 2bbc 7975 0b3e 067d a93d

encoder_output_layer.weight f4 [128, 128]
-0.038179442 0.027323319 -0.082087666 0.029382376 0.048019808 0.02044012 0.08782748 0.06720253
-0.08767726 -0.03850389 -0.009691276 -0.067647874 0.073966704 0.01028664 -0.08093534 0.020808743
0.09691815 -0.026623784 0.067034215 0.038944256 0.072164424 -0.043464445 -0.03158045 0.05462435
-0.0660747 0.11419186 -0.0210122 -0.025717689 -0.01806223 -0.023700172 0.028602911 -0.0041798064
-0.10227646 -0.052330334 0.011781436 0.07648374 0.08070971 0.021118108 0.100630805 0.005757806
0.059533097 -0.010549845 -0.010394179 0.076181404 0.07351608 0.030715752 0.014414391 -0.041925702
0.09481622 0.026013087 -0.023888769 0.06237512 0.001994746 0.039783105 0.059585135 0.008676773
-0.09969004 -0.057331 -0.04181591 -0.029750176 -0.022127401 0.067294076 0.044761892 0.056666557
0.036265776 -0.0032382666 0.06094125 0.08561403 0.07692626 0.03622361 0.019604051 0.018749896
-0.05666375 -0.02205454 0.024976365 0.053638507 0.043552503 -0.067199714 -0.055597372 0.016509205
0.065965585 -0.037495244 0.037622463 0.048862 0.031013688 0.05958426 0.00023577323 -0.03306433
-0.083657816 -0.06109896 0.043392994 -0.048930846 -0.03148792 -0.06846806 -0.0023890503 0.11034696
-0.05868048 0.119996354 -0.025799807 -0.015578762 0.046639215 0.020175781 -0.0044548498 0.058363464
0.08452378 0.032940485 0.024878107 0.045850363 -0.055083536 0.070502736 0.055057675 -0.0775172
-0.0028585962 0.05342584 0.07070753 0.040279012 -0.022143295 -0.05434868 -0.068914875 0.053467494
-0.029676322 -0.037055574 -0.02369517 0.08132386 -0.04119059 -0.057387076 0.0147593375 0.030269362
-0.03220063 0.03751552 0.033162463 -0.029464412 0.05261204 -0.015357925 0.028098885 0.024268677
0.07797294 0.04049779 0.05310977 0.012230696 -0.15821886 -0.009770829 0.021161018 0.11130817
-0.112370186 -0.008667994 -0.021316145 0.011282257 -0.04081285 0.018659918 -0.002426151 0.070697635
0.010196823 0.11649638 0.13716392 -0.0010430792 0.029185565 0.03488241 0.15953255 0.022561708
-0.011590482 0.08297742 0.21922559 -0.049426183 0.0467737 0.10556304 0.13560867 0.08574673
-0.012159087 0.021746578 0.09172774 -0.057507 0.025292426 0.019320216 0.018499559 -0.03360802
0.0055861757 -0.036380026 -0.024345743 -0.034929086 -0.037993494 0.13453816 -0.003328273 0.0062037017
-0.0060873907 0.046734016 0.06535524 -0.03441388 -0.051588092 0.03688669 -0.016574595 0.04191197
0.022646882 0.06723905 -0.002261912 0.047889754 -0.12950622 -0.02983695 0.014447417 -0.033358876
-0.0037144592 -0.029116651 0.056783456 0.013214814 -0.0042802603 0.061507832 0.097434185 0.036470607
-0.044362057 -0.02752293 -0.11005157 -0.023333007 0.020045092 0.09283212 0.06404367 0.033308726
0.018376203 0.00030230105 0.011631738 0.01903169 0.043659877 -0.03030744 -0.10591025 0.12722649
0.050798126 -0.009375974 -0.0177461 0.09515323 0.038292497 0.0522943 0.037657335 0.011485279
0.06076645 -0.024590459 0.04484206 0.018255977 -0.016139898 -0.015129641 0.014591807 -0.022131136
-0.049742017 -0.071217455 0.028411273 0.108379684 0.04475707 0.008264113 -0.024940647 -0.016557772
-0.055029027 0.02855249 -0.09692063 0.017113676 -0.045039646 -0.0033130143 0.083083905 -0.050003923
00000000: 0c62 1cbd 27d5 df3c 941d a8bd 4fb3 f03c
00000010: 6bb0 443d 0a72 a73c e5de b33d 7ba1 893d
00000020: 2390 b3bd 41b6 1dbd 28c8 1ebc f88a 8abd
00000030: db7b 973d 4c89 283c 6dc1 a5bd 1977 aa3c
00000040: 067d c63d 1f1a dabc 3c49 893d 0384 1f3d
00000050: f1ca 933d c607 32bd 805a 01bd c8bd 5f3d
00000060: 2c52 87bd 6cdd e93d c721 acbc e7ad d2bc
00000070: 3ef7 93bc dd26 c2bc a750 ea3c c2f6 88bb
00000080: 5276 d1bd 5558 56bd ed06 413c 82a3 9c3d
00000090: 224b a53d e2ff ac3c 8617 ce3d faab bc3b
000000a0: fad8 733d 42d9 2cbc 594c 2abc ff04 9c3d
000000b0: 998f 963d 9a9f fb3c 562a 6c3c 49ba 2bbd
000000c0: 022f c23d 6619 d53c 61b2 c3bc 0e7d 7f3d
000000d0: 49ba 023b 9cf3 223d 8b0f 743d 0629 0e3c
000000e0: 4b2a ccbd e9d3 6abd 2947 2bbd a4b6 f3bc
000000f0: 8644 b5bc 7ad1 893d 3f58 373d 311b 683d
00000100: 6c8b 143d 1939 54bb 889d 793d 6956 af3d
00000110: 848b 9d3d 355f 143d ad98 a03c 6299 993c
00000120: 4018 68bd b9ab b4bc 3c9b cc3c 0db4 5b3d
00000130: 1c64 323d 01a0 89bd 12ba 63bd 503e 873c
00000140: f718 873d 9d94 19bd 031a 1a3d 8523 483d
00000150: 6b10 fe3c a00e 743d e539 7739 776e 07bd
00000160: ca54 abbd e742 7abd dabc 313d b66b 48bd
00000170: 7af9 00bd fb38 8cbd 9d91 1cbb 96fd e13d
00000180: f15a 70bd a6c0 f53d 1e5a d3bc 103e 7fbc
00000190: c308 3f3d ae47 a53c fdf9 91bb 870e 6f3d
000001a0: ce1a ad3d 9aec 063d 2ccd cb3c 97cd 3b3d
000001b0: 469f 61bd bd63 903d 2884 613d 56c1 9ebd
000001c0: 4957 3bbb 0ed5 5a3d 1ccf 903d 9bfb 243d
000001d0: db65 b5bc b99c 5ebd 3e23 8dbd bb00 5b3d
000001e0: c21b f3bc 96c7 17bd 601c c2bc 208d a63d
000001f0: 77b7 28bd b60e 6bbd 26d1 713c 74f7 f73c
00000200: cfe4 03bd e0a9 193d 5dd5 073d 5a5f f1bc
00000210: b97f 573d ce9f 7bbc a22f e63c 1bcf c63c
00000220: 47b0 9f3d 03e1 253d a189 593d 4263 483c
00000230: 2004 22be d415 20bc df59 ad3c 8af5 e33d
00000240: 5722 e6bd 3404 0ebc 329f aebc 37d9 383c
00000250: 602b 27bd afdc 983c 0f00 1fbb ecc9 903d
00000260: 9310 273c a795 ee3d b374 0c3e eeb7 88ba
00000270: 9116 ef3c dce0 0e3d 805c 233e 55d3 b83c
00000280: 01e6 3dbc 11f0 a93d ac7c 603e 1c73 4abd
00000290: c795 3f3d 6f31 d83d 00dd 0a3e fb9b af3d
000002a0: e836 47bc e125 b23c c1db bb3d 768c 6bbd
000002b0: 1032 cf3c 6e45 9e3c 638c 973c 90a8 09bd
000002c0: 3d0c b73b 3903 15bd b970 c7bc cd11 0fbd
000002d0: 119f 1bbd 5fc4 093e 281f 5abb 6c48 cb3b
000002e0: bc78 c7bb 2b6c 3f3d f8d8 853d 92f5 0cbd
000002f0: 094e 53bd 7f16 173d 72c7 87bc e3ab 2b3d
00000300: f485 b93c a1b4 893d 963c 14bb 0c28 443d
00000310: 479d 04be 9f6c f4bc dcb4 6c3c 51a3 08bd
00000320: 496e 73bb 0b86 eebc c595 683d f282 583c
00000330: 6d41 8cbb a3ef 7b3d 938b c73d 3462 153d
00000340: fdb4 35bd c577 e1bc b862 e1bd dd24 bfbc
00000350: 9b35 a43c c41e be3d 5429 833d bb6e 083d
00000360: b189 963c 297e 9e39 0c93 3e3c 59e8 9b3c
00000370: b3d4 323d 4f47 f8bc 79e7 d8bd a947 023e
00000380: b211 503d af9d 19bc 4560 91bc b2df c23d
00000390: 98d8 1c3d 8c32 563d 943e 1a3d c02c 3c3c
000003a0: 3ee6 783d ee71 c9bc 4fac 373d 8f8d 953c
000003b0: d237 84bc 50e2 77bc 7912 6f3c 5b4c b5bc
000003c0: 49be 4bbd 75da 91bd c2be e83c 2bf6 dd3d
000003d0: 3053 373d 3466 073c 5450 ccbc 2aa4 87bc
000003e0: 1e66 61bd e9e6 e93c 537e c6bd fb31 8c3c
000003f0: 7e7b 38bd 281f 59bb e527 aa3d ead0 4cbd

encoder_output_layer.bias f4 [128]
0.09149384 0.015906695 -0.06162877 0.05215017 0.018276732 0.06216323 -0.02792743 -0.0035459893
0.0517756 0.06775585 0.01132771 -0.017512133 0.06430104 0.011252403 0.041454405 0.06630758
0.035082415 0.05056057 -0.01750281 -0.028406285 0.08465267 -0.07149773 0.094081745 0.013703176
0.0023219497 -0.02965818 0.0359978 0.042916294 0.086862594 -0.0041322946 0.07138946 -0.016660996
0.027580116 0.026024843 0.09140681 -0.045552857 0.0049888953 -0.062001433 -0.0030615286 0.034935184
0.095707834 0.053508118 0.14675246 0.061400525 0.020083293 -0.034514133 -0.06750517 0.028064068
0.09048856 -0.0381848 0.044640504 -0.0052615483 -0.05386431 0.045568086 -0.02071954 0.09282241
0.059148915 0.02833388 0.058273736 0.036278814 0.010569823 0.0020792375 0.035829145 -0.022030514
0.07649892 0.055871032 -0.031853132 -0.05559917 -0.026118986 0.05884557 -0.073062286 0.054225944
0.0084265685 0.11958973 0.030776225 -0.06310196 0.00011773773 0.062141113 -0.052224793 -0.06383993
-0.03385783 0.027978664 0.0051714745 -0.065595224 0.033452317 -0.014068931 0.059662424 -0.019573037
0.09994245 -0.023510152 0.07125879 -0.011016612 0.031163208 0.015688539 0.07252266 -0.059388645
0.062313445 -0.02314934 -0.007947056 -0.07024344 0.014195245 0.062341128 -0.051391993 -0.037251048
0.082611375 -0.03976995 0.08367028 0.09763315 -0.02106378 -0.019361045 -0.018798845 0.054995902
0.037134945 -0.035704598 -0.040386777 0.078133956 0.023281014 0.06255173 0.06790719 0.015228321
-0.047135394 0.02923095 -0.046121437 0.10044915 -0.0011698975 -0.0038483944 -5.1284223e-06 0.11232496
00000000: 1f61 bb3d c24e 823c 736e 7cbd 6b9b 553d
00000010: 16b9 953c df9e 7e3d 11c8 e4bc d463 68bb
00000020: a712 543d 94c3 8a3d dc97 393c 9b75 8fbc
00000030: 43b0 833d 005c 383c 18cc 293d 45cc 873d
00000040: 94b2 0f3d 9a18 4f3d 0e62 8fbc 4cb4 e8bc
00000050: 615e ad3d 676d 92bd eead c03d 4983 603c
00000060: da2b 183b b6f5 f2bc 6e72 133d ffc8 2f3d
00000070: 04e5 b13d 3368 87bb a334 923d a47c 88bc
00000080: b2ef e13c 0d32 d53c 7e33 bb3d a295 3abd
00000090: e379 a33b 37f5 7dbd eda3 48bb 3218 0f3d
000000a0: 7802 c43d 542b 5b3d 4746 163e 1e7f 7b3d
000000b0: b885 a43c b15e 0dbd 2740 8abd 9ee6 e53c
000000c0: 1152 b93d aa67 1cbd f6d8 363d 1169 acbb
000000d0: d3a0 5cbd 9aa5 3a3d 06bc a9bc ad19 be3d
000000e0: 2246 723d 741c e83c 71b0 6e3d 1899 143d
000000f0: 0d2d 2d3c d143 083b 95c1 123d 5679 b4bc
00000100: 77ab 9c3d 06d9 643d 6e78 02bd f5bb 63bd
00000110: 7cf7 d5bc 0d08 713d aea1 95bd 061c 5e3d
00000120: 970f 0a3c 76eb f43d 6c1e fc3c 9a3b 81bd
00000130: f6e9 f638 ae87 7e3d aae9 55bd 82be 82bd
00000140: 82ae 0abd 8333 e53c 7975 a93b ca56 86bd
00000150: 4c05 093d 6081 66bc 9660 743d a257 a0bc
00000160: a1ae cc3d 5d98 c0bc 21f0 913d 057f 34bc
00000170: fc49 ff3c 4085 803c c386 943d 8241 73bd
00000180: 623c 7f3d afa3 bdbc 5e34 02bc cbdb 8fbd
00000190: 2c93 683c 6959 7f3d 6980 52bd 8e94 18bd
000001a0: 2730 a93d d1e5 22bd 535b ab3d e4f3 c73d
000001b0: f38d acbc 0e9b 9ebc 0900 9abc 6243 613d
000001c0: d01a 183d fc3e 12bd 9b6c 25bd b204 a03d
000001d0: d3b7 be3c 1f1b 803d ed12 8b3d 3580 793c
000001e0: 0b11 41bd bf75 ef3c d5e9 3cbd 49b8 cd3d
000001f0: 3f57 99ba 5835 7cbb d014 acb6 a10a e63d

decoder_hidden_layer.weight f4 [128, 128]
-0.08658633 -0.011102995 0.010664031 0.019430526 0.11020773 -0.0003205578 -0.004818348 -0.009940828
0.026584465 -0.010922425 0.029977566 -0.03924705 -0.017703932 0.05992823 0.02773409 -0.0038696919
-0.056327395 0.03763526 -0.09485707 -0.06297727 0.076059476 -0.022391124 0.010131287 0.030531026
0.022155752 -0.039307095 0.0017827105 -0.10309659 0.017380109 -0.012621793 -0.038148515 0.07925861
0.034586474 0.036488056 -0.06793173 0.06158713 -0.062013257 -0.018867366 -0.01596686 0.06779236
0.083828114 0.033231903 -0.0009848945 -0.099248365 0.07422664 -0.030514233 0.10411744 -0.11049479
0.07198938 -0.045653842 0.048057843 0.026368702 0.018255578 -0.06882304 -0.053416997 0.05469482
0.049910236 0.06253061 0.055214394 0.04435964 -0.067824416 -0.03371611 0.069254644 0.023408152
0.00030712303 0.021961441 0.028248329 0.075716026 0.025856717 -0.031998124 -0.025514565 -0.00674764
0.06816504 0.062629566 -0.0703929 0.01616541 -0.0011522322 -0.012967243 -0.021314772 0.021805605
0.029410563 -0.0070243413 0.10600201 0.040473714 0.059629258 -0.028721457 -0.044878323 -0.09018585
0.07386436 0.065399036 -0.023319222 0.026743729 -5.6531676e-06 -0.046728607 -0.09672279 -0.03203129
-0.0140337795 0.0034258445 -0.037309017 -0.009071802 -0.016561225 0.022073803 -0.0027096863 -0.002345861
0.011551545 0.055011496 0.047954876 -0.048443068 -0.07372373 0.010218045 -0.029013393 0.0007987136
-0.063807264 0.05555855 0.05261022 0.019975957 0.01100678 0.0037735126 0.017100109 0.0033315974
0.10405399 0.009866691 0.047638003 -0.0573746 0.075488865 -0.06457165 -0.00018350082 0.0041595404
0.00555802 0.05120046 0.013853742 -0.076525725 -0.02356731 0.05002968 -0.0040799878 0.0782492
0.007565515 -0.074040085 0.06581669 0.034196958 -0.03882045 0.06371555 0.07497854 -0.033648625
0.055306803 -0.011210543 0.0688347 0.04122663 0.0056741894 -0.0011872591 -0.0013479051 0.015989745
0.064602785 -0.016116189 -0.0038315977 -0.015543003 -0.0016711095 0.03649947 0.087202676 0.03429199
-0.07100733 -0.034441046 0.0062127504 -0.083687246 0.049368437 -0.009086592 -0.03544433 0.015300239
0.050970484 -0.038058154 -0.11452414 0.01819056 0.06171128 0.082640484 -0.041632973 -0.03329796
-0.0764215 -0.022879403 -0.029323189 -0.08116433 0.05152814 0.057006568 -0.00561152 -0.037681624
0.008746868 0.083380446 0.064369224 -0.06762978 -0.008011903 0.07352505 -0.043117564 0.06947934
0.048827693 0.07774412 0.0029026663 0.083827786 -0.06585917 0.009214843 -0.013297021 -0.041276567
0.077412434 0.012049372 0.05383665 0.08343969 5.4321345e-06 0.0361081 -0.060545407 0.0598176
0.026698783 0.016466053 0.027159384 -0.026801119 0.0831716 -0.026064627 -0.031404976 -0.06535628
0.09250415 -0.12270442 0.06487713 0.019308465 0.012223029 -0.029031193 -0.05598099 0.00559921
-0.02764831 -0.02947895 0.033907324 -0.073764816 0.019547584 -0.067056924 -0.057630952 0.08005669
-0.0020804082 -0.04084137 0.03354816 -0.0062804283 0.082265556 -0.087433055 -0.03698479 0.05037782
0.080633946 0.021720374 0.067664355 -0.0025387139 -0.097839974 0.06644496 -0.050249103 0.056201655
0.0021518932 -0.017779952 -0.057301585 0.03026965 0.054029368 0.0051473184 6.816918e-07 -0.061465807
00000000: 2c54 b1bd 56e9 35bc 30b8 2e3c c42c 9f3c
00000010: 97b4 e13d 8a10 a8b9 3ce3 9dbb dbde 22bc
00000020: aac7 d93c f9f3 32bc 8393 f53c 84c1 20bd
00000030: d607 91bc 4e77 753d 9a32 e33c a89a 7dbb
00000040: 8eb7 66bd 6e27 1a3d 6c44 c2bd 3afa 80bd
00000050: 12c5 9b3d 976d b7bc b3fd 253c 341c fa3c
00000060: fb7f b53c 7a00 21bd d7a9 e93a 4e24 d3bd
00000070: bb60 8e3c a3cb 4ebc 9e41 1cbd 5752 a23d
00000080: 8caa 0d3d 8074 153d ca1f 8bbd c942 7c3d
00000090: 9d01 7ebd bc8f 9abc efcc 82bc b9d6 8a3d
000000a0: 13ae ab3d 2d1e 083d 9317 81ba ba42 cbbd
000000b0: 2304 983d fcf8 f9bc 863b d53d 184b e2bd
000000c0: 2b6f 933d 86ff 3abd 4dd8 443d 2d03 d83c
000000d0: b98c 953c 18f3 8cbd c8cb 5abd ad07 603d
000000e0: ad6e 4c3d 0c10 803d 7d28 623d 74b2 353d
000000f0: 87e7 8abd e719 0abd 61d5 8d3d 74c2 bf3c
00000100: 5b05 a139 7be8 b33c 0a69 e73c 0111 9b3d
00000110: 77d1 d33c 7710 03bd ec03 d1bc 4f1b ddbb
00000120: 1d9a 8b3d ee43 803d 272a 90bd 526d 843c
00000130: 7f06 97ba 8f74 54bc 519c aebc aba1 b23c
00000140: 6cee f03c 722c e6bb 9517 d93d c4c7 253d
00000150: cf3d 743d 4349 ebbc 55d2 37bd 5cb3 b8bd
00000160: 3346 973d eeef 853d f407 bfbc aa15 db3c
00000170: 57b0 bdb6 7f66 3fbd 9916 c6bd 3e33 03bd
00000180: f0ed 65bc 2284 603b 57d1 18bd e5a1 14bc
00000190: 68ab 87bc 1fd4 b43c fe94 31bb 04bd 19bb
000001a0: b142 3d3c bc53 613d 556c 443d 3d6c 46bd
000001b0: 78fc 96bd 9669 273c 7fad edbc c360 513a
000001c0: 62ad 82bd 5d91 633d d07d 573d 9ea4 a33c
000001d0: c855 343c 094d 773b 8715 8c3c ee56 5a3b
000001e0: 421a d53d e7a7 213c 1120 433d a101 6bbd
000001f0: e899 9a3d 243e 84bd 206a 40b9 c14c 883b
00000200: 0d20 b63b 93b7 513d cefa 623c 85b9 9cbd
00000210: 3b10 c1bc eceb 4c3d 6bb1 85bb 1e41 a03d
00000220: 24e8 f73b 54a2 97bd e7ca 863d 1c12 0c3d
00000230: 3102 1fbd 4c7d 823d 598e 993d 24d3 09bd
00000240: 6389 623d 6dac 37bc 35f9 8c3d 41dd 283d
00000250: 8dee b93b ce9d 9bba 31ac b0ba edfc 823c
00000260: 774e 843d 1906 84bc 8b1b 7bbb 14a8 7ebc
00000270: 2109 dbba 7880 153d 5197 b23d c275 0c3d
00000280: 4b6c 91bd 0e12 0dbd 5494 cb3b 3864 abbd
00000290: 8f36 4a3d eedf 14bc 132e 11bd dbad 7a3c
000002a0: 6dc6 503d dee2 1bbd a28b eabd 5f04 953c
000002b0: f8c4 7c3d 6a3f a93d 5687 2abd 7163 08bd
000002c0: e082 9cbd 966d bbbc 2f37 f0bc 7c39 a6bd
000002d0: 2c0f 533d b87f 693d d7e0 b7bb 0c58 1abd
000002e0: 064f 0f3c 5ec3 aa3d 03d4 833d 7b81 8abd
000002f0: 5b44 03bc 4d94 963d 0b9c 30bd 2f4b 8e3d
00000300: 8cff 473d 4f38 9f3d a93a 3e3b e7ad ab3d
00000310: 2ce1 86bd daf9 163c c0db 59bc 9e11 29bd
00000320: 698a 9e3d bb6a 453c d283 5c3d 6ee2 aa3d
00000330: ae45 b636 16e6 133d 76fe 77bd 4d03 753d
00000340: 68b7 da3c d1e3 863c 5b7d de3c 058e dbbc
00000350: df55 aa3d 7c85 d5bc 81a2 00bd 83d9 85bd
00000360: d172 bd3d 744c fbbd 4dde 843d c92c 9e3c
00000370: 1943 483c d3d2 edbc 534c 65bd 9479 b73b
00000380: b57e e2bc d77d f1bc 68e2 0a3d 0212 97bd
00000390: 4122 a03c 2455 89bd 6f0e 6cbd c3f4 a33d
000003a0: 7557 08bb 4849 27bd cc69 093d 0dcc cdbb
000003b0: d87a a83d 1a10 b3bd 5d7d 17bd f958 4e3d
000003c0: 6923 a53d edee b13c 9c93 8a3d 8d60 26bb
000003d0: 5360 c8bd 4c14 883d 01d2 4dbd b533 663d
000003e0: c706 0d3b 43a7 91bc 11b5 6abd 0ff8 f73c
000003f0: e64d 5d3d d6aa a83b 81fd 3635 92c3 7bbd

decoder_hidden_layer.bias f4 [128]
-0.07387629 0.0020285593 -0.012581902 0.030167522 -0.0013805426 0.001964485 -1.8188202e-05 0.064161554
-0.028987758 0.0864181 0.058773242 -0.09798379 -0.06583646 0.0028953126 0.0019376015 3.716367e-05
-0.037319433 0.0031067538 -0.049691986 -0.0026715503 0.0007525057 -0.00021211313 0.008452423 -0.0053937403
0.01874238 0.10530217 -0.053416938 -0.002995308 0.109715834 0.09187338 0.10753749 -0.057897296
0.0188913 0.121393606 0.07712648 0.084337 -0.036566526 0.051023297 0.026395325 0.081690766
-0.057490196 -0.072188124 0.034243323 0.08733345 0.006676269 0.015540127 0.027037974 -0.034838974
0.020175166 0.02670242 0.0042525935 -0.01783107 0.058295663 0.010739733 -0.007173278 0.0043943604
0.106176816 0.049314138 -0.0017738795 -0.018445933 0.0017018903 0.08423637 0.00021372785 -0.060724
0.03926909 0.03830097 0.08920894 0.04229912 -0.057870477 0.040963195 -0.056356832 0.031959865
0.062001456 -0.03996098 -0.03316003 0.067579105 -0.056921683 0.004626822 0.06417962 -0.006372274
-0.02191907 -0.006459571 -3.70645e-05 0.05529956 0.07706972 -0.073776916 0.0028571947 0.008527261
-0.022798495 -0.008215315 -0.033491634 -0.0050324616 -0.04540464 0.052322455 0.07404848 0.076637566
-0.055874478 -0.0017615367 0.018963035 -0.0340361 0.062146615 0.04910269 0.019783475 -0.059272256
0.04370163 0.016231969 0.0074706585 -0.0327771 0.006768276 -0.055463407 -0.029659567 -0.027571265
-0.050408907 -0.037770405 -0.04416332 -0.020610837 -0.07182463 -0.038592752 0.0047734217 0.038470298
0.075442754 -0.06756394 0.07101124 0.03526668 -0.013927797 0.008700458 -0.0357784 0.04066853
00000000: 744c 97bd 94f1 043b 5224 4ebc e121 f73c
00000010: 53f3 b4ba 97be 003b de92 98b7 2267 833d
00000020: bc77 edbc f9fb b03d 36bc 703d baab c8bd
00000030: 44d5 86bd 49bf 3d3b 1ef7 fd3a 30e0 1b38
00000040: 43dc 18bd ae9a 4b3b d389 4bbd 2d15 2fbb
00000050: cd43 453a af6a 5eb9 087c 0a3c f9bd b0bb
00000060: 9f89 993c aaa8 d73d b8cb 5abd ee4c 44bb
00000070: b2b2 e03d 1c28 bc3d 9e3c dc3d b725 6dbd
00000080: edc1 9a3c 369d f83d 7df4 9d3d e1b8 ac3d
00000090: c8c6 15bd cefd 503d 023b d83c 7d4d a73d
000000a0: d77a 6bbd 5ed7 93bd ba42 0c3d e1db b23d
000000b0: 9bc4 da3b 049c 7e3c be7e dd3c 50b3 0ebd
000000c0: 6446 a53c 09bf da3c 5759 8b3b 7712 92bc
000000d0: 6fc7 6e3d b5f5 2f3c d10d ebbb 91fe 8f3b
000000e0: 3b73 d93d 9ffd 493d 8581 e8ba ed1b 97bc
000000f0: f611 df3a 1e84 ac3d 221c 6039 bbb9 78bd
00000100: a0d8 203d 7ae1 1c3d 2db3 b63d d841 2d3d
00000110: 9809 6dbd 06c9 273d 6cd6 66bd 59e8 023d
00000120: 3df5 7d3d 20ae 23bd d0d2 07bd ea66 8a3d
00000130: b626 69bd 999c 973b 9b70 833d 82ce d0bb
00000140: 9f8f b3bc cfaa d3bb b475 1bb8 cb81 623d
00000150: bbd6 9d3d 5a18 97bd c63f 3b3b edb5 0b3c
00000160: e9c3 babc 8799 06bc 862e 09bd 59e7 a4bb
00000170: 37fa 39bd 1250 563d bba6 973d 28f4 9c3d
00000180: a3dc 64bd 5de3 e6ba 5e58 9b3c 7069 0bbd
00000190: 738d 7e3d e71f 493d f410 a23c 77c7 72bd
000001a0: 7b00 333d e8f8 843c 6dcc f43b 4841 06bd
000001b0: 6ac8 dd3b 992d 63bd 9ff8 f2bc 22dd e1bc
000001c0: 9279 4ebd 24b5 1abd 99e4 34bd 0fd8 a8bc
000001d0: cb18 93bd 6f13 1ebd 5d6a 9c3b 0893 1d3d
000001e0: bb81 9a3d f75e 8abd 576e 913d cb73 103d
000001f0: 6a31 64bc 5e8c 0e3c 5f8c 12bd 0b94 263d

decoder_output_layer.weight f4 [128, 128]
2.3149059e-11 -0.0001553944 2.2368051e-14 -0.00014586501 1.745098e-08 -4.6783856e-07 -5.9214304e-05 -5.8508804e-06
8.970708e-05 -0.025278924 9.889607e-05 -1.7492513e-06 4.660484e-11 8.992351e-12 -8.198684e-06 1.8100776e-05
-0.00012689344 4.848507e-05 0.00018433633 1.10607815e-14 0.00050961453 1.3060129e-06 2.656912e-05 1.0136116e-10
0.00014385264 -1.5065723e-06 5.0591076e-08 4.9248923e-05 -0.0001687008 -4.479657e-06 2.4448798e-06 -6.062358e-12
0.00020314309 -0.011181518 -8.107911e-05 -0.010063575 6.559148e-05 -4.636851e-05 -0.0016009789 -8.488797e-05
-2.3621938e-05 -2.5619784e-10 0.00022429044 -0.00016186784 3.614139e-05 -0.00016716537 -1.3287568e-05 0.00018430798
3.869786e-05 -0.017095627 -2.6754587e-05 -3.868487e-05 -0.00014592988 0.00042963933 -1.5241492e-14 -5.6248628e-05
-0.00020036253 2.3416449e-05 9.553209e-05 -2.7139084e-08 0.00045342048 0.001754923 -0.00015758016 -7.673168e-07
-0.0036680491 -0.0063036866 2.9574228e-06 -0.020742925 -1.3537031e-15 0.0004125003 -1.2899748e-10 1.15400384e-10
7.712431e-05 8.007405e-11 9.8328276e-11 -0.016303305 -1.6843038e-06 0.00045342062 -0.012590102 -5.036221e-09
7.1915764e-07 2.6530004e-06 -0.000111204004 -6.0162187e-05 -1.7178689e-05 5.047074e-14 0.00016713572 0.00031752556
0.0002386406 4.119331e-12 9.6292235e-05 2.6385019e-06 2.5884594e-07 3.2937987e-06 -0.00021773347 -0.00040267908
3.8628143e-05 0.00024936828 4.8309856e-10 -0.0003656237 -5.674918e-05 -0.021473423 -0.00831203 3.7106665e-10
-0.00031656146 -0.0004165619 2.6951697e-05 6.9473475e-07 -5.8800837e-05 -0.007942546 1.9232605e-06 1.016746e-10
6.9924795e-07 -4.3838133e-14 -1.2614934e-10 3.0115489e-05 8.6960055e-05 -6.1204247e-07 -1.5554735e-09 -6.1413816e-06
0.00036587802 -0.0026849655 -0.0015406816 -4.9852837e-11 -1.1607895e-15 -1.9842611e-05 2.5034462e-11 -5.0376617e-05
-0.026025975 0.038445685 -0.0422646 0.02717776 0.0054852264 -0.012766794 1.908603e-07 0.03082536
-0.024290401 -0.059017748 0.011465033 0.018655058 0.03726809 0.037505034 0.020958183 0.003981938
0.005682441 0.047738798 0.011364516 -4.4915411e-13 0.009843543 -1.1874985e-14 0.032338906 0.05568211
-0.03690908 0.03658332 0.007847718 0.006025115 0.023393692 -0.02477679 0.0008692729 -0.044560257
-0.033217743 -0.006297569 0.01569656 0.025925195 0.080807246 0.020857252 -0.027416753 0.04109626
-0.015954733 0.0009720973 0.015581445 0.037951354 -0.022394199 0.022003982 0.031007987 -0.013744223
-0.06334065 -0.01169037 -0.026959568 0.016569767 0.010676231 -0.060530912 0.008850533 0.054763597
-0.008777281 -0.0027027645 -0.011110775 -0.0024568108 -0.052084293 0.014638688 -0.0007837222 0.04062347
-0.008583461 0.025895724 0.016096262 0.004020157 -0.030452644 0.04503918 0.0067563816 -0.0055935397
0.020645233 0.015968703 0.0007938467 -0.008095013 0.053306464 -0.068715945 -0.00021873922 0.014029861
-0.028722605 -0.039465405 2.2096264e-14 0.025286535 0.015522429 5.000905e-13 -1.408595e-07 0.01905972
0.023280628 0.002154418 0.021762973 -0.009526494 0.0018356307 0.03149454 0.0024496783 -0.00631192
0.04848794 0.022101464 -0.0067114187 0.015962215 -0.0026192814 0.0006882313 -0.018834272 -0.023425788
-0.008373891 0.0025984538 -0.013075983 0.02329035 -0.02259579 -0.04454998 0.024674846 0.02383
0.00749922 0.01189177 0.02134228 0.04463138 0.01535723 0.041549433 -0.009703382 -0.025151348
0.00096427137 -0.0009823448 -0.024387164 -0.019045023 -0.037845716 0.0042157792 -0.014038691 0.03058418
00000000: 0c9f cb2d 5ef1 22b9 3779 c928 57f3 18b9
00000010: 1ce7 9532 3e2b fbb4 e05c 78b8 ae52 c4b6
00000020: 1f21 bc38 bf15 cfbc 6c66 cf38 d1c7 eab5
00000030: 63f8 4c2e f331 1e2d 148d 09b7 1fd7 9737
00000040: b30e 05b9 735c 4b38 684a 4139 da40 4728
00000050: a797 053a 434a af35 c0e0 de37 43e5 de2e
00000060: 26d7 1639 6e35 cab5 7a49 5933 a190 4e38
00000070: 47e5 30b9 f64f 96b6 b712 2436 de4c d5ac
00000080: cf02 5539 b032 37bc 0409 aab8 b1e1 24bc
00000090: 288e 8938 cf7b 42b8 f0d7 d1ba e205 b2b8
000000a0: ba27 c6b7 a4d8 8caf 822f 6b39 11bb 29b9
000000b0: 8696 1738 1d49 2fb9 aced 5eb7 cc42 4139
000000c0: 834f 2238 210c 8cbc 0a6f e0b7 9041 22b8
000000d0: c104 19b9 3741 e139 7d48 89a8 81ec 6bb8
000000e0: 6818 52b9 716e c437 6658 c838 7a1f e9b2
000000f0: 11b9 ed39 7205 e63a 1a3c 25b9 9cf9 4db5
00000100: a763 70bb 288f cebb 2378 4636 11ed a9bc
00000110: d416 c3a6 da44 d839 90d5 0daf a4c4 fd2e
00000120: ccbd a138 af15 b02e e639 d82e 828e 85bc
00000130: 3d10 e2b5 16b9 ed39 b746 4ebc 120b adb1
00000140: 230c 4135 330a 3236 3236 e9b8 a856 7cb8
00000150: f41a 90b7 cd4c 6329 2741 2f39 8f79 a639
00000160: 993b 7a39 a3ef 902c 80f0 c938 1e11 3136
00000170: 84f7 8a34 080b 5d36 624f 64b9 ac1e d3b9
00000180: a704 2238 a5bd 8239 0acb 0430 2fb1 bfb9
00000190: f805 6eb8 08e9 afbc 2e2f 08bc fdfe cb2f
000001a0: 29f8 a5b9 fe65 dab9 5416 e237 cf7d 3a35
000001b0: eba0 76b8 7421 02bc 5d11 0136 b695 df2e
000001c0: f4b3 3b35 ed6d 45a9 e2b3 0aaf 85a0 fc37
000001d0: 535e b638 3d4b 24b5 5cc8 d5b0 1112 ceb6
000001e0: 51d3 bf39 3ff6 2fbb b2f0 c9ba 4e41 5bae
000001f0: 9349 a7a6 af73 a6b7 9934 dc2d 7b4b 53b8
00000200: 6d34 d5bc 3979 1d3d a51d 2dbd e5a3 de3c
00000210: 6abd b33b d12b 51bc 48ef 4c34 7785 fc3c
00000220: aafc c6bc 98bc 71bd d5d7 3b3c 7ed2 983c
00000230: 6da6 183d e19e 193d 7fb0 ab3c eb7a 823b
00000240: c533 ba3b c289 433d 3c32 3a3c eed9 fcaa
00000250: d046 213c b4eb 55a8 cd75 043d ed12 643d
00000260: fa2d 17bd 64d8 153d b793 003c 546e c53b
00000270: 21a4 bf3c b2f8 cabc ebdf 633a d184 36bd
00000280: 540f 08bd d65b cebb 1296 803c 1361 d43c
00000290: 457e a53d d4dc aa3c 1999 e0bc 8d54 283d
000002a0: 80b3 82bc 58d4 7e3a 5149 7f3c e172 1b3d
000002b0: 0a74 b7bc b241 b43c 7604 fe3c 732f 61bc
000002c0: beb8 81bd f788 3fbc 50da dcbc 52bd 873c
000002d0: 5ceb 2e3c 43ef 77bd d301 113c cb4f 603d
000002e0: 96ce 0fbc dd20 31bb f809 36bc 7202 21bb
000002f0: 5756 55bd 1cd7 6f3c b572 4dba cc64 263d
00000300: a5a1 0cbc 4523 d43c 4fdc 833c 85bb 833b
00000310: d377 f9bc 017b 383d a364 dd3b 034a b7bb
00000320: 3120 a93c ccd0 823c 261a 503a f2a0 04bc
00000330: e157 5a3d f2ba 8cbd 5d5d 65b9 81dd 653c
00000340: ab4b ebbc 7aa6 21bd 8406 c728 b525 cf3c
00000350: c951 7e3c 51c3 0c2b 2a3f 17b4 2123 9c3c
00000360: 04b7 be3c 2331 0d3b 4348 b23c 0315 1cbc
00000370: 8c99 f03a 6b00 013d c88a 203b 39d4 cebb
00000380: 4a9b 463d 210e b53c 76eb dbbb 31c3 823c
00000390: 40a8 2bbb 6c6a 343a 554a 9abc 70e7 bfbc
000003a0: a532 09bc d24a 2a3b a63c 56bc 67cb be3c
000003b0: ce1a b9bc 0a7a 36bd e722 ca3c 2237 c33c
000003c0: 04bc f53b b3d5 423c 01d6 ae3c 65cf 363d
000003d0: e49c 7b3c bd2f 2a3d effa 1ebc 330a cebc
000003e0: 28c7 7c3a 06c2 80ba 97c7 c7bc 4f04 9cbc
000003f0: 1c04 1bbd 8524 8a3b 8a02 66bc ad8b fa3c

decoder_output_layer.bias f4 [128]
0.00067844294 0.0076420414 0.009621057 -0.010375071 -0.04316546 -0.011764894 -0.007036078 -0.030702228
0.06164101 0.079364754 0.01890629 -0.029976126 0.04091381 0.09337523 0.007299607 0.0012821209
-0.0068968455 0.014141045 0.040932853 -0.012327578 0.012035849 0.05151288 0.016834395 -0.019579077
-0.034567796 -0.051939406 0.060192592 0.0022360953 0.020289533 -0.036875598 0.027609942 0.011770435
-0.02401932 0.04386207 0.012753066 0.0065487633 0.0407864 0.0071089915 0.055756964 -0.010772202
-0.05969211 0.061942376 -0.047534674 -0.018894648 -0.04386275 0.048817627 -0.001164254 0.07335968
0.019322045 0.07693905 0.017418899 0.051853552 -0.020709014 -0.040075243 -0.016596338 0.042312104
0.0031973138 -0.019774085 -0.030600755 0.015518788 0.017382517 -0.006810199 0.004238482 0.026596297
0.022367269 -0.0035215279 0.016690148 -0.033701986 0.014677061 -0.0076306188 -0.0074002226 0.05738528
0.039890982 0.030249633 0.0384335 -0.0598672 -0.019114528 0.08221801 -0.053416397 -0.0072170934
0.06581729 -0.04806247 -0.042962436 0.016278103 0.022648387 -0.0070212195 -0.01699864 0.035648815
-0.0025583422 -0.028455548 0.04245317 -0.014433299 0.005217041 -0.061433207 -0.03120078 0.047758777
0.009958578 0.041531816 0.028451193 0.07034883 0.01904325 0.05910787 0.013068076 0.019587142
0.010347688 -0.03157793 -0.0029742687 0.019391378 0.020383483 0.07159661 -0.0068546915 0.06348641
-0.029875044 0.0007740824 0.0037405984 0.009476247 -0.00023690835 0.03224531 -0.052963536 -0.012463735
0.044939697 -0.038703736 0.025972366 -0.005263945 0.04413118 -0.043221083 -0.008046527 0.05766163
00000000: 89d9 313a 176a fa3b a3a1 1d3c 34fc 29bc
00000010: 44ce 30bd 8bc1 40bc e68e e6bb 3d83 fbbc
00000020: 497b 7c3d fd89 a23d 5de1 9a3c 7e90 f5bc
00000030: 3d95 273d 833b bf3d 8b31 ef3b d70c a83a
00000040: effe e1bb d7af 673c 35a9 273d 9cf9 49bc
00000050: 0232 453c 2bff 523d 49e8 893c 4d64 a0bc
00000060: f696 0dbd 6abe 54bd 828c 763d 748b 123b
00000070: 3c36 a63c de0a 17bd 3f2e e23c c8d8 403c
00000080: 2ac4 c4bc b7a8 333d 3cf2 503c 0297 d63b
00000090: a40f 273d 8bf2 e83b 6a61 643d e47d 30bc
000000a0: b77f 74bd 4ab7 7d3d b8b3 42bd f3c8 9abc
000000b0: 6da9 33bd fef4 473d e299 98ba 9a3d 963d
000000c0: 4449 9e3c 3892 9d3d 14b2 8e3c 6464 543d
000000d0: f3a5 a9bc f025 24bd 0bf5 87bc 754f 2d3d
000000e0: 068a 513b 43fd a1bc 6fae fabc 8442 7e3c
000000f0: c865 8e3c 1728 dfbb f7e2 8a3b 7ae0 d93c
00000100: 903b b73c 6fc9 66bb c7b9 883c 180b 0abd
00000110: 0e78 703c 450a fabb 917d f2bb d40c 6b3d
00000120: ba64 233d 14ce f73c 726c 1d3d 4f37 75bd
00000130: 1296 9cbc eb61 a83d 27cb 5abd 5e7d ecbb
00000140: 37cb 863d 27dd 44bd 61f9 2fbd a859 853c
00000150: 1c89 b93c 4212 e6bb bb40 8bbc 7e04 123d
00000160: dca9 27bb 9c1b e9bc 60e3 2d3d a579 6cbc
00000170: b6f3 aa3b 63a1 7bbd c798 ffbc b59e 433d
00000180: 4e29 233c 441d 2a3d 7a12 e93c 0c13 903d
00000190: 9700 9c3c 181b 723d 7c1b 563c 3775 a03c
000001a0: 5989 293c dc57 01bd f3eb 42bb abda 9e3c
000001b0: 43fb a63c 3ea1 923d 529d e0bb 2a05 823d
000001c0: 82bc f4bc caeb 4a3a d424 753b 4342 1b3c
000001d0: 9a6a 78b9 a813 043d 4bf0 58bd b234 4cbc
000001e0: b012 383d cf87 1ebd 00c4 d43c 2c7d acbb
000001f0: e5c2 343d 9708 31bd 95d5 03bc 9a2e 6c3d
