results/milestone/programming tutorials/GCP/params/AE/params6.pt (torch_old, 265742 bytes, 8 tensors)

encoder_hidden_layer.weight f4 [128, 128]
0.05682032 0.11240649 -0.058179963 -0.06336331 0.06492013 -0.0028432966 -0.029427944 -0.061286766
0.03579123 -0.024940532 0.08699873 0.0138119785 -0.062707335 0.041489776 -0.02691405 -0.039392933
-0.06743848 0.051475044 0.058693502 0.087342106 0.08953861 0.010422133 0.067214794 -0.025759231
-0.01652039 0.0066668 0.048542205 -0.030329121 0.059190776 -0.028384011 0.03331845 0.06579279
0.0785901 -0.051951386 0.03332681 0.09839906 0.044049513 0.07008537 0.06675188 0.09209192
0.0036245773 0.05473171 0.094097205 -0.033195067 0.027809547 -0.0023280603 -0.03918917 -0.0040838937
0.090685405 -0.018142233 -0.036401533 -0.011548157 -0.069284454 -0.02107326 -0.00839072 0.016779425
0.0010821191 0.05887184 -0.03416275 0.007150928 -0.06189134 -0.05597595 -0.053728472 0.03055146
0.04138692 -0.07498803 -0.060520474 0.046894237 -0.0026582147 0.058870032 -0.04575092 0.09824166
-0.057177033 -0.024441019 0.08511678 0.0025144815 0.07993654 -0.028168967 0.01620319 -0.019914944
-0.023872815 0.004445014 0.08983896 -0.064194016 0.04513894 0.083717346 0.0843424 -0.048427325
0.100610495 -0.0029086417 0.05734919 -0.00066327816 -0.058404263 0.039374437 0.080854446 0.01691814
-0.064320065 0.046936035 0.07958913 0.09838048 0.0828728 0.022958197 0.09074928 -0.014385738
-0.057356607 0.012063628 -0.05480886 0.02360689 -0.017742999 -0.06490316 0.0161666 -0.030791271
0.068265416 -0.02130378 0.037567176 -0.037298944 0.005427754 -0.015936673 -0.05851046 -0.07790748
-0.010451305 0.022177754 -0.058605194 0.050524652 0.08958466 -0.041295648 -0.0126095405 -0.03491287
-0.09373114 -0.12947312 0.016124452 -0.08773716 0.06147868 0.070945784 0.09174976 -0.0025141365
0.035472017 0.08519223 -0.038065195 0.019009653 -0.0204226 -0.03600104 -0.11462522 -0.050735243
-0.0700367 -0.09728204 -0.058633067 -0.11619306 -0.13023509 -0.040697612 -0.11134554 0.008879477
-0.004287186 0.010626437 -0.07001258 -0.04612594 0.022948913 0.024203446 0.030874806 -0.031071987
-0.020241302 -0.003145235 0.07914925 0.011117446 0.10396019 0.05894318 0.05094235 0.0800183
0.03525096 -0.04546003 0.028127272 0.009978291 -0.02069658 -0.07462337 0.013278692 0.004111484
-0.030287156 0.037247926 0.10366809 0.11706525 0.08026808 0.021325719 0.09054175 0.0950956
0.1065042 0.087972045 0.018586842 0.014473188 -0.10724748 -0.10257451 -0.1699419 -0.21798633
-0.07287035 -0.030293746 -0.04826996 -0.030525263 -0.05853575 -0.0062386114 -0.047099043 -0.02569233
-0.055982348 0.014507743 0.03503629 0.02167813 0.03530636 0.10331682 0.042809013 0.053803865
0.00822041 -0.008986437 0.0732371 -0.027477259 -0.044192452 -0.038168978 -0.09041138 -0.07683578
-0.0013264995 -0.055534285 0.030822858 0.009064317 -0.0641499 -0.04655235 0.009964678 -0.008336713
0.07754604 -0.012652832 -0.010688606 0.002063732 -0.009410239 -0.013346592 -0.022974765 0.0459979
-0.062230486 0.007842293 0.0627547 -0.00019180146 0.044045575 0.032575767 0.045125652 -0.034822583
0.012907856 -0.040044334 -0.055885673 -0.02389191 -0.054329805 -0.012471247 -0.01368988 -0.0064139315
-0.072158486 -0.08829059 -0.012618465 0.00562307 -0.060713977 0.02656716 -0.10001852 -0.07181026
00000000: 6dbc 683d 6035 e63d 1d4e 6ebd a0c4 81bd
00000010: d8f4 843d 9a56 3abb df12 f1bc d507 7bbd
00000020: d399 123d 1650 ccbc 642c b23d a34b 623c
00000030: b46c 80bd 2ff1 293d db7a dcbc 7c5a 21bd
00000040: 301d 8abd 7fd7 523d 9968 703d 6be0 b23d
00000050: 0560 b73d 98c1 2a3c e9a7 893d 0605 d3bc
00000060: c555 87bc 2c75 da3b 31d4 463d c774 f8bc
00000070: 0772 723d 9685 e8bc ed78 083d 5fbe 863d
00000080: d9f3 a03d faca 54bd b181 083d 7285 c93d
00000090: 436d 343d eb88 8f3d 36b5 883d b09a bc3d
000000a0: 518a 6d3b 5c2e 603d 09b6 c03d 8df7 07bd
000000b0: d9d0 e33c 5f92 18bb d384 20bd 2fd2 85bb
000000c0: 45b9 b93d 059f 94bc c619 15bd 7b34 3dbc
000000d0: 02e5 8dbd d4a1 acbc 3b79 09bc 0175 893c
000000e0: e4d5 8d3a 9923 713d 3dee 0bbd 5552 ea3b
000000f0: c681 7dbd 0a47 65bd 6312 5cbd 0e47 fa3c
00000100: 5585 293d 5393 99bd 51e4 77bd 2c14 403d
00000110: 7135 2ebb b421 713d 5165 3bbd ec32 c93d
00000120: 7732 6abd 8838 c8bc b551 ae3d 00ca 243b
00000130: c5b5 a33d 9bc2 e6bc 8dbc 843c aa24 a3bc
00000140: ec90 c3bc 7ba7 913b 7dfd b73d 2778 83bd
00000150: 9ce3 383d 0074 ab3d b5bb ac3d bb5b 46bd
00000160: e00c ce3d e99e 3ebb fce6 6a3d d8df 2dba
00000170: 4f39 6fbd 1747 213d 0497 a53d e997 8a3c
00000180: 3dba 83bd 0040 403d a0ff a23d b57b c93d
00000190: 37b9 a93d d412 bc3c c2da b93d 29b2 6bbc
000001a0: c3ee 6abd 86a6 453c 417f 60bd 3d63 c13c
000001b0: c459 91bc f3eb 84bd d16f 843c fa3d fcbc
000001c0: bdce 8b3d 4485 aebc 0ae0 193d c7c6 18bd
000001d0: 4ddb b13b a08d 82bc aaa8 6fbd f58d 9fbd
000001e0: f33b 2bbc 1fae b53c 000c 70bd f0f2 4e3d
000001f0: 2a78 b73d a025 29bd 3f98 4ebc cc00 0fbd
00000200: 1df6 bfbd 9a94 04be 6d17 843c 8aaf b3bd
00000210: 12d1 7b3d 064c 913d 4ce7 bb3d 36c4 24bb
00000220: 1b4b 113d 4479 ae3d 40ea 1bbd 22ba 9b3c
00000230: 4c4d a7bc d475 13bd a1c0 eabd c2cf 4fbd
00000240: 676f 8fbd ce3b c7bd 3a29 70bd a1f6 edbd
00000250: 595c 05be 8ab2 26bd 2109 e4bd 3a7b 113c
00000260: 867b 8cbb 821a 2e3c c162 8fbd 8eee 3cbd
00000270: 5cff bb3c 4e46 c63c 29ed fc3c ae8a febc
00000280: 16d1 a5bc 4920 4ebb 0119 a23d f325 363c
00000290: 15e9 d43d 676e 713d eda8 503d a2e0 a33d
000002a0: 5063 103d 4c34 3abd 2a6b e63c fc7b 233c
000002b0: e08b a9bc 23d4 98bd df8e 593c a1b9 863b
000002c0: c51c f8bc 4891 183d f04f d43d e8bf ef3d
000002d0: 9763 a43d 46b3 ae3c f46d b93d 7bc1 c23d
000002e0: e01e da3d b02a b43d 6f43 983c f320 6d3c
000002f0: 91a4 dbbd 9612 d2bd 4005 2ebe cf37 5fbe
00000300: 0d3d 95bd 972a f8bc b9b6 45bd 1e10 fabc
00000310: 2fc3 6fbd 446d ccbb edea 40bd b978 d2bc
00000320: bf4d 65bd e2b1 6d3c 3682 0f3d 5596 b13c
00000330: 679d 103d c597 d33d 8158 2f3d 7161 5c3d
00000340: e6ae 063c d93b 13bc 55fd 953d fd17 e1bc
00000350: 2503 35bd 1357 1cbd 9a29 b9bd 145c 9dbd
00000360: f0dd adba eb77 63bd 3880 fc3c 8082 143c
00000370: 0661 83bd adad 3ebd e442 233c b596 08bc
00000380: 75d0 9e3d d34d 4fbc 431f 2fbc ad3f 073b
00000390: 672d 1abc aaab 5abc 9335 bcbc 4b68 3c3d
000003a0: 65e5 7ebd f67c 003c 8985 803d 501e 49b9
000003b0: 2269 343d 2b6e 053d add5 383d 20a2 0ebd
000003c0: 797b 533c 8705 24bd 60e8 64bd f8b8 c3bc
000003d0: ee88 5ebd 3454 4cbc 854b 60bc f52b d2bb
000003e0: d4c7 93bd b2d1 b4bd aebd 4ebc bb41 b83b
000003f0: 38af 78bd 5fa3 d93c 83d6 ccbd 4211 93bd

encoder_hidden_layer.bias f4 [128]
0.0020663592 0.09857666 0.05738762 -0.03129111 -0.065594085 -0.033790313 0.13495237 -0.010830542
-0.01421234 -0.017232504 -0.008333233 -0.06786841 0.074943475 0.049888667 -0.072435185 0.066512056
0.1524473 0.054702774 -0.0068929326 0.036427062 0.07259497 0.07362239 0.116454236 0.06461598
-0.0082768 0.16488695 0.047964938 0.07383689 0.24957514 0.00970867 0.055915006 -0.01603238
0.082077965 -0.008655298 0.03894111 0.0080577815 0.06133276 0.09162652 0.15594177 0.19005947
0.039897196 0.049090173 -0.014395557 0.039952762 0.062317714 0.023311036 0.16537718 -0.028002737
0.08829196 0.08165686 0.018238008 0.037136205 0.09923613 0.11094799 0.08357372 0.08888911
0.04469031 0.2435981 0.05707215 -0.015215399 0.09759028 0.07008221 0.021410545 0.036628816
0.07093769 0.06993943 -0.054725755 0.015519319 0.1808566 0.110972926 0.20023118 0.057162907
-0.06621413 0.121021256 0.025938787 0.038499486 0.010213583 0.011330112 0.11757551 0.026052242
0.035922542 0.08401341 0.10804218 -0.030063275 0.033893522 0.18965898 -0.025164844 0.19468422
0.074100986 0.026378559 0.09289842 -0.0032467959 0.08371025 0.078007236 0.11708616 0.0017036344
0.1223734 0.022808982 0.083130434 0.19901982 0.07906637 0.024232123 0.07421116 -0.06555172
-0.0039863638 0.13273954 -0.04270587 0.08721931 0.08532797 0.05643867 0.07330743 0.035344716
0.04930241 0.07186914 0.21728833 -0.06873721 -0.028161732 0.14170028 0.0065359147 0.08220548
0.09898158 0.017649304 0.07127512 0.052067943 0.059370723 -0.0058512045 0.13474886 0.08466827
00000000: c16b 073b 8fe2 c93d 480f 6b3d 1b2b 00bd
00000010: 3156 86bd b667 0abd f430 0a3e 9672 31bc
00000020: e0da 68bc 2e2b 8dbc 1d88 08bc 98fe 8abd
00000030: f77b 993d 0f58 4c3d e658 94bd 7937 883d
00000040: 251b 1c3e 0410 603d 1cde e1bb 8b34 153d
00000050: acac 943d 56c7 963d 8f7f ee3d 6255 843d
00000060: 6a9b 07bc 20d8 283e e276 443d cc37 973d
00000070: a090 7f3e 1d11 1f3c 2207 653d 5656 83bc
00000080: 7e18 a83d f3ce 0dbc b780 1f3d c904 043c
00000090: 0f38 7b3d afa6 bb3d 33af 1f3e f39e 423e
000000a0: 3e6b 233d c712 493d 58db 6bbc 82a5 233d
000000b0: dc40 7f3d c9f6 be3c a358 293e ff65 e5bc
000000c0: 6ad2 b43d b63b a73d e067 953c 221c 183d
000000d0: 503c cb3d b338 e33d b328 ab3d 7e0b b63d
000000e0: 300d 373d c871 793e 7dc4 693d 024a 79bc
000000f0: 6add c73d 4387 8f3d 2b65 af3c 1908 163d
00000100: c847 913d 673c 8f3d 1d28 60bd be44 7e3c
00000110: 7932 393e c645 e33d 6709 4d3e a723 6a3d
00000120: 469b 87bd fed9 f73d 947d d43c a3b1 1d3d
00000130: df56 273c efa1 393c 6ecb f03d 836b d53c
00000140: 8423 133d 390f ac3d 3845 dd3d 4247 f6bc
00000150: efd3 0a3d f735 423e 8126 cebc 4d5b 473e
00000160: 42c2 973d d917 d83c 8741 be3d 32c8 54bb
00000170: 4870 ab3d 42c2 9f3d deca ef3d 7c4c df3a
00000180: e89e fa3d e7d9 ba3c 4a40 aa3d dacb 4b3e
00000190: 8ded a13d 7282 c63c 05fc 973d fb3f 86bd
000001a0: 0ba0 82bb e0ec 073e 5aec 2ebd 0aa0 b23d
000001b0: 6ec0 ae3d 3c2c 673d 3522 963d 9fc5 103d
000001c0: 53f1 493d 2130 933d d580 5e3e 18c6 8cbd
000001d0: 6fb3 e6bc e119 113e 3a2b d63b 595b a83d
000001e0: dbb6 ca3d 4695 903c b1f8 913d 3245 553d
000001f0: b72e 733d 76bb bfbb 9bfb 093e 8f66 ad3d

encoder_output_layer.weight f4 [128, 128]
-0.037341636 0.02419095 -0.080318816 0.029773941 0.048634604 0.02068861 0.108521834 0.06676926
-0.08606752 -0.036845926 -0.0079309065 -0.066771686 0.060810186 0.011614257 -0.07780411 0.025806673
0.090942524 -0.023986252 0.04320109 0.04799427 0.07300909 -0.04210893 -0.039977122 0.048141584
-0.064458355 0.13757868 -0.019175516 -0.022136178 -0.0163263 -0.010134878 0.04300025 -0.0018234873
-0.10044945 -0.049361795 0.020521585 0.078518204 0.08366808 0.019871922 0.09820715 0.018148147
0.07943057 -0.017615834 -0.008316341 0.07748947 0.08211781 0.03095278 -0.006786147 -0.038875513
0.09545117 0.025058571 -0.021014601 0.06142525 0.0012852725 0.037950918 0.0546349 0.010658958
-0.1015199 -0.08127588 -0.04044342 -0.029054537 0.035696894 0.0705209 0.045428477 0.059252005
0.02637797 -0.0022849436 0.060191557 0.086489245 0.09151687 0.050243206 0.01611719 0.031665154
-0.056044295 -0.021225547 0.026255893 0.055580888 0.04575524 -0.06601925 -0.04674016 0.017036745
0.06636259 -0.036528636 0.045210686 0.04846308 0.031786066 0.06333889 0.0013251491 -0.03601969
-0.081923306 -0.05894671 0.043676667 -0.03498537 -0.029912671 -0.066657856 -0.0019807122 0.10552763
-0.059926793 0.11284091 -0.025162555 -0.014162793 0.049158618 0.017981466 0.008243947 0.05813046
0.07092612 0.03283441 0.024331298 0.04805465 -0.054286495 0.04967715 0.057978697 -0.07416194
-0.0014483865 0.053379864 0.07288764 0.040134612 -0.020868313 -0.05825987 -0.06752587 0.05515482
-0.02951276 -0.03566475 -0.024573069 0.08156383 -0.04001794 -0.053154387 0.018640883 0.03167862
-0.03570623 0.06276417 0.031765953 -0.028481686 0.052471038 -0.017920509 0.062421363 0.02668243
0.08014741 0.040764008 0.05542212 0.011746746 -0.17898937 -0.024653532 0.02239067 0.10794804
-0.10384402 -0.017512396 -0.0034675067 0.005443273 -0.03765807 0.01698063 0.0011526925 0.057049852
0.03386619 0.114873655 0.13521186 0.0020981615 0.035983983 0.02227046 0.16242072 0.02973188
-0.010095109 0.0813997 0.2359471 -0.05249379 0.032780826 0.10717297 0.14957084 0.08352094
0.007823959 -0.01230994 0.097861044 -0.05641556 -0.01834435 0.019607868 0.054301266 -0.040504567
0.0026984345 -0.029859843 -0.026743455 -0.038459443 -0.025258267 0.14700055 -0.015273046 0.006085651
-0.0075925863 0.037296847 0.06487888 -0.03429852 -0.0016769993 0.039696965 -0.01716366 0.037571453
0.021893168 0.067208 -0.0022091905 0.053147357 -0.16555002 -0.072256476 0.044684313 -0.004483109
-0.00435804 -0.022699226 0.0592846 0.019184118 -0.02136097 0.065176845 0.09572703 0.041165538
-0.043880578 -0.026069798 -0.12804218 -0.022685334 0.019621551 0.10012459 0.053045273 0.029530706
0.018671008 -0.0058098026 0.012923664 0.02524363 0.04446514 -0.030467218 -0.10580767 0.13170624
0.05010606 -0.023530265 -0.0054690368 0.10230512 0.040934842 0.047947075 0.07811782 0.012430284
0.085245095 -0.024967035 0.043914888 0.029421309 -0.015049583 -0.008320407 0.052771144 -0.019849323
-0.049868193 -0.06809659 0.07230951 0.108987026 0.046732046 0.0106670065 -0.029520726 -0.01666345
-0.052443504 0.026131997 -0.10377035 0.043113474 -0.04534573 -0.00055207155 0.085064545 -0.050140537
00000000: 8bf3 18bd 192c c63c 317e a4bd 7be8 f33c
00000010: 1435 473d 297b a93c b240 de3d 52be 883d
00000020: 2b44 b0bd c1eb 16bd a2f0 01bc 98bf 88bd
00000030: 1a14 793d b949 3e3c c357 9fbd 8468 d33c
00000040: 1340 ba3d d17e c4bc a0f3 303d a495 443d
00000050: ca85 953d 6a7a 2cbd 0dbf 23bd 1c30 453d
00000060: be02 84bd 6de1 0c3e f915 9dbc ee56 b5bc
00000070: bcbe 85bc c20c 26bc 0821 303d 1502 efba
00000080: 71b8 cdbd 982f 4abd e21c a83c 27ce a03d
00000090: 2c5a ab3d 71ca a23c d520 c93d 6cab 943c
000000a0: 7fac a23d 154f 90bc 4341 08bc cdb2 9e3d
000000b0: 622d a83d af90 fd3c 545e debb ee3b 1fbd
000000c0: e77b c33d a247 cd3c d026 acbc 0b99 7b3d
000000d0: 9776 a83a 6c72 1b3d d8c8 5f3d e9a2 2e3c
000000e0: aae9 cfbd f873 a6bd 00a8 25bd c803 eebc
000000f0: e836 123d 436d 903d 3613 3a3d 3bb2 723d
00000100: 9d16 d83c febe 15bb 6c8b 763d 4621 b13d
00000110: 326d bb3d d2cb 4d3d 3208 843c 52b3 013d
00000120: b48e 65bd 33e1 adbc 9916 d73c c9a8 633d
00000130: d969 3b3d 1a35 87bd 9c72 3fbd a590 8b3c
00000140: 1ce9 873d 0d9f 15bd d72e 393d 3981 463d
00000150: 1b32 023d d2b7 813d a0b0 ad3a 6289 13bd
00000160: 68c7 a7bd 1b72 71bd 4ee6 323d d24c 0fbd
00000170: 6b0b f5bc ea83 88bd d6ce 01bb df1e d83d
00000180: cc75 75bd 2319 e73d b421 cebc 0f0b 68bc
00000190: 8c5a 493d de4d 933c 9f11 073c 351a 6e3d
000001a0: b741 913d 607d 063d 6e52 c73c f4d4 443d
000001b0: 845b 5ebd 447a 4b3d 127b 6d3d 37e2 97bd
000001c0: c9d7 bdba d8a4 5a3d 1d46 953d 3164 243d
000001d0: 06f4 aabc e7a1 6ebd 014b 8abd 05ea 613d
000001e0: bec4 f1bc 3315 12bd 764d c9bc f00a a73d
000001f0: dae9 23bd 6ab8 59bd c4b4 983c 71c1 013d
00000200: b240 12bd 808a 803d 041d 023d 6d52 e9bc
00000210: dfeb 563d 08ce 92bc 8bad 7f3d 1d95 da3c
00000220: 5324 a43d 29f8 263d 4e02 633d 6c75 403c
00000230: fd48 37be 34f6 c9bc a36c b73c dd13 dd3d
00000240: 2cac d4bd 2876 8fbc 1c3f 63bb 7c5d b23b
00000250: 593f 1abd f61a 8b3c f115 973a 1bad 693d
00000260: 46b7 0a3d e142 eb3d fa74 0a3e 4f81 093b
00000270: f163 133d 8a70 b63c 9e51 263e 4690 f33c
00000280: f565 25bc e3b4 a63d 1e9c 713e ba03 57bd
00000290: 3045 063d 817d db3d 1929 193e 070d ab3d
000002a0: 1030 003c a1af 49bc 5f6b c83d 0114 67bd
000002b0: e446 96bc aea0 a03c 016b 5e3d 1ee8 25bd
000002c0: 38d8 303b a19c f4bc 1715 dbbc a687 1dbd
000002d0: 6dea cebc 5087 163e cc3b 7abc 246a c73b
000002e0: 3bcb f8bb 94c4 183d 38df 843d 9b7c 0cbd
000002f0: c2ce dbba 4999 223d ce9a 8cbc 86e4 193d
00000300: 4d59 b33c 59a4 893d 11c8 10bb 0bb1 593d
00000310: f285 29be 34fb 93bd e606 373d 0be7 92bb
00000320: e4cd 8ebb baf3 b9bc 69d4 723d 0328 9d3c
00000330: 33fd aebc 707b 853d 880c c43d 329d 283d
00000340: 1fbc 33bd 5490 d5bc 7d1d 03be 98d6 b9bc
00000350: 60bd a03c 1f0e cd3d 0046 593d 61ea f13c
00000360: f1f3 983c 2860 bebb c7bd 533c bbcb ce3c
00000370: 1421 363d 6396 f9bc b1b1 d8bd 00de 063e
00000380: 033c 4d3d 8bc2 c0bc 9b35 b3bb 5985 d13d
00000390: 4bab 273d 2764 443d 3cfc 9f3d 64a8 4b3c
000003a0: fb94 ae3d ab87 ccbc 19e0 333d f504 f13c
000003b0: 8792 76bc 5152 08bc 8e26 583d 0c9b a2bc
000003c0: 9742 4cbd 3a76 8bbd 0217 943d 9734 df3d
000003d0: 1a6a 3f3d abc4 2e3c 73d5 f1bc ca81 88bc
000003e0: 00cf 56bd c512 d63c 8d85 d4bd c197 303d
000003f0: 72bc 39bd e5b8 10ba 5236 ae3d 2a60 4dbd

encoder_output_layer.bias f4 [128]
0.094877444 0.022407046 -0.057732936 0.055192735 0.01905426 0.062371194 -0.007420818 -0.004069794
0.055121917 0.06414655 0.016706085 -0.016911231 0.071736775 0.012111219 0.04219611 0.060902473
0.03846473 0.045450665 -0.01913299 -0.02767045 0.08636363 -0.07282599 0.095673904 0.01622552
0.0014885062 -0.024713045 0.036737714 0.040339142 0.093374744 -0.004597917 0.07402547 -0.014251126
0.029639825 0.029424943 0.09104135 -0.044355217 0.0066753733 -0.06068086 -0.0005484888 0.03459033
0.09705678 0.05626108 0.14738666 0.06414315 0.020316044 -0.029887285 -0.068161674 0.029149255
0.089732915 -0.027461657 0.043376923 -0.004294022 -0.052959744 0.044347577 -0.017332947 0.09156533
0.062631026 0.02808629 0.05832593 0.03484436 0.010925169 0.002132902 0.039096728 -0.019008808
0.076424174 0.05685595 -0.027280135 -0.054020785 -0.02848778 0.06302336 -0.07623918 0.05555672
0.020389171 0.121064976 0.03085538 -0.059976023 -0.0023914606 0.060217246 -0.048250183 -0.062889434
-0.035250165 0.029568104 0.022013409 -0.067182995 0.03408773 -0.012873258 0.059412222 -0.019834917
0.106509656 -0.022197325 0.07008902 -0.008398282 0.024717694 0.040432595 0.07259914 -0.059116915
0.060330927 -0.020016575 -0.004035741 -0.070412956 0.021577418 0.062368546 -0.047500502 -0.038574416
0.08496447 -0.03644894 0.082815275 0.09901552 -0.020398535 -0.019343015 -0.019655578 0.055570874
0.039168578 -0.03666045 -0.040000215 0.08873591 0.026449349 0.062319744 0.06978047 0.017257271
-0.043963652 0.026162313 -0.04297392 0.10103495 -0.003102112 -0.003898243 -0.0045431866 0.11305842
00000000: 1b4f c23d fb8e b73c 5f79 6cbd c711 623d
00000010: ae17 9c3c f078 7f3d 552a f3bb e85b 85bb
00000020: 85c7 613d 445f 833d 33db 883c 6c89 8abc
00000030: bbea 923d 226e 463c d4d5 2c3d df74 793d
00000040: 318d 1d3d 7a2a 3a3d cabc 9cbc 24ad e2bc
00000050: 6adf b03d cb25 95bd aef0 c33d 62eb 843c
00000060: fb19 c33a 0373 cabc 497a 163d a83a 253d
00000070: 423b bf3d 20aa 96bb aa9a 973d 8e7d 69bc
00000080: 38cf f23c 940c f13c e373 ba3d d1ad 35bd
00000090: 17bd da3b 7e8c 78bd 76c8 0fba 97ae 0d3d
000000a0: b4c5 c63d 0572 663d 87ec 163e 7c5d 833d
000000b0: d56d a63c 2ed6 f4bc 5998 8bbd 6bca ee3c
000000c0: e4c5 b73d 45f7 e0bc 00ac 313d deb4 8cbb
000000d0: 51ec 58bd cea5 353d d3fd 8dbc 9b86 bb3d
000000e0: b244 803d 3815 e63c 2ce7 6e3d f6b8 0e3d
000000f0: 7bff 323c 28c8 0b3b e423 203d 5cb8 9bbc
00000100: 4784 9c3d c9e1 683d 977a dfbc e644 5dbd
00000110: 345f e9bc 6412 813d 4a23 9cbd 718f 633d
00000120: 3107 a73c eaf0 f73d 6cc4 fc3c 6ba9 75bd
00000130: 0dba 1cbb 5ca6 763d fca1 45bd 2dcc 80bd
00000140: 7a62 10bd cf38 f23c 7755 b43c 3d97 89bd
00000150: 939f 0b3d 5cea 52bc 3b5a 733d d67c a2bc
00000160: bc21 da3d 2ad7 b5bc d58a 8f3d f398 09bc
00000170: c37c ca3c a69c 253d dcae 943d 9424 72bd
00000180: 901d 773d cdf9 a3bc 403e 84bb ab34 90bd
00000190: 20c3 b03c 2976 7f3d e38f 42bd 3500 1ebd
000001a0: da01 ae3d 7c4b 15bd 0e9b a93d a6c8 ca3d
000001b0: d41a a7bc 3e75 9ebc bc04 a1bc 499e 633d
000001c0: 3b6f 203d 4529 16bd 44d7 23bd 2cbb b53d
000001d0: 4eac d83c fd42 7f3d 10e9 8e3d 1f5f 8d3c
000001e0: 3b13 34bd 5952 d63c 6c05 30bd 69eb ce3d
000001f0: ce4c 4bbb aa79 7fbb 03df 94bb 2c8b e73d

decoder_hidden_layer.weight f4 [128, 128]
-0.083964035 -0.010043112 0.0059379786 0.024005815 0.11669966 -0.0011714668 -0.04968143 -0.01280477
0.025728898 -0.011610458 0.025236808 -0.037771434 -0.015353606 0.06393153 0.027317453 0.006343342
-0.05853175 0.024099959 -0.09334738 -0.062098663 0.076087944 -0.023917904 0.007372675 0.029233176
0.020870322 -0.06604158 -0.001115653 -0.10130202 0.02669499 -0.014135116 -0.033661366 0.07585877
0.03851905 0.036909897 -0.068169825 0.07285933 -0.06416901 -0.01857675 -0.016589517 0.06696849
0.0845925 0.01993554 -0.0018500445 -0.097659014 0.075603954 -0.03187947 0.11206699 -0.10062862
0.07071053 -0.032278713 0.047712773 0.027045 0.016611034 -0.055748444 -0.06146843 0.078421
0.050700624 0.062398665 0.0560812 0.043907758 -0.06559537 -0.032653414 0.06973125 0.023076896
-0.0013493893 0.020354949 0.037610654 0.07394109 0.024461042 -0.03663153 -0.010514377 -0.00086487166
0.08010833 0.06715014 -0.07157159 0.014250059 0.0024558802 -0.016160501 -0.023456464 0.022710752
0.029453516 -0.005852725 0.114083804 0.040440537 0.057786465 -0.02587146 -0.045628674 -0.08711717
0.07583626 0.068454094 -0.02409372 0.02692057 -0.0050012995 -0.026262918 -0.09761492 -0.03232964
-0.016566303 0.002967641 -0.03630922 -0.0073409155 -0.0028838213 0.021071868 -0.006996031 0.0015053573
0.010996222 0.05387966 0.047865093 -0.04603986 -0.074695535 0.009591693 -0.030798655 0.0011065467
-0.06547546 0.05567745 0.05112234 0.017850202 0.009815 0.0028758526 0.015219101 0.0034052678
0.10879754 0.010545028 0.04825132 -0.060798444 0.07514966 -0.06330607 0.00015507829 5.6006636e-05
0.010004044 0.05053469 0.029674811 -0.07949861 -0.022770954 0.049697176 0.011634241 0.07956375
0.0025565175 -0.07211261 0.071483046 0.0346519 -0.039280456 0.063253455 0.07794152 -0.04080353
0.052849382 0.0014258085 0.06739738 0.039786637 0.00548571 0.0008904271 0.0046490286 0.017179858
0.06430883 -0.027407227 -0.0035997143 -0.013476897 -0.0016527276 0.037190605 0.08682356 0.032763757
-0.06893028 -0.03376679 0.008830181 -0.08407167 0.051285893 -0.005312841 -0.034215536 0.016654996
0.050859626 -0.04024211 -0.11234125 0.022969747 0.06250903 0.08106372 -0.032806315 -0.027136844
-0.07511625 -0.016943473 -0.028480986 -0.07809678 0.052553322 0.049147204 -0.010755808 -0.021962859
0.008413276 0.084589094 0.06466756 -0.0659577 -0.0028961005 0.072573684 -0.043429404 0.070647955
0.049956147 0.07848673 0.0043250597 0.08342139 -0.06415027 0.011173743 -0.00537878 -0.026495976
0.070616335 0.009275354 0.05410931 0.083269335 -0.0021861924 0.04906168 -0.06057409 0.05715089
0.026590705 0.020172484 0.022058075 -0.024520336 0.08622746 -0.027038692 -0.026715424 -0.06492132
0.09305785 -0.123855814 0.06714521 0.01954142 0.010287864 -0.023204796 -0.05543057 0.0067898873
-0.028210387 -0.029103313 0.03358257 -0.07077933 0.011446495 -0.0666858 -0.05968646 0.08097919
-0.001392575 -0.03782413 0.034096263 -0.005216054 0.084005676 -0.08710493 -0.035931285 0.05036853
0.0845669 0.020131186 0.06898977 -0.0036226355 -0.09444046 0.061460223 -0.050987482 0.05408767
0.0016513511 -0.01730838 -0.055604514 0.03593977 0.053153228 0.0075209783 2.677407e-05 -0.054907396
00000000: 56f5 abbd dd8b 24bc 6093 c23b d8a7 c43c
00000010: 3b00 ef3d e78b 99ba c17e 4bbd 19cb 51bc
00000020: 69c5 d23c ca39 3ebc 6cbd ce3c 38b6 1abd
00000030: b18d 7bbc 89ee 823d dac8 df3c cfdb cf3b
00000040: fdbe 6fbd 476d c53c e92c bfbd 2b5b 7ebd
00000050: ffd3 9b3d 7bef c3bc 7b96 f13b 6a7a ef3c
00000060: 3df8 aa3c cf40 87bd 1a3b 92ba 6f77 cfbd
00000070: 74af da3c f996 67bc 80e0 09bd d85b 9b3d
00000080: 27c6 1d3d d52e 173d 9f9c 8bbd 4637 953d
00000090: 0b6b 83bd 452e 98bc bde6 87bc c726 893d
000000a0: d53e ad3d dc4f a33c 317d f2ba 7301 c8bd
000000b0: 3fd6 9a3d 0c94 02bd 6183 e53d 6116 cebd
000000c0: afd0 903d af36 04bd 786e 433d 7a8d dd3c
000000d0: dd13 883c 7b58 64bd 52c6 7bbd 309b a03d
000000e0: 75ab 4f3d be95 7f3d 66b5 653d 9fd8 333d
000000f0: de56 86bd 96bf 05bd 42cf 8e3d c20b bd3c
00000100: fedd b0ba 6cbf a63c a10d 1a3d 6d6e 973d
00000110: 8662 c83c f10a 16bd 7e44 2cbc 8eb8 62ba
00000120: d60f a43d 0386 893d 2094 92bd 1479 693c
00000130: d5f2 203b 0763 84bc c527 c0bc e60b ba3c
00000140: 8048 f13c 37c8 bfbb c5a4 e93d faa4 253d
00000150: 80b1 6c3d 62f0 d3bc 22e5 3abd 7d6a b2bd
00000160: 0b50 9b3d a931 8c3d 3160 c5bc 8788 dc3c
00000170: f1e1 a3bb 5525 d7bc 55ea c7bd 166c 04bd
00000180: 0eb6 87bc c17c 423b fab8 14bd 108c f0bb
00000190: 7efe 3cbb e99e ac3c f63e e5bb 694f c53a
000001a0: 7f29 343c ebb0 5c3d 300e 443d 4b94 3cbd
000001b0: f9f9 98bd 7a26 1d3c 764d fcbc 8c09 913a
000001c0: ff17 86bd 0a0e 643d a965 513d 963a 923c
000001d0: 18cf 203c cd78 3c3b 8959 793c ea2a 5f3b
000001e0: 3fd1 de3d 0ec5 2c3c 2da3 453d ca07 79bd
000001f0: 11e8 993d 9da6 81bd 839c 2239 abe8 6a38
00000200: 00e8 233c 77fd 4e3d 9718 f33c 2bd0 a2bd
00000210: 278a babc 448f 4b3d 8b9d 3e3c 52f2 a23d
00000220: 3f8b 273b c7af 93bd b465 923d 27ef 0d3d
00000230: 8be4 20bd 078b 813d ce9f 9f3d 9a21 27bd
00000240: 9878 583d 32e2 ba3a a307 8a3d 50f7 223d
00000250: 79c1 b33b 8d6b 693a e156 983b c6bc 8c3c
00000260: 59b4 833d 1f85 e0bc 2fe9 6bbb 34ce 5cbc
00000270: 56a0 d8ba 2d55 183d 8dd0 b13d 4a33 063d
00000280: 522b 8dbd 0c4f 0abd 77ac 103c c52d acbd
00000290: 2811 523d 5717 aebb 9725 0cbd 0f70 883c
000002a0: 2f52 503d e9d4 24bd 2b13 e6bd 0d2b bc3c
000002b0: bc04 803d bc04 a63d ea5f 06bd 164e debc
000002c0: 8cd6 99bd 0acd 8abc f550 e9bc 34f1 9fbd
000002d0: 2742 573d 944e 493d 2139 30bc 74eb b3bc
000002e0: d6d7 093c 0c3d ad3d 6d70 843d d514 87bd
000002f0: 81cc 3dbb 83a1 943d 08e3 31bd e0af 903d
00000300: d19e 4c3d a7bd a03d 3bb9 8d3b d5d8 aa3d
00000310: 3761 83bd 1312 373c 7a40 b0bb 170e d9bc
00000320: 4c9f 903d a8f7 173c b9a1 5d3d 1d89 aa3d
00000330: 3946 0fbb e6f4 483d 891c 78bd 0d17 6a3d
00000340: c0d4 d93c c440 a53c 23b3 b43c dfde c8bc
00000350: 0698 b03d 3f80 ddbc 4eda dabc 78f5 84bd
00000360: 1d95 be3d 1ea8 fdbd 6e83 893d 5415 a03c
00000370: 6e8e 283c fc17 bebc 2a0b 63bd b47d de3b
00000380: 7819 e7bc 126a eebc e08d 093d c1f4 90bd
00000390: 148a 3b3c 9192 88bd ca79 74bd 6bd8 a53d
000003a0: 1087 b6ba 7aed 1abd 86a8 0b3d 6feb aabb
000003b0: 2b0b ac3d 1264 b2bd af2c 13bd 3b4f 4e3d
000003c0: 6931 ad3d 28ea a43c 824a 8d3d bd69 6dbb
000003d0: 006a c1bd b7bd 7b3d 40d8 50bd 088b 5d3d
000003e0: 2672 d83a 4eca 8dbc 8fc1 63bd 9535 133d
000003f0: 33b7 593d 8a72 f63b e198 e037 94e6 60bd

decoder_hidden_layer.bias f4 [128]
-0.07263955 0.0033990548 -0.0029295227 0.028566806 0.0032869154 0.0038124747 -0.018868791 0.0632117
-0.022774678 0.08761075 0.055817805 -0.09981371 -0.06453932 0.008283933 0.0014699406 0.012061339
-0.037104383 0.0012270885 -0.049500745 -0.0059909294 0.0008725451 -0.00021252116 0.008164617 -0.005510902
0.017054152 0.104565606 -0.05151237 0.0014206673 0.114171684 0.09563669 0.11216433 -0.05878768
0.018287908 0.12107154 0.077254094 0.082156494 -0.039340436 0.05058962 0.020634979 0.0825604
-0.053795025 -0.07233607 0.033868626 0.08986761 0.0057604527 0.01803285 0.025321988 -0.034402978
0.021031499 0.029151885 0.0010666763 -0.017551616 0.05539138 0.01954492 -0.0061379457 0.00568491
0.10741311 0.04325829 -0.0016310147 -0.026761243 0.0008112625 0.0814578 0.0019614953 -0.061520882
0.038649067 0.037222262 0.08856095 0.04615551 -0.058962427 0.044631425 -0.05287134 0.031779893
0.059660114 -0.038856506 -0.035328634 0.06855689 -0.054546807 0.005549977 0.06516065 0.007320569
-0.021553503 -0.008065229 -1.2641202e-07 0.056638274 0.073276006 -0.05972792 -0.012581706 0.009243966
-0.02398789 -0.0068852813 -0.034959227 -0.010601547 -0.048032384 0.052193753 0.07354531 0.07935789
-0.05607049 -0.0029287683 0.020376137 -0.03434863 0.063228205 0.047162496 0.021578897 -0.06383676
0.046267353 0.01638906 0.011570766 -0.03361539 0.0047248313 -0.046587244 -0.028574409 -0.025030492
-0.04913028 -0.038061492 -0.047588464 -0.013814352 -0.0734428 -0.04059803 0.0075676343 0.03701826
0.07440269 -0.068992004 0.06878292 0.038067166 -0.027435247 0.008640276 -0.037475422 0.039875824
00000000: 0bc4 94bd adc2 5e3b 3cfd 3fbb ef04 ea3c
00000010: 4a69 573b b6da 793b b992 9abc 2375 813d
00000020: f691 babc 446d b33d 36a1 643d 216b ccbd
00000030: 312d 84bd 55b9 073c 06ab c03a ec9c 453c
00000040: c4fa 17bd 42d6 a03a 4bc1 4abd 8f4f c4bb
00000050: 83bb 643a 37d8 5eb9 e3c4 053c cc94 b4bb
00000060: 26b5 8b3c 7e26 d63d a3fe 52bd af35 ba3a
00000070: d8d2 e93d 2bdd c33d 6ab6 e53d 5acb 70bd
00000080: 86d0 953c 5bf4 f73d 6537 9e3d aa41 a83d
00000090: 7023 21bd 1037 4f3d b00a a93c 6d15 a93d
000000a0: 2c58 5cbd ef24 94bd d4b9 0a3d 820c b83d
000000b0: 2ec2 bc3b a1b9 933c 0f70 cf3c 23ea 0cbd
000000c0: 404a ac3c efcf ee3c b8cf 8b3a 68c8 8fbc
000000d0: 12e2 623d ab1c a03c d220 c9bb 7b48 ba3b
000000e0: 68fb db3d 9b2f 313d c6c7 d5ba 653a dbbc
000000f0: e8aa 543a 59d3 a63d 6e8c 003b 52fd 7bbd
00000100: 7c4e 1e3d 5f76 183d 715f b53d 8f0d 3d3d
00000110: 9682 71bd 71cf 363d 9e8f 58bd a22b 023d
00000120: 2a5e 743d 0028 1fbd c2b4 10bd 8e67 8c3d
00000130: 796c 5fbd 95dc b53b f272 853d 62e1 ef3b
00000140: f990 b0bc 0624 04bc dfbb 07b4 89fd 673d
00000150: bb11 963d 43a5 74bd 8023 4ebc 0174 173c
00000160: 4082 c4bc ed9d e1bb 6831 0fbd 1cb2 2dbc
00000170: 9bbd 44bd 1ec9 553d ec9e 963d 6486 a23d
00000180: 2caa 65bd 94f0 3fbb dbeb a63c 26b1 0cbd
00000190: ca7d 813d 762d 413d 3ac6 b03c d9bc 82bd
000001a0: d682 3d3d 5a42 863c 4f93 3d3c 4bb0 09bd
000001b0: c2d2 9a3b 44d2 3ebd e114 eabc bf0c cdbc
000001c0: d53c 49bd 5ee6 1bbd 1fec 42bd 9855 62bc
000001d0: 2e69 96bd 1f4a 26bd ebf9 f73b 76a0 173d
000001e0: 7060 983d ae4b 8dbd 0fde 8c3d 51ec 1b3d
000001f0: e2bf e0bc f28f 0d3c d47f 19bd d554 233d

decoder_output_layer.weight f4 [128, 128]
-1.3753725e-15 3.0128218e-09 -1.3295248e-18 -6.3543397e-09 -8.033415e-13 -6.59201e-12 -2.0303017e-09 -7.634868e-11
2.8847005e-09 -5.2590116e-05 7.0871525e-10 8.6667805e-11 -2.7677903e-15 -5.344059e-16 1.0139742e-09 -5.3847166e-10
-7.0084245e-09 2.6411016e-09 1.6201708e-09 -6.574376e-19 2.6613401e-08 1.3976335e-10 4.3754833e-10 -6.013737e-15
-2.9233314e-09 -5.319424e-11 -1.6454399e-12 1.7429628e-09 1.7640184e-09 3.86263e-10 1.8520194e-11 3.6029804e-16
1.5319949e-09 7.3926327e-07 -3.4489713e-09 3.6550313e-07 8.152497e-09 -2.4841578e-09 3.28786e-08 8.1413515e-10
-5.613555e-10 1.5157878e-14 -1.4443045e-10 -5.0387734e-09 -7.684321e-10 -2.4524024e-08 -1.0038826e-09 1.6356612e-09
2.2027018e-09 -7.712235e-07 -7.558338e-10 -3.1146274e-10 -6.3553802e-09 1.494961e-08 9.059328e-19 9.980335e-10
-1.2634382e-09 8.278617e-10 1.518671e-09 1.1164898e-12 5.397005e-09 -4.1215973e-08 -5.324152e-09 5.605955e-10
1.4789961e-08 -1.9575285e-07 1.6058689e-10 -1.2465592e-05 8.046221e-20 2.7939464e-08 7.6495766e-15 -6.8449457e-15
3.477844e-09 -4.7526023e-15 -5.8341156e-15 2.4592975e-07 5.9723404e-10 5.3666387e-09 1.1734327e-06 2.750836e-13
2.2313965e-11 -8.584559e-12 -9.2473273e-10 -1.03850484e-10 -1.3614452e-09 -2.9999074e-18 -5.0395736e-09 -8.637836e-09
4.9693147e-09 -2.4482902e-16 1.3547486e-09 -5.882627e-12 -5.935909e-10 7.9414525e-10 -4.675918e-10 1.0186506e-08
2.5576536e-09 -2.5485152e-09 -2.8466663e-14 -1.5434582e-08 7.8119206e-10 -1.6653643e-05 -6.77468e-08 -2.1908941e-14
-2.7845191e-08 8.847474e-09 2.8890823e-10 2.2413398e-11 1.1100542e-09 -1.2187029e-07 4.709503e-11 -6.0322955e-15
2.2560544e-11 2.6056741e-18 7.4810644e-15 -5.4167754e-11 2.8244156e-09 -2.370405e-11 8.995095e-14 -2.2539122e-09
-1.099618e-08 6.039513e-08 2.9347127e-08 2.9605117e-15 6.8995684e-20 6.3667355e-10 -1.4873382e-15 -2.7740497e-09
-0.054169495 0.05351932 -0.049584 0.031630352 0.023439078 -0.019910201 0.01098875 0.034757577
-0.033626534 -0.061997313 0.007156729 0.03560153 0.05203555 0.12080646 0.030038826 0.061745755
0.00469595 0.056029655 0.0023606254 0.0042648646 0.010858446 -0.00047942167 0.02402581 0.06885698
-0.055235814 0.042019676 0.0072228936 0.011376927 0.020045055 -0.030416306 -0.005648019 -0.07102685
-0.043627176 -0.018940646 0.019159064 0.036607414 0.109510906 0.023346966 -0.044019636 0.057167433
-0.017034134 -0.0112934075 0.02175062 0.038345836 -0.0253166 0.026944283 0.039720606 -0.009866005
-0.07630512 -0.018007228 -0.027357727 0.025356665 0.011813866 -0.08155454 0.008159882 0.07479256
0.0032842658 -0.013823974 -0.018185692 -0.0005480913 -0.06013321 0.012525355 -0.0019039857 0.05123337
-0.029150195 0.03206238 0.019415835 -0.0007519971 -0.049354453 0.06498349 -0.010022273 -0.0035405802
0.024235135 0.008109846 0.004408699 -0.016993277 0.06725119 -0.072766036 0.004681192 0.03751816
-0.038640846 -0.056632023 3.4712536e-07 0.028120214 0.011192586 -2.9724395e-17 -0.0064004892 0.01836567
0.017289648 0.0020939466 0.024818046 -0.029662602 -0.004777221 0.035930775 0.0044824686 -0.012539377
0.06336119 0.026713805 -0.020267839 0.010580551 -3.6114114e-05 -0.0076333373 -0.023665845 -0.044689275
-0.008139456 0.000784651 -0.01580097 0.013337492 -0.021781776 -0.05635014 0.030313648 0.01685912
0.0037463945 0.009120893 0.019109225 0.09685356 0.014767071 0.052933116 -0.01968957 -0.026359625
0.00290558 -0.007828884 -0.03859447 -0.028964657 -0.102170736 -0.0011016547 -0.021421608 0.039447602
00000000: 4a36 c6a6 1f0a 4f31 0734 c4a1 5d55 dab1
00000010: db1e 62ab 8cef e7ac 7285 0bb1 7ce4 a7ae
00000020: 303c 4631 3594 5cb8 67cf 4230 a395 be2e
00000030: b870 47a7 3208 1aa6 0c5c 8b30 9303 14b0
00000040: c1ce f0b1 c07e 3531 b1ac de30 950a 42a1
00000050: 7d9b e432 e3ab 192f 748b f02f efaa d8a7
00000060: cae3 48b1 64f3 69ae 3893 e7ab 0d8d ef30
00000070: e171 f230 af59 d42f c5e7 a22d 9bb2 cf25
00000080: 478e d230 c971 4635 f202 6db1 5e3a c434
00000090: 100f 0c32 c4b5 2ab1 6736 0d33 abc9 5f30
000000a0: e24d 1ab0 b087 8828 8fcd 1eaf 8521 adb1
000000b0: 9a39 53b0 e6a8 d2b2 fbf8 89b0 b6cd e030
000000c0: 575e 1731 1306 4fb5 13c3 4fb0 7c3a abaf
000000d0: 845e dab1 8a6a 8032 2cb1 8521 2f2b 8930
000000e0: 48a5 adb0 978f 6330 7cb9 d030 c921 9d2b
000000f0: 8f70 b931 7105 31b3 bcef b6b1 6718 1a30
00000100: f016 7e32 2230 52b4 3191 302f 4f23 51b7
00000110: 6cfc bd1f 88ff ef32 72cd 0928 7b9d f6a7
00000120: e1fe 6e31 053b aba7 3832 d2a7 5408 8434
00000130: 9c2a 2430 7465 b831 d77e 9d35 badb 9a2a
00000140: 9546 c42d 6b05 17ad 4830 7eb0 a05e e4ae
00000150: 981d bbb0 a65a 5da2 8f28 adb1 9b65 14b2
00000160: 8ebe aa31 6322 8da5 fb31 ba30 fef9 ceac
00000170: 3f2a 23b0 014b 5a30 d987 00b0 ba00 2f32
00000180: b8c2 2f31 f421 2fb1 d433 00a9 0195 84b2
00000190: 81bb 5630 6db3 8bb7 327c 91b3 9456 c5a8
000001a0: 3930 efb2 9aff 1732 38d4 9e2f 7c26 c52d
000001b0: 8f90 9830 73db 02b4 4a20 4f2e 1b56 d9a7
000001c0: d471 c62d cb43 4022 52c4 0628 783b 6eae
000001d0: a517 4231 c680 d0ad 318d ca29 3ee3 1ab1
000001e0: b6e9 3cb2 93b2 8133 0417 fc32 cd53 5527
000001f0: 55e9 a21f eb01 2f30 1859 d6a6 99a1 3eb1
00000200: d5e0 5dbd 1337 5b3d 9818 4bbd d48e 013d
00000210: 4f03 c03c b81a a3bc 280a 343c f65d 0e3d
00000220: fabb 09bd e5f0 7dbd ff82 ea3b e9d2 113d
00000230: 3b23 553d 6169 f73d fc13 f63c 1ee9 7c3d
00000240: 7ce0 993b 5a7f 653d b9b4 1a3b 47c0 8b3b
00000250: a0e7 313c e35a fbb9 c7d1 c43c e304 8d3d
00000260: f33e 62bd d31c 2c3d 06ae ec3b 4a66 3a3c
00000270: 8735 a43c 9e2b f9bc 0413 b9bb 8676 91bd
00000280: 69b2 32bd 6a29 9bbc 78f3 9c3c a8f1 153d
00000290: 4147 e03d 2342 bf3c ef4d 34bd 6628 6a3d
000002a0: 2b8b 8bbc fc07 39bc 5b2e b23c 8610 1d3d
000002b0: c264 cfbc 42ba dc3c 13b2 223d 06a5 21bc
000002c0: dc45 9cbd e583 93bc 501d e0bc c8b8 cf3c
000002d0: f28e 413c 1106 a7bd 07b1 053c d72c 993d
000002e0: d63c 573b f37d 62bc 29fa 94bc c9ad 0fba
000002f0: 3e4e 76bd 2637 4d3c 298f f9ba 15da 513d
00000300: 64cc eebc d853 033d f50d 9f3c ac21 45ba
00000310: e527 4abd 1016 853d 7634 24bc 1409 68bb
00000320: c388 c63c 29df 043c d976 903b 7c35 8bbc
00000330: feba 893d 5c06 95bd af64 993b a4ac 193d
00000340: dd45 1ebd fbf6 67bd 8c5c ba34 5d5c e63c
00000350: 1c61 373c 5f14 09a4 32bb d1bb 9a73 963c
00000360: 05a3 8d3c 983a 093b 374f cb3c fcfe f2bc
00000370: 3c8a 9cbb 262c 133d ace1 923b f671 4dbc
00000380: 83c3 813d e9d6 da3c bd08 a6bc 0c5a 2d3c
00000390: 3c79 17b8 1321 fabb e0de c1bc 1a0c 37bd
000003a0: 5a5b 05bc 0ab1 4d3a 0971 81bc 7f85 5a3c
000003b0: b26f b2bc 68cf 66bd 5454 f83c 231c 8a3c
000003c0: 1286 753b cc6f 153c f38a 9c3c 295b c63d
000003d0: 96f1 713c 65d0 583d 054c a1bc 24f0 d7bc
000003e0: 8b6b 3e3b b844 00bc 3c15 1ebd 4a47 edbc
000003f0: e43e d1bd 6665 90ba 5e7c afbc cf93 213d

decoder_output_layer.bias f4 [128]
2.1466938e-08 0.006850276 0.012627355 -0.01260726 -0.045753878 -0.0102390945 -0.001768429 -0.028688347
0.060454268 0.07399582 0.018282427 -0.027861448 0.04403986 0.09481126 0.0017680286 -0.0017790742
-0.0057774936 0.011790812 0.025894426 -0.019694548 0.0023590855 0.040101912 0.0096573625 -0.026259774
-0.03381674 -0.047983482 0.0547128 0.0052089076 0.022696665 -0.029398328 0.026122147 0.010092571
-0.027865384 0.03942833 0.009534264 0.005415026 0.037466194 0.0048947195 0.05128415 -0.010577911
-0.05778827 0.059445206 -0.046750188 -0.014467105 -0.039469644 0.04439021 -0.0031782365 0.06993596
0.016982235 0.07655673 0.020931462 0.04808211 -0.019753218 -0.038339265 -0.024646694 0.03538865
-0.00329838 -0.021136072 -0.024988547 0.014536129 0.011954935 -0.001743326 0.0037386385 0.02578913
0.016574189 -5.050107e-06 0.010129 -0.03339375 0.011830443 -0.0034671323 -0.0010630437 0.058161255
0.040922135 0.03033003 0.038055345 -0.058242317 -0.017472217 0.080456436 -0.050640497 0.0020204356
0.059200443 -0.048159298 -0.03704742 0.017008318 0.02215654 -0.009852184 -0.021653585 0.029863022
-0.0043029543 -0.032085076 0.029957373 -0.012067132 0.0010390305 -0.058983423 -0.026652535 0.03920304
0.0017815706 0.040209927 0.029996129 0.073443405 0.023838157 0.061876632 0.016899124 0.02594287
0.013399692 -0.024828417 0.0056310752 0.022389656 0.022155764 0.069374226 5.386228e-07 0.062358685
-0.02215962 1.7268835e-08 0.013013414 0.010613536 1.3454597e-09 0.028858604 -0.05720761 -0.018221496
0.035332266 -0.037122466 0.01953643 -0.0052333656 0.040345903 -0.044921648 -0.010829751 0.054376252
00000000: 4c66 b832 4878 e03b f7e2 4e3c ae8e 4ebc
00000010: 6b68 3bbd e0c1 27bc a1ca e7ba d303 ebbc
00000020: e59e 773d 1f8b 973d 07c5 953c b13d e4bc
00000030: 2463 343d 682c c23d 32bd e73a d32f e9ba
00000040: 2151 bdbb 402e 413c 8c20 d43c 7656 a1bc
00000050: e39a 1a3b e741 243d ea39 1e3c bd1e d7bc
00000060: 6c83 0abd 548a 44bd 871a 603d 7caf aa3b
00000070: 5bee b93c c3d4 f0bc 1dfe d53c 505b 253c
00000080: f245 e4bc 9a7f 213d 9a35 1c3c 8870 b13b
00000090: 2776 193d e263 a03b 540f 523d f94e 2dbc
000000a0: 65b3 6cbd d17c 733d 207d 3fbd 7007 6dbc
000000b0: ecaa 21bd 82d2 353d f649 50bb 963a 8f3d
000000c0: 541e 8b3c c6c9 9c3d 7578 ab3c bff1 443d
000000d0: 80d1 a1bc a209 1dbd dde7 c9bc b0f3 103d
000000e0: a229 58bb 8e25 adbc c8b4 ccbc f228 6e3c
000000f0: a2de 433c 5080 e4ba f203 753b ba43 d33c
00000100: 98c6 873c 1774 a9b6 1bf4 253c e3c7 08bd
00000110: 79d4 413c d438 63bb d455 8bba 7f3a 6e3d
00000120: f89d 273d af76 f83c ecdf 1b3d 7f8f 6ebd
00000130: e521 8fbc 58c6 a43d 696c 4fbd 4969 043b
00000140: 2a7c 723d af42 45bd 09bf 17bd 0755 8b3c
00000150: a281 b53c 0e6b 21bc dc62 b1bc 4ca3 f43c
00000160: ccff 8cbb a46b 03bd 2a69 f53c 38b5 45bc
00000170: 1430 883a 9a98 71bd 6b56 dabc 5e93 203d
00000180: 9783 e93a 2ab3 243d 71ba f53c 7f69 963d
00000190: 3d48 c33c 5a72 7d3d 0870 8a3c 2486 d43c
000001a0: 628a 5b3c f764 cbbc e284 b83b 836a b73c
000001b0: 0180 b53c 1314 8e3d e195 1035 d26b 7f3d
000001c0: 1788 b5bc 9256 9432 3736 553c 66e4 2d3c
000001d0: 28eb b830 e168 ec3c 8752 6abd 3f45 95bc
000001e0: 91b8 103d ba0d 18bd dd0a a03c a77c abbb
000001f0: bf41 253d c3ff 37bd 456f 31bc a2b9 5e3d
