results/milestone/programming tutorials/GCP/params/AE/params12.pt (torch_old, 265742 bytes, 8 tensors)

encoder_hidden_layer.weight f4 [128, 128]
000000 4d 33 84 3d b4 36 ef 3d c1 c2 66 bd 25 f8 83 bd
       0.06455097 0.11680356 -0.056338076 -0.06443814
000010 22 a4 7d 3d 0a e2 a4 bb 50 09 f1 bc 6b bd 74 bd
       0.061924107 -0.005031829 -0.029423386 -0.059750956
000020 9d 3d 0f 3d c3 0a cb bc b9 d5 b3 3d 43 2a 86 3c
       0.03497087 -0.024785405 0.08780999 0.016377574
000030 21 40 79 bd 3b 99 16 3d af 4d f2 bc 06 ea 33 bd
       -0.060852174 0.036767226 -0.029578058 -0.043924354
000040 a9 a7 8d bd 26 4e 4f 3d 4a 8a 72 3d ba 8a b5 3d
       -0.06916744 0.050611638 0.059213914 0.088643506
000050 2d 9a b9 3d b2 68 59 3c 90 13 8a 3d 78 a6 ce bc
       0.0906261 0.01326959 0.067420125 -0.025225863
000060 e4 af 8b bc cf 57 b7 3b d7 a6 42 3d 6c ab f9 bc
       -0.017051645 0.0055951844 0.047522392 -0.030477248
000070 10 4d 6f 3d ae 8f e7 bc 12 35 00 3d 61 40 80 3d
       0.058423102 -0.028266754 0.03130061 0.06262279
000080 93 6e 9d 3d f9 8b 48 bd db aa 19 3d 8d cf d1 3d
       0.07687106 -0.048961613 0.037516456 0.10244665
000090 03 fc 4d 3d c1 1f 95 3d 9f c9 8f 3d de fc c0 3d
       0.050289165 0.07281447 0.07020878 0.094232306
0000a0 bf 79 b6 3b 46 2b 60 3d c6 3c bc 3d 82 ad 0a bd
       0.0055687125 0.05472877 0.09191279 -0.033856876
0000b0 59 3d c7 3c 92 4e b0 bb 4b a1 28 bd bf 4c c1 bb
       0.024321245 -0.00538046 -0.041169446 -0.0058990414
0000c0 79 52 b2 3d fe b8 8e bc c9 98 0f bd bf 12 1a bc
       0.08707137 -0.017422196 -0.035057817 -0.0094038835
0000d0 65 97 86 bd 89 75 98 bc 4a b0 b1 bb bc 01 9b 3c
       -0.06571845 -0.018610733 -0.0054226266 0.018921725
0000e0 59 74 08 3b 62 f1 73 3d 08 92 01 bd 51 46 0a 3c
       0.0020821302 0.059556372 -0.031633407 0.008439616
0000f0 74 4b 76 bd 85 36 61 bd 51 93 5b bd 0e f5 e7 3c
       -0.06013055 -0.054983635 -0.05360729 0.028315093
000100 fa c8 1e 3d 6b a5 9b bd c7 33 80 bd 39 a6 2b 3d
       0.038765885 -0.0759991 -0.06259876 0.04190657
000110 c3 d6 c5 bb 57 ab 68 3d 6c 9e 34 bd ff 73 ca 3d
       -0.0060375645 0.056804027 -0.044096395 0.09885406
000120 14 02 65 bd fc 73 cf bc 19 60 a9 3d 41 fe e7 3a
       -0.055910185 -0.02532386 0.08270282 0.0017699675
000130 92 6f 9f 3d ed 29 e6 bc e8 fa 80 3c 01 3e a7 bc
       0.07784952 -0.028096164 0.015744641 -0.020415308
000140 b9 2e d6 bc 0f 7b 70 3a f9 3f b1 3d ea 78 81 bd
       -0.026145326 0.00091736106 0.0865478 -0.06321891
000150 37 14 39 3d 36 5f ac 3d 65 c2 ae 3d 2a 5a 36 bd
       0.045185294 0.084165975 0.085331716 -0.04451958
000160 30 a9 d1 3d a8 95 41 bb e1 12 64 3d 1a fd d7 ba
       0.10237348 -0.0029538665 0.055682067 -0.0016478628
000170 a0 cf 70 bd e4 a9 17 3d fe ee 9b 3d bb 61 5f 3c
       -0.058791757 0.037027255 0.076139435 0.013634141
000180 4d 87 84 bd ac e0 3c 3d 01 70 a2 3d 2d fc cb 3d
       -0.06471119 0.0461127 0.07931519 0.09960208
000190 00 7b ac 3d ad 6b cc 3c 01 da bb 3d 85 8c 3e bc
       0.08421898 0.024953688 0.0917244 -0.011630182
0001a0 14 78 5a bd fa 2e 6f 3c f3 e9 5b bd 35 3b ad 3c
       -0.05333717 0.014598602 -0.05368991 0.021146396
0001b0 3f a7 97 bc bc ef 89 bd 36 8c 55 3c 16 f7 08 bd
       -0.018512366 -0.06735179 0.013033917 -0.033438765
0001c0 a9 4e 84 3d 2d 0e bd bc 12 25 10 3d 21 d0 1d bd
       0.06460316 -0.023078049 0.035191603 -0.038528565
0001d0 56 b9 6e 3b cb ff 86 bc a3 2b 70 bd 39 93 9f bd
       0.0036426387 -0.016479393 -0.058635365 -0.07791752
0001e0 3e 9e 32 bc d2 eb b9 3c 88 26 60 bd f2 42 53 3d
       -0.010901986 0.022695456 -0.054724246 0.051577516
0001f0 d9 6e b7 3d 79 09 21 bd 4d 7a 5a bc 47 ba 1d bd
       0.089566894 -0.039315674 -0.013334823 -0.038507726
000200 fd 69 65 bd 3b c4 84 bd ae ac a4 3c 95 08 b1 bd
       -0.05600928 -0.064827405 0.020101871 -0.08644215
000210 bf 34 2e 3d ba 25 69 3d 9f dd 83 3d ad d8 4d 3c
       0.04253077 0.056920744 0.06438755 0.012563867
000220 9c 64 50 3d 5f b4 c5 3d 3b d1 08 bc ba df 2c 3c
       0.0508772 0.09653544 -0.008350666 0.010551387
000230 cd af eb bc 9e 9f 55 bd 69 74 f9 bd ed 1d 94 bd
       -0.028770352 -0.052154176 -0.121804066 -0.072322704
000240 cc e4 69 bd 08 b1 cb bd ab ef 9b bd ac 97 ec bd
       -0.057102963 -0.099458754 -0.076140724 -0.115523666
000250 39 e1 e1 bd 02 cc e2 bc f4 1e 86 bd 03 46 ab 3c
       -0.11029286 -0.02768517 -0.065488726 0.020907408
000260 ce 55 3d 3c da 5b ae 3c 3e 05 40 bd e7 fa 29 bd
       0.011556102 0.021284033 -0.04688 -0.041499045
000270 d7 eb 0f bc 6e cb 92 bc 5d d4 82 3b 1b 7d 0f bd
       -0.008784256 -0.017919268 0.003992601 -0.03503142
000280 53 7d 13 bc 4c ef 06 3d 56 d6 d2 3d df 4f 50 3d
       -0.009002048 0.032943055 0.102947876 0.05085742
000290 3d 9d fe 3d 22 9e a9 3d 52 f3 a8 3d 2d 32 cb 3d
       0.124323346 0.082821146 0.08249535 0.0992168
0002a0 b7 b9 50 3d f5 72 ae bc 0d eb 81 3b 92 e2 42 bc
       0.05095836 -0.02129505 0.003964788 -0.011894839
0002b0 fd 99 2c bd fd 5c 99 bd 2e 59 51 bc 71 8a e8 bc
       -0.042139042 -0.07488439 -0.01277761 -0.028386327
0002c0 50 c1 7a bd 39 d8 c8 3c 82 99 ca 3d 51 dd 13 3e
       -0.061219513 0.024517165 0.098925605 0.14439894
0002d0 d5 e0 05 3e f7 b4 3b 3d 94 36 ea 3d 3c 0c f3 3d
       0.13074048 0.04582688 0.11436191 0.11867568
0002e0 49 88 df 3d f4 d9 c6 3d 77 ea f0 3c 19 72 ef bc
       0.10914666 0.0970954 0.029408677 -0.02922921
0002f0 21 4f ef bd fe 99 c5 bd 42 ab 1c be 51 f5 56 be
       -0.116850145 -0.09648512 -0.15299705 -0.20992018
000300 fa da 4f bd fc ca e1 3c a0 d3 84 bc 14 47 9f bc
       -0.05074594 0.02756261 -0.016214192 -0.019443072
000310 b7 73 fc bb 63 c6 f5 ba 3f 1d 70 bd 28 98 81 bd
       -0.007704224 -0.001875114 -0.05862164 -0.063278496
000320 db 9f bf bd d6 cb 02 bd b8 b8 ab 3b 7c c3 8e 3c
       -0.09356662 -0.031932674 0.005240526 0.017427199
000330 2c 9e 0d 3d 3c 3b bc 3d 0d 3e 28 3d a9 ca 9e 3c
       0.034574673 0.091909856 0.0410748 0.019383745
000340 d0 48 1a bd 39 2f 3b bd 69 8d 0d 3d f0 5a a3 bc
       -0.037667096 -0.045699332 0.034558687 -0.019940823
000350 be d1 2d bd 88 c3 38 bd c8 88 95 bd 10 11 4b bd
       -0.042436354 -0.045108348 -0.073014796 -0.04957682
000360 4d 29 e4 ba d4 b7 92 bd d9 26 83 36 fa 41 10 ba
       -0.0017407328 -0.07163969 3.9086267e-06 -0.00055029953
000370 41 83 17 bd 25 61 4e bc 3a 63 b4 3c ac 1c 7a 3c
       -0.036990408 -0.012596403 0.022019971 0.015265625
000380 b7 17 b5 3d af 8d 68 ba b7 ec 87 bc 7a 61 ad ba
       0.08842414 -0.000887121 -0.016592367 -0.0013227903
000390 9b aa 31 bc 0a b8 d2 bb a6 22 3e bc 9f 4c 1b 3d
       -0.010843898 -0.0064306306 -0.0116049405 0.03791487
0003a0 ae 0c 10 bd 66 b8 d8 3c cf d9 58 3d 27 b7 73 bc
       -0.035168342 0.026455116 0.052942093 -0.01487521
0003b0 69 f2 25 3c 5a a5 3a 3a 69 e4 9b 3c c2 51 12 bd
       0.010128596 0.0007119976 0.019029813 -0.0357225
0003c0 a0 81 0b 3c a9 d2 e6 bc 72 4c 1c bd 63 b2 7d bc
       0.008514792 -0.028176622 -0.03815884 -0.015484425
0003d0 66 51 39 bd bd d6 78 bc ef 81 f1 bc d2 24 86 bc
       -0.045243643 -0.015187916 -0.029480902 -0.01637498
0003e0 66 99 4f bd ad 1f 84 bd 83 04 35 3b f7 ff a5 3c
       -0.0506834 -0.06451354 0.0027621097 0.020263655
0003f0 51 8c fc bc 27 04 b0 3c 8f 29 f6 bd 25 94 c5 bd
       -0.030828627 0.021486355 -0.120196454 -0.09647397

encoder_hidden_layer.bias f4 [128]
000000 a8 59 2d 3b 1c a7 22 3e 5b a4 8b 3d f3 da 00 bd
       0.0026451144 0.1588406 0.06818458 -0.031458806
000010 a6 12 81 bd 12 7c bd bc 67 15 03 3e 3c 32 c4 39
       -0.06302385 -0.02313045 0.12801133 0.0003742146
000020 a2 0d 3c bc e9 ad 02 bc 60 0e 0d bc a1 6f 73 bd
       -0.01147786 -0.007976034 -0.008609384 -0.05943263
000030 9b 11 eb 3d 48 26 8d 3d 25 88 8b bd a0 7c a4 3d
       0.11477967 0.06892067 -0.06813077 0.08031583
000040 a9 b6 43 3e 77 e9 83 3d 5d aa 01 3d b0 5d 6d 3d
       0.19112648 0.06441014 0.03165661 0.057950675
000050 b6 92 9e 3d 43 ae 96 3d 75 a1 32 3e 73 04 ab 3d
       0.07742827 0.073574565 0.17444403 0.08350458
000060 64 dd aa 3b 1d c6 8e 3e 58 43 63 3d 22 62 9b 3d
       0.00521438 0.27885523 0.055484146 0.07587077
000070 8a 1a 8e 3e 6a e7 aa 3d 1f 50 91 3d 09 bb f0 ba
       0.27754623 0.0834492 0.0709536 -0.0018366288
000080 d7 3d cc 3d b2 cb 3e b7 dc 6d b1 3d ed 59 44 3c
       0.099727325 -1.1372309e-05 0.08663532 0.011984331
000090 9f b7 bc 3d 79 35 f7 3d 5b 7b 34 3e 6f 67 6c 3e
       0.092147104 0.12070746 0.17625181 0.23086332
0000a0 18 4f 3e 3e 8d e0 bc 3d 19 34 50 bc ba 1c 52 3d
       0.1858486 0.09222517 -0.012707734 0.051296927
0000b0 d5 9b e7 3d d2 20 1f 3d af f5 7a 3e d9 de c8 bc
       0.113090195 0.03884966 0.24507783 -0.024520325
0000c0 bd 2e f4 3d 87 a7 fa 3d 3d 39 ca 3c d3 8e 31 3d
       0.11922977 0.122389846 0.024685496 0.0433491
0000d0 22 b0 07 3e e3 ca f8 3d 4e 6c 05 3e 1d c1 fa 3d
       0.13250783 0.121480726 0.13029596 0.12243865
0000e0 48 1c 34 3d b8 e6 96 3e dc 8e 6d 3d c8 bf 6a 3a
       0.043972284 0.294729 0.05799757 0.0008954969
0000f0 d0 0b 82 3e 1b ac 98 3d 9c 4e ca 3c fa f7 16 3d
       0.25399637 0.074547015 0.024695687 0.036857583
000100 6b 80 15 3e c8 11 8d 3d c7 1f 34 bd c8 35 bf 3c
       0.14599769 0.06888157 -0.043975618 0.023341075
000110 2a 58 76 3e 90 3e 32 3e 2a d0 6f 3e eb 7e 78 3d
       0.2405707 0.17406678 0.23419252 0.060667913
000120 ba df 87 bd d1 e5 0b 3e 6b ca f9 3c fe 13 d3 3d
       -0.06634469 0.13661887 0.030492028 0.103065476
000130 00 7b ce 3c fc 6b 06 3d 8f 2a 11 3e d9 12 29 3d
       0.025205135 0.032817826 0.14176391 0.04127774
000140 c3 5f 58 3d d1 fc b7 3d 36 1b 15 3e f0 c0 eb bc
       0.0528257 0.08983768 0.14561161 -0.028778523
000150 e5 d3 07 3d c0 d6 48 3e b8 1a 78 bc 61 b0 5f 3e
       0.033161063 0.1961317 -0.015143089 0.21844627
000160 52 be 9b 3d 6f 0f dd 3d 93 39 da 3d b6 46 88 3c
       0.0760466 0.10793959 0.10655513 0.01663528
000170 c9 37 bb 3d ff c1 a8 3d 25 e3 02 3e 8f db 54 3c
       0.091414995 0.08240127 0.12781961 0.0129918
000180 2b 57 14 3e 89 f7 db 3c 7c b4 b8 3d 82 8b 78 3e
       0.14486377 0.026851432 0.090188 0.24271968
000190 88 2b 95 3d e1 85 d8 3c c8 22 0c 3e d7 a1 6b bd
       0.072836936 0.026431026 0.13685143 -0.05752739
0001a0 83 4a 5b 3d 90 36 0e 3e 0c 4a b0 bb a1 a6 ce 3d
       0.053537857 0.13888001 -0.005379921 0.10090376
0001b0 dc 5e ac 3d 42 ed b6 3d da da e5 3d 39 3e 3f 3d
       0.084165305 0.08931972 0.11223383 0.0466902
0001c0 96 df 4f 3d d5 7e a0 3d ff 9e 89 3e 63 0e 75 bd
       0.050750338 0.07836691 0.26879117 -0.059828173
0001d0 05 92 d1 bc 40 1a 46 3e 68 d2 3f 3d 37 c7 a6 3d
       -0.025582323 0.19345951 0.04683152 0.08143466
0001e0 72 9d ee 3d b7 a0 90 3c 23 3a c0 3d 34 17 c6 3d
       0.11651124 0.01765476 0.09386089 0.096723944
0001f0 bc 53 7a 3d 1b f8 de 3b 00 f6 06 3e 18 f9 bf 3d
       0.06111501 0.006804479 0.13179779 0.09373683

encoder_output_layer.weight f4 [128, 128]
000000 e5 89 27 bd 29 4c 01 3c 66 ed a2 bd d8 15 ef 3c
       -0.04090299 0.007891693 -0.079554364 0.02918522
000010 26 ac 4b 3d a8 f4 8b 3c 4f c7 dc 3d 3c 19 84 3d
       0.04972472 0.017084435 0.107802026 0.064501256
000020 91 d7 ae bd 62 36 13 bd 2a 0c c3 bb b4 9d 8a bd
       -0.0853721 -0.035940535 -0.005952378 -0.06768361
000030 86 d9 5f 3d cd 5a 78 3c 61 7a a2 bd fc 65 f4 3c
       0.054650806 0.015158367 -0.07933498 0.029833786
000040 71 5b 93 3d bb 93 bd bc 65 96 a1 bb 29 c1 6a 3d
       0.071951754 -0.023141732 -0.0049312585 0.057313118
000050 ff a1 96 3d 58 b9 29 bd a1 fc d5 bc 1a 4a b5 3c
       0.07355117 -0.041436523 -0.02612144 0.022130061
000060 79 da 8b bd d4 bc 37 3e 41 aa 8f bc 47 7e 9f bc
       -0.0682878 0.17943126 -0.017537238 -0.019469393
000070 f9 c9 3b bc 7a 08 78 3b 5e 56 81 3d 44 ac 81 38
       -0.011461728 0.003784685 0.06315301 6.183286e-05
000080 a1 c4 c3 bd 4d 00 3a bd 1c 00 2c 3d e3 94 a3 3d
       -0.09558988 -0.045410443 0.04199229 0.07987382
000090 c0 6d 9b 3d 42 a2 81 3c e8 66 c9 3d 67 aa 60 3d
       0.075892925 0.01582444 0.09834081 0.05485001
0000a0 31 d6 e2 3d 20 f0 83 bc ba d6 82 bb a6 31 9d 3d
       0.1107601 -0.016105711 -0.0039928826 0.07675485
0000b0 08 10 a6 3d 0d 82 f6 3c 9f cb 78 bc 29 9c 0f bd
       0.081085265 0.03009131 -0.015185266 -0.035061035
0000c0 ea 89 b8 3d b5 06 4b 3d c3 c8 83 bc 94 84 70 3d
       0.0901068 0.049566943 -0.016086942 0.058720186
0000d0 47 e2 be bb a5 15 38 3d 6f 56 3b 3d 33 ef 93 3c
       -0.005825314 0.044942517 0.045736726 0.018058395
0000e0 5f c9 db bd b8 62 de bd 89 2a 22 bd 29 61 e6 bc
       -0.10731768 -0.10858673 -0.039591346 -0.028122501
0000f0 75 b9 5f 3d e5 2d 9d 3d 5b be 3c 3d 69 c4 7c 3d
       0.054620225 0.07674769 0.046079975 0.06171075
000100 98 9b b1 bb 0c f6 0a bb 6d d3 6a 3d c7 80 b6 3d
       -0.0054201595 -0.0021203784 0.057330538 0.08911281
000110 78 58 f4 3d 9a 3c 64 3d dc 0b 1c 3b a0 42 36 3d
       0.119309366 0.055721857 0.002381078 0.044497132
000120 b9 b6 69 bd 9e f2 c9 bc b1 47 dc 3c 93 67 9e 3d
       -0.057059024 -0.024651822 0.026889654 0.07734599
000130 48 8a f9 3c 7b d2 81 bd c3 84 98 bd e6 a1 aa 3c
       0.030461445 -0.06338974 -0.07447197 0.020829152
000140 2b d3 81 3d 0f 49 1b bd 23 39 3f 3d ce 41 39 3d
       0.06339105 -0.03791147 0.04668535 0.045228772
000150 c5 60 fa 3c d9 eb 8a 3d 8a 38 03 3a ce b7 36 bd
       0.030563721 0.067832656 0.00050056784 -0.044608884
000160 bf b1 a4 bd e9 aa 67 bd bc 20 2f 3d e8 87 03 3c
       -0.08041715 -0.056559477 0.042755827 0.008028008
000170 eb d9 e1 bc 9b a7 80 bd 50 70 9e bb 45 3d d0 3d
       -0.027569732 -0.06281968 -0.004835166 0.10167936
000180 19 2d 7c bd 6c d8 d6 3d b2 86 e1 bc 72 a5 98 bc
       -0.061566446 0.10490498 -0.027530048 -0.018633578
000190 ed bb 48 3d 8f ed 3e 3c fd 8e a5 3c de b6 65 3d
       0.049007345 0.011653318 0.020209784 0.0560826
0001a0 57 31 61 3d 6a ca f5 3c 08 17 b8 3c 7e ce 07 3d
       0.054978695 0.030003745 0.02247192 0.03315591
0001b0 7a 65 61 bd 3e 7a 1e 3d 6d 82 ca 3d 87 73 89 bd
       -0.055028416 0.038690798 0.09888158 -0.06711488
0001c0 bf 30 8f ba d3 e3 4c 3d 57 3a 9b 3d f6 4e 0a 3d
       -0.0010924562 0.050021958 0.07579487 0.03376671
0001d0 83 a5 94 bc 96 31 a1 bd 83 0c 91 bd 5b 79 69 3d
       -0.018145328 -0.07870786 -0.070824645 0.0570005
0001e0 2c 4b f4 bc 38 5c 11 bd 89 a0 e4 bc 25 78 c9 3d
       -0.029821001 -0.035488337 -0.02790858 0.09837369
0001f0 d0 90 27 bd 9a 94 41 bd be b9 cd 3c 49 6a 06 3d
       -0.04090959 -0.047260858 0.025112983 0.032816205
000200 2c cf 31 bd 3e cd 75 3d 3c f6 dc 3c 5e fa e4 bc
       -0.043410465 0.060010187 0.026972882 -0.027951416
000210 73 f2 55 3d fb 7e aa bc e6 29 9e 3d 99 52 f8 3c
       0.05223317 -0.020812502 0.07722835 0.030312823
000220 79 9f 9d 3d 0d e8 22 3d 96 a0 67 3d b1 c2 5e 3c
       0.076964326 0.039772082 0.05654963 0.013596223
000230 2c 2c 38 be 6f 4c 39 bd dc 79 ae 3c 31 9d b5 3d
       -0.179856 -0.04523891 0.021298341 0.088678725
000240 ea 4d aa bd 13 e2 ac bc 29 b0 9a 3c 89 db ef bc
       -0.08315642 -0.021103894 0.018882828 -0.029279487
000250 86 5b 07 bd b2 70 48 3c c1 f5 7e 3c 3d 6b 3f 3d
       -0.033046268 0.0122339 0.015561522 0.04673313
000260 ad e4 5f 3d 8d 99 ae 3d 06 57 07 3e 5f c3 a1 ba
       0.05466144 0.08525381 0.1321679 -0.001234155
000270 77 c7 25 3d 12 67 40 3d de 07 20 3e 25 83 19 3d
       0.040473428 0.046973296 0.15628001 0.037478585
000280 40 be 51 bc 5e 52 96 3d 81 ac 5f 3e b4 34 69 bd
       -0.012801707 0.07339929 0.21843149 -0.056935027
000290 be f6 c9 3c 0d 1b ac 3d 8f 13 14 3e fa bd 58 3d
       0.024653789 0.08403597 0.14460586 0.05291555
0002a0 c0 7b 3c bb 2a bc 5a bd 38 ff d4 3d c2 de 72 bd
       -0.0028760284 -0.053402103 0.104002416 -0.05929447
0002b0 b8 13 86 bd 14 12 af 3c 35 77 c6 3d 7d ba 2e bd
       -0.0654673 0.021370925 0.09690706 -0.042658318
0002c0 0e 7a 15 ba 36 cb 81 bd 74 87 f8 bc 99 7a 30 bd
       -0.00057020865 -0.063375875 -0.030338027 -0.04308567
0002d0 94 30 fd bc f3 c5 09 3e ce cd 4b bc 46 9b 1c 3c
       -0.030906953 0.13454418 -0.012439204 0.009558504
0002e0 16 11 4f bc 47 2d da 3c 9e 19 7e 3d 36 3f 0b bd
       -0.012638351 0.026632918 0.06203615 -0.03399583
0002f0 1f 0b 71 3d 1d 90 19 3d 27 40 96 bc 6f a8 16 3d
       0.058848497 0.037490953 -0.018341137 0.036781725
000300 7e 78 76 3b ad ea 84 3d b8 54 8c bb 5f 13 4e 3d
       0.003760844 0.06490073 -0.00428256 0.050311442
000310 55 75 29 be 40 76 cd bd 29 8f 33 3d ce 4e 46 bc
       -0.16548665 -0.1003232 0.0438377 -0.012103749
000320 3f 1e b4 bb 7b cb aa bc 25 d9 7c 3d 99 58 86 3c
       -0.0054967697 -0.02084898 0.061730523 0.016399669
000330 4a d1 1f bd 87 9c 94 3d ec c7 5c 3d 1d 44 48 3d
       -0.039017953 0.07256418 0.053901598 0.048893083
000340 c1 01 3e bd 88 69 d9 bc 1b e4 0c be e2 80 e3 bc
       -0.04638839 -0.026539579 -0.1375889 -0.027771417
000350 a5 25 92 3c dc 11 cb 3d cd eb cf 3c b6 f9 e3 3c
       0.017840216 0.09915516 0.025380993 0.027829032
000360 21 33 91 3c b3 1a 95 ba e1 b7 24 3c b7 29 08 bc
       0.017724575 -0.0011375755 0.010053606 -0.008310727
000370 7d 5d 29 3d 97 af f9 bc e1 ae cb bd 04 a6 f2 3d
       0.041348923 -0.030479236 -0.09945465 0.11848071
000380 f1 22 50 3d 27 66 04 bd 57 bd a0 bb 18 20 f4 3d
       0.050814573 -0.032323983 -0.0049053836 0.11920184
000390 73 2f 27 3d 01 7d 22 3d 93 7d ec 3d bd 9e 36 3c
       0.040816735 0.039669994 0.11547389 0.011146245
0003a0 f1 6c bf 3d fe 3f c2 bc c4 f8 3a 3d 9a c6 c3 3c
       0.09346951 -0.023712154 0.045647398 0.023898412
0003b0 61 e6 7f bc 3b f2 96 3c de d9 a5 3d 84 11 9f bc
       -0.015618891 0.018426051 0.080981955 -0.019417532
0003c0 45 26 5c bd 70 7b 7d bd b6 bd ac 3d 7d a4 e0 3d
       -0.053747434 -0.061885297 0.08434622 0.10968874
0003d0 c1 5d 45 3d 45 16 de 3b b6 92 14 bd 77 f5 8a bc
       0.048185114 0.006777557 -0.036272727 -0.01696275
0003e0 88 f3 3d bd 33 87 ad 3c 8f 55 e1 bd d3 a9 7f 3d
       -0.046374828 0.021182632 -0.11002647 0.062417816
0003f0 55 bd 38 bd 9d d9 ae bb 43 d3 a6 3d 4a 9f 56 bd
       -0.045102436 -0.005336 0.08145764 -0.052398004

encoder_output_layer.bias f4 [128]
000000 12 43 cb 3d 30 23 af 3c d0 42 7a bd f5 06 78 3d
       0.09924902 0.021379083 -0.061098874 0.06055351
000010 b5 68 6f 3c 97 6e 7d 3d 31 e4 a5 3c ad 33 ea bb
       0.014612366 0.061873045 0.020250412 -0.0071472735
000020 78 3c 66 3d d1 f8 6e 3d 51 cd 9f 3c 66 33 96 bc
       0.05621001 0.05834276 0.019507082 -0.018335056
000030 d8 07 ac 3d b3 35 2c 3c 8d 5a 34 3d 0a 63 54 3d
       0.083999336 0.01051085 0.04403167 0.051852264
000040 b5 80 49 3d 83 12 5b 3d 38 fa 7f bc 2d ea cd bc
       0.04919501 0.05348445 -0.015623622 -0.025136078
000050 d6 f2 b3 3d 79 07 9d bd 4b 5a ce 3d d7 a5 9a 3c
       0.08786552 -0.07667441 0.10075816 0.018877907
000060 11 ca 3b 3b 6f fb 87 3b 34 71 0c 3d 5b 5d 22 3d
       0.0028654377 0.0041498463 0.034287646 0.039639812
000070 ea 96 cf 3d 9f 12 d4 bb c3 2f a1 3d b8 92 22 bc
       0.101362064 -0.0064719464 0.07870438 -0.009922676
000080 23 c0 05 3d e4 91 01 3d 71 ca bc 3d f6 f4 32 bd
       0.03265394 0.031633273 0.092183 -0.043690644
000090 31 67 89 3b 1f 42 84 bd 59 b1 5b 38 5d 65 08 3d
       0.0041932096 -0.06457924 5.2378837e-05 0.033299793
0000a0 5a f2 b9 3d 70 cb 59 3d 00 46 18 3e d5 18 83 3d
       0.09079428 0.05317253 0.14870453 0.06401221
0000b0 84 95 88 3c d5 72 ae bc 60 80 9a bd 15 e0 06 3d
       0.016672857 -0.02129499 -0.07544017 0.032928545
0000c0 0b 46 b2 3d bc f6 a1 3b 2d 15 25 3d 78 c4 42 bb
       0.08704766 0.004942743 0.040303398 -0.0029719155
0000d0 3f 79 54 bd 74 70 3a 3d 4c b4 ac bb 5a 4f ad 3d
       -0.05187344 0.0455174 -0.0052705165 0.08462401
0000e0 10 be 88 3d 5d 60 c6 3c 07 fa 68 3d 2c af 15 3d
       0.066768765 0.024215871 0.05687907 0.03654401
0000f0 8d 36 ba 3c cb 77 19 3a ac ce 14 3d 5d 59 76 bc
       0.02273109 0.00058543374 0.03632991 -0.015035954
000100 25 6f 97 3d d6 68 6c 3d b0 3d a3 bc a6 24 5a bd
       0.07394246 0.057717167 -0.019926876 -0.053257607
000110 05 dd 00 bd 9f 76 85 3d 0d 6f b2 bd 76 5a 61 3d
       -0.03146078 0.06516766 -0.087125875 0.05501791
000120 9f f1 f5 3c 86 57 00 3e 6c d9 f0 3c 1e 35 77 bd
       0.03002244 0.12533388 0.02940055 -0.06035339
000130 17 eb a5 ba 9b c6 5c 3d d7 19 33 bd 65 1a 78 bd
       -0.0012658563 0.053900342 -0.043725815 -0.060572047
000140 c5 94 11 bd 09 d3 d4 3c 9e 4b 01 3d b3 71 8d bd
       -0.03554227 0.025979536 0.031566255 -0.06906452
000150 8d 68 0a 3d 45 93 84 bc 8b 3d 84 3d ce e6 91 bc
       0.033791114 -0.016183505 0.06457051 -0.017810252
000160 4b 95 e6 3d 6c e9 bf bc 77 2b 85 3d 8a 46 ef bb
       0.11258944 -0.023426734 0.06502431 -0.00730211
000170 ac 6b a1 3d 9e 96 e6 3c 92 71 96 3d 62 a1 7c bd
       0.07881865 0.028147992 0.073458806 -0.061677344
000180 1b 55 7e 3d e0 a3 0e bc 84 80 27 3b 14 bc 7b bd
       0.06209288 -0.008706063 0.002555878 -0.061458662
000190 17 7b 25 3d 09 7a 79 3d 85 7b 36 bd 1e 22 c2 bc
       0.04040059 0.060907397 -0.04455139 -0.023697909
0001a0 50 ee b7 3d 79 f5 1b bd 95 cc a5 3d 28 83 cd 3d
       0.089810014 -0.038075898 0.080956616 0.10034782
0001b0 1d ae a2 bc 52 19 a5 bc 3e 8b a9 bc 58 8f 5d 3d
       -0.019858414 -0.020153675 -0.020696279 0.05409178
0001c0 53 c1 32 3d dc 49 1f bd f2 c1 24 bd 90 98 bf 3d
       0.0436414 -0.038888797 -0.040224023 0.09355271
0001d0 d6 c0 ea 3c a8 70 73 3d 7d 50 90 3d 8f 3e d6 3c
       0.028656404 0.05943361 0.07046602 0.026152877
0001e0 bf 2b 35 bd 36 0c cd 3c 6c 39 20 bd 8e 3a d1 3d
       -0.044231173 0.025030237 -0.03911726 0.102162465
0001f0 21 03 d8 bb a6 6c ac bb e3 18 ab b1 97 fb e8 3d
       -0.00659217 -0.0052619753 -4.9795843e-09 0.11376112

decoder_hidden_layer.weight f4 [128, 128]
000000 45 37 a1 bd de 58 ec bb dd a6 c6 3b ad 4e c2 3c
       -0.0787187 -0.007212742 0.006062372 0.023719156
000010 f6 cb f4 3d 81 9c be ba 87 6b ae bd fa 33 76 bc
       0.11952965 -0.0014542491 -0.08516603 -0.015027041
000020 52 4a ab 3c 2d 8f 5d bc 2e 9c 15 3d 15 cd 19 bd
       0.020909462 -0.013522905 0.036525898 -0.037549097
000030 9e e4 16 bc ac ef 85 3d 68 1b ff 3c 95 0b 6b 3c
       -0.00920978 0.065398544 0.031140998 0.014346023
000040 c5 a0 72 bd 6a 00 cc 3c 2b a2 b7 bd df be 51 bd
       -0.059235353 0.024902541 -0.08966478 -0.05120742
000050 c3 99 a2 3d 85 92 ce bc c9 21 0a 3c 06 ab d8 3c
       0.07939484 -0.02521635 0.008430907 0.026448738
000060 66 17 99 3c 1a 95 d0 bd 0b e5 95 bb 29 4b c9 bd
       0.018687915 -0.10184689 -0.004574423 -0.09828789
000070 d0 9c ef 3c 6c 64 5d bc 9b 46 f4 bc 63 07 99 3d
       0.029249579 -0.013512712 -0.029818824 0.07472112
000080 0e 80 2a 3d 6e 2a 11 3d fe af 8d bd d7 e3 a5 3d
       0.04162603 0.035440855 -0.069183335 0.081000976
000090 b8 19 82 bd e5 b3 8c bc 80 b8 86 bc d1 fd 89 3d
       -0.06352562 -0.017175624 -0.016445398 0.06737865
0000a0 ad 0a b1 3d 4a b9 4f bb d6 68 e2 ba 9b 47 bf bd
       0.08644614 -0.0031696134 -0.0017273675 -0.093398295
0000b0 99 fd 9f 3d 3b 75 e6 bc e2 47 e6 3d ce 78 c1 bd
       0.07812042 -0.028132072 0.11244179 -0.0944687
0000c0 3f 1e 90 3d de 27 66 bd ea a0 3e 3d d1 55 f3 3c
       0.07037019 -0.056190364 0.04654018 0.029704006
0000d0 df ae 97 3c 08 9f db bc 3c dd 75 bd ed c6 bf 3d
       0.018516002 -0.02680923 -0.06002544 0.09364114
0000e0 c4 6d 58 3d 95 e9 82 3d 9b 6b 60 3d 55 30 2b 3d
       0.052839056 0.063922085 0.05479012 0.04179414
0000f0 2d f9 88 bd ee fd 06 bd fd 90 8e 3d ec 3b d0 3c
       -0.066881515 -0.03295701 0.06961248 0.025419198
000100 d2 56 84 bb 44 bc 96 3c 0b b5 13 3d 60 22 9d 3d
       -0.00403867 0.018400319 0.036061328 0.07672572
000110 fb 94 c1 3c 5c 3c 22 bd ad 76 f9 3b d6 51 f3 3a
       0.02363061 -0.039608344 0.007613024 0.0018563818
000120 6e 15 ad 3d 82 c4 91 3d f6 11 92 bd ee 5f 85 3c
       0.08451353 0.07117559 -0.07132332 0.016281094
000130 86 88 99 bc 93 e0 c2 bc 49 97 b1 bc 71 0b 03 3d
       -0.018741857 -0.023788726 -0.021678584 0.031993333
000140 b5 b3 06 3d b8 73 b8 bb 03 97 fc 3d 9b 68 1f 3d
       0.032886226 -0.005629029 0.12333491 0.03891812
000150 86 c9 5c 3d 18 36 cf bc d4 14 3e bd eb 15 a0 bd
       0.053903125 -0.025294349 -0.046406582 -0.078166805
000160 c2 2f a0 3d 02 48 8b 3d 40 29 ca bc 20 6f fb 3c
       0.07821609 0.06800844 -0.024677873 0.030692637
000170 60 58 7b bc 31 9f 9d bc d5 05 c8 bd 63 4f 01 bd
       -0.015340894 -0.019240947 -0.09766737 -0.03156985
000180 94 87 85 bc a6 ec f6 ba 99 5e 18 bd 79 47 fd bb
       -0.0163 -0.0018838837 -0.03719959 -0.0077294675
000190 1e 5a 11 3b 1e 7c 85 3c ff 50 11 bc e7 bd 86 3b
       0.0022178958 0.016294535 -0.008869409 0.0041119936
0001a0 b7 15 d0 3b 25 76 56 3d ab 05 43 3d 5f 15 40 bd
       0.006350245 0.052358765 0.047612827 -0.04689538
0001b0 ba 54 97 bd 4a 2a 29 3c ac d5 01 bd c1 69 82 3b
       -0.07389207 0.010325024 -0.031697914 0.003979892
0001c0 d3 f3 85 bd 58 0d 5f 3d a8 ae 4b 3d aa 56 6c 3c
       -0.065406464 0.054456085 0.049727112 0.014424959
0001d0 4d 15 2d 3c db 5e 36 3c e7 7c 25 3c 67 dc f2 3b
       0.0105641605 0.011131014 0.01010058 0.007411528
0001e0 d7 15 ea 3d 74 e5 45 3c b7 d2 47 3d 59 0b 80 bd
       0.11429947 0.012078632 0.048784938 -0.062521644
0001f0 0e d9 96 3d fb eb 80 bd 54 1e 20 ac bf 4d f1 38
       0.07365619 -0.0629501 -2.2754203e-12 0.00011506257
000200 49 75 a2 3c d7 76 3e 3d d5 59 23 3d 0c 22 a4 bd
       0.019831317 0.046500053 0.039880592 -0.080143064
000210 fc 9d a2 bc 63 9c 44 3d b2 9d b1 3b 00 d5 9e 3d
       -0.019850723 0.048000704 0.00542041 0.0775547
000220 20 ce f0 b9 e6 ce 89 bd 5a 38 96 3d 68 81 0a 3d
       -0.00045929942 -0.06728916 0.07334967 0.033814818
000230 08 d6 24 bd 1f 7e 82 3d 2d 01 a6 3d eb bd 3e bd
       -0.04024318 0.06371712 0.08105693 -0.04656784
000240 82 c1 4d 3d 77 a6 9d 3c 4e 53 8c 3d d3 8b 18 3d
       0.05023337 0.019244416 0.068518266 0.03724272
000250 18 6f 35 3c 2b 9c 23 bb 48 e5 20 3c 36 19 91 3c
       0.01107385 -0.002496491 0.00982029 0.017712217
000260 6c 8f 82 3d fb 0b 78 bd ee cc 38 bb 6a cf 38 bc
       0.06375012 -0.0605583 -0.002819832 -0.01127992
000270 0a dc 85 bc 8c 55 19 3d a4 ec a2 3d 76 54 0a 3d
       -0.016340274 0.0374351 0.07955292 0.033771954
000280 ab fc 8a bd 28 bd ff bc 4e 13 4a 3c 16 33 ad bd
       -0.06786474 -0.031218126 0.012333704 -0.084570095
000290 32 6b 52 3d ac f5 4d bb 67 04 07 bd 54 b4 8e 3c
       0.05137176 -0.003142695 -0.032963183 0.017419972
0002a0 4d f0 58 3d 1d 3d 29 bd c6 1f df bd 63 c2 e0 3c
       0.052963544 -0.041318048 -0.10894732 0.02743644
0002b0 09 86 7e 3d 3a 3c 9d 3d 7c 4d bf bc d9 09 94 bc
       0.062139545 0.07677503 -0.023352377 -0.018071102
0002c0 d0 a2 95 bd e4 4d 07 bc 6e 80 e7 bc 77 fa 9c bd
       -0.07306445 -0.008258317 -0.028259482 -0.0766496
0002d0 82 e5 5b 3d 1f a2 04 3d 95 91 91 bc 2b 32 20 bc
       0.053685673 0.032381173 -0.017769614 -0.009777586
0002e0 3b 30 16 3c e7 6f b0 3d 14 77 80 3d 76 7c 82 bd
       0.0091667725 0.08615094 0.06272712 -0.06371395
0002f0 3d d1 9d 3c 17 da 91 3d ca 60 35 bd f6 78 94 3d
       0.019264812 0.071216755 -0.04428176 0.07249634
000300 4d d0 44 3d 9f 1c a2 3d 7b d6 95 3b 16 a7 ab 3d
       0.048050214 0.07915615 0.004572687 0.083814785
000310 26 00 7a bd af 09 41 3c b1 f9 01 bc 88 ce cc 3a
       -0.061035298 0.011782094 -0.007933066 0.0015625516
000320 f6 b5 28 3d ac 09 f4 3b 90 dc 5b 3d 84 22 b1 3d
       0.041189156 0.007447442 0.05367714 0.086491615
000330 54 a2 25 bc 55 aa 47 3d 69 ad 80 bd 0a 7a 66 3d
       -0.010109503 0.048746426 -0.06283075 0.05626873
000340 b1 e8 ce 3c 3b 32 a5 3c d0 a4 d8 3c 92 02 a8 bc
       0.02525744 0.020165553 0.026445776 -0.020509038
000350 e7 14 c0 3d 54 d3 e5 bc f2 00 c8 bc da 24 81 bd
       0.09378987 -0.02805487 -0.024414513 -0.06305857
000360 89 7b c1 3d 63 1a 01 be da bf 92 3d c8 ea 9a 3c
       0.094473906 -0.12607722 0.07165499 0.01891078
000370 75 9d 82 3c 60 54 ea bc 83 0d 5f bd 24 d8 01 3c
       0.015944222 -0.028604686 -0.054456245 0.007925067
000380 b7 23 eb bc 99 c1 e3 bc ee 4e 27 3d aa 04 80 bd
       -0.028703554 -0.027802275 0.040846758 -0.062508896
000390 cd 42 33 ba b2 a5 8f bd f7 a4 6a bd 4a e6 a9 3d
       -0.0006838262 -0.07014026 -0.05728623 0.08295877
0003a0 ce 73 e8 ba 10 8a fb bc e2 c3 04 3d f2 8f b2 bb
       -0.0017734708 -0.030705482 0.03241337 -0.0054492885
0003b0 9b 0b aa 3d 00 12 b0 bd 34 e8 10 bd 47 78 4d 3d
       0.08302995 -0.08597183 -0.035377696 0.050163534
0003c0 b5 11 ac 3d 54 e2 87 3c ea 94 8c 3d bf be 75 bb
       0.08401815 0.016587414 0.068643406 -0.0037497727
0003d0 73 b0 bb bd 84 68 68 3d d7 12 48 bd a9 24 54 3d
       -0.091645144 0.0567403 -0.048846092 0.051792774
0003e0 c5 b8 83 3b d6 e6 8b bc 4b 42 42 bd 3a 63 11 3d
       0.004019829 -0.017077845 -0.047426503 0.03549502
0003f0 11 89 50 3d 70 ea 32 3c 6a d6 ad aa 8e d5 43 bd
       0.050911967 0.010920152 -3.0879753e-13 -0.047811083

decoder_hidden_layer.bias f4 [128]
000000 c3 29 97 bd b2 ee 58 3b 67 b9 ac 3b d2 7e d7 3c
       -0.07381012 0.0033101258 0.005271125 0.02630559
000010 42 a8 6a 3b 46 78 8e 3b 4d 1f d3 ba 97 f8 7a 3d
       0.0035805856 0.004347834 -0.0016107351 0.06127223
000020 3c 23 a1 bc ac 34 b0 3d 1e 75 5d 3d a5 20 d8 bd
       -0.019670121 0.08603796 0.05406677 -0.105531015
000030 ae aa 8e bd 0e 8a 41 3d 2f ee 55 b9 f5 c4 7a bc
       -0.06966148 0.0472508 -0.00020401993 -0.015305747
000040 18 60 13 bd da ff 65 bb 6c 57 54 bd 5d 6e 05 b8
       -0.035980314 -0.0035095126 -0.051841184 -3.1812455e-05
000050 60 e4 08 ba d9 57 b0 ba 92 0d 30 3c 39 c4 f1 bb
       -0.0005222019 -0.0013453915 0.010745423 -0.007378128
000060 e1 22 5a 3c d8 37 d3 3d eb e9 49 bd 02 45 37 3c
       0.01331398 0.10313386 -0.049295347 0.011185886
000070 32 e4 f5 3d 6a 14 cd 3d 40 23 f3 3d 56 c5 67 bd
       0.120064154 0.10013659 0.11871958 -0.05658468
000080 4c ca 86 3c 06 48 f7 3d 19 72 99 3d 8d 23 a9 3d
       0.016453885 0.12074284 0.074924655 0.08258734
000090 ec 28 15 bd dc b9 47 3d 06 18 61 3c 44 57 a5 3d
       -0.03641598 0.048761234 0.013738638 0.08073285
0000a0 25 78 78 bd c4 cf 9b bd cc 8e fb 3c 0e 62 b7 3d
       -0.060661454 -0.076079875 0.03070774 0.08954249
0000b0 73 1f de 3b ec 98 8e 3c 37 04 ae 3c f4 39 01 bd
       0.0067786514 0.017406903 0.021242244 -0.03154941
0000c0 90 da 7e 3c b1 31 01 3d d2 61 e2 3a d5 2c 5f bc
       0.015555039 0.03154153 0.0017271584 -0.013621529
0000d0 4d d7 50 3d 04 d8 ce 3c ab 2e 81 bb 4e 2a e9 3b
       0.050986577 0.025249489 -0.003942331 0.007115639
0000e0 6e d8 e1 3d ee 0e df 3c e9 bf b7 ba 0e 42 c9 bc
       0.11027609 0.027228799 -0.0014018986 -0.02456763
0000f0 d9 b2 b9 bb cf b8 99 3d 26 b8 e0 3b d6 90 76 bd
       -0.0056670723 0.075059526 0.0068578897 -0.06019672
000100 96 f3 01 3d 69 c6 0c 3d 45 6b b7 3d 3f 41 40 3d
       0.031726442 0.034368906 0.08956007 0.046937224
000110 e2 84 74 bd 70 a4 50 3d aa 00 4a bd b6 1a 15 3d
       -0.05969704 0.05093807 -0.04931704 0.036402427
000120 bf 7d 61 3d 46 07 18 bd 23 97 4a bd 0e 24 8c 3d
       0.05505156 -0.03711631 -0.04946054 0.068428144
000130 3f 48 43 bd fa 1c af 3b 56 da 86 3d 86 15 43 3c
       -0.04767632 0.0053440304 0.06584613 0.011906987
000140 28 a7 bb bc 1c 8d 49 bc f0 10 04 b9 56 8f 5d 3d
       -0.022906855 -0.0123017095 -0.0001259481 0.054091774
000150 11 25 8a 3d 46 74 06 bd 48 6f a4 b7 96 8e db 3b
       0.06745351 -0.03282573 -1.9602143e-05 0.006700347
000160 20 ee d3 bc 47 6d 88 bb b3 1c 15 bd 2e e2 a0 bc
       -0.025870383 -0.0041634175 -0.036404323 -0.0196391
000170 e8 fd 4a bd 28 2d 50 3d cd e3 95 3d d8 31 ab 3d
       -0.04955855 0.050824314 0.0731884 0.08359116
000180 0e 1f 5b bd 22 38 c0 bb ae c8 a1 3c 89 74 18 bd
       -0.053496413 -0.0058660666 0.019749012 -0.03722051
000190 b6 b1 80 3d 85 08 3f 3d 7c 40 c0 3c 28 be 84 bd
       0.06283896 0.046638984 0.023468249 -0.06481582
0001a0 a1 12 55 3d 60 e7 95 3c fc f5 63 3c 87 31 e5 bc
       0.05201972 0.018298805 0.013913628 -0.027977718
0001b0 36 9c 30 3b 02 e4 54 bd 04 84 ee bc fc 89 a7 bc
       0.0026948578 -0.051975258 -0.029115684 -0.020451538
0001c0 6e d6 39 bd 7b 25 24 bd a0 df 3d bd 90 ef 29 3c
       -0.04537051 -0.040074807 -0.046355844 0.010372058
0001d0 61 5b 97 bd d5 bd 21 bd fb d7 15 3c 8c 1b fc 3c
       -0.07390476 -0.03948768 0.009145732 0.030774854
0001e0 42 19 9b 3d d2 a8 88 bd a0 fc 8b 3d c0 35 16 3d
       0.07573177 -0.06672825 0.06835294 0.036672354
0001f0 85 48 84 bd 58 a0 00 3c fc 2d 2e bd 1d c6 1b 3d
       -0.064591445 0.007850729 -0.042524323 0.038030732

decoder_output_layer.weight f4 [128, 128]
000000 ad 63 bb bd b3 98 3a 3d 0b fc 58 bd b2 b6 3b 3d
       -0.09149871 0.04555578 -0.052974742 0.04582853
000010 dd 06 b0 3c b9 f6 d4 bc ad a7 b5 a2 f1 2d 06 3d
       0.021487648 -0.025996553 -4.923768e-18 0.032758657
000020 17 36 16 bd c3 74 e6 bc e2 8d 84 3c 1d 22 e8 ba
       -0.036672678 -0.028131848 0.016180936 -0.0017710362
000030 7d c4 7d 3c 2f 11 0c 3e ae 38 23 3d 55 90 c4 3c
       0.015488741 0.1367843 0.039848976 0.023994604
000040 79 04 73 bb d9 e9 80 3d f0 52 dc ba 54 72 2f 14
       -0.0037081523 0.06294603 -0.0016809385 8.8577894e-27
000050 c1 3e 16 bb b9 da bc a2 2d b3 11 3c 29 b3 24 3d
       -0.0022925588 -5.1189084e-18 0.0088928165 0.040209923
000060 31 08 81 bd 14 fa 75 3d 58 13 63 bb 1b da 42 3c
       -0.063003905 0.060052946 -0.003464898 0.011892821
000070 ba b5 ba 39 1a 9b d2 bc aa b9 52 bc 1b 86 6b bd
       0.0003561208 -0.025708724 -0.012861649 -0.05750094
000080 22 47 c2 bc b8 d3 9e bc 16 41 0a 3d 96 73 69 3d
       -0.02371556 -0.019388065 0.033753477 0.056994997
000090 7a 49 9c 3d cf d6 ca 3c 90 bb 23 bd 6a 42 67 3d
       0.07631202 0.024760632 -0.039973795 0.05645982
0000a0 72 16 31 bc 65 c9 17 bd 5a ab e7 3c 96 0d 68 3c
       -0.010808574 -0.0370573 0.028279949 0.014163395
0000b0 5a f0 0e bc a4 db 0a 3d 60 80 58 3d af d9 0d bc
       -0.008724296 0.033900872 0.052856803 -0.008657857
0000c0 3a 67 08 bd ca dd a4 bc ff 86 1e bc fc a3 49 3d
       -0.03330157 -0.020125289 -0.00967574 0.049228653
0000d0 85 5a 07 3d a7 0d 51 bd d5 c2 71 94 1c ec bf 3d
       0.03304531 -0.05103841 -1.22058144e-26 0.09371206
0000e0 63 c1 d8 b9 39 3b 5f bb 9f ab f8 bc 19 dd c2 bb
       -0.00041342815 -0.00340624 -0.030355273 -0.005946767
0000f0 13 84 36 bd 2a 74 93 3c bf 99 04 bc 22 31 99 3c
       -0.04455955 0.017999727 -0.008093297 0.018700186
000100 d6 14 47 bd 5b 1b 0d 3d e4 ca ef 3c 10 6c 36 bc
       -0.048603855 0.034449916 0.02927155 -0.011134163
000110 34 36 67 bd ef cb 2e 3d 2f 38 52 bc 71 aa 8a bb
       -0.056448177 0.042674955 -0.012830778 -0.004231744
000120 3e eb d3 3c 6f e9 e5 3b 65 1b 8f 3b 49 98 91 bc
       0.025869008 0.007016353 0.0043672794 -0.01777281
000130 8c bd b1 3d 3e fe 35 bd e5 4a bb bb 4e 4c 70 3b
       0.08678731 -0.044431917 -0.0057157152 0.0036666575
000140 8a 80 2d bd af 27 81 bd e0 a5 fb 23 8e 20 23 3d
       -0.042358913 -0.06306397 2.7283725e-17 0.03982597
000150 11 82 1c 3c 5d 24 48 15 bc ec 9a 24 78 cf 77 3c
       0.009552495 4.0418364e-26 6.71879e-17 0.015125148
000160 c0 10 35 3c 78 36 7f 18 ca 8c 00 3d 37 55 32 bd
       0.011051357 3.2985477e-24 0.031384267 -0.0435383
000170 bd 6d 9d bb 8b 9c 2e 3d 29 34 8c 3c 8f 1b 61 bc
       -0.0048043416 0.04262976 0.017114716 -0.013739481
000180 e7 05 b5 3d 62 46 0a 3d 4d fc 85 bc 7a 6a 40 3c
       0.088390164 0.03375853 -0.016355658 0.011744136
000190 32 62 4c bc 4a dc c5 bb c5 80 50 bc ed 7f 30 bd
       -0.012474583 -0.0060382234 -0.012726014 -0.04309075
0001a0 e6 87 20 bc cd 9f d3 bb dd 47 9a bc 8f 92 db 3a
       -0.009798026 -0.0064582587 -0.018833095 0.0016752052
0001b0 bf f6 a0 bc f1 89 dd bc 93 29 40 3d dd 42 9c 3b
       -0.019648908 -0.027043315 0.04691465 0.004768713
0001c0 c2 5f 83 bc 25 15 2f 3b ff 16 8a 3c 4a 6e 0a 3d
       -0.016036872 0.0026715484 0.016856669 0.033796586
0001d0 88 2b b5 3c 61 96 67 3d eb 64 ea bc 6b 4c 03 bd
       0.022115484 0.056539897 -0.028612575 -0.0320553
0001e0 53 8e 12 39 35 f7 bb bc 77 82 0a bd 98 32 3b bd
       0.00013976665 -0.022945026 -0.033815827 -0.045702547
0001f0 f0 ce c0 bd 5d 06 ae ba be 90 24 bc 29 c5 46 3d
       -0.0941447 -0.0013277043 -0.010044275 0.04852787
000200 80 60 5b bd 4c 97 3c 3d c6 ac 34 bd 9d ee 06 3d
       -0.053558826 0.046042725 -0.044110082 0.032942403
000210 d6 45 c9 3c c0 95 6d bc 64 aa a8 3b d2 26 11 3d
       0.024569433 -0.014501035 0.0051472653 0.035437413
000220 1f 78 23 bd 43 13 72 bd 14 66 24 3c 3b 46 c2 3c
       -0.03990948 -0.0591004 0.010034103 0.02371513
000230 7f 16 3c 3d 75 be ea 3d a7 69 0c 3d eb f9 98 3d
       0.04591989 0.11462108 0.034280445 0.07469543
000240 ba a2 8e 3b 27 d5 56 3d 99 c9 1a 3c cc d6 ae 3a
       0.0043528946 0.05244937 0.009447479 0.0013339161
000250 26 87 9b 3b 0b 31 f0 3b 8a 56 9f 3c 2f 98 67 3d
       0.0047463356 0.007330065 0.019450445 0.056541618
000260 de 1b 5b bd b9 42 21 3d 26 51 d6 3b c7 64 16 3b
       -0.053493373 0.039370272 0.0065404354 0.0022948252
000270 ab 7c b5 3c 68 41 01 bd c4 b0 e3 bb 85 c0 8f bd
       0.022154173 -0.031556517 -0.0069485623 -0.07019142
000280 28 bd 37 bd 6b 23 ee bc 6a 81 bb 3c 26 ee 21 3d
       -0.044858128 -0.029069623 0.022888858 0.039533757
000290 14 81 db 3d 02 60 d9 3c 11 60 fc bc cf 7a 53 3d
       0.10717979 0.026535038 -0.030807527 0.05163079
0002a0 46 2e 08 bd 36 a2 04 bc 0c 47 db 3c 28 92 06 3d
       -0.033247255 -0.008095315 0.026767276 0.03285423
0002b0 28 7c f3 bc 40 5d f7 3c 51 6b 31 3d 51 fe 30 bc
       -0.029722288 0.030195832 0.043315236 -0.010802821
0002c0 76 68 93 bd 48 a9 a1 bc 1b ea 20 bd 52 19 e7 3c
       -0.07197659 -0.01973404 -0.03928576 0.028210316
0002d0 ef 4f 7e 3c d7 70 a0 bd c0 58 d4 3b 7d ee 98 3d
       0.015521987 -0.078340225 0.0064803064 0.07467363
0002e0 52 4f c9 3b 34 6f 4a bc 5a fb 67 bc 04 b5 2d bb
       0.006143489 -0.012355614 -0.014159048 -0.0026505599
0002f0 d0 5f 63 bd de b3 93 3c c9 d0 19 3b e7 1a 3d 3d
       -0.055511296 0.018030103 0.0023470393 0.046168234
000300 5a 4f bb bc ae e3 17 3d fe d1 b4 3c 1d 02 02 ba
       -0.022864986 0.037082367 0.022072788 -0.00049594213
000310 b6 96 1f bd 5c 7c 68 3d 06 4b c7 bc 1e 89 20 bc
       -0.03896209 0.056759223 -0.024327766 -0.009798316
000320 39 96 d8 3c 4d 1d 32 3c 14 d6 23 3b c5 4a b9 bc
       0.02643882 0.010871244 0.0024999427 -0.02261866
000330 bf 92 81 3d 44 60 86 bd 09 13 70 3b 1b da eb 3c
       0.06326818 -0.0656133 0.003663244 0.028790524
000340 23 b1 14 bd ec 7c 88 bd fb 93 26 bc 4c bc ef 3c
       -0.036301743 -0.06664452 -0.010167117 0.029264592
000350 08 df 52 3c f0 e2 f7 16 8d d7 58 b9 13 42 97 3c
       0.012870558 4.004822e-25 -0.00020679664 0.018464124
000360 38 fc a1 3c 6b 32 fd 3a 3a 2e d0 3c 3f ae 9e bc
       0.019773588 0.0019317394 0.025412668 -0.019370196
000370 84 9a c4 b8 7b ab 12 3d 84 f5 f1 3b 60 6b 8f bc
       -9.374789e-05 0.035808068 0.007384004 -0.017507255
000380 24 aa 77 3d b0 07 e6 3c 99 e5 c6 bc 43 a5 80 3c
       0.060464993 0.028079838 -0.024279403 0.015703803
000390 af cf 25 bb c8 77 2a bb e0 f6 e1 bc 08 c0 46 bd
       -0.002530079 -0.0026011337 -0.02758354 -0.04852298
0003a0 37 59 4b bc b2 de f4 bb 94 7e fc bb 94 6a 94 ba
       -0.012411407 -0.0074728364 -0.007705519 -0.0011323267
0003b0 0e 79 b8 bc 3f 36 92 bd 4c 3c 01 3d 6e e3 48 3c
       -0.02251866 -0.07139253 0.031551644 0.012261255
0003c0 0e 6f c8 3b b3 f2 59 3c 5f 28 b1 3c f9 78 98 3d
       0.0061167544 0.013302493 0.021625696 0.07444949
0003d0 5e 87 7a 3c 85 01 60 3d 61 02 bd bc 07 4b 8f bc
       0.015291063 0.05468895 -0.023072423 -0.01749183
0003e0 95 68 da bb ac 71 ae bc e8 50 fa bc 83 33 d6 bc
       -0.006665299 -0.021294437 -0.030556157 -0.02614761
0003f0 9b 36 c3 bd d1 e9 ca 3b f5 67 9c bc 2b 50 28 3d
       -0.095318995 0.006192424 -0.01909254 0.04109208

decoder_output_layer.bias f4 [128]
000000 71 60 82 3c ca ef 3c 3c a1 de 57 3c d0 b3 a3 bc
       0.015915127 0.01153178 0.013175637 -0.019983202
000010 46 2c 66 bd 39 b9 6e bc d1 9b ee b7 4c c5 16 bd
       -0.056194566 -0.014570528 -2.8444369e-05 -0.03680925
000020 fc 14 51 3d 37 80 8a 3d eb 2b 55 3c 8c 12 90 bc
       0.051045403 0.06762736 0.013010959 -0.017586969
000030 08 7c 5b 3d 48 0e d8 3d 86 78 bc 3b 06 7a 32 bb
       0.053585082 0.10549599 0.005751672 -0.0027233376
000040 35 c2 64 bb ad 43 5a 3b 45 82 02 3c ba 74 f0 bc
       -0.0034905795 0.0033304498 0.007965629 -0.029352535
000050 42 96 69 bc 97 7b 02 3d 04 7e b0 b9 2e 76 ec bc
       -0.014257016 0.031856146 -0.00033663225 -0.028864946
000060 b2 51 0f bd 9e c8 1d bd 04 e2 5d 3d 16 49 47 3c
       -0.03499002 -0.0385214 0.054170623 0.012163421
000070 a5 24 bb 3c cf 7f b9 bc 6f c6 a5 3c 90 54 a6 3b
       0.022844622 -0.022643952 0.020236222 0.0050759986
000080 8c 3a fa bc 79 f9 fd 3c 85 62 13 3b 55 53 f0 3b
       -0.030545495 0.031002747 0.0022489142 0.0073341527
000090 5b 61 ee 3c a0 6e 25 ba 10 22 1d 3d dc 7d 68 bc
       0.029099157 -0.0006310735 0.038362563 -0.014190163
0000a0 8f 4b 6d bd fc 77 5c 3d 28 38 33 bd 19 d3 41 bc
       -0.057933386 0.053825364 -0.043754727 -0.011830115
0000b0 5e 91 f9 bc ed 75 25 3d 5f 12 c1 bb 32 df 85 3d
       -0.030464824 0.040395666 -0.0058920826 0.06536712
0000c0 3d 7f 78 3c fb f9 91 3d e1 34 8f 3c 0d 69 2e 3d
       0.015167055 0.07127758 0.01748127 0.042580653
0000d0 6c 66 ae bc 66 8c 0a bd 6d 5f f8 bc f2 5f fe 3c
       -0.021289073 -0.0338253 -0.03031894 0.03105161
0000e0 40 6e 0b bc 01 c5 ce bc ac 10 97 bc 7b 95 49 3c
       -0.008510172 -0.025240423 -0.018440567 0.012303705
0000f0 a5 f4 5b 3b 9f 59 00 b8 82 69 ac 3b 1d e2 b2 3c
       0.0033562568 -3.0601044e-05 0.005261601 0.021836335
000100 29 16 0c 3c d6 a9 8d a8 61 1d 83 ba 8c a4 11 bd
       0.008550205 -1.57278e-14 -0.0010003262 -0.035557315
000110 20 00 e4 3b 42 a3 d1 b7 2c 21 86 3b 66 ec 6a 3d
       0.0069580227 -2.4990764e-05 0.00409331 0.057354353
000120 4f d8 2a 3d 0a a0 e1 3c 6d 08 05 3d 98 9c 70 bd
       0.041710194 0.027542133 0.03247874 -0.05874309
000130 83 b9 9b bc 3c 69 88 3d 64 e1 52 bd 6d fe 3a 3b
       -0.019009357 0.06660697 -0.05148448 0.0028532997
000140 3a 96 3b 3d 31 7b 70 bd 30 18 fb bc 16 35 8b 3c
       0.045797564 -0.058711234 -0.030651182 0.016993087
000150 65 83 a0 3c bf 9c c3 bb 53 00 9c bc 87 d1 e1 3c
       0.019593904 -0.0059696133 -0.019043123 0.02756573
000160 d2 fe 38 3b 46 07 df bc 7e 04 e7 3c bc 64 bc ba
       0.0028228057 -0.027225148 0.028200384 -0.0014373283
000170 f7 7c 60 39 29 cc 60 bd 2b 0f dd bc 0e 49 d2 3c
       0.00021408858 -0.054882202 -0.026984772 0.0256696
000180 b1 5a 15 bc c7 56 0f 3d d1 ad a0 3c 98 a6 8d 3d
       -0.009115861 0.034994867 0.019614132 0.06916541
000190 da 7b af 3c 49 57 7d 3d fc 5e 9d 3c b7 d4 e6 3c
       0.021421362 0.06185082 0.019210331 0.028177602
0001a0 a4 c8 6a 3c b1 b8 a9 bc 15 a5 9e 3b a2 c9 cc 3c
       0.014330063 -0.02071795 0.0048414567 0.02499849
0001b0 a2 43 b2 3c a5 2b 7b 3d 98 e1 a8 28 c6 2e 6b 3d
       0.021760765 0.06132092 1.8749583e-14 0.057417654
0001c0 06 9e 92 bc 87 ee 5d 3a 9d 07 74 3c 82 57 4d 3c
       -0.017897617 0.00084660243 0.014894393 0.0125330705
0001d0 ef 85 a9 3a 0f 26 a8 3c cf 11 80 bd fa 93 c2 bc
       0.0012933592 0.02052596 -0.06253397 -0.023752201
0001e0 6b e7 f9 3c 84 61 0c bd 3a 83 72 3c c5 a7 a8 bb
       0.030505856 -0.034272686 0.014801795 -0.005146953
0001f0 69 ee ff 3c 20 7a 4f bd 25 1f 91 bc 6e c2 29 3d
       0.031241613 -0.050653577 -0.017715046 0.04144519
