results/milestone/programming tutorials/GCP/params/AE/params15.pt (torch_old, 265742 bytes, 8 tensors)

encoder_hidden_layer.weight f4 [128, 128]
000000 ab 14 8e 3d 40 42 f2 3d 24 8a 64 bd df cf 86 bd
       0.06937536 0.118290424 -0.055795804 -0.06582617
000010 85 b9 72 3d a4 e1 da bb f4 7c f2 bc b9 7d 6f bd
       0.059258956 -0.0066797305 -0.029600598 -0.058469508
000020 72 6d 11 3d d0 74 c1 bc 7f c1 b6 3d 12 93 9b 3c
       0.035504766 -0.02361527 0.08923625 0.018991027
000030 31 5f 6f bd b6 4e 12 3d a8 9f f4 bc f0 cd 39 bd
       -0.05844039 0.035719596 -0.029861286 -0.045362413
000040 71 6c 8e bd 06 f9 4d 3d 1f 78 74 3d 61 74 b7 3d
       -0.06954277 0.050286315 0.05968487 0.089577444
000050 14 5d bb 3d 3d 71 77 3c fd 21 8a 3d 88 c6 ce bc
       0.091486126 0.015102682 0.06744764 -0.025241151
000060 8a 22 8f bc 06 b9 ae 3b 7c 5a 41 3d af 6a f3 bc
       -0.017472524 0.005332115 0.047205433 -0.029713957
000070 d3 88 72 3d 41 98 dd bc 91 a3 ff 3c 80 12 7d 3d
       0.059212517 -0.02705014 0.031205924 0.06178522
000080 56 f8 9b 3d 11 c2 43 bd 94 df 1f 3d c3 ef d3 3d
       0.07615726 -0.047792498 0.03903158 0.10348465
000090 b7 65 57 3d de b8 95 3d 0f e3 91 3d ae d7 c2 3d
       0.052587237 0.07310651 0.07123386 0.09513794
0000a0 05 f7 e8 3b 31 08 62 3d 06 50 bb 3d 8c a6 08 bd
       0.007109525 0.055183593 0.09146123 -0.033361956
0000b0 ab fb bd 3c 4e db c8 bb 0c ee 28 bd 5d 9f bb bb
       0.023191294 -0.006129659 -0.041242644 -0.0057257847
0000c0 91 20 b0 3d 76 29 84 bc 86 38 0a bd de c8 02 bc
       0.085999615 -0.016133051 -0.03374531 -0.007982461
0000d0 51 a0 82 bd b1 0c 8f bc ec cf 83 bb b3 6b a4 3c
       -0.06378234 -0.017462106 -0.004022589 0.020070886
0000e0 f8 a8 27 3b ec f9 74 3d 77 8c f8 bc 71 50 13 3c
       0.002558289 0.059808657 -0.030340416 0.008991347
0000f0 c1 78 73 bd d0 11 60 bd 8d 1f 5b bd 65 80 de 3c
       -0.05944133 -0.054704487 -0.053496886 0.027160833
000100 2e 5e 18 3d d7 8b 9d bd 97 b6 82 bd 78 ff 22 3d
       0.03719919 -0.07692688 -0.063824825 0.039794415
000110 8d 7f ed bb 46 5a 66 3d 2d 5b 2e bd 4e aa cc 3d
       -0.0072478713 0.056238435 -0.04256742 0.099934205
000120 d2 d9 5d bd 7d d3 ca bc 2f d6 a7 3d 60 5f bb 3a
       -0.054162808 -0.024759049 0.08195149 0.0014295392
000130 63 5d 9d 3d 89 66 e7 bc c0 6b 78 3c 7b 23 ad bc
       0.07683828 -0.028247135 0.015162408 -0.021135082
000140 77 97 e1 bc 17 7b 82 ba 7a 8f ad 3d bf f9 7f bd
       -0.027538044 -0.0009954897 0.084746316 -0.062494036
000150 93 ff 3a 3d 50 57 ad 3d 21 fa af 3d 17 15 2e bd
       0.04565389 0.08463919 0.0859263 -0.04250058
000160 20 ca d3 3d ef f6 13 bb f1 c9 62 3d 43 c4 21 bb
       0.10341287 -0.0022577604 0.055368368 -0.0024683631
000170 cd 77 73 bd 98 52 11 3d 5c a3 97 3d 99 9b 4b 3c
       -0.059440423 0.03547916 0.07404205 0.012427234
000180 ce 64 84 bd 06 12 3d 3d 29 6a a3 3d 9e aa ce 3d
       -0.064645395 0.046159767 0.07979233 0.100911364
000190 fb 87 ae 3d 79 84 d3 3c 56 59 bb 3d c6 49 36 bc
       0.0852203 0.025820004 0.09147899 -0.011125987
0001a0 84 ca 55 bd 17 1d 76 3c 3b b8 5b bd 11 66 a6 3c
       -0.052195087 0.015021584 -0.053642493 0.02031234
0001b0 9f 94 96 bc af db 8a bd 4d 07 4e 3c a4 36 09 bd
       -0.018381415 -0.067801826 0.012574983 -0.033499375
0001c0 cf 3d 83 3d 87 3f bc bc 23 d1 0e 3d 07 7e 1c bd
       0.064082734 -0.022979511 0.034867417 -0.038206127
0001d0 e6 0c 6b 3b a6 7b 83 bc cd ec 6d bd d8 1b 9e bd
       0.0035865842 -0.016050171 -0.05808716 -0.077201545
0001e0 c6 4c 26 bc 59 b4 c3 3c 67 b2 56 bd ec 03 56 3d
       -0.01015014 0.023889707 -0.05241623 0.052249834
0001f0 bd 93 b7 3d e2 a9 1b bd 51 5c 4d bc 84 fb 1c bd
       0.08963726 -0.03800381 -0.012534217 -0.0383258
000200 f4 cd 4c bd 3c 61 4f bd a6 46 45 3c f5 55 ba bd
       -0.0500011 -0.05062984 0.01204077 -0.09098426
000210 39 af db 3c b6 f5 51 3d ce 7a 73 3d 89 2d cf 3c
       0.026816951 0.05125972 0.059443288 0.025290268
000220 5a af 7f 3d 30 b6 d3 3d 97 e5 ca 3b d8 ec 1e 3c
       0.062423088 0.10337484 0.00619192 0.009700023
000230 a5 3a ea bc 4b 73 56 bd 2d e2 e7 bd 41 63 9a bd
       -0.028592417 -0.052356046 -0.113224365 -0.075384624
000240 b2 44 4b bd ed 56 c0 bd e7 5e a5 bd 0d db eb bd
       -0.04962606 -0.0939158 -0.08074742 -0.1151639
000250 e3 1e d7 bd 6a 02 ce bc 6b 04 54 bd 47 fd cf 3c
       -0.10503938 -0.025147635 -0.051762026 0.025389327
000260 d9 a3 92 3c f7 21 01 3d 77 04 10 bd a7 8d 10 bd
       0.017900394 0.031526532 -0.035160508 -0.03529134
000270 be 9f 5c bc 99 55 d8 bc 9a 83 80 bb 56 89 10 bd
       -0.01346582 -0.026408004 -0.003921938 -0.035287224
000280 15 80 3c bc a0 79 02 3d 6c 30 c5 3d 0e 1c 3e 3d
       -0.0115051465 0.031854272 0.09628376 0.046413474
000290 c0 0a e7 3d 4b d7 a3 3d 86 36 b4 3d 91 63 db 3d
       0.11281347 0.08000048 0.08799462 0.1071235
0002a0 a6 cf 7a 3d 0e d2 73 bc 78 e7 a2 ba 32 79 5d bc
       0.061233185 -0.014881624 -0.0012428602 -0.013517665
0002b0 89 04 23 bd 68 4a 86 bd 95 42 94 bc bc 9f 28 bd
       -0.039799247 -0.065571606 -0.018098155 -0.04116796
0002c0 34 2a a0 bd f5 f7 1d 3c b2 1b a2 3d d9 3a 0a 3e
       -0.078205496 0.009641637 0.07915439 0.13499011
0002d0 25 4e 09 3e 4b c1 53 3d 13 cf 03 3e 99 24 0d 3e
       0.13408716 0.05169801 0.12871961 0.13783492
0002e0 05 d8 00 3e d0 09 ec 3d 54 23 18 3d 76 d4 47 bd
       0.12582405 0.11525309 0.037143067 -0.048786603
0002f0 0d 48 07 be 2a 36 e9 bd 89 10 26 be 70 da 5e be
       -0.13211079 -0.11387284 -0.16217245 -0.21763015
000300 3d e6 7f bd 41 a8 d8 3c cc 8c 3b bc 2d e7 9f bb
       -0.06247543 0.026447417 -0.011447143 -0.004879853
000310 37 46 a8 3c b8 1c 57 3c 8e a4 58 bd dd 62 9f bd
       0.020541294 0.013129406 -0.052891307 -0.077825285
000320 69 e2 e1 bd 11 ae 4b bd 9e 11 38 bc 0d da 16 3c
       -0.110295124 -0.04972655 -0.011234669 0.009207261
000330 bb 23 1b 3d e2 0b c2 3d 40 12 64 3d 73 c1 d5 3c
       0.037875872 0.09474923 0.055681467 0.02609322
000340 df d1 1c bd e7 54 38 bd 49 15 dc 3c b4 a0 6c bc
       -0.038286086 -0.045002844 0.026865618 -0.0144426115
000350 fa 26 10 bd 40 86 32 bd 46 96 88 bd ad 60 27 bd
       -0.03519342 -0.043585062 -0.066692874 -0.04086368
000360 f3 99 99 38 8d c7 88 bd 76 dc 27 bc e9 18 e2 bb
       7.324284e-05 -0.06678686 -0.010245433 -0.006899942
000370 3b e5 08 bd 8f 7c 12 bc ec 5e d1 3c 4e 57 9a 3c
       -0.033421736 -0.00894083 0.025557958 0.018840458
000380 f7 0c a2 3d bc ab 21 3b fd 8d 40 bc de ff d5 3b
       0.07912629 0.0024669012 -0.011752603 0.006530746
000390 6a a7 fa bb b9 a0 0a bc 6f 4e 8b bc ad f5 d5 3c
       -0.007649352 -0.008461171 -0.017005173 0.026118124
0003a0 2d bc 07 bd 13 c6 c5 3c c1 65 36 3d 34 d9 8c bc
       -0.033138443 0.0241423 0.044530634 -0.017193414
0003b0 f0 54 63 b9 49 0c 20 bc 50 a1 3d 3c 2f 08 00 bd
       -0.00021680049 -0.009768554 0.011574104 -0.031257804
0003c0 6b bd 0d 3c 2a 0f d9 bc fd 2f 10 bd 00 b7 6a bc
       0.008651118 -0.026496489 -0.035202015 -0.014325857
0003d0 4c 41 33 bd c8 0c 93 bc 2a 31 12 bd 10 79 64 bc
       -0.043763444 -0.01795043 -0.035691418 -0.013944879
0003e0 73 3d ff bc a6 36 34 bd 1c 11 6e 3c 9f 69 b5 3c
       -0.031157231 -0.04399743 0.014530446 0.02214509
0003f0 28 7a f8 bc 97 c8 19 3c 2c 23 03 be cc 1d df bd
       -0.030331686 0.009386203 -0.12806386 -0.10894355

encoder_hidden_layer.bias f4 [128]
000000 17 07 63 3b 11 fe 33 3e 92 9e 96 3d 3f c0 01 bd
       0.0034641677 0.17577387 0.07354464 -0.03167748
000010 da 6d 7d bd f3 6e a6 bc 54 1e fe 3d 60 fb 51 3b
       -0.06187234 -0.020316577 0.124081284 0.00320407
000020 4d 70 19 bc c0 2e 87 bb 53 0c 0c bc 9e 76 55 bd
       -0.0093651535 -0.004125446 -0.00854786 -0.052115075
000030 0a a4 06 3e 09 22 9f 3d 55 2d 86 bd 14 b6 b0 3d
       0.13148513 0.077701636 -0.06551615 0.08628479
000040 c3 d6 4e 3e 3d 96 87 3d 62 24 60 3d 75 4a 88 3d
       0.20199113 0.066204526 0.054722197 0.066548266
000050 a4 e0 a7 3d 03 29 95 3d a3 9d 42 3e 56 84 bc 3d
       0.08197144 0.07283213 0.19005446 0.092049286
000060 38 2f 19 3c 17 f0 9a 3e a1 ee 74 3d 5b 5a 9d 3d
       0.009349637 0.302613 0.059797887 0.076832496
000070 6c d9 92 3e 69 6f eb 3d 06 1d a1 3d 38 05 c0 3a
       0.28681505 0.11495859 0.07866864 0.0014649993
000080 e6 e3 de 3d 81 a0 c3 3b 4b d1 dc 3d 78 ad 65 3c
       0.10883312 0.0059700613 0.10782107 0.014018409
000090 a7 28 da 3d f5 60 0a 3e dd 9e 3d 3e 8c 69 73 3e
       0.10652285 0.13513549 0.18517633 0.23770732
0000a0 34 ba 67 3e 06 c4 de 3d 7b ef 58 bc fa 8c 60 3d
       0.22629625 0.10877232 -0.01324069 0.054821946
0000b0 9f d7 fc 3d 3c f8 35 3d e1 0b 89 3e b8 76 b9 bc
       0.12345814 0.044426188 0.26766875 -0.022639617
0000c0 8c aa 02 3e 9d 7c 0c 3e 60 f5 df 3c 3e 86 3b 3d
       0.12760371 0.13719411 0.027338684 0.04578232
0000d0 38 7e 12 3e 32 02 02 3e 7d e6 15 3e 4b 77 0e 3e
       0.14305961 0.1269615 0.14638706 0.13912694
0000e0 ac 25 39 3d dd 65 9c 3e 5b d5 72 3d 21 b0 2c 3c
       0.045201942 0.30546466 0.059285503 0.010540039
0000f0 c1 70 8f 3e cd a9 9f 3d a6 7a d2 3c d1 14 17 3d
       0.28015712 0.07796059 0.025693249 0.036885086
000100 c2 cf 45 3e 5f 11 8c 3d e9 12 1a bd c0 05 d2 3c
       0.19317535 0.06839251 -0.03761569 0.025637507
000110 1e 06 82 3e 67 29 46 3e 69 d9 7c 3e 0a 16 86 3d
       0.25395292 0.19351731 0.2469231 0.06547172
000120 c2 af 88 bd c8 ef 12 3e 23 d1 ff 3c a1 34 0e 3e
       -0.06674148 0.14349282 0.031227654 0.13887264
000130 b9 c3 f0 3c bf 35 31 3d ba ba 19 3e d4 a1 35 3d
       0.029390203 0.043264147 0.15012637 0.044343784
000140 de c9 74 3d c2 16 bd 3d 0d 56 25 3e 4e e9 e6 bc
       0.059762828 0.09232856 0.16146107 -0.02818742
000150 08 a4 05 3d e3 16 4b 3e 62 e4 1c bc d6 26 6a 3e
       0.032627136 0.1983295 -0.009575935 0.22866377
000160 ee 59 9c 3d 17 0b 00 3e 26 ef e8 3d 81 42 d3 3c
       0.0763434 0.1250423 0.11373739 0.025788547
000170 e5 7e bd 3d 98 0d ad 3d 06 6e 07 3e 97 5f 8a 3c
       0.09252719 0.084498584 0.13225564 0.016891284
000180 16 40 1f 3e af 69 dd 3c 03 46 ca 3d 36 fa 85 3e
       0.1555179 0.027027933 0.09876635 0.26167458
000190 c3 64 91 3d 6e fe ec 3c 07 97 24 3e 59 d9 5d bd
       0.07099297 0.028929915 0.16073237 -0.054162357
0001a0 db 9d a5 3d 2a 04 0e 3e 8f 82 bf 3b a1 ce e8 3d
       0.08086749 0.13868776 0.005844421 0.11367536
0001b0 17 f7 a9 3d c4 c3 c2 3d 34 bd 07 3e f9 ae 54 3d
       0.08299082 0.095099956 0.13255769 0.05192468
0001c0 48 2d 50 3d 76 da a6 3d a1 25 90 3e d4 60 5f bd
       0.050824434 0.08147137 0.2815371 -0.054535702
0001d0 a2 c5 c6 bc f0 63 60 3e 61 26 98 3d cc d7 a3 3d
       -0.02426416 0.21913123 0.07429195 0.08000144
0001e0 a7 fb fc 3d f1 0e 96 3c ae 0e cb 3d 3b b0 f1 3d
       0.123526864 0.018317671 0.09914909 0.118011914
0001f0 9c 8a 7d 3d 90 8c 51 3c 15 7f 05 3e 32 18 c7 3d
       0.061899766 0.01278986 0.13036759 0.09721412

encoder_output_layer.weight f4 [128, 128]
000000 df c8 2d bd a2 d7 8f 3c ff 37 a2 bd 15 a5 e9 3c
       -0.042427894 0.017558876 -0.07920837 0.0285211
000010 bd dc 4c 3d 34 46 82 3c d4 72 ee 3d 65 87 81 3d
       0.0500152 0.015902616 0.116429955 0.063246526
000020 58 18 b1 bd ca 40 16 bd 65 bb cc bb 41 d0 8b bd
       -0.08647221 -0.03668288 -0.006247925 -0.06826831
000030 21 3a 5c 3d 4c b0 88 3c 21 1a a2 bd e3 91 09 3d
       0.053766374 0.016685627 -0.0791514 0.033586394
000040 c5 64 92 3d 4b 83 b5 bc 24 c3 90 bb 61 c8 65 3d
       0.071481265 -0.022157332 -0.004417794 0.0560993
000050 50 dd 97 3d 9c eb 2b bd 20 76 d3 bc 8b 30 7e 3c
       0.07415259 -0.04197274 -0.025813162 0.015514503
000060 be 68 86 bd d9 a2 39 3e 8b 4b 8e bc 96 48 a2 bc
       -0.06562947 0.18128528 -0.017370006 -0.019810002
000070 9f b1 18 bc 31 d4 59 3c 5d c4 88 3d 3d 46 82 ba
       -0.009319692 0.013295219 0.06678078 -0.0009939146
000080 8e 7a bf bd dd 55 3b bd 27 73 37 3d a9 62 a3 3d
       -0.09349547 -0.045736182 0.044787552 0.07977802
000090 4b 88 93 3d cc ff 86 3c 71 91 be 3d 3b 0d 83 3d
       0.0720373 0.016479395 0.093050845 0.06399008
0000a0 f0 f0 e4 3d 26 8f 17 3b 32 6a 30 bb 84 28 99 3d
       0.11178768 0.0023126095 -0.0026918766 0.07478431
0000b0 c7 8c a8 3d 5b 51 f8 3c 14 32 90 bc 1f dd 08 bd
       0.08229976 0.03031223 -0.017602004 -0.033414003
0000c0 3d 5f b2 3d c1 28 69 3d 7e c0 5c bc 66 4e 6e 3d
       0.087095715 0.05692363 -0.013473628 0.058180235
0000d0 b6 21 8a bb ca 81 30 3d a8 09 3c 3d 5d 01 ae 3c
       -0.0042154444 0.043092526 0.045907646 0.021240884
0000e0 4f 36 e1 bd c7 ff db bd 4e 7d 20 bd 7a 10 de bc
       -0.10996687 -0.10742145 -0.039182 -0.027107466
0000f0 2e 30 74 3d 54 0f 9e 3d b7 a2 3b 3d b7 2d 7c 3d
       0.05961626 0.07717767 0.045809474 0.061567035
000100 34 75 d9 bc 10 45 18 bb db 93 65 3d 39 d7 b8 3d
       -0.026545145 -0.0023234524 0.05604921 0.090254255
000110 dc 4e fd 3d f6 bd 56 3d 45 6c e6 bb 29 83 46 3d
       0.12368557 0.052427255 -0.0070319497 0.048464928
000120 c1 e4 6d bd fc f6 de bc cd 4d dd 3c ac 38 bc 3d
       -0.058079485 -0.02721738 0.027014637 0.09190497
000130 7a 4e 02 3d ff 77 7b bd e1 14 aa bd e9 e9 b0 3c
       0.031813122 -0.061393734 -0.083047636 0.021595912
000140 8e a6 7a 3d 4f 87 1b bd 47 35 29 3d e1 bf 31 3d
       0.061193995 -0.037970837 0.041310575 0.04339588
000150 46 5f f1 3c af a0 8a 3d a8 d9 a4 39 b1 31 48 bd
       0.029464375 0.06768929 0.00031442684 -0.048875514
000160 7a ae a3 bd dd 7b 75 bd 7c 7b 2a 3d 2c 49 8b 3c
       -0.07992263 -0.05993258 0.04162167 0.017002665
000170 c9 64 dd bc de 15 7c bd 0c f2 e1 bb 76 65 cf 3d
       -0.027025597 -0.06154429 -0.0068953093 0.10126774
000180 2f d4 7d bd 79 15 d6 3d 9b f4 f9 bc a8 b4 9a bc
       -0.061969932 0.10453314 -0.030512145 -0.018884972
000190 63 de 49 3d 10 a0 0a 3c 7d ee ad 3c a9 9a 67 3d
       0.04928435 0.008461013 0.021231884 0.05654398
0001a0 bb 2b 34 3d 6d 53 ec 3c ff 4d ae 3c 12 06 c8 3c
       0.043987017 0.028848374 0.021277426 0.024416957
0001b0 0f 9b 66 bd 95 4b 11 3d f9 f1 f7 3d e5 46 84 bd
       -0.05630022 0.03547247 0.121066995 -0.064588346
0001c0 55 e4 ff ba 98 8e 45 3d 4b c3 95 3d 1e d2 f7 3c
       -0.0019523004 0.04823169 0.0731264 0.030251559
0001d0 9e 18 8d bc 65 92 b5 bd 13 00 99 bd c3 22 6c 3d
       -0.017223652 -0.08865813 -0.07470717 0.05765034
0001e0 ca aa fd bc 61 33 13 bd a1 ed f5 bc 4f 3d e1 3d
       -0.030965228 -0.03593767 -0.030020537 0.10998022
0001f0 a9 fd 2c bd 8b 16 3c bd fe 98 ce 3c 3b 00 09 3d
       -0.042234097 -0.045919936 0.025219437 0.033447485
000200 da 1d 3a bd 07 25 73 3d 66 67 c6 3c 30 1d e2 bc
       -0.045438625 0.059361484 0.024219226 -0.027601808
000210 f1 5f 55 3d 51 73 ab bc 08 52 b1 3d c5 fb 02 3d
       0.05209345 -0.02092901 0.08658224 0.031978387
000220 75 b7 97 3d 0a 03 20 3d b0 41 67 3d 23 61 7e 3c
       0.074080385 0.0390654 0.05645913 0.015526089
000230 a1 80 2a be 15 a9 4e bd 57 40 bc 3c 6d 4e ad 3d
       -0.1665063 -0.050454218 0.022979898 0.08462224
000240 2f c9 88 bd cf 4b ad bc 0e d2 c5 3c 12 10 1d bd
       -0.06678998 -0.021154312 0.024148013 -0.038345404
000250 2b 9b fc bc fb f6 37 3c 58 f0 a0 3c 8b fb 39 3d
       -0.030835709 0.011228318 0.019645855 0.045405906
000260 d3 33 56 3d 93 b1 a8 3d 46 47 07 3e ea 5f 6e bb
       0.052295517 0.082369946 0.13210782 -0.0036373087
000270 2f 61 31 3d fd 47 5f 3d 11 1c 1b 3e cb 47 1e 3d
       0.043305572 0.054512013 0.15147425 0.038642686
000280 bd fd 6c bc 08 a0 8f 3d 8b ee 57 3e 99 ae 6a bd
       -0.014464793 0.070129454 0.2108709 -0.057295416
000290 bc a7 bf 3c 0b 02 a4 3d d5 fd 0f 3e b4 83 83 3d
       0.023395412 0.08008202 0.14061673 0.06421605
0002a0 e2 eb 62 bc fd 06 4d bd f9 6e d8 3d c4 af 75 bd
       -0.013850184 -0.050055493 0.10568041 -0.059982076
0002b0 f3 21 71 bd 62 09 bb 3c d8 19 c0 3d 15 a7 28 bd
       -0.058870267 0.022831623 0.09379929 -0.041174967
0002c0 cd cd 25 bb bc 80 8b bd 75 53 f3 bc 69 d7 36 bd
       -0.0025299669 -0.068116635 -0.029702881 -0.044639025
0002d0 bf 88 19 bd 86 44 01 3e 39 30 0b bc 63 e5 44 3c
       -0.037483927 0.12623796 -0.008495384 0.012017581
0002e0 88 1e 75 bc 8d 85 08 3d c7 c8 7a 3d f1 53 05 bd
       -0.0149608925 0.03333049 0.061226632 -0.032550756
0002f0 04 16 90 3d ba dd 14 3d 8b 72 93 bc 48 b7 15 3d
       0.07035449 0.036344267 -0.017998954 0.036551744
000300 a4 b1 3f bc 61 8d 83 3d 6e 77 ac bb e2 2f 4d 3d
       -0.011700068 0.0642345 -0.0052632606 0.050094493
000310 5a 29 24 be 85 c1 e6 bd db 6a ef 3c 3f aa 3b bc
       -0.160314 -0.1126738 0.029225757 -0.011454164
000320 e6 9f b4 bb 11 17 95 bc da 56 7c 3d d3 de bc 3b
       -0.0055122254 -0.018199475 0.061606266 0.0057638674
000330 4e 14 17 bd dd 83 9c 3d e9 c9 26 3d fd 8e 53 3d
       -0.0368846 0.076423384 0.0407199 0.051650036
000340 3d 4b 42 bd df 06 ce bc b9 76 06 be fe 76 f9 bc
       -0.047435034 -0.02514976 -0.13131227 -0.030452248
000350 2d 44 91 3c 13 03 c8 3d 70 d4 a7 3c 1c 12 e9 3c
       0.017732704 0.09766211 0.02048704 0.028451018
000360 4a 9c 92 3c 56 76 25 bb 6a 5e 25 3c 69 7a 96 bc
       0.01789679 -0.0025247536 0.010093311 -0.018368917
000370 10 33 29 3d 03 25 ed bc fd af cb bd 95 09 ea 3d
       0.041308463 -0.028948313 -0.099456765 0.11427609
000380 43 5c 5d 3d d0 f1 10 bd 60 30 87 bb f8 1c 01 3e
       0.054043066 -0.03538686 -0.00412564 0.12608707
000390 61 de 26 3d a6 4d 18 3d 8d 33 e2 3d 2b 6d 42 3c
       0.04073942 0.037183426 0.11044989 0.011866848
0003a0 75 99 aa 3d 4c 0c b2 bc e1 a2 36 3d 94 20 79 3c
       0.08330051 -0.02173438 0.044588927 0.015205521
0003b0 8c 34 83 bc b9 da 96 3c 52 8d cc 3d 0b c5 9f bc
       -0.016016267 0.018414842 0.09987892 -0.019503137
0003c0 12 7c 61 bd 1b bd 6c bd 56 79 b4 3d 47 3d df 3d
       -0.055049963 -0.057797533 0.088122055 0.109003596
0003d0 f6 9a 46 3d 22 e0 94 3b 5e 16 26 bd 7b fe 86 bc
       0.048487626 0.0045433203 -0.040548675 -0.016478768
0003e0 fb c1 38 bd ab 8f a2 3c 62 d6 dd bd 4d f9 7e 3d
       -0.04510687 0.019843897 -0.10831906 0.06224947
0003f0 e4 6b 38 bd da 43 03 bc 82 56 a7 3d 87 d7 5a bd
       -0.045024768 -0.008011783 0.08170797 -0.0534282

encoder_output_layer.bias f4 [128]
000000 59 cc ca 3d 93 75 ad 3c 90 bd 7d bd de d3 81 3d
       0.099022575 0.021174228 -0.06194836 0.063392386
000010 7e 8c 51 3c a3 ec 7c 3d 54 c1 ce 3c b7 3d 0f bc
       0.012789844 0.06174911 0.02523867 -0.008742741
000020 0f 7b 6c 3d f3 cc 67 3d cf e3 a7 3c 7b d8 8a bc
       0.057734545 0.05659194 0.02049437 -0.016948929
000030 2b 95 b8 3d 49 1c 0b 3c 19 fa 31 3d b0 57 3a 3d
       0.090128265 0.00849063 0.043451402 0.04549378
000040 90 39 52 3d c2 ad 76 3d 3c 3c 83 bc 09 ee b9 bc
       0.051324427 0.060224302 -0.016019933 -0.022696512
000050 7d e9 b4 3d 54 c9 9f bd 51 de d1 3d 88 a5 9e 3c
       0.08833597 -0.07802072 0.102474816 0.01936604
000060 fa af 42 3b c8 74 f9 3c 6a 7b 02 3d 88 8f 24 3d
       0.002970694 0.030451193 0.031855978 0.040175945
000070 a8 cb db 3d 31 90 fd bb b5 db a2 3d 97 e8 16 bc
       0.10732204 -0.007738136 0.07952062 -0.009210727
000080 e5 cb 07 3d d6 1c fb 3c 8d 77 be 3d 7c 33 30 bd
       0.033153433 0.030653398 0.09300146 -0.04301785
000090 41 e7 24 3b db 4e 89 bd 5f 14 4f ba 9b 9e 06 3d
       0.0025162252 -0.067044936 -0.0007899459 0.0328661
0000a0 40 1f b0 3d 6b c9 4f 3d e8 7d 18 3e e4 7d 80 3d
       0.085997105 0.050729197 0.1489178 0.06274012
0000b0 58 45 7c 3c 60 82 99 bc fe b8 a0 bd f3 15 0c 3d
       0.015397392 -0.018738925 -0.078477845 0.03420062
0000c0 3e 5f af 3d 9f 65 a4 3c d8 ae 20 3d 79 37 d6 ba
       0.08563088 0.020067988 0.039229244 -0.0016343436
0000d0 11 c0 52 bd 17 a9 4b 3d ec 25 21 3b bd ad a7 3d
       -0.0514527 0.049721804 0.0024589254 0.08187435
0000e0 45 0c 8b 3d 56 72 bc 3c ec 50 6c 3d 6c 06 18 3d
       0.067894496 0.023003738 0.05769436 0.0371155
0000f0 5f 57 bb 3c 91 65 5f ba 09 ae 0c 3d 5f c8 4c bc
       0.02286881 -0.00085219095 0.03434566 -0.012498944
000100 d2 d4 94 3d c3 35 6d 3d fe 0c 88 bc 30 a8 56 bd
       0.07267155 0.0579126 -0.016607758 -0.05240649
000110 8b d1 05 bd 97 d9 85 3d 49 ed c1 bd a6 da 5d 3d
       -0.03267054 0.065356426 -0.09469087 0.054163598
000120 1f b3 0f 3d a4 1b 02 3e 6c c5 ea 3c 9c c1 76 bd
       0.035082933 0.12705857 0.028658591 -0.060243234
000130 df ad d3 bb 00 3a 52 3d 1d a9 25 bd e4 2e 75 bd
       -0.006459936 0.051324844 -0.040444482 -0.05985917
000140 00 9f 10 bd 7f a3 cd 3c 00 d6 06 3d c2 fe 8f bd
       -0.035307884 0.025102375 0.03291893 -0.07031013
000150 ed 5d 02 3d 23 32 90 bc f8 5a 8e 3d 1a 9f 95 bc
       0.031827856 -0.017602032 0.06950945 -0.018264342
000160 e5 48 e9 3d b7 42 c0 bc 3d d1 7b 3d 34 92 bb bb
       0.11390857 -0.023469312 0.061478842 -0.005724216
000170 a2 57 9e 3d 2a d2 c2 3c 26 4c 96 3d 0e e5 81 bd
       0.077315584 0.023781855 0.07338743 -0.06342517
000180 d7 ec 80 3d 07 d1 97 ba f3 ab 8a 3b f9 d3 71 bd
       0.062951736 -0.0011582681 0.0042319237 -0.059040044
000190 11 c7 43 3d ab ef 77 3d 70 f3 35 bd 07 da 8a bc
       0.047797266 0.0605313 -0.044421613 -0.016949667
0001a0 2c 00 bd 3d 5d b9 27 bd 8f 84 a4 3d 36 be cd 3d
       0.092285484 -0.04094826 0.08033096 0.100460455
0001b0 cf 97 9f bc a2 e4 aa bc b4 6d a8 bc 42 2b 58 3d
       -0.019481568 -0.020860974 -0.020560123 0.05277563
0001c0 53 81 3c 3d 84 00 22 bd f0 1b 26 bd a4 8f bc 3d
       0.04602177 -0.039551273 -0.040553987 0.09207085
0001d0 54 e5 f7 3c 4b 12 78 3d 63 bc 90 3d 08 f0 f2 3c
       0.03026072 0.06056432 0.07067182 0.029655471
0001e0 0c 3a 37 bd 4f fb cc 3c 45 2a 1a bd 18 0f d2 3d
       -0.044733092 0.025022177 -0.037637968 0.10256785
0001f0 27 48 0f bc 7e 26 cf bb 18 90 8a af ca 01 e9 3d
       -0.00874523 -0.0063217273 -2.5204439e-10 0.11377294

decoder_hidden_layer.weight f4 [128, 128]
000000 fd 93 9e bd 5f f7 c8 bb f4 3a ee 3b 5b 6f bd 3c
       -0.0774307 -0.0061330046 0.0072702114 0.023124387
000010 9f e6 f4 3d 2f 80 d5 ba 81 0f c1 bd 53 34 85 bc
       0.1195805 -0.0016288812 -0.09426785 -0.016260302
000020 02 14 9f 3c 4a 75 62 bc 63 de 33 3d 0e d0 1b bd
       0.01941872 -0.013821909 0.043913256 -0.038040213
000030 8b d5 dc bb 3b c1 85 3d b3 3b 0b 3d 48 31 9a 3c
       -0.0067393235 0.065309964 0.03399248 0.018822327
000040 52 71 73 bd e9 71 d7 3c e5 d5 b3 bd 82 ca 3f bd
       -0.059434243 0.026299434 -0.087810315 -0.046823986
000050 80 ae a6 3d ef 31 d7 bc ce 3d 15 3c a1 b0 cf 3c
       0.08138752 -0.026268927 0.009108974 0.025352778
000060 78 9a 92 3c 8c 18 d5 bd 79 8e a2 bb 95 1f c7 bd
       0.017895922 -0.104050726 -0.0049608317 -0.09722821
000070 e1 be c3 3c 74 24 59 bc 75 67 ee bc 82 d6 9b 3d
       0.02389473 -0.01325332 -0.029102067 0.076092735
000080 9d 9d 30 3d f2 c5 0e 3d 88 d7 90 bd 60 9a a6 3d
       0.04311906 0.034856744 -0.07072359 0.081349134
000090 4d 8a 7e bd 85 fa 85 bc 61 b2 84 bc b0 64 8a 3d
       -0.062143613 -0.016354809 -0.016198339 0.06757486
0000a0 ee 3d b5 3d fe 71 fe bb 76 15 f1 ba b0 c9 b9 bd
       0.08849703 -0.007765054 -0.0018393237 -0.09071672
0000b0 73 d0 a2 3d a1 68 ce bc 9d 1c e5 3d 61 71 bb bd
       0.07949915 -0.025196375 0.11187098 -0.09152485
0000c0 61 ce 90 3d 33 b3 81 bd b7 88 3c 3d 5d fc fc 3c
       0.07070614 -0.06333008 0.04602882 0.030882055
0000d0 09 eb 99 3c 9e af ab bc 2a fb 77 bd 2f 58 cc 3d
       0.018788831 -0.020957764 -0.060542263 0.09977757
0000e0 df 26 5a 3d 6f ac 84 3d 24 7d 5b 3d b6 78 1f 3d
       0.053259727 0.064782016 0.05358614 0.03893348
0000f0 2b 03 8e bd fb 08 0a bd 71 a3 8c 3d 87 77 cf 3c
       -0.06934198 -0.03369997 0.068671115 0.02532555
000100 6a 29 b0 bb 20 59 8d 3c 44 b8 0f 3d 11 b7 9f 3d
       -0.0053760307 0.017254412 0.03508784 0.07798589
000110 d1 75 c1 3c c0 bd 22 bd 31 a9 0a 3c 26 c4 b3 3b
       0.02361575 -0.03973174 0.00846319 0.005486029
000120 e3 5b bf 3d c6 1b 92 3d bf f1 92 bd 0f 5b 92 3c
       0.09343698 0.071342036 -0.07175016 0.017865686
000130 9a 6f f6 bc 8f 2f d4 bc 62 75 a8 bc 41 5d 14 3d
       -0.030082513 -0.025901584 -0.020563785 0.036221746
000140 b3 27 0c 3d df e7 aa bb 4f 52 fc 3d 91 c6 1c 3d
       0.034217548 -0.0052156295 0.123203866 0.038275305
000150 5f c8 57 3d 31 68 d7 bc 31 61 40 bd f7 0e 9b bd
       0.052681323 -0.0262948 -0.04696769 -0.07571214
000160 d0 0e a3 3d 01 e4 89 3d d9 76 cb bc fb 9c 08 3d
       0.0796181 0.067329414 -0.024836944 0.033352833
000170 6c f2 2d bc c8 73 95 bc 9e db c7 bd c6 fd fc bc
       -0.01061688 -0.018243685 -0.097586855 -0.030882727
000180 77 65 84 bc 20 65 51 bb 20 a9 0a bd 03 ec 1e bc
       -0.016161663 -0.0031951144 -0.033852696 -0.009699824
000190 cb 98 e3 3b af b6 70 3c 6a 63 f2 bb 6e 1b 39 3b
       0.0069457046 0.014691993 -0.007397105 0.002824511
0001a0 36 f3 64 3b 51 9d 54 3d b5 b4 43 3d 26 4b 3f bd
       0.0034935004 0.05190784 0.047779758 -0.046702527
0001b0 db a5 95 bd 99 78 32 3c a6 38 02 bd 32 af b2 3b
       -0.07307025 0.010893011 -0.031792305 0.005453014
0001c0 40 d7 83 bd 03 0d 5f 3d a1 df 47 3d 66 13 62 3c
       -0.0643754 0.05445577 0.048797254 0.01379857
0001d0 54 1e 51 3c 3e de 87 3c 44 7c 2b 3c da 13 0f 3c
       0.012763578 0.016585466 0.010466639 0.00873276
0001e0 40 e1 ec 3d b8 9e 49 3c 45 de 41 3d 17 bd 7c bd
       0.115664005 0.012305908 0.047331113 -0.061703768
0001f0 2f cc 96 3d 3b d4 81 bd a3 a1 d0 af b9 3c 32 3b
       0.07363164 -0.06339308 -3.794983e-10 0.0027196838
000200 02 ce cc 3c aa 25 3d 3d e9 e3 28 3d 45 60 a6 bd
       0.025000576 0.046178497 0.041232977 -0.08123831
000210 e9 4b 98 bc 9d 2c 41 3d dc 07 ad 3b 0c 9e 9a 3d
       -0.018590884 0.047161687 0.005280478 0.07549676
000220 b0 a6 0f bb 48 0b 85 bd be 2a 8f 3d 39 40 09 3d
       -0.0021919422 -0.06496292 0.06990574 0.033508513
000230 76 00 2b bd 39 a9 83 3d 90 8a a5 3d d4 a3 40 bd
       -0.041748486 0.06428761 0.08083069 -0.04703124
000240 96 7a 47 3d 77 8d 8c 3c 56 8a 8c 3d 8d 0c 14 3d
       0.04870089 0.0171573 0.06862323 0.03614478
000250 d3 2d 57 3c 4e d7 82 bb 2b 84 2b 3c 47 ca 95 3c
       0.013133484 -0.0039929515 0.010468523 0.01828493
000260 1f c8 81 3d 7e 61 78 bd 6e 8e 1c bb 23 a8 2c bc
       0.06336998 -0.06063985 -0.0023888606 -0.010538134
000270 e4 f0 a3 bc 4d b2 19 3d 1f 62 9e 3d 42 04 0d 3d
       -0.020012327 0.037523557 0.07733559 0.03442789
000280 ac 31 8c bd b4 91 f7 bc 6f 05 55 3c 0e 8f ad bd
       -0.06845412 -0.030220844 0.013001784 -0.08474551
000290 89 f7 51 3d 5a 19 0f bb 53 a5 05 bd 85 94 8f 3c
       0.05126146 -0.002183518 -0.03262837 0.017526874
0002a0 d0 a8 5c 3d d9 2f 23 bd 21 0a dd bd 0e ed f2 3c
       0.05387193 -0.039840553 -0.107929476 0.029654052
0002b0 a8 4f 7d 3d 5f 28 9a 3d 64 58 b1 bc ab 95 69 bc
       0.061843544 0.075272314 -0.021648593 -0.014256875
0002c0 ca 52 93 bd e0 3b c2 bb 21 4b e4 bc b6 9d a0 bd
       -0.07193525 -0.005927548 -0.027867856 -0.07842581
0002d0 00 c6 5f 3d 18 24 ef 3c e8 e2 82 bc 23 da 00 bc
       0.054632187 0.029192016 -0.015977338 -0.007864508
0002e0 27 da 04 3c 24 69 b1 3d 43 af 7c 3d 3c 9e 83 bd
       0.008108652 0.08662632 0.06169058 -0.06426665
0002f0 38 2c e2 3c db 1c 91 3d c9 dd 37 bd e6 7d 97 3d
       0.027608976 0.07085582 -0.044889245 0.0739706
000300 95 07 46 3d bd 50 a1 3d 8a e6 87 3b bb 66 ad 3d
       0.048347075 0.07876728 0.0041473554 0.0846686
000310 53 15 77 bd c3 8f 57 3c cc 50 12 bc 94 98 06 3c
       -0.06032307 0.013156834 -0.008930396 0.008215088
000320 b6 fb 10 3d 3a 1d ff 3b 15 8c 59 3d 19 ef b2 3d
       0.0353963 0.0077854665 0.05311211 0.087370105
000330 b8 59 b0 bc 1c 42 42 3d bf 5c 82 bd cb e2 60 3d
       -0.021527156 0.047426328 -0.06365346 0.054903787
000340 37 aa ce 3c 24 53 a0 3c ef 4a ed 3c c6 f9 9f bc
       0.02522765 0.019570895 0.028966395 -0.019528281
000350 29 b0 c5 3d 1a 01 e9 bc 42 92 c5 bc ec 48 7d bd
       0.096527405 -0.028442908 -0.024117593 -0.06183712
000360 f3 2d c2 3d 3c e9 01 be c8 a1 96 3d 06 7e a0 3c
       0.0948142 -0.12686628 0.07355076 0.019591343
000370 d6 7c 99 3c d8 11 f4 bc a3 e9 5c bd 61 e3 0d 3c
       0.018736284 -0.029793665 -0.05393375 0.008660168
000380 53 71 ef bc ad 36 dd bc 3e 46 2a 3d e4 d2 7b bd
       -0.029228842 -0.02700361 0.041570894 -0.061480418
000390 65 98 26 bc 28 85 93 bd 26 2b 63 bd c4 ae a8 3d
       -0.01016817 -0.07203132 -0.05546107 0.08236459
0003a0 eb 01 0a bb 43 02 ee bc 46 42 02 3d 42 58 b9 bb
       -0.0021058272 -0.029053813 0.031801485 -0.005656273
0003b0 a2 3d a8 3d a2 84 af bd e2 3f 11 bd 3d fd 4c 3d
       0.082148805 -0.085702196 -0.035461314 0.050046194
0003c0 36 18 a8 3d 14 ea 81 3c 97 99 8c 3d 11 f7 60 bb
       0.08207743 0.015858687 0.068652324 -0.003432695
0003d0 0a 2b bb bd 2c 2a 65 3d 07 a5 41 bd a8 7f 4f 3d
       -0.091390684 0.05594842 -0.047276523 0.05065885
0003e0 e0 29 32 3b 49 e6 8e bc 2d dc 36 bd 9d 3a 0d 3d
       0.0027185604 -0.017443793 -0.04464357 0.034479726
0003f0 a9 41 4c 3d aa 5b 41 3c ea 68 9b af 9a aa 3c bd
       0.049867306 0.01180164 -2.8268882e-10 -0.046061136

decoder_hidden_layer.bias f4 [128]
000000 9f cc 97 bd 7e d2 23 3b 66 21 43 3c 54 e6 cd 3c
       -0.07412075 0.002499729 0.011909818 0.025134243
000010 b0 67 0e bb d5 f0 9c 3b d0 91 c2 b9 bf a7 77 3d
       -0.0021729283 0.0047894516 -0.00037111202 0.06046271
000020 f7 f6 a5 bc d0 72 ae 3d 4b 05 5c 3d 86 4c da bd
       -0.020259364 0.085179925 0.053715985 -0.10659127
000030 5b 9f 97 bd 8e c9 6b 3d c8 47 eb ba 53 83 f6 bc
       -0.074034415 0.057565264 -0.001795047 -0.030091917
000040 c7 ac 13 bd 51 25 c5 bb 20 3a 59 bd df a1 a5 b5
       -0.036053445 -0.0060164114 -0.053033948 -1.2340569e-06
000050 06 5f f6 ba 30 25 53 b9 c4 70 4b 3c 02 44 11 bc
       -0.001879663 -0.00020136381 0.012417022 -0.008866312
000060 5a 17 52 3c 5e 7e d3 3d 03 8f 44 bd 3b ff 84 3c
       0.01282295 0.10326837 -0.04798795 0.016234985
000070 d5 71 f9 3d aa 13 d1 3d cc 63 f7 3d 57 19 5e bd
       0.12179915 0.10208829 0.120795816 -0.054223385
000080 e8 09 83 3c 03 b4 f7 3d 67 93 98 3d 56 9c aa 3d
       0.015995935 0.120948814 0.0744999 0.083306
000090 ab 4d 11 bd 56 8f 44 3d d8 15 36 3c bc 9e a2 3d
       -0.03547446 0.04798826 0.011113606 0.079404324
0000a0 71 0d 83 bd 10 fc 9d bd bc 83 ec 3c 6a e5 b4 3d
       -0.06399048 -0.07714093 0.02887141 0.0883282
0000b0 dd 5d 04 3c 56 3e 86 3c 17 e9 9d 3c bf 58 f6 bc
       0.008079019 0.016387146 0.019276185 -0.030071614
0000c0 6b b6 86 3c ea bb 06 3d 51 9e 2e b9 cd 43 4d bc
       0.016444406 0.032894053 -0.0001665291 -0.012528372
0000d0 ca cd 4b 3d 09 d3 ea 3c f6 85 47 bb ba 9b 20 3c
       0.049756803 0.028665083 -0.0030444837 0.009802753
0000e0 37 6a e6 3d e8 58 b2 3c 5d a6 85 b9 2d c2 c6 bc
       0.112507276 0.02177091 -0.00025491687 -0.024262512
0000f0 a8 a4 18 bc 00 39 93 3d 0e 9a ff 3b f0 29 7a bd
       -0.009316601 0.07188606 0.007800347 -0.06107515
000100 2e 52 ea 3c 65 b8 08 3d 0f 79 b9 3d c7 b4 46 3d
       0.02860364 0.033378977 0.09056293 0.048512246
000110 82 ba 6e bd 12 35 57 3d 98 be 45 bd 0a fe 24 3d
       -0.058283336 0.052540846 -0.048277467 0.040281333
000120 1f a7 59 3d f8 28 15 bd 1c 58 53 bd 62 f9 8b 3d
       0.053137895 -0.036416024 -0.0515977 0.06834675
000130 1f 32 37 bd 50 48 ab 3b a0 31 85 3d 3e 85 10 3c
       -0.044725534 0.005227126 0.06503606 0.00882083
000140 99 64 c0 bc e7 0f 60 bc 3f 5a 57 b6 5d f2 56 3d
       -0.023485469 -0.013675666 -3.2090027e-06 0.05247723
000150 3e 85 86 3d 98 9b bd bc 25 a2 a6 b4 e3 87 a7 3b
       0.06568383 -0.023145482 -3.1037885e-07 0.0051126345
000160 eb 62 d8 bc 31 64 4b bb c3 14 19 bd 1b 7f bb bc
       -0.026414355 -0.003103506 -0.037373316 -0.022887757
000170 60 53 48 bd 9e 38 4e 3d c0 ee 92 3d fe d5 ae 3d
       -0.048907638 0.050346963 0.07174444 0.085369095
000180 41 8a 55 bd 18 35 02 bc 71 0a 9b 3c 38 57 1f bd
       -0.052133802 -0.007947229 0.018925877 -0.038901538
000190 e5 38 80 3d 01 a4 40 3d 8c 18 c3 3c 73 03 84 bd
       0.06260852 0.047031406 0.023815416 -0.064459704
0001a0 bf 11 60 3d c2 1c 99 3c 8f 12 4f 3c 5f b3 d3 bc
       0.054704424 0.01869047 0.012638702 -0.025842367
0001b0 7f 87 fe 3a c6 31 5e bd 41 ca f3 bc ca 93 8a bc
       0.0019419043 -0.054246686 -0.029759528 -0.016916174
0001c0 29 8d 2b bd e8 e2 2c bd e0 a5 3e bd eb a2 8d 3c
       -0.041882668 -0.042208582 -0.04654491 0.0172896
0001d0 a0 b7 96 bd f8 55 20 bd b4 d4 29 3c ac 55 e1 3c
       -0.073592424 -0.039144486 0.010365654 0.027506672
0001e0 25 b7 9c 3d c8 e5 7d bd a0 19 8a 3d 6c 9f 10 3d
       0.076521195 -0.061986715 0.06743169 0.035308287
0001f0 32 3c 94 bd 61 ec 0c 3c c1 74 37 bd c8 bb 16 3d
       -0.07238044 0.008601279 -0.04478908 0.036800176

decoder_output_layer.weight f4 [128, 128]
000000 9b ed de bd ea ea 28 3d 07 b5 36 bd 90 9f 4c 3d
       -0.108851634 0.041239657 -0.044606235 0.04995686
000010 97 43 f5 3c 39 60 fd bc 3f 93 97 1e fd 2c fc 3c
       0.029939456 -0.030929672 1.6048646e-20 0.03078317
000020 89 7e 28 bd 48 ae fb bc 63 a4 90 3c ad 50 d0 bb
       -0.0411363 -0.030722752 0.01765651 -0.0063572736
000030 9a b0 08 3c 20 16 28 3e 28 13 37 3d 30 3b ee 3c
       0.008342886 0.1641469 0.044696003 0.029080957
000040 16 57 b9 bb 82 1f 97 3d 19 d5 62 bb 5c de 9d 8e
       -0.0056561334 0.073790565 -0.003461188 -3.8917612e-30
000050 04 3b 1a bb 04 17 1c 9d a3 23 0f 3c fd 7a dc 3c
       -0.0023533711 -2.0658327e-21 0.008736524 0.026914114
000060 66 df 8f bd cc 9b 89 3d 40 5e 21 bc 74 78 8e 3c
       -0.07025032 0.06719169 -0.009849131 0.01739142
000070 92 28 53 3b 7a 91 ca bc b4 0b 6c bc 2c ef 83 bd
       0.0032220227 -0.024727572 -0.014407087 -0.06442103
000080 d6 36 db bc 1c e6 b1 bc b8 7a 24 3d 18 eb 71 3d
       -0.026759546 -0.02171617 0.040156096 0.059062093
000090 5d e1 a3 3d ad 08 be 3c ef eb 32 bd 11 63 85 3d
       0.08001969 0.023197496 -0.043682035 0.06513036
0000a0 5f be 88 bc 68 ea 5a bd 21 81 e5 3c 9b 56 83 3c
       -0.016692339 -0.053446203 0.028015675 0.016032508
0000b0 50 be 1b bc f8 16 22 3d 0e aa 72 3d af 29 65 bb
       -0.009505823 0.039572686 0.059244208 -0.0034967472
0000c0 da fe ff bc 25 48 a0 bc 80 d7 54 bc c7 58 83 3d
       -0.031249452 -0.019565651 -0.012990832 0.06413417
0000d0 dd 03 22 3d 52 3a 64 bd 01 8a d9 0e ef e8 dc 3d
       0.039554466 -0.05571968 5.3627523e-30 0.10786616
0000e0 e6 02 e6 ba 74 14 78 bc 03 0a 0c bd 5f 89 8e bb
       -0.0017548471 -0.015141595 -0.034189235 -0.004349872
0000f0 52 a4 32 bd 4d ce 96 3c ed 7c 97 bb 8b 62 b1 3c
       -0.04361374 0.018408919 -0.0046230466 0.021653434
000100 a6 36 7e bd ed 7d 12 3d 73 a9 04 3d fc 82 81 bc
       -0.062063836 0.035764623 0.032388162 -0.015809529
000110 26 0f 88 bd 6c d9 33 3d ae bf 6f bc ad 91 9c bb
       -0.06643514 0.04390852 -0.014633102 -0.004778108
000120 a7 3f c2 3c ec ac 65 3b 6b bb 20 3c 0d 60 9a bc
       0.023711992 0.0035045696 0.009810309 -0.018844629
000130 6e 7f bd 3d 6c ad 34 bd ab 9c 9f bb 94 c3 b4 3b
       0.09252821 -0.0441107 -0.004870971 0.005516479
000140 d1 1d 32 bd 78 59 95 bd c4 3e d5 1e 69 5e 2f 3d
       -0.043485466 -0.072924554 2.2578211e-20 0.042814646
000150 1c 05 12 3c 13 17 b4 8f 7f ac e7 1e 34 b7 3d 3c
       0.008912351 -1.7758258e-29 2.4529419e-20 0.011579324
000160 02 d6 a4 3b de a8 e5 92 e8 5c 0e 3d 3c e1 49 bd
       0.0050303945 -1.4493561e-27 0.03475657 -0.049287066
000170 65 6d 09 bb 95 6b 2c 3d dd e3 8e 3c fd 44 37 bc
       -0.0020969745 0.042094786 0.017442638 -0.011185882
000180 b5 5b c2 3d d6 6d 02 3d 72 90 9d bc c3 85 05 3c
       0.09490148 0.03184303 -0.019233916 0.008149567
000190 98 bf 53 bc fd 85 1b bc c0 62 50 bc b0 ce 48 bd
       -0.0129240975 -0.0094923945 -0.012718856 -0.049025238
0001a0 3b 77 f2 bb 03 cf b2 bb cc 03 bc bc 10 63 6d 3b
       -0.0073994673 -0.0054568066 -0.02295103 0.0036222376
0001b0 81 0b 6e bc 54 57 07 bd ae 50 45 3d cb 74 0a bb
       -0.01452911 -0.033042267 0.048172645 -0.0021126743
0001c0 45 eb 5c bc 63 f9 b9 3b af cf 95 3c 36 46 3c 3d
       -0.013483827 0.005675481 0.018287508 0.045965396
0001d0 d3 1f c6 3c 83 ac 69 3d c1 ae 18 bd e7 c6 11 bd
       0.024185097 0.057049286 -0.037276033 -0.03559008
0001e0 33 a7 6f 39 9f 83 eb bc 09 36 ea bc a3 5d 55 bd
       0.00022855103 -0.028749285 -0.02859022 -0.052091252
0001f0 d5 a2 f1 bd ee 3e f1 ba 26 6c 7a bc 2a b4 5b 3d
       -0.11798636 -0.0018405595 -0.015284574 0.053638615
000200 e4 35 4a bd b5 4d 38 3d c0 79 2f bd 8a 25 05 3d
       -0.0493678 0.044995982 -0.04284072 0.032506503
000210 e6 d1 bd 3c 6f 83 68 bc 57 07 58 3b fa 10 0d 3d
       0.023171376 -0.014191492 0.003296336 0.03444002
000220 b6 1c 1d bd 97 bd 6e bd 17 14 0b 3c 8e 55 b3 3c
       -0.03835746 -0.058286276 0.0084886765 0.021891382
000230 6a 95 39 3d 0c 73 d6 3d b4 82 0a 3d 82 49 9a 3d
       0.045308508 0.10471162 0.033816054 0.07533552
000240 aa 91 c0 3b 80 bb 3d 3d 76 74 43 3c 29 ab 30 3a
       0.0058767395 0.046321392 0.011929622 0.0006739372
000250 22 70 e4 3b c2 9c 53 3b 1f 57 a1 3c 83 81 60 3d
       0.006971375 0.003228948 0.019694863 0.054811012
000260 5c 02 4d bd ff 3e 1a 3d 71 8a 94 3b f8 36 8b 3a
       -0.05005108 0.037657734 0.004533105 0.001062124
000270 dd fe c1 3c e8 27 03 bd 28 0f d3 bb ac d8 8d bd
       0.023681099 -0.03202048 -0.0064410158 -0.069260925
000280 5a 10 2e bd d6 2b ea bc ec a5 ac 3c 49 3c 22 3d
       -0.042496063 -0.028585356 0.021075211 0.039608274
000290 a3 2f db 3d 94 62 d6 3c ab 7a eb bc 15 8e 50 3d
       0.10702445 0.026170053 -0.028745016 0.05091675
0002a0 c8 49 1d bd 76 4c 73 bb bf f4 db 3c 7c 53 eb 3c
       -0.03840044 -0.0037124432 0.026850102 0.028726332
0002b0 3e 5f e7 bc b6 05 f0 3c 74 c2 24 3d 74 40 69 bc
       -0.028243657 0.029299598 0.040224507 -0.014236558
0002c0 56 7c 8e bd 89 0b 9f bc 0a a2 2a bd 68 c7 d5 3c
       -0.06957309 -0.01941468 -0.04165844 0.02609606
0002d0 29 c7 68 3c ac a9 99 bd f2 a8 b9 3b 8c aa 94 3d
       0.01420764 -0.075030655 0.005665892 0.07259092
0002e0 18 b9 e7 3b 3c b9 32 bc f2 27 78 bc fe 03 f4 ba
       0.0070716254 -0.010908421 -0.015146242 -0.0018616912
0002f0 a7 0f 60 bd ff ad 94 3c 06 2b 90 3b 06 6b 42 3d
       -0.054702427 0.018149374 0.00439966 0.047465347
000300 9b 62 a4 bc e2 84 17 3d e2 6c a5 3c dc 19 5e 39
       -0.02006655 0.03699196 0.020193521 0.00021181203
000310 e2 9d 19 bd 78 c1 66 3d 69 d5 c6 bc 79 e8 40 bc
       -0.037504084 0.05633685 -0.024271684 -0.011774176
000320 13 e4 d6 3c 77 ea 29 3c 8b 50 4d 3b 1c 3a b9 bc
       0.026231801 0.010370842 0.0031328525 -0.022610717
000330 09 39 7e 3d 0c 96 85 bd c8 ca 37 3b f6 6d f4 3c
       0.06206611 -0.0652276 0.002804445 0.02983759
000340 f2 ff 16 bd e1 1f 91 bd 6f e0 df bb 9c 01 df 3c
       -0.036865182 -0.070861585 -0.0068321745 0.027222447
000350 01 ce 3f 3c 63 0d 5f 91 95 e1 d9 b7 49 4e 8a 3c
       0.01170683 -1.7595723e-28 -2.597346e-05 0.016883032
000360 cc af a8 3c 90 96 f1 3a 31 fd cc 3c ae 05 93 bc
       0.020591639 0.0018431712 0.025023075 -0.017947044
000370 0e ce fc ba 10 99 14 3d 87 b1 d9 3b 0e d4 8a bc
       -0.0019287483 0.036278784 0.0066434774 -0.016946819
000380 23 e9 71 3d 63 10 e2 3c 83 79 c5 bc f8 1b 89 3c
       0.059060227 0.027595704 -0.024105793 0.01673697
000390 5d 5c f5 ba f8 50 d3 ba bf bd fd bc 0b d7 31 bd
       -0.0018719543 -0.0016122153 -0.030974267 -0.04341797
0003a0 5d 03 5a bc 38 0d 05 bc 42 e5 a2 bb 1e d9 2e bb
       -0.013306466 -0.008120827 -0.0049711773 -0.0026679705
0003b0 9a 6f c3 bc 94 0a 9a bd f4 4e f6 3c ce 85 39 3c
       -0.023856927 -0.07521549 0.030066945 0.011323405
0003c0 22 16 a6 3b 81 71 40 3c 3b f7 ba 3c ff 7f 9f 3d
       0.0050685564 0.011745811 0.022822967 0.07788085
0003d0 c9 c8 6a 3c 8a 21 62 3d 78 1a b5 bc 38 87 95 bc
       0.0143300975 0.055207767 -0.022107348 -0.018252954
0003e0 f0 b1 dd bb ad a3 b7 bc c6 85 f2 bc fe 73 d6 bc
       -0.0067655966 -0.022416914 -0.029604804 -0.026178356
0003f0 a6 4d af bd 54 b0 ee 3b 0b e4 a9 bc 92 63 25 3d
       -0.08559732 0.0072842035 -0.020738622 0.04037816

decoder_output_layer.bias f4 [128]
000000 39 de b5 3c 39 17 44 3c 4a 80 4d 3c f4 e3 be bc
       0.02220069 0.011968427 0.0125427935 -0.023302056
000010 68 f1 77 bd 86 a0 8b bc 22 2d e1 b8 f8 b0 25 bd
       -0.060532957 -0.017044317 -0.00010737243 -0.040451974
000020 24 af 3f 3d ee 74 87 3d 25 8b 42 3c a6 b1 4a bc
       0.046797886 0.066140994 0.011873995 -0.012371456
000030 71 11 6b 3d 80 56 df 3d 8e f6 10 3c 1d 5b 15 bb
       0.05738968 0.109051704 0.008847846 -0.0022789903
000040 bb 6f 2a bb f9 cd 2c ba 30 5a 19 3b 2b 37 02 bd
       -0.0026006538 -0.00065919716 0.0023399703 -0.031790894
000050 99 bf 9d bc 9a e7 f6 3c fe d5 61 bb 3a 8c e9 bc
       -0.0192564 0.030139733 -0.0034459825 -0.028509248
000060 9b 3d 10 bd 09 f7 0b bd 75 a4 5e 3d 03 71 69 3c
       -0.035215 -0.034171138 0.054356057 0.0142481355
000070 b6 08 bd 3c 70 dc b7 bc 3f 88 81 3c 09 85 48 3b
       0.023075443 -0.02244398 0.015812038 0.0030596873
000080 64 67 05 bd 7f 59 e2 3c 6b 9d a8 39 a8 4e 11 3c
       -0.032569304 0.027630566 0.00032160743 0.008868851
000090 fd f6 dc 3c 1b cc b7 b9 fa 90 16 3d 7f 40 6c bc
       0.026973242 -0.0003505655 0.036759354 -0.014419674
0000a0 ba d9 6a bd 71 5d 53 3d 47 55 2c bd 9d 59 46 bc
       -0.057336546 0.051602785 -0.042073514 -0.012106326
0000b0 9c 27 e5 bc a3 e6 1d 3d e0 c7 d2 bb c7 e2 80 3d
       -0.027972989 0.03855003 -0.0064325184 0.06293254
0000c0 66 6e 75 3c 0f 3f 89 3d 30 5a 56 3c ed b4 2b 3d
       0.014979934 0.067014806 0.013083026 0.04192059
0000d0 7c e0 a9 bc 8a cd 00 bd 3f 93 f2 bc 50 fc fc 3c
       -0.020736925 -0.031446017 -0.029611228 0.03088203
0000e0 06 a8 f9 bb bd 7a d0 bc 74 7a 7b bc 60 61 17 3c
       -0.007618907 -0.025449151 -0.015349019 0.009239525
0000f0 3a 1f e4 ba f0 0c 30 b6 8e 74 9e 3b f5 0f 96 3c
       -0.0017404326 -2.6233574e-06 0.0048356717 0.018318156
000100 3f 3c c0 3b da c6 d1 a3 2f 81 91 bb 2d 6a 10 bd
       0.005866557 -2.2744042e-17 -0.0044404487 -0.035257507
000110 e4 b0 b4 3b 19 c4 eb b8 c3 1d c1 3b 8e e6 6e 3d
       0.005514251 -0.00011242199 0.0058934405 0.058325343
000120 93 97 2e 3d 3b fc d5 3c e4 20 02 3d c1 6e 6a bd
       0.04262502 0.02612125 0.03176965 -0.05723453
000130 30 40 a3 bc 70 ea 74 3d 1b 84 5b bd d7 3a b1 b9
       -0.019928068 0.05979389 -0.053592782 -0.0003380391
000140 00 d9 1f 3d 4e 22 83 bd 1e 5d fa bc 29 71 7f 3c
       0.039025307 -0.064030275 -0.03056198 0.015590944
000150 ee 56 98 3c db cf 4e bb e4 2b 84 bc 46 04 ee 3c
       0.018596139 -0.0031556997 -0.01613421 0.029054772
000160 41 22 01 3c 2d 0d b9 bc 6f e9 f4 3c dd fb 4d ba
       0.007881702 -0.02258929 0.029896466 -0.000785766
000170 30 39 00 bb 32 a0 60 bd 3a 55 ee bc 52 1e 9a 3c
       -0.0019565336 -0.054840274 -0.029093374 0.018813286
000180 dd 97 3a bc e2 8d 07 3d d3 99 8a 3c 04 98 8d 3d
       -0.011388746 0.033094294 0.016919052 0.0691376
000190 c9 b1 b4 3c 07 47 80 3d 06 c5 a3 3c 26 90 f4 3c
       0.02205743 0.062635474 0.019991409 0.029853892
0001a0 db 91 76 3c bd 31 95 bc 80 69 59 3b 26 4e d3 3c
       0.015049423 -0.018212194 0.0033174455 0.0257941
0001b0 e3 00 a1 3c 7d 5f 67 3d c2 65 c3 3b e8 29 62 3d
       0.019653743 0.05648755 0.005963058 0.055215746
0001c0 de 89 8d bc a5 a0 8e 3b 10 a5 83 3c 12 48 5c 3c
       -0.017277654 0.0043526464 0.016069919 0.013444917
0001d0 4f 31 86 3b 4f 3d 79 3c c9 7d 84 bd aa 9b cd bc
       0.0040952335 0.015212371 -0.06469304 -0.02509864
0001e0 3a d6 ef 3c 6e b3 07 bd 83 29 74 3c 8d 07 a7 bb
       0.029276956 -0.0331301 0.014902475 -0.0050973357
0001f0 49 bb eb 3c f0 6f 4d bd be 30 a3 bc df 59 13 3d
       0.028775828 -0.05015558 -0.019920703 0.03597438
