results/milestone/programming tutorials/GCP/params/AE/params14.pt (torch_old, 265742 bytes, 8 tensors)

encoder_hidden_layer.weight f4 [128, 128]
0.06768253 0.11755035 -0.056400664 -0.06577638 0.059743945 -0.0065191267 -0.029659858 -0.05892608
0.035234217 -0.024057839 0.08870531 0.018051099 -0.059346806 0.036030054 -0.029795755 -0.044985317
-0.06953728 0.050207052 0.059331317 0.08903737 0.09101465 0.014391753 0.067441836 -0.025223695
-0.017287852 0.0054517156 0.04737756 -0.02995821 0.058949646 -0.027449248 0.03127244 0.06205261
0.07638893 -0.048185304 0.038522422 0.1031928 0.051862944 0.07300221 0.07096103 0.095006734
0.006772778 0.055212725 0.09174309 -0.033463065 0.02358063 -0.005828764 -0.041189365 -0.005820154
0.086283416 -0.01658252 -0.03415275 -0.008383487 -0.064333215 -0.017689735 -0.0043287985 0.019835616
0.0025000514 0.05980119 -0.030638706 0.008947811 -0.059577134 -0.054752555 -0.053511295 0.027543634
0.037766483 -0.07651567 -0.06331643 0.04057531 -0.0067250244 0.05658361 -0.04290629 0.099703535
-0.054643635 -0.024874063 0.08228034 0.0015560177 0.07714683 -0.028213695 0.015366011 -0.020865936
-0.02701329 -0.00025919883 0.08549632 -0.062535 0.045678437 0.08465656 0.08588119 -0.043055154
0.10312225 -0.0024533945 0.055468194 -0.0021711662 -0.05922529 0.035968445 0.07468797 0.012777529
-0.06465944 0.04615142 0.079616025 0.10050111 0.08495787 0.025601339 0.091571204 -0.0112790475
-0.05249116 0.014986226 -0.05357322 0.020667959 -0.01837569 -0.06760447 0.012819047 -0.03343194
0.06424763 -0.023053015 0.034934297 -0.038339533 0.0035300804 -0.016273644 -0.058379393 -0.077503435
-0.010534705 0.02326466 -0.053446803 0.051805984 0.0894035 -0.038644742 -0.012873469 -0.03820615
-0.055062126 -0.057089563 0.012488055 -0.091435134 0.03065501 0.05324759 0.06014138 0.019582354
0.05766253 0.10190533 0.0025171961 0.011048442 -0.02700447 -0.051400352 -0.117191434 -0.07522203
-0.052091345 -0.096198864 -0.07946186 -0.11508141 -0.10656656 -0.025366552 -0.055573937 0.025350358
0.017165285 0.029756539 -0.037713524 -0.036174875 -0.0113413725 -0.02409446 -0.0022876535 -0.036441654
-0.012773327 0.030391427 0.09755913 0.047087457 0.11483371 0.079169445 0.08450799 0.10308171
0.056763813 -0.017556103 -1.960924e-05 -0.01423182 -0.042131722 -0.07046645 -0.018400008 -0.038023118
-0.07334249 0.014730732 0.08611476 0.13911572 0.13486315 0.052102163 0.12618457 0.13454337
0.12316615 0.11137967 0.03684944 -0.039075565 -0.12316417 -0.10401419 -0.15525132 -0.21129331
-0.054683648 0.029822739 -0.012193335 -0.010809912 0.011961939 0.010244018 -0.05117548 -0.06879565
-0.100887746 -0.04037072 -0.0028022174 0.014565338 0.037060484 0.09240848 0.04876362 0.02187042
-0.040120322 -0.0475968 0.027971199 -0.016221942 -0.036716513 -0.042558957 -0.066324815 -0.04130646
0.0017541219 -0.06737065 -0.0050340975 -0.00204012 -0.03165163 -0.007480162 0.026520988 0.019470276
0.084358335 0.0034317286 -0.011730559 0.00599266 -0.0073286872 -0.0069257836 -0.014854765 0.030000728
-0.033270415 0.025766792 0.047567617 -0.017172514 0.0023062872 -0.007101388 0.012877803 -0.033725426
0.0079441825 -0.027915811 -0.037536632 -0.016053604 -0.04438249 -0.016732635 -0.03481861 -0.016016426
-0.038248926 -0.05169264 0.010561163 0.022541443 -0.029283166 0.013749838 -0.12678827 -0.107178316
00000000: 239d 8a3d 3dbe f03d 6204 67bd c4b5 86bd
00000010: 11b6 743d 669e d5bb 3bf9 f2bc 795c 71bd
00000020: c151 103d f214 c5bc 21ab b53d e6df 933c
00000030: a315 73bd 4094 133d 3a16 f4bc 8642 38bd
00000040: 9069 8ebd e9a5 4d3d 6505 733d 3a59 b63d
00000050: e465 ba3d 63cb 6b3c f21e 8a3d eca1 cebc
00000060: 419f 8dbc 4ea4 b23b f90e 423d ec6a f5bc
00000070: 2f75 713d 3fdd e0bc 8817 003d e12a 7e3d
00000080: cd71 9c3d f45d 45bd b0c9 1d3d bf56 d33d
00000090: 3d6e 543d 2f82 953d 0454 913d e492 c23d
000000a0: 2eee dd3b bd26 623d cde3 bb3d 9110 09bd
000000b0: 2a2c c13c 37ff bebb 2eb6 28bd feb6 bebb
000000c0: 5cb5 b03d 11d8 87bc c1e3 0bbd e55a 09bc
000000d0: 22c1 83bd 10ea 90bc 98d8 8dbb 4d7e a23c
000000e0: e7d7 233b 18f2 743d 06fe fabc d799 123c
000000f0: 2707 74bd 3744 60bd a92e 5bbd 30a3 e13c
00000100: 07b1 1a3d 3fb4 9cbd 0bac 81bd 4c32 263d
00000110: 985d dcbb 37c4 673d 82be 2fbd 5e31 cc3d
00000120: 01d2 5fbd b1c4 cbbc 9882 a83d 4af3 cb3a
00000130: 28ff 9d3d 6820 e7bc b9c1 7b3c 0aef aabc
00000140: fa4a ddbc 14e5 87b9 b218 af3d 5a12 80bd
00000150: 5019 3b3d 6b60 ad3d 7ae2 af3d 9a5a 30bd
00000160: c231 d33d 21c9 20bb 9e32 633d 204a 0ebb
00000170: 3896 72bd a653 133d 02f6 983d d758 513c
00000180: 2b6c 84bd 4509 3d3d ba0d a33d 87d3 cd3d
00000190: 64fe ad3d e6b9 d13c af89 bb3d c1cb 38bc
000001a0: f800 57bd ca88 753c 986f 5bbd da4f a93c
000001b0: 9d88 96bc 3674 8abd fb06 523c eeef 08bd
000001c0: 4394 833d add9 bcbc 4417 0f3d ea09 1dbd
000001d0: ec58 673b 4e50 85bc 3b1f 6fbd 1fba 9ebd
000001e0: c199 2cbc 8795 be3c 09eb 5abd 8332 543d
000001f0: 2f19 b73d f349 1ebd 3eeb 52bc 0d7e 1cbd
00000200: d388 61bd bfd6 69bd b39a 4c3c 5842 bbbd
00000210: 3720 fb3c 251a 5a3d cf56 763d 2c6b a03c
00000220: 8c2f 6c3d beb3 d03d 8bf7 243b 8604 353c
00000230: 7a38 ddbc 2d89 52bd 1002 f0bd 020e 9abd
00000240: bc5d 55bd e903 c5bd e6bc a2bd cdaf ebbd
00000250: 923f dabd 84cd cfbc 7fa1 63bd 8eab cf3c
00000260: 369e 8c3c fcc3 f33c 7f79 1abd 1b2c 14bd
00000270: 2ad1 39bc bf61 c5bc 75ec 15bb d843 15bd
00000280: 3747 51bc 71f7 f83c 15cd c73d c7de 403d
00000290: f02d eb3d 9723 a23d 8612 ad3d 811c d33d
000002a0: 2c81 683d d1d1 8fbc 867e a4b7 942c 69bc
000002b0: 5092 2cbd b750 90bd 9dbb 96bc 21be 1bbd
000002c0: 9634 96bd 2b59 713c ef5c b03d 5a74 0e3e
000002d0: 9119 0a3e 1469 553d 8736 013e bdc5 093e
000002e0: 893e fc3d 061b e43d 70ef 163d b30d 20bd
000002f0: 7f3d fcbd 6405 d5bd 34fa 1ebe 465d 58be
00000300: f6fb 5fbd d14e f43c 8ec6 47bc 0f1c 31bc
00000310: 02fc 433c 87d6 273c 619d 51bd bce4 8cbd
00000320: 3c9e cebd c55b 25bd 68a5 37bb 75a3 6e3c
00000330: bccc 173d a840 bd3d 5dbc 473d 9829 b33c
00000340: 3555 24bd ddf4 42bd db23 e53c e1e3 84bc
00000350: 0e64 16bd 4d52 2ebd 4ed5 87bd f630 29bd
00000360: 90ea e53a a0f9 89bd 12f5 a4bb 89b3 05bb
00000370: 24a5 01bd 261c f5bb 8b42 d93c 2180 9f3c
00000380: 10c4 ac3d dae6 603b 8831 40bc 135e c43b
00000390: 7c25 f0bb aff1 e2bb 6661 73bc 16c4 f53c
000003a0: 8f46 08bd e114 d33c 43d6 423d 5fad 8cbc
000003b0: 1425 173b c3b2 e8bb 6cfd 523c ac23 0abd
000003c0: 5128 023c b3af e4bc 03c0 19bd d982 83bc
000003d0: 6aca 35bd e112 89bc f59d 0ebd e134 83bc
000003e0: e8aa 1cbd a9bb 53bd ba08 2d3c d5a8 b83c
000003f0: 40e3 efbc 0047 613c c9d4 01be 4e80 dbbd

encoder_hidden_layer.bias f4 [128]
0.003237586 0.16958609 0.071521446 -0.031511094 -0.06254416 -0.02113491 0.124566406 0.0023955738
-0.0099350065 -0.005050198 -0.008367782 -0.054878704 0.12309732 0.07478658 -0.06632571 0.08433152
0.19655927 0.06553719 0.046086606 0.06373864 0.079747535 0.07295863 0.18541253 0.089105636
0.008194577 0.2931225 0.058059752 0.07636766 0.283352 0.10277769 0.07589218 0.00014981975
0.106117874 0.0037002729 0.10081929 0.013220605 0.10154831 0.13001673 0.18067831 0.2314512
0.21378575 0.1018146 -0.012995023 0.05354118 0.118899986 0.042413745 0.25867087 -0.023345321
0.124609515 0.13054377 0.02655038 0.044960897 0.13618125 0.12434029 0.1405816 0.13264038
0.044994865 0.29970607 0.058930125 0.007198497 0.27173525 0.07687823 0.025343496 0.036932275
0.17313884 0.068502784 -0.039930433 0.02504077 0.24850143 0.18702252 0.24011834 0.06329806
-0.066486545 0.1412142 0.030952897 0.12403192 0.028015958 0.039702702 0.1465848 0.043425012
0.057651892 0.09170208 0.15463206 -0.028208876 0.03283541 0.19725533 -0.011291455 0.22470903
0.07603384 0.116954975 0.1111833 0.023042157 0.09184538 0.08399628 0.13037558 0.015767086
0.1514212 0.026689015 0.09598298 0.25463092 0.071515016 0.02793434 0.15319535 -0.055315226
0.07453637 0.13849281 0.002643761 0.10831738 0.083365925 0.091434844 0.124729894 0.05030005
0.05104551 0.08033232 0.27760544 -0.05681722 -0.024625871 0.20819333 0.065294884 0.08043381
0.12140146 0.018173272 0.096686564 0.11065946 0.061618097 0.011009331 0.13083825 0.09572529
00000000: ae2d 543b faa7 2d3e d679 923d c711 01bd
00000010: 2717 80bd 1e23 adbc ac1c ff3d 0fff 1c3b
00000020: 70c6 22bc 227c a5bb 0619 09bc 7ec8 60bd
00000030: 731a fc3d b529 993d c6d5 87bd 01b6 ac3d
00000040: d546 493e 5d38 863d 4fc5 3c3d 6789 823d
00000050: ad52 a33d 566b 953d c8dc 3d3e 047d b63d
00000060: 8c42 063c 2714 963e 10d0 6d3d a666 9c3d
00000070: 8313 913e 1c7d d23d 5c6d 9b3d ef18 1d39
00000080: 5454 d93d 4780 723b 587a ce3d 3d9b 583c
00000090: 8ff8 cf3d 1b23 053e bc03 393e 8b01 6d3e
000000a0: a7ea 5a3e 2c84 d03d 14e9 54bc ff4d 5b3d
000000b0: d681 f33d 09ba 2d3d 8270 843e b03e bfbc
000000c0: 4633 ff3d 44ad 053e 2f80 d93c eb28 383d
000000d0: 1973 0b3e 1fa6 fe3d 9ff4 0f3e e1d2 073e
000000e0: 894c 383d 1373 993e b760 713d 5fe1 eb3b
000000f0: e220 8b3e 5572 9d3d 2a9d cf3c 4c46 173d
00000100: 4f4b 313e 304b 8c3d 188e 23bd 4d22 cd3c
00000110: 2977 7e3e d582 3f3e 95e1 753e 6aa2 813d
00000120: 192a 88bd 759a 103e ee90 fd3c 7304 fe3d
00000130: b981 e53c 4d9f 223d 531a 163e 6dde 313d
00000140: 6424 6c3d 4dce bb3d de57 1e3e 4d16 e7bc
00000150: 6c7e 063d 4dfd 493e cbff 38bc 201a 663e
00000160: a1b7 9b3d 1786 ef3d 12b4 e33d e8c2 bc3c
00000170: 6e19 bc3d 3e06 ac3d 2d81 053e fa29 813c
00000180: 290e 1b3e eca2 da3c ba92 c43d fc5e 823e
00000190: 7776 923d 8fd6 e43c 3edf 1c3e 3892 62bd
000001a0: 86a6 983d 0fd1 0d3e f342 2d3b 81d5 dd3d
000001b0: c1bb aa3d 3142 bb3d 6372 ff3d 6d07 4e3d
000001c0: 1915 513d 4585 a43d 4d22 8e3e 2cb9 68bd
000001d0: 32bc c9bc a230 553e 53b9 853d 7bba a43d
000001e0: 54a1 f83d 1de0 943c 9b03 c63d 6da1 e23d
000001f0: 4263 7c3d 7b60 343c 76fa 053e 9f0b c43d

encoder_output_layer.weight f4 [128, 128]
-0.04206905 0.011768962 -0.079209715 0.028803987 0.049974136 0.016392121 0.11410128 0.0635819
-0.086334586 -0.036577374 -0.006243597 -0.06799742 0.05346242 0.01614382 -0.07899415 0.03182531
0.07137089 -0.02277867 -0.0070889336 0.055934448 0.073839016 -0.041838616 -0.026069792 0.016897827
-0.06626761 0.17980261 -0.017459163 -0.019754754 -0.010194778 0.0112706525 0.06732954 -0.00062332355
-0.09442931 -0.04578684 0.043976735 0.07976745 0.07296068 0.015832707 0.09484239 0.061811086
0.11275838 -0.0047524115 -0.0034333852 0.075370565 0.082375005 0.030178042 -0.017593881 -0.03363005
0.087965414 0.053796843 -0.014537339 0.05823742 -0.00561909 0.04463156 0.047018427 0.019809734
-0.10915333 -0.10827008 -0.039506085 -0.027532846 0.058803428 0.07706871 0.045887966 0.061749313
-0.019715829 -0.0023477043 0.056014895 0.08981503 0.12229423 0.05327593 -0.0048853843 0.04691197
-0.057778306 -0.02648696 0.026866682 0.085949436 0.031031903 -0.06206492 -0.08144023 0.02136666
0.061749693 -0.037775002 0.0426392 0.044011813 0.02981108 0.067477554 0.00021556344 -0.048050202
-0.08013702 -0.059798554 0.041905385 0.014480067 -0.02724001 -0.06191097 -0.006317549 0.100833856
-0.06185826 0.10523371 -0.02930271 -0.018749285 0.049171194 0.009148869 0.022165265 0.056361526
0.04775066 0.029155571 0.021751696 0.02680616 -0.05587736 0.036162265 0.114923164 -0.06558756
-0.0017115378 0.048754007 0.07383911 0.031247642 -0.01752496 -0.08521097 -0.073989205 0.057346396
-0.030497225 -0.035825867 -0.029181201 0.1057718 -0.04184507 -0.0464059 0.025050119 0.033188373
-0.04477507 0.061867375 0.024991836 -0.027831042 0.052151978 -0.020849762 0.08417716 0.031703245
0.07486167 0.039211776 0.056584887 0.015034081 -0.17489189 -0.04902381 0.022569174 0.08650641
-0.07089738 -0.02116318 0.022370625 -0.036044504 -0.031489097 0.011537092 0.018595567 0.04552126
0.05332446 0.08335254 0.1320113 -0.002781927 0.042314816 0.053029668 0.15131955 0.038342163
-0.013943656 0.07107069 0.21205375 -0.057229824 0.023619898 0.08147463 0.14145401 0.059928875
-0.010544754 -0.052182138 0.10541388 -0.05975356 -0.0622039 0.022435347 0.09541798 -0.041691385
-0.0023206715 -0.068230994 -0.029826373 -0.043919664 -0.035472844 0.12911163 -0.009162339 0.011370266
-0.014133544 0.03223891 0.06139338 -0.03303392 0.066774055 0.036555644 -0.01809848 0.036813226
-0.003575541 0.064345255 -0.004464166 0.05048071 -0.16162331 -0.1090261 0.032460038 -0.012404282
-0.005536485 -0.018735085 0.061700452 0.008507619 -0.03737711 0.075194396 0.044445794 0.051156707
-0.046963546 -0.025786307 -0.13289905 -0.029677391 0.01767684 0.098317556 0.021660488 0.029299453
0.017828621 -0.0030745429 0.010215845 -0.01422478 0.041497383 -0.02953982 -0.09866829 0.11641973
0.053052258 -0.035364795 -0.0043467754 0.12372875 0.040751893 0.038190577 0.113875486 0.011507386
0.08619706 -0.022175912 0.045051206 0.018474745 -0.015835173 0.01929465 0.09227519 -0.019542377
-0.054773636 -0.058954068 0.08716475 0.10910117 0.0485176 0.003816186 -0.038891703 -0.016654098
-0.04547829 0.020345211 -0.109071516 0.060312852 -0.044924606 -0.0068410216 0.08177578 -0.053002164
00000000: 9950 2cbd 9bd2 403c b438 a2bd 57f6 eb3c
00000010: aeb1 4c3d c548 863c efad e93d 3a37 823d
00000020: 30d0 b0bd 28d2 15bd 1697 ccbb 3b42 8bbd
00000030: 69fb 5a3d 0b40 843c afc7 a1bd 425b 023d
00000040: e72a 923d 559a babc 494a e8bb 851b 653d
00000050: e938 973d f85e 2bbd 5190 d5bc 506d 8a3c
00000060: 50b7 87bd 2d1e 383e 8506 8fbc b9d4 a1bc
00000070: 0008 27bc 8ba8 383c 12e4 893d 8966 23ba
00000080: 2764 c1bd fb8a 3bbd f320 343d 1e5d a33d
00000090: 696c 953d 98b3 813c ba3c c23d 9f2d 7d3d
000000a0: deed e63d 1eba 9bbb a502 61bb e25b 9a3d
000000b0: 3ab4 a83d f137 f73c 0b21 90bc aabf 09bd
000000c0: 3627 b43d 145a 5c3d 052e 6ebc 5c8a 6e3d
000000d0: 5820 b8bb 95cf 363d 6596 403d 0648 a23c
000000e0: c88b dfbd b4bc ddbd 22d1 21bd 908c e1bc
000000f0: dddb 703d 33d6 9d3d 05f5 3b3d d9ec 7c3d
00000100: 1783 a1bc f1db 19bb e06f 653d f1f0 b73d
00000110: 6675 fa3d dd37 5a3d 9315 a0bb c426 403d
00000120: f2a8 6cbd 2efb d8bc 8417 dc3c 4206 b03d
00000130: 9e36 fe3c c937 7ebd 23ca a6bd 2209 af3c
00000140: 3fed 7c3d f6b9 1abd 71a6 2e3d bb45 343d
00000150: 5e36 f43c ac31 8a3d df08 6239 4ad0 44bd
00000160: e11e a4bd 54ef 74bd fba4 2b3d ce3d 6d3c
00000170: 7126 dfbc 5b96 7dbd 7103 cfbb fb81 ce3d
00000180: 165f 7dbd c584 d73d 3d0c f0bc 1a98 99bc
00000190: bc67 493d 23e5 153c ee93 b53c 58db 663d
000001a0: 3296 433d aad7 ee3c 9d30 b23c 9898 db3c
000001b0: a9df 64bd e21e 143d d65c eb3d c552 86bd
000001c0: ae55 e0ba 48b2 473d f638 973d 0efb ff3c
000001d0: 8190 8fbc 1783 aebd a787 97bd 0ee4 6a3d
000001e0: 51d5 f9bc 25be 12bd 6a0d efbc e39e d83d
000001f0: bc65 2bbd 1d14 3ebd e835 cd3c 88f0 073d
00000200: 1066 37bd a568 7d3d aebb cc3c edfd e3bc
00000210: 509d 553d 1fcd aabc 1365 ac3d 43db 013d
00000220: 1351 993d 879c 203d 8ec5 673d 8251 763c
00000230: dc16 33be 31cd 48bd fde2 b83c 462a b13d
00000240: a532 91bd 685e adbc 9a42 b73c 67a3 13bd
00000250: b6fa 00bd 1206 3d3c bb55 983c 8074 3a3d
00000260: c06a 5a3d bdb4 aa3d f82d 073e fd50 36bb
00000270: 4d52 2d3d a335 593d 83f3 1a3e ac0c 1d3d
00000280: ef73 64bc 838d 913d 9e24 593e d269 6abd
00000290: 847e c13c 2cdc a63d 52d9 103e fb77 753d
000002a0: e7c3 2cbc f0bc 55bd 3be3 d73d 26c0 74bd
000002b0: 84c9 7ebd 55ca b73c 806a c33d 96c4 2abd
000002c0: 6816 18bb b1bc 8bbd 7056 f4bc 1be5 33bd
000002d0: f94b 11bd d735 043e a31d 16bc 5a4a 3a3c
000002e0: 6190 67bc f30c 043d a077 7b3d 934e 07bd
000002f0: d6c0 883d 5fbb 153d 4343 94bc 77c9 163d
00000300: a053 6abb 72c7 833d 2348 92bb dcc4 4e3d
00000310: 9580 25be 1349 dfbd d1f4 043d 543b 4bbc
00000320: 676b b5bb 527a 99bc 9db9 7c3d 8a63 0b3c
00000330: be18 19bd 85ff 993d cb0c 363d b289 513d
00000340: d95c 40bd ce3d d3bc b016 08be 001e f3bc
00000350: 05cf 903c b75a c93d 5671 b13c 6805 f03c
00000360: 540d 923c 457e 49bb 5c60 273c 0d0f 69bc
00000370: 29f9 293d 7efd f1bc 9a12 cabd 786d ee3d
00000380: 534d 593d adda 10bd 656f 8ebb 8065 fd3d
00000390: 75eb 263d b96d 1c3d 8d37 e93d 7a89 3c3c
000003a0: 1688 b03d 42aa b5bc 9d87 383d 5958 973c
000003b0: c4b8 81bc d00f 9e3c c6fa bc3d 5617 a0bc
000003c0: 525a 60bd d279 71bd 6f83 b23d 6f70 df3d
000003d0: 64ba 463d fa18 7a3b e84c 1fbd 2d6e 88bc
000003e0: 7247 3abd 00ab a63c e360 dfbd 9c0a 773d
000003f0: dd02 38bd a62a e0bb 0f7a a73d cc18 59bd

encoder_output_layer.bias f4 [128]
0.09876655 0.02136573 -0.061909284 0.06236103 0.012747514 0.061910275 0.022994066 -0.008198127
0.05683248 0.057131805 0.020053448 -0.017657414 0.08788417 0.009055343 0.04325705 0.04687873
0.050462786 0.05782878 -0.0161195 -0.023762496 0.08787197 -0.07752761 0.101959586 0.018854214
0.0029271548 0.024962598 0.032479353 0.039739907 0.10462576 -0.007339006 0.0790082 -0.009663546
0.03265431 0.030627819 0.09235155 -0.043217354 0.0029085302 -0.06615998 -0.00050177355 0.032995712
0.08729065 0.05146638 0.14895391 0.06287037 0.015775865 -0.019886512 -0.077500224 0.033530306
0.08615495 0.013672038 0.039634056 -0.0020549393 -0.051566947 0.047758423 -0.00015846599 0.081892565
0.0674746 0.023452789 0.057417646 0.036854144 0.021829946 -0.00041898742 0.03485417 -0.013430755
0.07303079 0.057928935 -0.01800931 -0.052647576 -0.032220233 0.064389266 -0.09253907 0.054284483
0.032981414 0.1263517 0.028893953 -0.060267888 -0.0077037998 0.05245333 -0.04135368 -0.059981924
-0.035253145 0.024903571 0.0319207 -0.07011094 0.0318219 -0.016811442 0.067799985 -0.018171819
0.11328467 -0.023545444 0.062395263 -0.0062956926 0.07770327 0.024641637 0.073333964 -0.0627835
0.0629395 -0.0038933596 0.0031678935 -0.060264755 0.044698317 0.060514394 -0.044487204 -0.018935094
0.09130204 -0.04026939 0.08061984 0.10019364 -0.019656904 -0.020708669 -0.020570705 0.05330098
0.044955764 -0.03925392 -0.040364623 0.09218794 0.02972836 0.06035892 0.07047241 0.028533814
-0.04466946 0.025071416 -0.03878992 0.10230096 -0.008171901 -0.0060083275 -1.4571648e-09 0.1135152
00000000: 1e46 ca3d 2f07 af3c 9794 7dbd 486e 7f3d
00000010: f3da 503c a195 7d3d 0d5e bc3c 7051 06bc
00000020: 2dc9 683d 0a03 6a3d 2147 a43c 48a6 90bc
00000030: 9efc b33d dd5c 143c 4e2e 313d e903 403d
00000040: 11b2 4e3d dfdd 6c3d 0b0d 84bc 91a9 c2bc
00000050: 38f6 b33d ccc6 9ebd 30d0 d03d 2774 9a3c
00000060: 82d5 3f3b 5d7e cc3c 1209 053d 50c6 223d
00000070: 0846 d63d 0b7c f0bb 0dcf a13d da53 1ebc
00000080: 87c0 053d 31e7 fa3c cf22 bd3d ae04 31bd
00000090: 0a9d 3e3b e27e 87bd 7489 03ba 8326 073d
000000a0: 71c5 b23d 69ce 523d 6087 183e 2ec2 803d
000000b0: 633c 813c 0ae9 a2bc 70b8 9ebd 1357 093d
000000c0: 0272 b03d af00 603c 5257 223d 29ac 06bb
000000d0: dd37 53bd 569e 433d e429 26b9 4ab7 a73d
000000e0: 2030 8a3d 1020 c03c c42e 6b3d 5ff4 163d
000000f0: b7d4 b23c 8aab dbb9 3fc3 0e3d ab0c 5cbc
00000100: 2b91 953d e446 6d3d 4388 93bc fca4 57bd
00000110: 5df9 03bd 85de 833d 2085 bdbd 6859 5e3d
00000120: 8517 073d 5762 013e 03b3 ec3c 76db 76bd
00000130: 2870 fcbb 4ed9 563d 7a62 29bd 9baf 75bd
00000140: 9a65 10bd 9302 cc3c 48bf 023d 5396 8fbd
00000150: ae57 023d 26b8 89bc b8da 8a3d 11dd 94bc
00000160: cb01 e83d 60e2 c0bc 2d92 7f3d 194c cebb
00000170: e422 9f3d 42dd c93c 1e30 963d a394 80bd
00000180: 6de6 803d bc27 7fbb 6f9c 4f3b 2dd8 76bd
00000190: 9515 373d f1dd 773d 3738 36bd c51d 9bbc
000001a0: 90fc ba3d 84f1 24bd 041c a53d 5332 cd3d
000001b0: 8407 a1bc 3aa5 a9bc e583 a8bc 2152 5a3d
000001c0: 8923 383d b8c8 20bd 6055 25bd 08cd bc3d
000001d0: e488 f33c ea3a 773d d753 903d bfbf e93c
000001e0: 53f7 36bd 9262 cd3c 2ee2 1ebd 2a83 d13d
000001f0: 70e3 05bc 81e1 c4bb 6e45 c8b0 a87a e83d

decoder_hidden_layer.weight f4 [128, 128]
-0.0777429 -0.0064757643 0.007030235 0.02340452 0.11914603 -0.0014565308 -0.0914516 -0.01576376
0.019752389 -0.013491355 0.0414804 -0.037856784 -0.007827412 0.06527888 0.033391107 0.017488316
-0.05933211 0.02648258 -0.088471696 -0.04843997 0.08092695 -0.025818184 0.009193289 0.025977688
0.018162834 -0.10190105 -0.0048510283 -0.09747247 0.025592793 -0.013054806 -0.029502347 0.075821884
0.042764224 0.03512782 -0.070304975 0.08129793 -0.06236885 -0.01630942 -0.016121699 0.0675919
0.08771743 -0.006875219 -0.0014896913 -0.09152425 0.079156995 -0.025961874 0.11203077 -0.09258767
0.07079148 -0.0626733 0.046377193 0.03068754 0.018636307 -0.022537392 -0.061188083 0.09790907
0.05333461 0.0646598 0.05405866 0.04007215 -0.06814945 -0.0334036 0.06907711 0.025272457
-0.004881048 0.017804692 0.03544205 0.0777847 0.023775874 -0.03956407 0.00869462 0.0041831904
0.089961514 0.07131354 -0.071406215 0.017234115 -0.029921422 -0.02447698 -0.02070678 0.034884095
0.033812787 -0.0052572037 0.123528995 0.038657945 0.052803326 -0.026072398 -0.046615474 -0.07629454
0.07895907 0.067784935 -0.024604665 0.03268832 -0.010298151 -0.018303832 -0.097415775 -0.03096686
-0.016041834 -0.0027414775 -0.035286985 -0.009000893 0.005843948 0.015391422 -0.0076749534 0.0034028275
0.0045195227 0.052071583 0.047892928 -0.0469933 -0.07321444 0.010824874 -0.031530812 0.0050205695
-0.06458598 0.054561425 0.049336366 0.014084535 0.012431927 0.015170826 0.0104405265 0.008335136
0.115257904 0.01240965 0.04826578 -0.062037185 0.07375968 -0.06307408 3.8781678e-10 0.0021009722
0.022585187 0.046035606 0.041103154 -0.08077622 -0.019426838 0.04736344 0.0052082404 0.07605399
-0.0022015877 -0.065645784 0.0694887 0.033406395 -0.04164266 0.064144745 0.081233315 -0.046912175
0.049171522 0.018278396 0.06848814 0.0366831 0.012314834 -0.0033013122 0.009990438 0.01782372
0.063518666 -0.061088655 -0.0025317234 -0.011040792 -0.019385811 0.03767299 0.07764584 0.033916153
-0.06836198 -0.030637702 0.012920189 -0.08460589 0.051214002 -0.0024894038 -0.032617163 0.017364461
0.05358944 -0.040610127 -0.10797663 0.028606862 0.061914362 0.07570546 -0.022370154 -0.015530286
-0.07226097 -0.0076373685 -0.027987514 -0.07787581 0.054125056 0.030266657 -0.017228404 -0.008258694
0.008441913 0.0864237 0.06187981 -0.06422827 0.025347676 0.07101069 -0.04501228 0.0729207
0.048034355 0.07886056 0.0039919196 0.084476545 -0.060397204 0.012561885 -0.008294298 0.0063875737
0.035013612 0.007146984 0.05314792 0.08655658 -0.021109108 0.049013503 -0.06352384 0.055359032
0.025182072 0.019554676 0.02831434 -0.019677846 0.09514299 -0.028507957 -0.024158662 -0.062069546
0.09450617 -0.12667485 0.07298475 0.019011363 0.01645976 -0.030202061 -0.054083515 0.008414878
-0.02935635 -0.02738487 0.039492548 -0.061971918 -0.009700173 -0.07144715 -0.056143835 0.08269572
-0.0022121386 -0.02961007 0.03203586 -0.006330256 0.08242528 -0.08586981 -0.03536778 0.05003627
0.08216087 0.016171817 0.0686536 -0.0038156044 -0.091580205 0.05644495 -0.04782449 0.051082537
0.0032996086 -0.017211627 -0.045425754 0.03447826 0.050121464 0.0116133 4.0394135e-10 -0.04690282
00000000: ab37 9fbd a632 d4bb e35d e63b d6ba bf3c
00000010: d502 f43d 10e9 beba fa4a bbbd 0023 81bc
00000020: c3cf a13c d80a 5dbc 5ae7 293d b70f 1bbd
00000030: 8c3e 00bc efb0 853d 1dc5 083d a843 8f3c
00000040: 3a06 73bd fff1 d83c a630 b5bd fd68 46bd
00000050: 07bd a53d a880 d3bc 739f 163c 29cf d43c
00000060: 39ca 943c 7fb1 d0bd 60f5 9ebb a59f c7bd
00000070: faa7 d13c d3e3 55bc e8ae f1bc 8148 9b3d
00000080: 8a29 2f3d 30e2 0f3d 0efc 8fbd 877f a63d
00000090: 7b76 7fbd 559b 85bc a711 84bc 9f6d 8a3d
000000a0: 32a5 b33d 8449 e1bb bf41 c3ba 1171 bbbd
000000b0: 101d a23d ffad d4bc 6370 e53d 9b9e bdbd
000000c0: 20fb 903d dc5a 80bd 03f6 3d3d 7064 fb3c
000000d0: 2bab 983c 56a0 b8bc 5ba0 7abd 8d84 c83d
000000e0: 6475 5a3d 5b6c 843d 9d6c 5d3d b222 243d
000000f0: f091 8bbd 37d2 08bd 4d78 8d3d 2f08 cf3c
00000100: 33f1 9fbb 25db 913c af2b 113d 964d 9f3d
00000110: 9fc5 c23c ef0d 22bd e173 0e3c 2513 893b
00000120: be3d b83d d50c 923d 6c3d 92bd 8f2e 8d3c
00000130: c51d f5bc f383 c8bc 44a1 a9bc a0e2 0e3d
00000140: 477f 0a3d 9f44 acbb c5fc fc3d cb57 1e3d
00000150: 4d48 583d c895 d5bc deef 3ebd 5040 9cbd
00000160: 4bb5 a13d d4d2 8a3d b98f c9bc 30e4 053d
00000170: 93b9 28bc ebf1 95bc ec81 c7bd 36ae fdbc
00000180: 2a6a 83bc 5caa 33bb 1689 10bd 7b78 13bc
00000190: 977e bf3b 4e2c 7c3c 2d7e fbbb f901 5f3b
000001a0: 8118 943b 0349 553d 602b 443d 0c7c 40bd
000001b0: 74f1 95bd d05a 313c 7426 01bd 9783 a43b
000001c0: a745 84bd cd7b 5f3d ee14 4a3d d2c2 663c
000001d0: 48af 4b3c 0e8f 783c be0e 2b3c 1890 083c
000001e0: 560c ec3d d851 4b3c 57b2 453d b41a 7ebd
000001f0: 510f 973d fc2c 81bd 5c34 d52f 77b0 093b
00000200: 9204 b93c d58f 3c3d c85b 283d 016e a5bd
00000210: 0825 9fbc 2b00 423d e3a9 aa3b 32c2 9b3d
00000220: 8348 10bb 4c71 86bd 1750 8e3d 25d5 083d
00000230: 7e91 2abd 525e 833d a75d a63d fb26 40bd
00000240: 1468 493d 93bc 953c 8343 8c3d 0541 163d
00000250: 28c4 493c d45a 58bb efae 233c 0d03 923c
00000260: 1316 823d 1938 7abd 45eb 25bb 70e4 34bc
00000270: fece 9ebc fe4e 1a3d c804 9f3d aaeb 0a3d
00000280: 5e01 8cbd ebfb fabc 33af 533c da45 adbd
00000290: c6c5 513d 4425 23bb 9399 05bd ea3f 8e3c
000002a0: 9a80 5b3d ce56 26bd da22 ddbd f058 ea3c
000002b0: ea99 7d3d 770b 9b3d 9d41 b7bc be72 7ebc
000002c0: 8ffd 93bd e442 fabb 1246 e5bc 5a7d 9fbd
000002d0: 3cb2 5d3d c8f1 f73c 9522 8dbc 794f 07bc
000002e0: f34f 0a3c e9fe b03d af75 7d3d 1c8a 83bd
000002f0: eea5 cf3c 0d6e 913d cc5e 38bd 7357 953d
00000300: acbf 443d a581 a13d a6ce 823b 0a02 ad3d
00000310: 0f63 77bd 5dd0 4d3c cfe4 07bc da4e d13b
00000320: 6f6a 0f3d 3f31 ea3b a2b1 593d 9444 b13d
00000330: 02ed acbc 62c2 483d c918 82bd 27c0 623d
00000340: a24a ce3c 2131 a03c 7af3 e73c 6f33 a1bc
00000350: 54da c23d 8589 e9bc 63e8 c5bc a33c 7ebd
00000360: 738c c13d 0db7 01be 0779 953d b8bd 9b3c
00000370: 9ed6 863c 506a f7bc ad86 5dbd 8ede 093c
00000380: ba7c f0bc 3c56 e0bc f0c2 213d 44d6 7dbd
00000390: 79ed 1ebc e252 92bd 14f7 65bd 605c a93d
000003a0: 87f9 10bb d190 f2bc 0938 033d 096e cfbb
000003b0: 96ce a83d 83dc afbd cedd 10bd d5f2 4c3d
000003c0: f543 a83d c27a 843c 429a 8c3d 380f 7abb
000003d0: 678e bbbd d232 673d 9de3 43bd ec3b 513d
000003e0: 3f3e 583b 66ff 8cbc 5b10 3abd 1339 0d3d
000003f0: 2a4c 4d3d b645 3e3c b111 de2f 2c1d 40bd

decoder_hidden_layer.bias f4 [128]
-0.0738972 0.002665904 0.009492628 0.025552325 0.00012707358 0.00455791 -0.00062158704 0.0607927
-0.020016624 0.08525039 0.05395616 -0.10628272 -0.07272275 0.05384045 -0.001129179 -0.026365759
-0.036434654 -0.0052658664 -0.05256737 -3.9109864e-06 -0.00144698 -0.0003929725 0.01191113 -0.008367177
0.01304976 0.10322138 -0.048384205 0.014777291 0.12097267 0.1011683 0.11994578 -0.054891672
0.0161112 0.12062007 0.07460512 0.082981296 -0.036173966 0.048237436 0.011906141 0.079918385
-0.06320976 -0.07669133 0.02961338 0.08843882 0.0074513927 0.016705789 0.019934097 -0.030872634
0.01594146 0.03221678 0.0001733711 -0.012872216 0.05017186 0.027746806 -0.0033326128 0.0089914035
0.11171345 0.023333095 -0.00031956847 -0.024857616 -0.0083143115 0.07289762 0.0070300526 -0.0609439
0.029551918 0.033689063 0.090387926 0.048021484 -0.058657147 0.05199329 -0.04890941 0.03912974
0.053825878 -0.036324497 -0.051175747 0.06815101 -0.045530673 0.005308933 0.06498663 0.009704776
-0.023282284 -0.013484462 -1.1862172e-05 0.05308361 0.06617588 -0.026155524 -1.369171e-06 0.0057069887
-0.026131785 -0.0034395526 -0.037157465 -0.021837983 -0.04908276 0.05056243 0.07175328 0.084757656
-0.052484553 -0.007206347 0.018939864 -0.038287796 0.062428094 0.047008507 0.023538956 -0.06463392
0.05362095 0.018411241 0.012621182 -0.02561781 0.0018203589 -0.053888563 -0.029676039 -0.018141543
-0.042788453 -0.04163132 -0.047022812 0.015548056 -0.073704794 -0.039331827 0.010193514 0.028410451
0.07593361 -0.06331301 0.06773847 0.035539944 -0.070252545 0.008383492 -0.043988872 0.03717497
00000000: 6a57 97bd 72b6 2e3b f886 1b3c 1c53 d13c
00000010: 0e3f 0539 855a 953b 00f2 22ba c401 793d
00000020: e7f9 a3bc c297 ae3d 2201 5d3d c1aa d9bd
00000030: aaef 94bd ce87 5c3d f600 94ba 01fd d7bc
00000040: 813c 15bd 4a8d acbb e250 57bd 1e3b 83b6
00000050: 98a8 bdba e007 ceb9 e626 433c 7c16 09bc
00000060: a9ce 553c bb65 d33d 842e 46bd 731c 723c
00000070: 85c0 f73d 5331 cf3d 22a6 f53d 17d6 60bd
00000080: a3fb 833c a807 f73d 92ca 983d 19f2 a93d
00000090: 272b 14bd 9e94 453d fa11 433c 40ac a33d
000000a0: 1e74 81bd 5810 9dbd c297 f23c 691f b53d
000000b0: d02a f43b 94da 883c d54c a33c 9be8 fcbc
000000c0: aa97 823c bef5 033d f3ca 3539 fde5 52bc
000000d0: 0281 4d3d 454d e33c f767 5abb ae50 133c
000000e0: 05ca e43d 0c25 bf3c c18b a7b9 33a2 cbbc
000000f0: c038 08bc 594b 953d 5b5c e63b 50a0 79bd
00000100: dd16 f23c 8bfd 093d 4e1d b93d 2db2 443d
00000110: 7a42 70bd ebf6 543d 3c55 48bd 8246 203d
00000120: 8678 5c3d ffc8 14bd a99d 51bd c292 8b3d
00000130: 5f7e 3abd 8ff6 ad3b b617 853d c800 1f3c
00000140: 7dba bebc efed 5cbc a403 47b7 336e 593d
00000150: 3887 873d 1c44 d6bc 5bc4 b7b5 b101 bb3b
00000160: 5312 d6bc 1e6a 61bb 6d32 18bd 92e5 b2bc
00000170: 010b 49bd 8d1a 4f3d 62f3 923d 6c95 ad3d
00000180: 0bfa 56bd 3823 ecbb c627 9b3c aad3 1cbd
00000190: 9ab4 7f3d fe8b 403d c5d4 c03c ca5e 84bd
000001a0: a4a1 5b3d 2cd3 963c 13c9 4e3c 71dc d1bc
000001b0: 1c99 ee3a 41ba 5cbd 2a1b f3bc 939d 94bc
000001c0: f242 2fbd 9a85 2abd fe9a 40bd 46bd 7e3c
000001d0: 8af2 96bd 691a 21bd b202 273c 09bd e83c
000001e0: 1583 9b3d 40aa 81bd 78ba 8a3d 5592 113d
000001f0: 91e0 8fbd ea5a 093c ad2d 34bd c844 183d

decoder_output_layer.weight f4 [128, 128]
-0.1042032 0.043028295 -0.04729982 0.048845332 0.027101388 -0.029893588 -2.1758896e-19 0.031233108
-0.03975035 -0.029987225 0.017095326 -0.0046581444 0.01095512 0.1562046 0.043102544 0.0276103
-0.0048765144 0.07003312 -0.0037625858 5.9715637e-29 -0.0025307853 4.7635296e-21 0.00881383 0.031335235
-0.0681298 0.06476863 -0.008494464 0.015778176 0.0022599266 -0.024983224 -0.013859398 -0.06267745
-0.025792109 -0.021029904 0.037681986 0.058563314 0.07935626 0.023532648 -0.043118484 0.06266761
-0.014527765 -0.048213962 0.028008493 0.015530173 -0.009250332 0.037230156 0.057397317 -0.0052266056
-0.03216602 -0.01987007 -0.011827368 0.059210997 0.03717764 -0.0547121 -8.228671e-29 0.103372276
-0.0009048569 -0.010785857 -0.03341189 -0.0047748247 -0.044120982 0.01798916 -0.0059040436 0.020768214
-0.05869148 0.03508596 0.03140012 -0.014463669 -0.06372394 0.043788157 -0.014233131 -0.0041045356
0.024366688 0.00385791 0.008379284 -0.01864162 0.09091968 -0.04438049 -0.005055478 0.004802954
-0.043345246 -0.070214264 8.286227e-20 0.04168681 0.0089088045 2.7248464e-28 -3.6969964e-19 0.012468746
0.0066139246 2.2238554e-26 0.033604193 -0.04825836 -0.0032444708 0.04223774 0.01721122 -0.012028433
0.0931637 0.032334704 -0.018948058 0.008805809 -0.012713882 -0.008942586 -0.012888762 -0.04733464
-0.008221985 -0.0056575877 -0.021587323 0.0030298964 -0.015719313 -0.031204492 0.04797572 -0.00060831016
-0.014577352 0.0040884884 0.01766284 0.042213846 0.023631174 0.057132315 -0.034652315 -0.034689587
0.00031052603 -0.027211323 -0.030400246 -0.050438344 -0.11091988 -0.0021315913 -0.013905128 0.051875416
-0.050749246 0.045034762 -0.04287104 0.03262713 0.023112074 -0.014554156 0.0038528992 0.034750767
-0.03893127 -0.058425017 0.009032343 0.021740085 0.04501999 0.10786932 0.0339776 0.075174764
0.0055389004 0.048223484 0.0113162445 0.00085605093 0.006141083 0.004303809 0.019553212 0.054737415
-0.051236603 0.038202435 0.0051599313 0.0011472381 0.023352118 -0.031819347 -0.0066933157 -0.069313906
-0.043154348 -0.02879831 0.021580216 0.039411865 0.10675091 0.026178362 -0.029024692 0.05089575
-0.037309155 -0.0054637245 0.026626833 0.030038942 -0.028652314 0.029384142 0.041420743 -0.012922727
-0.07011415 -0.019267982 -0.041074645 0.027047846 0.014591892 -0.07592238 0.005938396 0.07325781
0.006655408 -0.011633001 -0.014827963 -0.001971001 -0.05477028 0.018200228 0.0043737963 0.046731636
-0.020969907 0.037019484 0.020732284 -0.00018539547 -0.03788232 0.056225654 -0.02404562 -0.011609041
0.026186647 0.010645982 0.002941645 -0.022469707 0.06236043 -0.06510279 0.003056982 0.02972357
-0.03653559 -0.06958085 -0.007852117 0.027898055 0.012130456 2.6999023e-27 -5.394998e-05 0.017256605
0.020225411 0.0018736704 0.025182918 -0.018148387 -0.0011090026 0.0359263 0.0067996196 -0.016989604
0.059278548 0.02760526 -0.02390907 0.016457507 -0.0020541206 -0.0017195002 -0.029933833 -0.04479437
-0.012839847 -0.007791991 -0.0059324168 -0.0024407536 -0.023567481 -0.07434593 0.030316416 0.011416865
0.0054852418 0.012569169 0.022579852 0.07728681 0.014623239 0.054815326 -0.022651562 -0.01795029
-0.0066715186 -0.022441905 -0.029500486 -0.026123486 -0.0881998 0.00703989 -0.020252947 0.040549718
00000000: 7d68 d5bd 703e 303d 75bd 41bd 0b12 483d
00000010: bb03 de3c 66e3 f4bc 1d71 80a0 93dc ff3c
00000020: 43d1 22bd c5a7 f5bc 7f0b 8c3c 59a3 98bb
00000030: 1b7d 333c 19f4 1f3e 4b8c 303d ff2e e23c
00000040: 2bcb 9fbb 866d 8f3d b795 76bb aa65 9710
00000050: 88db 25bb 08f6 b31d e267 103c 6059 003d
00000060: a387 8bbd 6aa5 843d 5d2c 0bbc 3c41 813c
00000070: 471b 143b 9ea9 ccbc 8712 63bc 095d 80bd
00000080: f949 d3bc e846 acbc 6d58 1a3d 16e0 6f3d
00000090: 8985 a23d 8ac7 c03c 029d 30bd e057 803d
000000a0: dd05 6ebc 017c 45bd 1172 e53c 4472 7e3c
000000b0: b48e 17bc a67e 183d 7319 6b3d f243 abbb
000000c0: 84c0 03bd 8fc6 a2bc 94c7 41bc 3b87 723d
000000d0: 9547 183d cc19 60bd 219f d090 d8b4 d33d
000000e0: eb33 6dba 2ab7 30bc e8da 08bd 2276 9cbb
000000f0: 34b8 34bd 015e 933c b576 c1bb 1a22 aa3c
00000100: 7a66 70bd 4cb6 0f3d 6a9d 003d 06f9 6cbc
00000110: b281 82bd 365b 333d 1432 69bc 577f 86bb
00000120: a69c c73c fdd4 7c3b 4449 093c 50b6 98bc
00000130: 1934 ba3d 51c8 35bd 6ca8 a5bb 1962 9d3b
00000140: c98a 31bd 7fcc 8fbd 2ba7 c31f cabf 2a3d
00000150: 3cf6 113c 29b5 ac11 6e3b daa0 b649 4c3c
00000160: 9fb9 d83b 6f3d dc14 8da4 093d 8faa 45bd
00000170: 30a1 54bb 7b01 2d3d 8bfe 8c3c e812 45bc
00000180: 9ccc be3d 6571 043d f538 9bbc 3d46 103c
00000190: e34d 50bc ed83 12bc 632b 53bc f8e1 41bd
000001a0: 81b5 06bc 4963 b9bb e6d7 b0bc 3a91 463b
000001b0: cac5 80bc 90a0 ffbc 3082 443d 0177 1fba
000001c0: d9d5 6ebc baf8 853b a9b1 903c 6de8 2c3d
000001d0: 2a96 c13c 9303 6a3d 96ef 0dbd ab16 0ebd
000001e0: 19ce a239 48ea debc f009 f9bc 7098 4ebd
000001f0: f629 e3bd 2bb2 0bbb 56d2 63bc 517b 543d
00000200: 71de 4fbd 5f76 383d 8b99 2fbd 07a4 053d
00000210: 8855 bd3c 8e74 6ebc ec80 7c3b d256 0e3d
00000220: 6576 1fbd 124f 6fbd 64fc 133c 4318 b23c
00000230: e266 383d 97ea dc3d 192c 0b3d 3af5 993d
00000240: aa7f b53b fd85 453d c567 393c 9b68 603a
00000250: 233b c93b f706 8d3b 0f2e a03c 5734 603d
00000260: 79dd 51bd 287a 1c3d a414 a93b ec5e 963a
00000270: f14c bf3c 0155 02bd 9a53 dbbb 73f4 8dbd
00000280: 9dc2 30bd 6fea ebbc fec8 b03c 566e 213d
00000290: 39a0 da3d 0174 d63c 31c5 edbc 1078 503d
000002a0: 7cd1 18bd 0b09 b3bb 8420 da3c 3a14 f63c
000002b0: 42b8 eabc 03b7 f03c cca8 293d d8b9 53bc
000002c0: 0298 8fbd e3d7 9dbc e33d 28bd 7293 dd3c
000002d0: d512 6f3c 317d 9bbd e096 c23b 3108 963d
000002e0: 9c15 da3b 5898 3ebc fcf0 72bc e92b 01bb
000002f0: cd56 60bd a518 953c 1052 8f3b ac69 3f3d
00000300: 15c9 abbc bea1 173d c0d6 a93c b866 42b9
00000310: 7e2a 1bbd df4c 663d 52fb c4bc d933 3ebc
00000320: 6185 d63c 7c6c 2e3c 9dc8 403b 6412 b8bc
00000330: a66d 7f3d 9d54 85bd a657 483b d87e f33c
00000340: 58a6 15bd 6880 8ebd 2aa6 00bc 768a e43c
00000350: d2be 463c 86e8 5513 5a48 62b8 b95d 8d3c
00000360: c3af a53c f295 f53a 684c ce3c edab 94bc
00000370: f45b 91ba 7527 133d 58cf de3b c82d 8bbc
00000380: 10ce 723d 6d24 e23c f4dc c3bc e5d1 863c
00000390: 6d9e 06bb da60 e1ba cc37 f5bc 4d7a 37bd
000003a0: 395e 52bc f553 ffbb b864 c2bb 0df5 1fbb
000003b0: 9710 c1bc ae42 98bd 225a f83c cd0d 3b3c
000003c0: 8bbd b33b eaee 4d3c 62f9 b83c 8c48 9e3d
000003d0: 4f96 6f3c 0986 603d c58f b9bc 7d0c 93bc
000003e0: c19c dabb 16d8 b7bc 01ab f1bc ec00 d6bc
000003f0: 19a2 b4bd e1ae e63b 82e9 a5bc 7617 263d

decoder_output_layer.bias f4 [128]
0.02026254 0.011875715 0.012557816 -0.022894368 -0.05892816 -0.015730336 -0.00026012678 -0.03932969
0.048085786 0.066967554 0.012588518 -0.013631401 0.05619519 0.10805319 0.007957358 -0.0018171922
-0.0028827577 0.0007038939 0.003947379 -0.03137792 -0.018248226 0.03056089 -0.0022085025 -0.028079236
-0.034713622 -0.035605777 0.054238092 0.013884207 0.023232672 -0.022559723 0.017016456 0.003293259
-0.032082893 0.028522376 0.0008681165 0.008361022 0.027632087 -0.00035688953 0.037330512 -0.013970759
-0.057589367 0.05225977 -0.042547554 -0.011914438 -0.028824566 0.038694665 -0.0063263257 0.064144485
0.015291209 0.06859396 0.0147174215 0.04183956 -0.021001404 -0.032258395 -0.029219829 0.031381726
-0.0077971313 -0.025420582 -0.015974909 0.010354247 -0.00010928371 -6.24511e-06 0.004633589 0.01962087
0.006915388 3.2983606e-16 -0.0037628547 -0.035072565 0.0060557686 0.00040581176 0.005592325 0.058255043
0.042514917 0.0268137 0.03209019 -0.05770008 -0.019498939 0.061870907 -0.053101376 0.0006191525
0.041271914 -0.06257375 -0.030424006 0.016206378 0.018768052 -0.0035379007 -0.016706213 0.028592182
0.0065117683 -0.024417425 0.029220171 -0.00042051636 -0.001404142 -0.054760393 -0.028535642 0.020892235
-0.010726209 0.034030814 0.017995348 0.06944366 0.022384403 0.06259728 0.01954711 0.029324604
0.014628607 -0.019052992 0.003886406 0.025209736 0.020543892 0.058567613 0.004111961 0.056585405
-0.016989244 0.0033330698 0.015639916 0.013141303 0.0031741736 0.016859386 -0.06421498 -0.025242025
0.029494973 -0.033681933 0.0151156755 -0.00511463 0.030117916 -0.050133277 -0.01899241 0.037794434
00000000: a0fd a53c 5c92 423c 4cbf 4d3c f88c bbbc
00000010: a85e 71bd e8dc 80bc a061 88b9 2b18 21bd
00000020: 9af5 443d 4926 893d 1240 4e3c 3d56 5fbc
00000030: ed2c 663d fe4a dd3d 945f 023c da2e eeba
00000040: a6ec 3cbb 8585 383a 0459 813b 2286 00bd
00000050: 4e7d 95bc d55a fa3c 86bc 10bb 6d06 e6bc
00000060: df2f 0ebd 5dd7 11bd c328 5e3d 967a 633c
00000070: 7252 be3c 2bcf b8bc 1866 8b3c b8d3 573b
00000080: 5a69 03bd c2a7 e93c 5092 633a abfc 083c
00000090: b05c e23c e71c bbb9 e1e7 183d 9ce5 64bc
000000a0: d4e2 6bbd 570e 563d 5846 2ebd c634 43bc
000000b0: 7f21 ecbc 4c7e 1e3d 114d cfbb 2f5e 833d
000000c0: fb87 7a3c fd7a 8c3d 5721 713c f55f 2b3d
000000d0: 230b acbc 6121 04bd 6c5e efbc 208a 003d
000000e0: 147f ffbb d33e d0bc d0dd 82bc dca4 293c
000000f0: 3f2f e5b8 168d d1b6 5dd5 973b f2bb a03c
00000100: 7b9a e23b 3623 be25 3a9a 76bb 40a8 0fbd
00000110: 786f c63b 22c3 d439 d23f b73b d79c 6e3d
00000120: 1f24 2e3d 68a8 db3c 0171 033d eb56 6cbd
00000130: 3dbc 9fbc 596c 7d3d d480 59bd 9f4e 223a
00000140: bd0c 293d ab26 80bd c43b f9bc 3dc3 843c
00000150: 75bf 993c 20dc 67bb 78db 88bc 273a ea3c
00000160: ac60 d53b 0d07 c8bc 245f ef3c c078 dcb9
00000170: 300b b8ba 6f4c 60bd 94c3 e9bc 3126 ab3c
00000180: fbbc 2fbc e563 0b3d fb6a 933c 7a38 8e3d
00000190: 7f5f b73c 0133 803d 4321 a03c 273a f03c
000001a0: d3ac 6f3c 0515 9cbc 13b3 7e3b a684 ce3c
000001b0: aa4b a83c 98e4 6f3d a1bd 863b 19c6 673d
000001c0: 072d 8bbc a26f 5a3b 481f 803c 9f4e 573c
000001d0: cc05 503b b21c 8a3c 2583 83bd 5dc8 cebc
000001e0: 719f f13c 11f6 09bd bda7 773c a098 a7bb
000001f0: d9b9 f63c 8d58 4dbd f895 9bbc 56ce 1a3d
