results/milestone/programming tutorials/GCP/params/AE/params10.pt (torch_old, 265742 bytes, 8 tensors)

encoder_hidden_layer.weight f4 [128, 128]
0	0x3d7b2727	0.061316635
1	0x3dedb18d	0.11606131
2	0xbd6703e8	-0.05640021
3	0xbd8213f1	-0.0635146
4	0x3d81cd09	0.063379355
5	0xbb87a57b	-0.0041396
6	0xbcf0710e	-0.029350784
7	0xbd779076	-0.060440503
8	0x3d0ece93	0.034864973
9	0xbcce9f16	-0.025222342
10	0x3db29b99	0.08721084
11	0x3c78cafa	0.015185112
12	0xbd7d31de	-0.061815135
13	0x3d1b5ae5	0.03792848
14	0xbced2d02	-0.028952125
15	0xbd2e785f	-0.042595264
16	0xbd8cbea8	-0.06872302
17	0x3d503a4c	0.050836846
18	0x3d71a35b	0.05899368
19	0x3db4685d	0.08808968
20	0x3db89975	0.090136446
21	0x3c48680e	0.01223184
22	0x3d8a199c	0.06743166
23	0xbccf90d6	-0.025337618
24	0xbc89ac7d	-0.016805882
25	0x3bbfd0fc	0.0058537703
26	0x3d438214	0.047731474
27	0xbcfafc5c	-0.030637912
28	0x3d6f2b56	0.058390938
29	0xbcea608a	-0.028610487
30	0x3d01ccf4	0.0316896
31	0x3d81fa4e	0.0634657
32	0x3d9eb2f8	0.07748979
33	0xbd4b071e	-0.049567334
34	0x3d15fa39	0.036615584
35	0x3dd0387f	0.10167026
36	0x3d4794dd	0.04872595
37	0x3d946bc1	0.07247115
38	0x3d8e65e5	0.069530286
39	0x3dbff06e	0.0937203
40	0x3b9ca545	0.004780444
41	0x3d5f6fab	0.054549854
42	0x3dbd1e3f	0.092342846
43	0xbd0b1892	-0.03395898
44	0x3ccdffdb	0.025146415
45	0xbb9d6e02	-0.0048043737
46	0xbd27eb21	-0.04099572
47	0xbbbb8b58	-0.005723398
48	0x3db441fe	0.088016495
49	0xbc932e62	-0.017966453
50	0xbd125c5c	-0.035732612
51	0xbc27c43a	-0.010239655
52	0xbd892448	-0.06696373
53	0xbca0019f	-0.019532023
54	0xbbd6f6b5	-0.0065601715
55	0x3c93687f	0.017994164
56	0x3ad243de	0.0016041955
57	0x3d729081	0.05921984
58	0xbd053ef5	-0.032530744
59	0x3c03338a	0.008007893
60	0xbd789264	-0.060686484
61	0xbd625dee	-0.05526536
62	0xbd5c3e4e	-0.053770356
63	0x3ced037a	0.028932322
64	0x3d2231cd	0.039598275
65	0xbd9ab266	-0.07553558
66	0xbd7d7d36	-0.06188699
67	0x3d3149d2	0.04328329
68	0xbbac5575	-0.0052592107
69	0x3d69dec4	0.05709721
70	0xbd38a253	-0.04507668
71	0x3dc917b3	0.098189734
72	0xbd68b6ac	-0.056814834
73	0xbccfe5c9	-0.025378125
74	0x3daabcb0	0.083367705
75	0x3b01a768	0.001978362
76	0x3da08cb4	0.07839337
77	0xbce7b45e	-0.028284248
78	0x3c80d291	0.015725406
79	0xbca742fc	-0.020417683
80	0xbcd2474e	-0.025668766
81	0x3aeb4a58	0.0017951233
82	0x3db2deab	0.08733877
83	0xbd82cd0d	-0.063867666
84	0x3d37409d	0.044739354
85	0x3dab36bf	0.08360051
86	0x3dad5408	0.08463293
87	0xbd3cc0fc	-0.04608248
88	0x3dd0166f	0.10160529
89	0xbb53d366	-0.0032322048
90	0x3d651fc0	0.055938482
91	0xbab467ca	-0.0013763842
92	0xbd705c69	-0.05868188
93	0x3d1a855e	0.037724845
94	0x3d9e650c	0.07734117
95	0x3c6abee6	0.01432774
96	0xbd84c7bc	-0.06483409
97	0x3d3cbe9f	0.046080228
98	0x3da20648	0.07911354
99	0x3dca833e	0.09888314
100	0x3daaf50a	0.08347519
101	0x3cc5a1bf	0.024124978
102	0x3dbb753b	0.09153219
103	0xbc4aa336	-0.012368014
104	0xbd5ed980	-0.054406643
105	0x3c66bd9b	0.014083291
106	0xbd5c734f	-0.053820904
107	0x3cb3e335	0.021958927
108	0xbc9663e7	-0.018358184
109	0xbd88bce3	-0.06676652
110	0x3c603857	0.013685307
111	0xbd073740	-0.033011675
112	0x3d86102c	0.06546053
113	0xbcba8314	-0.022767581
114	0x3d125084	0.035721317
115	0xbd1d4f96	-0.038405977
116	0x3b8069a6	0.0039188443
117	0xbc8813a6	-0.016610932
118	0xbd710008	-0.05883792
119	0xbda01702	-0.078168884
120	0xbc3597a6	-0.011083519
121	0x3cb5d2ee	0.022195306
122	0xbd661f5d	-0.056182254
123	0x3d513eb1	0.051085178
124	0x3db71dfc	0.08941266
125	0xbd24d064	-0.0402378
126	0xbc5ec5ff	-0.013597011
127	0xbd1c1c59	-0.038112972
128	0xbd869f36	-0.06573336
129	0xbda9af61	-0.08285404
130	0x3c9e905c	0.019355945
131	0xbdb53ff6	-0.0885009
132	0x3d41cf48	0.04731682
133	0x3d6a54cd	0.05720978
134	0x3d8becd6	0.06832282
135	0x3b9e8a90	0.0048382953
136	0x3d2d7dc7	0.04235628
137	0x3db92c8d	0.090417005
138	0xbca14fae	-0.019691315
139	0x3c143032	0.009044694
140	0xbd028b09	-0.031870876
141	0xbd5945f6	-0.053045236
142	0xbe00170a	-0.12508789
143	0xbd8b6ea6	-0.06808214
144	0xbd74a423	-0.059726845
145	0xbdcd98b8	-0.100388944
146	0xbd976171	-0.07391632
147	0xbdf1ab40	-0.118002415
148	0xbdedf008	-0.11618048
149	0xbcf7258f	-0.030169277
150	0xbd9a6dfc	-0.07540509
151	0x3c9359a5	0.017987082
152	0x3bd9ed79	0.0066506234
153	0x3c83d5fd	0.016093249
154	0xbd713d75	-0.0588965
155	0xbd4f74cc	-0.050648496
156	0xbc1e51ce	-0.009663058
157	0xbc6e4a81	-0.01454413
158	0x3bc2d1ea	0.005945434
159	0xbd1c2dd9	-0.03812966
160	0xbc359564	-0.011082981
161	0x3cf373f4	0.029718377
162	0x3dd4c434	0.10388985
163	0x3d442a9e	0.047892205
164	0x3e00e9a4	0.12589127
165	0x3da2e35a	0.0795352
166	0x3d981a81	0.0742693
167	0x3dbaa96c	0.09114346
168	0x3d29349f	0.04130995
169	0xbd03a59e	-0.032140367
170	0x3b09ed90	0.002104614
171	0xbc57876d	-0.013154847
172	0xbd338e0d	-0.043836642
173	0xbda6c511	-0.08143056
174	0xbbee737a	-0.0072769495
175	0xbc96ddd9	-0.018416332
176	0xbd51f29e	-0.05125677
177	0x3cfbfea9	0.03076108
178	0x3ddb3266	0.10702972
179	0x3e13e197	0.14441524
180	0x3df6fc7c	0.12059876
181	0x3d1b2eaa	0.0378863
182	0x3dd578fd	0.10423467
183	0x3ddb3fb3	0.10705509
184	0x3dcd1b53	0.10014977
185	0x3db3bf06	0.08776669
186	0x3ccc42f6	0.024934273
187	0xbc768ae6	-0.015047764
188	0xbde00bdd	-0.10939763
189	0xbdb55394	-0.08853832
190	0xbe1c2563	-0.15248637
191	0xbe580823	-0.21096854
192	0xbd50d30b	-0.050982516
193	0x3cb25707	0.021770013
194	0xbca1164a	-0.019663949
195	0xbcb13d28	-0.021635607
196	0xbcbbf6ac	-0.02294477
197	0xbc1bde7f	-0.009513496
198	0xbd82e013	-0.06390395
199	0xbd6ed03a	-0.05830405
200	0xbdaf66e3	-0.08564546
201	0xbc9fe20c	-0.019516967
202	0x3c60c694	0.01371922
203	0x3cadc712	0.021213088
204	0x3d13aad4	0.036051586
205	0x3dc4fbcc	0.09618339
206	0x3d22b845	0.039726514
207	0x3cbc6172	0.022995684
208	0xbcfce457	-0.0308706
209	0xbd25c6e1	-0.04047287
210	0x3d2d83d8	0.042362064
211	0xbcc9f23d	-0.024651641
212	0xbd45177a	-0.048118092
213	0xbd4416c1	-0.047873262
214	0xbda4dc9c	-0.080498904
215	0xbd72e57f	-0.059300896
216	0x3aece97a	0.0018074953
217	0xbd8b1642	-0.06791355
218	0x3c08b7e7	0.008344627
219	0x3b54c7c6	0.0032467707
220	0xbd2fd8bb	-0.0429313
221	0xbc96287b	-0.01832985
222	0x3cb35e56	0.021895569
223	0x3c5e4b78	0.013567798
224	0x3dbbd6ee	0.09171854
225	0xbb820640	-0.00396803
226	0xbc99fa1a	-0.018796016
227	0xbbbd179f	-0.005770638
228	0xbc68918e	-0.014194859
229	0xbbf09727	-0.0073422375
230	0xbc0e2287	-0.008675224
231	0x3d3f6298	0.046724886
232	0xbd18ab6a	-0.03727285
233	0x3ce9a3b7	0.028520448
234	0x3d7d295c	0.06180702
235	0xbbf9243f	-0.007603198
236	0x3cb54178	0.022125944
237	0x3c2308f0	0.009950861
238	0x3cdd19e1	0.02698988
239	0xbd132860	-0.035927176
240	0x3c2d9e26	0.010596788
241	0xbcf220f2	-0.029556725
242	0xbd25e1d9	-0.04049859
243	0xbc8d5429	-0.017252045
244	0xbd4a17f2	-0.049339242
245	0xbc81c8f0	-0.015842885
246	0xbccc5da2	-0.024946991
247	0xbc61b331	-0.013775633
248	0xbd6dcf41	-0.05805898
249	0xbd9744c2	-0.073861614
250	0xbb825beb	-0.0039782426
251	0x3c78bd26	0.015181815
252	0xbd1c2e2c	-0.03812997
253	0x3cc91fe9	0.024551349
254	0xbdec8c51	-0.11550201
255	0xbdb416dc	-0.087934226

encoder_hidden_layer.bias f4 [128]
0	0x3b184695	0.002323543
1	0x3e147f73	0.14501743
2	0x3d85a346	0.065252826
3	0xbd016396	-0.031589113
4	0xbd81e733	-0.06342926
5	0xbcd2d546	-0.025736462
6	0x3e03a22b	0.12854831
7	0xbb18630b	-0.0023252394
8	0xbc4be8d6	-0.012445649
9	0xbc2d56b9	-0.010579758
10	0xbc098f8d	-0.008396042
11	0xbd80b354	-0.06284204
12	0x3dd23351	0.10263694
13	0x3d803852	0.06260742
14	0xbd8e52c6	-0.069493815
15	0x3d9a4eb8	0.07534546
16	0x3e382149	0.17981447
17	0x3d7c8520	0.061650395
18	0x3c5c2fc1	0.01343912
19	0x3d57ae1a	0.05265627
20	0x3d9b9420	0.07596612
21	0x3d978398	0.073981464
22	0x3e22ecf8	0.15910709
23	0x3d9fe215	0.078067936
24	0x3a76d9c1	0.0009416603
25	0x3e83f21e	0.25770658
26	0x3d564ea6	0.0523211
27	0x3d9a3e2d	0.0753139
28	0x3e8affd5	0.2714831
29	0x3d640862	0.055672057
30	0x3d8910ae	0.066926345
31	0xbb9b6d8c	-0.0047432836
32	0x3dbf7582	0.09348585
33	0xbb65a959	-0.0035043566
34	0x3d8c1b21	0.06841112
35	0x3c2943a8	0.010331072
36	0x3da84b54	0.08217493
37	0x3de648de	0.11244367
38	0x3e2c0f73	0.16802768
39	0x3e654f9a	0.22393647
40	0x3e0f5fc8	0.14001381
41	0x3da474b9	0.080300756
42	0xbc49d904	-0.012319807
43	0x3d48b355	0.04899915
44	0x3dcb4df5	0.099269785
45	0x3d0b4bb0	0.034007728
46	0x3e6803ea	0.22657743
47	0xbcd55c38	-0.02604495
48	0x3de5ecc4	0.112268
49	0x3dd577a3	0.104232095
50	0x3cba2417	0.022722287
51	0x3d28ca80	0.041208744
52	0x3dfc3646	0.12315039
53	0x3df0f93a	0.11766286
54	0x3def5da5	0.11687783
55	0x3de50eb8	0.11184448
56	0x3d319a31	0.04335994
57	0x3e90e022	0.28296
58	0x3d6ac0a3	0.05731262
59	0xbb961b73	-0.004580909
60	0x3e6b379a	0.22970429
61	0x3d92ec25	0.07173947
62	0x3cc37e59	0.023863958
63	0x3d160c34	0.03663273
64	0x3df6efce	0.12057458
65	0x3d8deb13	0.069296025
66	0xbd421b5e	-0.04738938
67	0x3cac2e2f	0.021018116
68	0x3e685308	0.22687924
69	0x3e22dc14	0.15904266
70	0x3e6928db	0.22769491
71	0x3d6b3ddc	0.05743204
72	0xbd879461	-0.06620098
73	0x3e06beb4	0.13158685
74	0x3cfab634	0.03060446
75	0x3da8eaa3	0.082478784
76	0x3cb04bd8	0.02152054
77	0x3cd0a4a3	0.02546913
78	0x3e0bf104	0.13666159
79	0x3d1ef38c	0.038806483
80	0x3d421984	0.047387615
81	0x3db3dbfe	0.087821946
82	0x3e0b75ae	0.1361911
83	0xbcf0940e	-0.029367473
84	0x3d0a7aed	0.033808637
85	0x3e47cb78	0.19511211
86	0xbc9c250e	-0.019060638
87	0x3e58a0f2	0.21155146
88	0x3d9aeb40	0.075644016
89	0x3dbe09ff	0.0927925
90	0x3dd00f0e	0.101591215
91	0x3c40ab26	0.011759555
92	0x3db76657	0.08955067
93	0x3da5bcc5	0.080926456
94	0x3e000aa5	0.1250406
95	0x3c1afa33	0.009459066
96	0x3e0d3089	0.13788046
97	0x3cc10f20	0.023566782
98	0x3dad273e	0.084547505
99	0x3e6ba775	0.23013099
100	0x3d994e74	0.07485667
101	0x3cce8146	0.025208127
102	0x3de97165	0.113985814
103	0xbd761799	-0.0600811
104	0x3d1661ee	0.036714487
105	0x3e0d3821	0.13790943
106	0xbc678ece	-0.014133168
107	0x3dc316a9	0.095258065
108	0x3dadab34	0.0847992
109	0x3dab624f	0.0836836
110	0x3dcdcea3	0.100491785
111	0x3d2ffc75	0.04296537
112	0x3d4ded60	0.050275207
113	0x3d9bffec	0.076171726
114	0x3e842e24	0.25816453
115	0xbd819f8a	-0.06329258
116	0xbcd6b879	-0.02621101
117	0x3e331d78	0.1749171
118	0x3d042172	0.03225846
119	0x3da8a0a3	0.08233764
120	0x3de627eb	0.112380825
121	0x3c8eb7a2	0.017421547
122	0x3db3a545	0.08771757
123	0x3da50c73	0.08059015
124	0x3d79c9e2	0.060983546
125	0x3b4b5fe2	0.0031032492
126	0x3e07fa66	0.13279113
127	0x3db91092	0.09036364

encoder_output_layer.weight f4 [128, 128]
0	0xbd214eaa	-0.03938166
1	0x3c18c52e	0.009324355
2	0xbda2bb7c	-0.07945916
3	0x3cf3227f	0.029679535
4	0x3d4b7d9e	0.049680345
5	0x3c9591ef	0.018258063
6	0x3dd85645	0.105633296
7	0x3d85f2b0	0.065404296
8	0xbdae1cf5	-0.08501617
9	0xbd118e7c	-0.035536274
10	0xbbc0bfb1	-0.0058822264
11	0xbd896d82	-0.0671034
12	0x3d6002e9	0.054690275
13	0x3c6528d7	0.013986788
14	0xbda06abc	-0.07832858
15	0x3ce5e345	0.028062472
16	0x3d906372	0.07050218
17	0xbcb69da5	-0.022291968
18	0xbaa56ffb	-0.0012621874
19	0x3d6a4ebf	0.057204004
20	0x3d967af6	0.07347672
21	0xbd28b3d2	-0.041187115
22	0xbce67b33	-0.028134918
23	0x3cce45fb	0.025179854
24	0xbd8f44d8	-0.06995553
25	0x3e348e6e	0.17632458
26	0xbc8fa44f	-0.017534403
27	0xbc9d411d	-0.019196087
28	0xbc4b9848	-0.012426443
29	0xbb18e329	-0.0023328757
30	0x3d5f2466	0.05447807
31	0x3a394225	0.0007067046
32	0xbdc7cdbd	-0.09756038
33	0xbd3c5905	-0.045983333
34	0x3d1a6673	0.03769536
35	0x3da3d3a2	0.0799935
36	0x3d9b111c	0.07571623
37	0x3c8648c4	0.01639212
38	0x3dc92752	0.09821953
39	0x3d4b9fde	0.049713008
40	0x3ddc337c	0.10752007
41	0xbcc6e6c3	-0.024279958
42	0xbba24abc	-0.0049527567
43	0x3d9fb3d5	0.07797972
44	0x3da72046	0.081604525
45	0x3cf7d80e	0.03025439
46	0xbc79b28b	-0.015240322
47	0xbd129c98	-0.03579387
48	0x3dbc5412	0.09195723
49	0x3d2bbfa7	0.04193082
50	0xbc8f3822	-0.01748282
51	0x3d734cbb	0.059399348
52	0xbbebe41b	-0.007198823
53	0x3d392c58	0.045208305
54	0x3d3c8463	0.04602469
55	0x3c810c2e	0.015752878
56	0xbdd7ddc6	-0.10540347
57	0xbddb7b9b	-0.10716935
58	0xbd226cb6	-0.039654456
59	0xbce765fb	-0.02824687
60	0x3d5d5bdc	0.054042682
61	0x3d9a954f	0.075480096
62	0x3d3d885b	0.046272617
63	0x3d7b08af	0.06128758
64	0x3b5347f7	0.003223894
65	0xbaf091ef	-0.0018354038
66	0x3d6ee65a	0.05832515
67	0x3db574b0	0.08860147
68	0x3dece73e	0.115675434
69	0x3d7067b8	0.058692664
70	0x3c1c1733	0.0095270155
71	0x3d2549e5	0.040353674
72	0xbd66ae1c	-0.056318387
73	0xbcc08425	-0.023500511
74	0x3cdadbe2	0.026716176
75	0x3d8a6d3f	0.06759118
76	0x3d03bac9	0.032160554
77	0xbd8392f3	-0.06424513
78	0xbd85e02d	-0.06536899
79	0x3ca47b94	0.020078458
80	0x3d84a967	0.064776234
81	0xbd19ca39	-0.03754637
82	0x3d44a092	0.048004694
83	0x3d3f5057	0.046707477
84	0x3d00d21d	0.03145038
85	0x3d8984fd	0.067148186
86	0x3a55cb17	0.0008155568
87	0xbd2c6886	-0.04209187
88	0xbda4c4df	-0.08045363
89	0xbd675db6	-0.056485854
90	0x3d3140f5	0.04327484
91	0xba4739a3	-0.0007599836
92	0xbce62bb4	-0.028097011
93	0xbd826e29	-0.06368668
94	0xbb5b97c7	-0.0033507214
95	0x3dcf8a14	0.10133758
96	0xbd7b2cf9	-0.061322186
97	0x3dd207b9	0.10255379
98	0xbcdb6368	-0.026780799
99	0xbc927e07	-0.01788236
100	0x3d4ac8ec	0.04950802
101	0x3c5fa900	0.013651133
102	0x3c9bec4b	0.019033572
103	0x3d674d73	0.056470346
104	0x3d7a32e8	0.061083704
105	0x3cf70b49	0.030156748
106	0x3cc04828	0.023471907
107	0x3d22f7c4	0.03978707
108	0xbd5dbbd2	-0.054134198
109	0x3d29f6cd	0.041495133
110	0x3da95a4f	0.08269178
111	0xbd8cade5	-0.06869105
112	0xba1e5aa6	-0.00060407293
113	0x3d530929	0.051522408
114	0x3d9b8434	0.07593575
115	0x3d146c05	0.036235828
116	0xbc98b28d	-0.018639827
117	0xbd9be4c8	-0.07611996
118	0xbd8b7049	-0.06808526
119	0x3d6861e6	0.05673399
120	0xbceffc8b	-0.029295227
121	0xbd0fe7be	-0.035133116
122	0xbcdbe533	-0.02684269
123	0x3dbe2bef	0.092857234
124	0xbd241189	-0.040055785
125	0xbd463cc8	-0.04839781
126	0x3cc2a525	0.023760388
127	0x3d05b2bf	0.03264117
128	0xbd29af2f	-0.041426834
129	0x3d84e711	0.06489385
130	0x3cebc358	0.02877967
131	0xbce52dc9	-0.027975934
132	0x3d56facb	0.05248527
133	0xbca7e0ac	-0.020492874
134	0x3d984529	0.07435066
135	0x3cf38c07	0.029729856
136	0x3da1b0bd	0.07895038
137	0x3d25a3ae	0.0404393
138	0x3d67ef5a	0.056624748
139	0x3c4b461e	0.012406854
140	0xbe3e9b63	-0.18613963
141	0xbd22b10d	-0.03971963
142	0x3caae93c	0.020863168
143	0x3dbdfc36	0.09276621
144	0xbdc16358	-0.094427764
145	0xbcac3f39	-0.02102624
146	0x3c65e344	0.014031235
147	0xbc9c966e	-0.0191147
148	0xbd0cf6eb	-0.034415167
149	0x3c5e2dfc	0.013560768
150	0x3c44b92d	0.01200704
151	0x3d36b539	0.04460642
152	0x3d5a6a00	0.053323746
153	0x3dbf312b	0.0933555
154	0x3e07a8b1	0.13247944
155	0x3a774a4c	0.00094333733
156	0x3d235c0c	0.039882705
157	0x3d210f9e	0.039321534
158	0x3e22a042	0.15881446
159	0x3d13909b	0.03602658
160	0xbc2fca44	-0.010729376
161	0x3d9bce20	0.076076746
162	0x3e651036	0.22369465
163	0xbd65dfa2	-0.056121476
164	0x3cd8a6f0	0.02644679
165	0x3db70bc3	0.0893779
166	0x3e18da95	0.14927132
167	0x3d57aadd	0.052653182
168	0x3c26e616	0.010186693
169	0xbd45f29a	-0.048327066
170	0x3dd267a8	0.10273677
171	0xbd6e56af	-0.058188137
172	0xbd88df12	-0.06683172
173	0x3cabee14	0.020987548
174	0x3dd13fa5	0.10217217
175	0xbd30b94b	-0.04314546
176	0x3a4fe65f	0.00079307513
177	0xbd6a0de7	-0.057142165
178	0xbcef8a74	-0.029240824
179	0xbd2a93f6	-0.041645013
180	0xbcf73bbb	-0.030179849
181	0x3e0e93c6	0.13923559
182	0xbc89d00e	-0.016822841
183	0x3c0e5573	0.008687365
184	0xbc368ba9	-0.011141696
185	0x3cd86c3e	0.026418801
186	0x3d815059	0.06314153
187	0xbd0b90ef	-0.034073766
188	0x3d472a8f	0.04862457
189	0x3d1b8d2c	0.03797643
190	0xbc94992b	-0.018139442
191	0x3d17d347	0.037066724
192	0x3be363fc	0.0069394093
193	0x3d86d1d3	0.065829895
194	0xbb538e20	-0.0032280758
195	0x3d527f13	0.05139072
196	0xbe2977bd	-0.16549583
197	0xbdb72b30	-0.08943784
198	0x3d4a5bc2	0.049403913
199	0xbc21218c	-0.009834658
200	0xbbaa2b84	-0.0051931757
201	0xbcb1839a	-0.021669198
202	0x3d7cfa4a	0.06176213
203	0x3cb2be9d	0.021819407
204	0xbd16a8dd	-0.036782134
205	0x3d8f5064	0.06997755
206	0x3d865078	0.06558317
207	0x3d420827	0.047371056
208	0xbd399132	-0.045304485
209	0xbcdd8a93	-0.027043616
210	0xbe10825f	-0.14112233
211	0xbcd0e9e1	-0.025502147
212	0x3c959326	0.018258642
213	0x3dcdc77b	0.100478135
214	0x3cfeb155	0.031090418
215	0x3ce916f6	0.028453331
216	0x3c958d88	0.018255964
217	0xbbaa1f58	-0.0051917247
218	0x3c30fe3a	0.0108028
219	0x3a32a989	0.0006815424
220	0x3d2c9a40	0.04213929
221	0xbcfc845f	-0.030824838
222	0xbdca3fc0	-0.098754406
223	0x3df82d96	0.1211807
224	0x3d47245d	0.048618663
225	0xbd03da4a	-0.0321906
226	0xbb8bfa10	-0.004271753
227	0x3de97bdb	0.11400577
228	0x3d296a0f	0.04136091
229	0x3d2e8a99	0.042612646
230	0x3dedf50c	0.116190046
231	0x3c368fe9	0.011142709
232	0x3dc2f6ea	0.09519751
233	0xbcbeb057	-0.023277445
234	0x3d3c90a2	0.04603637
235	0x3cddd886	0.027080785
236	0xbc76497b	-0.015032168
237	0x3c8be420	0.017076552
238	0x3d91466f	0.07093512
239	0xbc9dd56d	-0.019266808
240	0xbd56baba	-0.05242417
241	0xbd828dbe	-0.063746914
242	0x3da8f4fd	0.08249853
243	0x3de0e3bf	0.10980939
244	0x3d448d32	0.047986217
245	0x3bc0fb42	0.0058893273
246	0xbd000947	-0.031258848
247	0xbc8944ee	-0.016756501
248	0xbd4374d3	-0.047718834
249	0x3cb88c63	0.02252788
250	0xbddfc191	-0.10925592
251	0x3d77eda8	0.06052938
252	0xbd3884cf	-0.04504853
253	0xbb317d07	-0.0027082579
254	0x3da97ba7	0.08275538
255	0xbd5299f8	-0.051416367

encoder_output_layer.bias f4 [128]
0	0x3dcaa427	0.09894591
1	0x3cb74ff3	0.02237699
2	0xbd77e5c2	-0.06052185
3	0x3d6ff1b3	0.05858011
4	0x3c880c3f	0.016607402
5	0x3d7dca0b	0.06196026
6	0x3c895150	0.016762406
7	0xbbd01d29	-0.0063511324
8	0x3d629ebc	0.055327162
9	0x3d761b0f	0.0600844
10	0x3c985d01	0.018599035
11	0xbc981d40	-0.018568635
12	0x3da27db6	0.07934134
13	0x3c3d829b	0.011566783
14	0x3d3090b4	0.04310675
15	0x3d648e99	0.055800054
16	0x3d4103b8	0.047122687
17	0x3d4356f1	0.047690336
18	0xbc870624	-0.01648242
19	0xbcd93173	-0.026512837
20	0x3db346a5	0.08753709
21	0xbd9a89fa	-0.07545848
22	0x3dcb0a1b	0.09914037
23	0x3c96abc3	0.01839245
24	0x3b296be2	0.0025851657
25	0xbc1df3d5	-0.009640654
26	0x3d11dc34	0.035610393
27	0x3d21764f	0.03941947
28	0x3dc83817	0.09776323
29	0xbbbea637	-0.005818154
30	0x3d9ebb48	0.07750565
31	0xbc31a8db	-0.010843481
32	0x3d048c00	0.032360077
33	0x3cfc5f79	0.030807244
34	0x3dba3382	0.090918556
35	0xbd37270c	-0.044714972
36	0x3bae7a60	0.005324647
37	0xbd81ba4b	-0.06334361
38	0x39f93008	0.00047528767
39	0x3d0990bf	0.033585306
40	0x3dc1132e	0.09427486
41	0x3d604d69	0.054761324
42	0x3e176cd4	0.14787608
43	0x3d84c036	0.06481974
44	0x3c90f02b	0.017692646
45	0xbcb7050c	-0.022341274
46	0xbd95366f	-0.07285773
47	0x3d02f963	0.031976115
48	0x3db42df9	0.08797831
49	0xbc2d23b3	-0.010567593
50	0x3d28102a	0.04103104
51	0xbb5e58a5	-0.0033927348
52	0xbd56d440	-0.05244851
53	0x3d324205	0.043519992
54	0xbc1dd9f9	-0.009634488
55	0x3dadfcba	0.084954694
56	0x3d8689b6	0.06569235
57	0x3cd0eb46	0.025502812
58	0x3d67f75d	0.05663239
59	0x3d0f9e79	0.03506324
60	0x3cb20756	0.021732014
61	0x3a985610	0.0011622328
62	0x3d16eaef	0.036845144
63	0xbc8aafa0	-0.016929448
64	0x3d99749c	0.074929446
65	0x3d6a8904	0.057259575
66	0xbcb8c08c	-0.022552751
67	0xbd5b7add	-0.05358397
68	0xbcfae301	-0.030625822
69	0x3d86eba3	0.06587913
70	0xbda704d9	-0.081552215
71	0x3d610649	0.054937635
72	0x3ce88463	0.02838344
73	0x3dfe9c76	0.12432186
74	0x3cf518ef	0.029919116
75	0xbd772bd6	-0.06034454
76	0x3b861644	0.0040920097
77	0x3d627836	0.055290423
78	0xbd37973d	-0.044821966
79	0xbd793abc	-0.06084703
80	0xbd12131b	-0.03566275
81	0x3cdcaadf	0.026936946
82	0x3cfdff2e	0.031005468
83	0xbd8c583c	-0.06852767
84	0x3d0d209a	0.03445492
85	0xbc7f8dbd	-0.015597758
86	0x3d8045d4	0.06263319
87	0xbc954d1f	-0.01822525
88	0x3de28821	0.11061121
89	0xbcbcf4a3	-0.02306587
90	0x3d88fa2a	0.0668834
91	0xbc0594f2	-0.008153187
92	0x3daab18b	0.08334645
93	0x3d03457f	0.0320487
94	0x3d95c0a2	0.073121324
95	0xbd7864bb	-0.06064294
96	0x3d78e05d	0.060760844
97	0xbc529463	-0.012852761
98	0x3a901aab	0.0010994276
99	0xbd840d3c	-0.06447837
100	0x3d154861	0.03644598
101	0x3d7b58d6	0.061364017
102	0xbd377851	-0.044792477
103	0xbced9b4d	-0.029004717
104	0x3db446e6	0.08802585
105	0xbd1971c3	-0.037462007
106	0x3da683c1	0.08130599
107	0x3dccdc64	0.10002974
108	0xbca5b66f	-0.020228593
109	0xbca2e9d4	-0.019886889
110	0xbca8a38e	-0.020585801
111	0x3d615d5e	0.055020683
112	0x3d2d4e54	0.042311028
113	0xbd1d7e6c	-0.038450643
114	0xbd2435f8	-0.04009053
115	0x3dbefb0d	0.09325228
116	0x3ce64f01	0.028113844
117	0x3d72a795	0.05924185
118	0x3d9010c3	0.07034447
119	0x3cbc0837	0.022953136
120	0xbd352cbd	-0.04423212
121	0x3ccc3939	0.02492963
122	0xbd296b7e	-0.04136228
123	0x3dd024bc	0.101632565
124	0xbbac8034	-0.0052643064
125	0xbba0bc90	-0.004905291
126	0xb5ca341a	-1.5065336e-06
127	0x3de8599e	0.11345218

decoder_hidden_layer.weight f4 [128, 128]
0	0xbda2c424	-0.07947567
1	0xbbf4279b	-0.0074510104
2	0x3ba317ec	0.004977217
3	0x3cc3fce6	0.023924302
4	0x3df3e880	0.1190958
5	0xbaa85394	-0.0012842291
6	0xbd99c308	-0.075079024
7	0xbc6bb179	-0.0143855745
8	0x3cba097f	0.022709606
9	0xbc55bc1f	-0.01304534
10	0x3d035359	0.03206191
11	0xbd192ca4	-0.03739609
12	0xbc3e364a	-0.011609623
13	0x3d85cf5f	0.065336935
14	0x3cf0302f	0.02931985
15	0x3c3e8e23	0.011630568
16	0xbd70be68	-0.058775336
17	0x3cbb7cf9	0.02288674
18	0xbdbb8279	-0.09155745
19	0xbd6301f9	-0.055421803
20	0x3d9f87ae	0.07789551
21	0xbccb1243	-0.024788981
22	0x3bfbfe85	0.007690253
23	0x3cdda907	0.027058138
24	0x3c9fe63f	0.01951897
25	0xbdc878b1	-0.09788645
26	0xbb80334b	-0.0039123646
27	0xbdcbc603	-0.09949877
28	0x3d015a95	0.031580526
29	0xbc5fd193	-0.013660806
30	0xbd005c9c	-0.03133832
31	0x3d997879	0.074936815
32	0x3d26fd61	0.040768985
33	0x3d123def	0.035703596
34	0xbd8d3ba3	-0.068961404
35	0x3da3cc01	0.07997895
36	0xbd82d196	-0.063876316
37	0xbc936e69	-0.017996984
38	0xbc866ce9	-0.016409354
39	0x3d89540e	0.06705485
40	0x3daf01ea	0.08545287
41	0x3b0fe62e	0.0021957266
42	0xbad27080	-0.0016055256
43	0xbdc23844	-0.09483388
44	0x3d9ec1f4	0.077518374
45	0xbcf03c63	-0.02932567
46	0x3de80faf	0.113311164
47	0xbdcaf30a	-0.09909637
48	0x3d904e48	0.07046181
49	0xbd5b567c	-0.053549275
50	0x3d40d495	0.047077734
51	0x3cf31e75	0.029677609
52	0x3c93b353	0.018029844
53	0xbd0db1ac	-0.03459327
54	0xbd740eb5	-0.05958434
55	0x3db421c0	0.087955
56	0x3d57c289	0.052675758
57	0x3d824364	0.0636051
58	0x3d6322cf	0.055453118
59	0x3d2fae3b	0.04289077
60	0xbd8724f4	-0.06598845
61	0xbd05617c	-0.03256367
62	0x3d901a1a	0.070362285
63	0x3ccfba99	0.025357531
64	0xbb4b2d03	-0.003100217
65	0x3ca0d8ea	0.019634683
66	0x3d16d896	0.036827646
67	0x3d9bc7c4	0.07606462
68	0x3cc2b92e	0.023769941
69	0xbd1f96a2	-0.038962014
70	0x3b66b4d2	0.0035202992
71	0x3a2689a1	0.0006352906
72	0x3d9d7e57	0.07690113
73	0x3d904b04	0.07045558
74	0xbd91427f	-0.07092761
75	0x3c832f0c	0.016013645
76	0xbc7a27b5	-0.015268256
77	0xbcc21fca	-0.023696799
78	0xbcb62ffe	-0.022239681
79	0x3cef84d3	0.02923814
80	0x3d03ce15	0.032178957
81	0xbbc8de7f	-0.006130039
82	0x3dfd364a	0.123638704
83	0x3d20c294	0.039248064
84	0x3d604127	0.054749634
85	0xbccb4441	-0.02481282
86	0xbd3ca2d7	-0.046053734
87	0xbda534ab	-0.08066686
88	0x3d9eac93	0.0774776
89	0x3d8da8de	0.069169745
90	0xbcc964e6	-0.024584245
91	0x3cee197c	0.029064886
92	0xbc31e192	-0.010857003
93	0xbcb953ed	-0.022623027
94	0xbdc867b3	-0.09785404
95	0xbd026382	-0.03183318
96	0xbc87ba01	-0.016568186
97	0xbac18b0b	-0.001476617
98	0xbd226aea	-0.039652742
99	0xbc034cd3	-0.008013922
100	0xbb699f4b	-0.0035647925
101	0x3c8fb571	0.017542573
102	0xbc15ca04	-0.009142403
103	0x3b86d8ea	0.0041152136
104	0x3bf310ad	0.0074177594
105	0x3d57cf06	0.052687667
106	0x3d43ba3b	0.047785025
107	0xbd41d532	-0.04732246
108	0xbd97872b	-0.07398828
109	0x3c1b7bbf	0.009489953
110	0xbd0150ca	-0.031571187
111	0x3b5d290c	0.003374639
112	0xbd86a87a	-0.06575103
113	0x3d6106d1	0.05493814
114	0x3d4e4fe7	0.05036917
115	0x3c7c1223	0.0153851835
116	0x3c1d193d	0.009588537
117	0x3be7507f	0.0070591564
118	0x3c32c95d	0.010912267
119	0x3bcc4630	0.006233953
120	0x3de7f8e5	0.1132677
121	0x3c4213a3	0.011845502
122	0x3d492a8b	0.049112838
123	0xbd82868c	-0.06373319
124	0x3d97383a	0.07383771
125	0xbd80bc61	-0.062859304
126	0xafdbb980	-3.9967674e-10
127	0xbacd9e86	-0.0015687502
128	0x3c840a7d	0.016118282
129	0x3d3fa0e3	0.046784293
130	0x3d1d0725	0.03833689
131	0xbda24d17	-0.0792486
132	0xbcb09e73	-0.02155993
133	0x3d476082	0.04867602
134	0x3c0638b7	0.008192233
135	0x3da0e60d	0.07856379
136	0x390ff13a	0.00013727407
137	0xbd8cebf5	-0.06880943
138	0x3d94d57b	0.07267281
139	0x3d0a80b1	0.033814136
140	0xbd2217d7	-0.039573517
141	0x3d80faa1	0.06297804
142	0x3da4504a	0.080231264
143	0xbd3abd02	-0.04559041
144	0x3d51f8e6	0.05126276
145	0x3c8df9cd	0.017331028
146	0x3d8b7b54	0.06810632
147	0x3d159513	0.03651912
148	0x3c0ca1ca	0.008583495
149	0xba9764c3	-0.0011550415
150	0x3c0e5317	0.008686802
151	0x3c8f323d	0.01748001
152	0x3d8334bf	0.06406545
153	0xbd528bf6	-0.05140301
154	0xbb3acc48	-0.0028503109
155	0xbc46d77c	-0.012136336
156	0xbc749c11	-0.014929787
157	0x3d1a0a7f	0.037607666
158	0x3da57b32	0.08080138
159	0x3d085602	0.03328515
160	0xbd8a8e06	-0.0676537
161	0xbd012857	-0.03153261
162	0x3c3cbb30	0.011519238
163	0xbdadd579	-0.08487982
164	0x3d53f726	0.05174937
165	0xbb62d6e3	-0.0034612946
166	0xbd074510	-0.033024848
167	0x3c8d8f4c	0.017280243
168	0x3d56000a	0.05224613
169	0xbd240b95	-0.040050108
170	0xbde036fa	-0.10947986
171	0x3cd0d0c3	0.02549017
172	0x3d803144	0.06259397
173	0x3d9f2a2b	0.07771715
174	0xbcd18ff2	-0.025581334
175	0xbcb0bd80	-0.021574736
176	0xbd96b834	-0.07359353
177	0xbc5a0f75	-0.013309349
178	0xbce7de19	-0.028304147
179	0xbd9b2566	-0.075754926
180	0x3d58b2b6	0.052904807
181	0x3d0abc5b	0.033871036
182	0xbc89be16	-0.016814273
183	0xbc4f920c	-0.012669098
184	0x3c1c6278	0.009544961
185	0x3dafc2e1	0.08582092
186	0x3d82344c	0.06357631
187	0xbd82a93d	-0.06379936
188	0x3c5f5a4e	0.01363237
189	0x3d933110	0.07187092
190	0xbd32d8f2	-0.043663926
191	0x3d928539	0.071543165
192	0x3d473c7d	0.04864167
193	0x3da33f14	0.079710156
194	0x3ba3ff52	0.005004802
195	0x3dab5943	0.08366635
196	0xbd7b83f9	-0.061405156
197	0x3c3604f0	0.011109576
198	0xbba693c2	-0.005083532
199	0xbb9a5ac9	-0.0047105295
200	0x3d385ea3	0.045012128
201	0x3bd9ac14	0.0066428278
202	0x3d5eede1	0.054426078
203	0x3daf344e	0.08554898
204	0xbc1721a1	-0.009224326
205	0x3d4d8a23	0.050180566
206	0xbd7f9f77	-0.062407937
207	0x3d678628	0.056524426
208	0x3ccfb701	0.025355818
209	0x3ca796ee	0.020457711
210	0x3ccc2fed	0.024925197
211	0xbcacd563	-0.021097844
212	0x3dba552d	0.09098277
213	0xbce17b0e	-0.027524497
214	0xbccad3a3	-0.02475912
215	0xbd82c202	-0.0638466
216	0x3dc05a97	0.09392279
217	0xbe00700a	-0.1254274
218	0x3d908d7d	0.07058237
219	0x3c9daadc	0.019246511
220	0x3c7fc802	0.01561165
221	0xbcecc0aa	-0.028900463
222	0xbd5f7eed	-0.054564405
223	0x3bfbb29c	0.007681204
224	0xbce928c7	-0.028461827
225	0xbcef2f5f	-0.029197393
226	0x3d19fd16	0.037594877
227	0xbd83e47d	-0.06440065
228	0x3b4bb10b	0.0031080868
229	0xbd8cebbe	-0.06880902
230	0xbd6cf0e2	-0.05784691
231	0x3daa215c	0.08307144
232	0xbaddb78f	-0.0016915667
233	0xbd041e7b	-0.03225563
234	0x3d0747d1	0.033027474
235	0xbbc525ff	-0.0060164924
236	0x3dac130a	0.08402069
237	0xbdb0be63	-0.086300634
238	0xbd0fcbc7	-0.035106447
239	0x3d4d4815	0.05011757
240	0x3dac86e1	0.084241636
241	0x3c910617	0.0177031
242	0x3d8d5941	0.069017895
243	0xbb67befc	-0.0035361638
244	0xbdbc1876	-0.09184353
245	0x3d6a0978	0.057137936
246	0xbd4bc220	-0.04974568
247	0x3d571c2f	0.052517112
248	0x3b7a55a5	0.003819802
249	0xbc8a5dbf	-0.016890405
250	0xbd4c1a13	-0.049829554
251	0x3d1161aa	0.03549353
252	0x3d5321f8	0.051546067
253	0x3c282a6d	0.010264021
254	0xaf02de2a	-1.190236e-10
255	0xbd4d9d86	-0.050199054

decoder_hidden_layer.bias f4 [128]
0	0xbd96d306	-0.07364468
1	0x3b6995c7	0.0035642253
2	0x3b31cba5	0.0027129438
3	0x3cddd971	0.027081223
4	0x3be7c4ad	0.007073006
5	0x3b7ea6ee	0.0038856822
6	0xbb7684ec	-0.0037615849
7	0x3d7c2999	0.061563108
8	0xbca31834	-0.019909002
9	0x3db23673	0.087017916
10	0x3d5d9a24	0.054102078
11	0xbdd65ed1	-0.104673035
12	0xbd8a1a81	-0.067433365
13	0x3d231c54	0.039821938
14	0x39dfb574	0.00042669068
15	0xba9925e0	-0.0011684261
16	0xbd15f016	-0.036605917
17	0xba88250e	-0.001038702
18	0xbd4e8d00	-0.050427437
19	0xb9506e12	-0.0001987743
20	0xb9a18d8a	-0.00030813768
21	0xbb83693d	-0.004010348
22	0x3c102c38	0.008799605
23	0xbbe20de9	-0.006898631
24	0x3c5c461f	0.013444453
25	0x3dd4588a	0.1036845
26	0xbd4b103e	-0.049576037
27	0x3c0b4e2a	0.0085025225
28	0x3df2d032	0.11856116
29	0x3dc9fa5a	0.09862204
30	0x3dee4839	0.11634869
31	0xbd6be0b2	-0.057587333
32	0x3c85495b	0.01627033
33	0x3df7e90e	0.121049985
34	0x3d9a8407	0.075447135
35	0x3da9b191	0.08285821
36	0xbd1b1eb1	-0.037871066
37	0x3d49dd27	0.049283173
38	0x3c81e76a	0.015857417
39	0x3da61c4f	0.08110868
40	0xbd6b96ad	-0.057516742
41	0xbd9988c9	-0.07496793
42	0x3d01828d	0.031618644
43	0x3db878bd	0.09007404
44	0x3bce52ee	0.006296507
45	0x3c941124	0.01807458
46	0x3cb7140e	0.02234843
47	0xbd02a042	-0.031891115
48	0x3c7defeb	0.015499095
49	0x3cfa5d69	0.03056212
50	0x3ad040b0	0.0015888419
51	0xbc6e704c	-0.014553141
52	0x3d558301	0.05212689
53	0x3cbcfd4b	0.023069998
54	0xbb963a05	-0.004584553
55	0x3bc3a05c	0.005970044
56	0x3ddf3fa6	0.10900812
57	0x3d06e435	0.03293248
58	0xbb11fe96	-0.002227699
59	0xbcd75c62	-0.026289169
60	0xbb62ff1c	-0.003463692
61	0x3d9d89ad	0.07692275
62	0x3bbff582	0.0058581242
63	0xbd759f78	-0.059966534
64	0x3d0a65f2	0.03378863
65	0x3d100c0b	0.035167735
66	0x3db60791	0.08888162
67	0x3d40074b	0.046881955
68	0xbd74f207	-0.059801128
69	0x3d4c31c9	0.049852166
70	0xbd4d51c6	-0.050126813
71	0x3d07d97c	0.033166394
72	0x3d675e4e	0.05648642
73	0xbd188f78	-0.037246197
74	0xbd3faeef	-0.04679769
75	0x3d8c8a55	0.06862322
76	0xbd4ce2c7	-0.05002096
77	0x3bab0dac	0.0052201357
78	0x3d874060	0.066040754
79	0x3c5933c0	0.013256967
80	0xbcba5102	-0.022743706
81	0xbc2f5aee	-0.010702832
82	0xba809808	-0.0009810934
83	0x3d617fb6	0.055053435
84	0x3d8d705b	0.06906196
85	0xbd24e1a1	-0.04025424
86	0xb94be3f7	-0.00019444512
87	0x3bfa3921	0.007636205
88	0xbcd1537b	-0.025552502
89	0xbba1f457	-0.0049424577
90	0xbd140cf0	-0.03614515
91	0xbc8d236c	-0.017228805
92	0xbd4b8bf8	-0.04969403
93	0x3d526fca	0.05137614
94	0x3d971817	0.07377642
95	0x3da833d6	0.08213012
96	0xbd5f6908	-0.054543525
97	0xbb9aadb7	-0.0047204155
98	0x3ca9253c	0.020647638
99	0xbd14af3f	-0.03629994
100	0x3d811af9	0.06303973
101	0x3d3d2774	0.046180204
102	0x3cbd21ea	0.02308746
103	0xbd847f62	-0.06469609
104	0x3d4e7ac9	0.050410066
105	0x3c914775	0.017734269
106	0x3c72c330	0.014817044
107	0xbcece3a4	-0.028917141
108	0x3af42326	0.0018626198
109	0xbd4a1ac7	-0.049341943
110	0xbcebc1fb	-0.02877902
111	0xbcb5fdac	-0.022215687
112	0xbd41a207	-0.047273662
113	0xbd203e23	-0.03912176
114	0xbd3f3b3f	-0.04668736
115	0x3b7a954e	0.0038235965
116	0xbd9855e2	-0.07438256
117	0xbd24228c	-0.04007201
118	0x3c079c02	0.008276941
119	0x3d056d88	0.03257516
120	0x3d999842	0.07499744
121	0xbd91030f	-0.070806615
122	0x3d8cbe30	0.06872213
123	0x3d17edd7	0.037092056
124	0xbd6e08fd	-0.05811404
125	0x3bfb73cc	0.007673716
126	0xbd284b7b	-0.04108761
127	0x3d1e65e6	0.038671397

decoder_output_layer.weight f4 [128, 128]
0	0xbda2a6d9	-0.0794198
1	0x3d3fab81	0.04679442
2	0xbd7180d6	-0.05896076
3	0x3d305676	0.043051206
4	0x3c999fe1	0.018752994
5	0xbcbafeae	-0.022826519
6	0x27244913	2.2799186e-15
7	0x3d0b6865	0.034035105
8	0xbd06042b	-0.03271882
9	0xbcd77e33	-0.026305294
10	0x3c6fdfc1	0.014640749
11	0x39fe1f56	0.00048470002
12	0x3ca37857	0.019954843
13	0x3def0488	0.11670786
14	0x3d19fc47	0.037594106
15	0x3cad31b5	0.021141866
16	0xbb4f1d8e	-0.003160331
17	0x3d643f7b	0.055724602
18	0x3a49f5c0	0.0007704161
19	0x1697e4a7	2.4539666e-25
20	0xbaaf9cde	-0.001339819
21	0x26a5cd54	1.1504829e-15
22	0x3c0ce16b	0.008598666
23	0x3d494b68	0.04914418
24	0xbd6777b5	-0.056510646
25	0x3d65ef64	0.056136504
26	0xbafbf2ba	-0.0019222118
27	0x3bfee01f	0.007778182
28	0xbae5ce57	-0.0017532808
29	0xbcd97d37	-0.026548965
30	0xbc431f3f	-0.011909305
31	0xbd5fe57f	-0.054662224
32	0xbcae1964	-0.021252342
33	0xbc911f62	-0.01771516
34	0x3cf85fb0	0.030319065
35	0x3d6177b5	0.055045802
36	0x3d9a113e	0.0752282
37	0x3cd46a4d	0.025929594
38	0xbd1ee67d	-0.03879403
39	0x3d5161dc	0.051118717
40	0xbc07d832	-0.008291291
41	0xbcdd4f1a	-0.027015258
42	0x3ce68fbb	0.028144708
43	0x3c34faee	0.011046154
44	0xbc0a91a3	-0.008457574
45	0x3d038e6a	0.03211824
46	0x3d41eeec	0.047346994
47	0xbc63a6f7	-0.013894788
48	0xbd070f03	-0.0329733
49	0xbca504bc	-0.02014386
50	0xbc0936af	-0.008374854
51	0x3d252d81	0.0403266
52	0x3cecc4bc	0.028902404
53	0xbd41bc76	-0.04729887
54	0x96d14dcf	-3.3814875e-25
55	0x3dadf287	0.08493524
56	0xb91f4583	-0.00015189317
57	0x3a921cb3	0.0011147469
58	0xbce08650	-0.027407795
59	0xbbe41a4c	-0.0069611426
60	0xbd384ab2	-0.04499311
61	0x3c90fe6a	0.01769944
62	0xbc27615f	-0.010216086
63	0x3ca5002a	0.02014168
64	0xbd221a54	-0.03957589
65	0x3d0cc652	0.03436882
66	0x3cdc7702	0.026912216
67	0xbc225b25	-0.009909426
68	0xbd55b179	-0.052171204
69	0x3d2acc0a	0.041698493
70	0xbc4d60ca	-0.012535283
71	0xbbb70ebe	-0.005586474
72	0x3cddb232	0.02706251
73	0x3c1c9146	0.00955612
74	0x3aa957b5	0.0012919815
75	0xbc8d03e5	-0.017213771
76	0x3daa908a	0.0832835
77	0xbd36492b	-0.044503372
78	0xbbca847a	-0.006180343
79	0x3b978f8c	0.0046252664
80	0xbd305795	-0.043052275
81	0xbd6a6f68	-0.05723515
82	0xa76e7846	-3.3094335e-15
83	0x3d1d4f9f	0.03840601
84	0x3c24fd31	0.010070131
85	0x17ad459d	1.1197436e-24
86	0xa721412b	-2.2378566e-15
87	0x3c8e015b	0.01733463
88	0x3c788a80	0.01516974
89	0x1adcdbf6	9.1345233e-23
90	0x3cf596eb	0.02997919
91	0xbd204f7f	-0.039138313
92	0xbbfed618	-0.007776987
93	0x3d3243bc	0.043521628
94	0x3c912629	0.017718391
95	0xbc7236a3	-0.014783534
96	0x3dabb7a5	0.08384637
97	0x3d0f0dc6	0.034925245
98	0xbc786bc6	-0.015162414
99	0x3c6c3e76	0.014419189
100	0xbc404f49	-0.011737653
101	0xbba875ed	-0.005141011
102	0xbc50e66f	-0.012750252
103	0xbd1b92d6	-0.03798183
104	0xbc3f0f38	-0.011661343
105	0xbbe03de8	-0.0068433173
106	0xbc86a091	-0.016433986
107	0xb9cc649b	-0.0003898487
108	0xbcc05452	-0.023477707
109	0xbcc6f302	-0.024285797
110	0x3d3aa17a	0.045564152
111	0x3c110270	0.008850679
112	0xbc93bfee	-0.018035855
113	0x3b1fb195	0.0024367322
114	0x3c91d50d	0.017801786
115	0x3ce551c6	0.027993094
116	0x3ca906f8	0.020633206
117	0x3d68e2ec	0.056857035
118	0xbcc4483b	-0.023960223
119	0xbd034b91	-0.032054488
120	0xb9fa5134	-0.00047744217
121	0xbc9f80cf	-0.0194706
122	0xbd1e6193	-0.038667273
123	0xbd24fd49	-0.040280614
124	0xbda33db8	-0.07970756
125	0xb96cdd97	-0.00022589263
126	0xbbf5ad30	-0.007497452
127	0x3d3b96b9	0.045798037
128	0xbd640fd9	-0.055679176
129	0x3d422275	0.047396142
130	0xbd3a7d1d	-0.045529474
131	0x3d073d39	0.03301737
132	0x3cbeec42	0.023306016
133	0xbc74483a	-0.014909798
134	0x3bdab896	0.0066748364
135	0x3d13c1cf	0.036073502
136	0xbd259a69	-0.04043046
137	0xbd73dc50	-0.05953628
138	0x3c3452ab	0.011006038
139	0x3cdf42d0	0.027253538
140	0x3d3eeeb6	0.04661437
141	0x3df6bc31	0.120476134
142	0x3d0bc1d3	0.034120392
143	0x3d94efeb	0.07272323
144	0x3b70c3fe	0.0036737914
145	0x3d62c179	0.05536029
146	0x3bde3c93	0.0067821234
147	0x3b021220	0.001984723
148	0x3b2f95d1	0.0026792178
149	0x3c417023	0.011806521
150	0x3ca29e2a	0.01985081
151	0x3d709c0e	0.058742575
152	0xbd5fddf7	-0.05465504
153	0x3d25082e	0.040291004
154	0x3bd9410e	0.0066300696
155	0x3b666eb2	0.0035161194
156	0x3ca217bc	0.019786708
157	0xbcfeff8c	-0.031127714
158	0xbc074548	-0.008256264
159	0xbd8f7d52	-0.07006325
160	0xbd3a4006	-0.045471214
161	0xbcebc7dd	-0.028781826
162	0x3cc8b63a	0.024500955
163	0x3d1e3b7a	0.03863094
164	0x3dd7bd39	0.10534138
165	0x3cdb5c81	0.026777508
166	0xbd06ff57	-0.032958355
167	0x3d549e0d	0.05190854
168	0xbce1a1ef	-0.027543036
169	0xbc27bd38	-0.010237984
170	0x3cd89f19	0.026443051
171	0x3d137547	0.036000516
172	0xbcf7fadc	-0.030270986
173	0x3cf6e473	0.03013823
174	0x3d3692d8	0.044573635
175	0xbc135259	-0.008991801
176	0xbd97694a	-0.07393129
177	0xbca7335e	-0.020410236
178	0xbd17f076	-0.037094556
179	0x3ce9cc86	0.028539907
180	0x3c813e6a	0.015776832
181	0xbda4d968	-0.080492795
182	0x3be5b010	0.0070095137
183	0x3d9aae98	0.07552832
184	0x3bc210e3	0.005922423
185	0xbc482301	-0.012215377
186	0xbc606e6c	-0.013698202
187	0xbb4dc44e	-0.0031397524
188	0xbd6a561e	-0.057211034
189	0x3c8ed6ce	0.017436411
190	0xb9ac0b77	-0.00032814938
191	0x3d380028	0.044922024
192	0xbcc54e80	-0.024085283
193	0x3d15db16	0.03658589
194	0x3cbe528d	0.023232723
195	0xba93fea1	-0.0011291095
196	0xbd25108a	-0.040298976
197	0x3d6b64ab	0.05746905
198	0xbcbf50f0	-0.023354024
199	0xbbe6a22a	-0.0070383744
200	0x3cdaa268	0.02668877
201	0x3c2ff73b	0.010740097
202	0x3b35b117	0.0027723962
203	0xbcb95f54	-0.022628464
204	0x3d81e0b8	0.0634169
205	0xbd882038	-0.0664677
206	0x3b7c57c4	0.003850446
207	0x3cdb4434	0.02676592
208	0xbd12ec2d	-0.035869766
209	0xbd8051c9	-0.06265599
210	0xbc520e1f	-0.01282075
211	0x3cf88a75	0.030339459
212	0x3c6844b1	0.014176534
213	0x19569947	1.1094495e-23
214	0xba3246b6	-0.0006800698
215	0x3ca25d58	0.0198199
216	0x3c9fa3d3	0.019487297
217	0x3b021f22	0.0019854982
218	0x3cd04cfd	0.025427336
219	0xbcb16f50	-0.021659523
220	0x3a401094	0.0007326689
221	0x3d11774b	0.035514157
222	0x3bd3db23	0.006465332
223	0xbc8ff193	-0.017571246
224	0x3d79fe75	0.061033685
225	0x3ce71bfc	0.028211586
226	0xbccc625c	-0.024949245
227	0x3c6e477a	0.0145434085
228	0xbb33243f	-0.0027334837
229	0xbb88b1c5	-0.0041715824
230	0xbccf6085	-0.025314579
231	0xbd502671	-0.05081791
232	0xbc49ae01	-0.012309552
233	0xbbd45af8	-0.006480571
234	0xbc2bf836	-0.01049619
235	0x38afb2a8	8.3779276e-05
236	0xbcab1ae0	-0.020886838
237	0xbd89af02	-0.06722833
238	0x3d0625c3	0.032750856
239	0x3c4279a4	0.011869822
240	0x3bccac95	0.0062461593
241	0x3c532891	0.01288809
242	0x3c9d5efa	0.019210327
243	0x3d90db4c	0.070730776
244	0x3c857d9c	0.016295247
245	0x3d5cf4ba	0.053944327
246	0xbcbc71be	-0.023003455
247	0xbc8bb06c	-0.017051898
248	0xbbc4453c	-0.0059896987
249	0xbca1f146	-0.019768368
250	0xbd0244e0	-0.031803966
251	0xbcd42b63	-0.025899595
252	0xbdcbf511	-0.09958852
253	0x3ba7b463	0.0051179393
254	0xbc8e8b56	-0.017400425
255	0x3d29ed70	0.041486204

decoder_output_layer.bias f4 [128]
0	0x3c39b7cc	0.0113353245
1	0x3c2ff9c8	0.010740705
2	0x3c62797a	0.013822908
3	0xbc99b95d	-0.018765146
4	0xbd5ce762	-0.0539316
5	0xbc6594c0	-0.014012516
6	0xb8fa2fea	-0.00011929854
7	0xbd0b1ce1	-0.033963088
8	0x3d5f9b5b	0.054591518
9	0x3d8c996b	0.068652
10	0x3c748ea2	0.014926584
11	0xbca74296	-0.020417493
12	0x3d4feb34	0.050761417
13	0x3dd18e88	0.10232264
14	0x3b5f04b8	0.0034029912
15	0xbb5b6ee4	-0.0033482844
16	0xbb87d231	-0.00414493
17	0x3bc61826	0.006045359
18	0x3c543530	0.012952134
19	0xbcdd3c74	-0.027006365
20	0xbc1fa48e	-0.009743823
21	0x3d0686a7	0.03284326
22	0x3b14320a	0.0022612833
23	0xbcf5e527	-0.030016495
24	0xbd1079eb	-0.03527252
25	0xbd2c3634	-0.04204388
26	0x3d5df613	0.054189753
27	0x3c323ef1	0.010879264
28	0x3cb9c28e	0.022675779
29	0xbcbfcbc6	-0.023412596
30	0x3cbb5713	0.022868669
31	0x3bd5dfff	0.0065269466
32	0xbcf4bbd7	-0.029874725
33	0x3d0a2d81	0.033734802
34	0x3b841e9c	0.0040319692
35	0x3bd122a1	0.006382302
36	0x3d002f94	0.031295374
37	0xb8d09331	-9.9456294e-05
38	0x3d28789b	0.041130643
39	0xbc60d86b	-0.013723473
40	0xbd71c147	-0.059022214
41	0x3d5e5a0e	0.0542851
42	0xbd3b768e	-0.04576736
43	0xbc44d257	-0.01201304
44	0xbd056421	-0.032566193
45	0x3d2c9ec3	0.042143594
46	0xbbb09eaa	-0.005390008
47	0x3d8a0c4d	0.067406274
48	0x3c8078c4	0.015682586
49	0x3d97947e	0.074013695
50	0x3ca0eb04	0.019643314
51	0x3d3474d8	0.044056743
52	0xbcab3f81	-0.020904304
53	0xbd1095de	-0.035299174
54	0xbcf94e2f	-0.030432789
55	0x3cfeeeb7	0.031119687
56	0xbc0e8b34	-0.008700181
57	0xbccadaaa	-0.02476247
58	0xbcab3dc4	-0.020903476
59	0x3c573d86	0.013137227
60	0x3bbbc09f	0.0057297493
61	0xb90274f0	-0.00012441329
62	0x3ba3e52d	0.005001685
63	0x3cc3aab5	0.02388511
64	0x3c34ac78	0.011027448
65	0xad24d04f	-9.3685745e-12
66	0x3b0b28a3	0.0021233938
67	0xbd12a259	-0.035799358
68	0x3bf2c25e	0.0074084243
69	0xbabfdf31	-0.001463866
70	0x3b187c38	0.00232674
71	0x3d688711	0.056769434
72	0x3d27deb0	0.040983856
73	0x3ce415d5	0.027842442
74	0x3d08ddfd	0.03341483
75	0xbd74d6b1	-0.05977506
76	0xbc953e2e	-0.018218126
77	0x3d92bcf9	0.0716495
78	0xbd4e1f56	-0.050322853
79	0x3b85a263	0.004078196
80	0x3d4d6828	0.05014816
81	0xbd5e96ba	-0.054342963
82	0xbcfdbf24	-0.030974932
83	0x3c8df639	0.017329322
84	0x3ca47e4c	0.020079754
85	0xbbf79e39	-0.0075567034
86	0xbca87bd8	-0.020566866
87	0x3ce4ec53	0.02794472
88	0x3960a291	0.00021422865
89	0xbd02faf2	-0.0319776
90	0x3cd367fb	0.025806418
91	0xbba912f6	-0.005159731
92	0x3ab86e74	0.0014071004
93	0xbd664113	-0.056214403
94	0xbcd15e4b	-0.025557658
95	0x3cfb9b0f	0.030713586
96	0xbbdf9ba3	-0.0068239733
97	0x3d1347dc	0.035957202
98	0x3cb9969d	0.022654826
99	0x3d8ede61	0.06976009
100	0x3cbb8594	0.022890843
101	0x3d809829	0.06279022
102	0x3c98d648	0.018656865
103	0x3ce20510	0.027590305
104	0x3c64d07d	0.013965723
105	0xbcbc86a7	-0.023013426
106	0x3bb2a67e	0.0054519763
107	0x3cc6780a	0.024227161
108	0x3cb6fcba	0.022337306
109	0x3d809824	0.062790185
110	0xac4e6399	-2.9329649e-12
111	0x3d6d5ee7	0.057951834
112	0xbc98d176	-0.018654566
113	0xbb40bc2a	-0.002940903
114	0x3c68193b	0.014166172
115	0x3c44c098	0.012008809
116	0xba15b2ac	-0.0005710523
117	0x3cc1febe	0.02368104
118	0xbd796d42	-0.060895212
119	0xbcb20028	-0.02172859
120	0x3d03bbc1	0.032161478
121	0xbd104829	-0.035225067
122	0x3c78a4fc	0.015176054
123	0xbba99d26	-0.0051762043
124	0x3d087946	0.03331878
125	0xbd4a52b0	-0.049395263
126	0xbc852469	-0.016252713
127	0x3d3ba768	0.045813948
