results/milestone/programming tutorials/GCP/params/AE/params17.pt (torch_old, 265742 bytes, 8 tensors)

encoder_hidden_layer.weight f4 [128, 128]
0	0x3d946e33	0.07247581
1	0x3df1af56	0.11801021
2	0xbd66be6d	-0.056333948
3	0xbd8aaaed	-0.06770883
4	0x3d66be44	0.056333795
5	0xbc099d18	-0.0083992705
6	0xbcf85d10	-0.030317813
7	0xbd6c34aa	-0.057667412
8	0x3d123a00	0.035699844
9	0xbcbd58d6	-0.02311365
10	0x3db80334	0.08984986
11	0x3ca9cdda	0.02072804
12	0xbd680547	-0.056645658
13	0x3d0bfeb3	0.034178447
14	0xbcf91cf1	-0.030409308
15	0xbd3fbb09	-0.04680923
16	0xbd8ec4e6	-0.06971149
17	0x3d4c74a5	0.04991593
18	0x3d761cdb	0.060086112
19	0x3db95508	0.090494215
20	0x3dbcc546	0.092173144
21	0x3c863526	0.016382765
22	0x3d888d6e	0.066676006
23	0xbcd4885f	-0.025943933
24	0xbc97c682	-0.018527273
25	0x3b992258	0.0046732835
26	0x3d3de05c	0.046356544
27	0xbcf04121	-0.02932793
28	0x3d74faf3	0.059809636
29	0xbcd31e6d	-0.025771344
30	0x3d000673	0.03125615
31	0x3d79c1fa	0.060976006
32	0x3d9a4b04	0.07533839
33	0xbd40b479	-0.047047112
34	0x3d233aa9	0.039850865
35	0x3dd41618	0.103557765
36	0x3d5d6273	0.054048967
37	0x3d9517f7	0.072799616
38	0x3d92db95	0.07170788
39	0x3dc38675	0.0954713
40	0x3c06fce8	0.0082390085
41	0x3d623202	0.055223472
42	0x3db9c82d	0.090713836
43	0xbd077660	-0.033071876
44	0x3cb5e3ad	0.02220329
45	0xbbd577f8	-0.0065145455
46	0xbd27da37	-0.04097959
47	0xbba72b09	-0.0051015657
48	0x3dae5c8f	0.08513748
49	0xbc74e279	-0.014946573
50	0xbd064a29	-0.03278557
51	0xbbe77cd2	-0.0070644403
52	0xbd801811	-0.0625459
53	0xbc8b776b	-0.017024716
54	0xbb5f1bf5	-0.0034043763
55	0x3ca8b852	0.020595703
56	0x3b2ea905	0.0026651036
57	0x3d74d2b3	0.05977125
58	0xbcef1f9d	-0.02918988
59	0x3c1f11b9	0.009708815
60	0xbd6fbf14	-0.058531836
61	0xbd5e41c0	-0.054261923
62	0xbd5adac8	-0.053431302
63	0x3cd1189f	0.025524436
64	0x3d0fc4a2	0.035099633
65	0xbda03cce	-0.078240976
66	0xbd8569fa	-0.06514354
67	0x3d1b16e4	0.037863627
68	0xbc0b0e03	-0.008487227
69	0x3d623b5e	0.0552324
70	0xbd2af981	-0.04174185
71	0x3dcd69a7	0.10029917
72	0xbd5973a8	-0.053088814
73	0xbccb120c	-0.024788879
74	0x3da57816	0.08079545
75	0x3a7f0d29	0.0009729439
76	0x3d9b68f8	0.075883806
77	0xbce89374	-0.028390624
78	0x3c6fbc4f	0.014632299
79	0xbcb32cba	-0.021871913
80	0xbcecce46	-0.028906953
81	0xbb452552	-0.003008206
82	0x3da9298e	0.08259879
83	0xbd7f0295	-0.06225832
84	0x3d3b0155	0.045655567
85	0x3dadc7a7	0.08485346
86	0x3db0dc63	0.086357854
87	0xbd25f896	-0.040520273
88	0x3dd638a9	0.10460026
89	0xbad3d754	-0.0016162195
90	0x3d60df71	0.05490059
91	0xbb54413a	-0.003238751
92	0xbd75b1be	-0.05998396
93	0x3d0b26d5	0.03397258
94	0x3d935e83	0.07195761
95	0x3c393edb	0.01130649
96	0xbd846d74	-0.06466189
97	0x3d3c12cb	0.04591636
98	0x3da3a254	0.07989946
99	0x3dd07a29	0.1017955
100	0x3daf3ce6	0.08556537
101	0x3cd40c43	0.025884753
102	0x3db9a7ab	0.09065183
103	0xbc383d40	-0.011245072
104	0xbd54a279	-0.05191276
105	0x3c70228a	0.014656672
106	0xbd5df5d3	-0.054189514
107	0x3c9c6d0f	0.019094972
108	0xbc9661d3	-0.018357193
109	0xbd8c1e99	-0.068417735
110	0x3c4151e2	0.011799308
111	0xbd09d373	-0.03364892
112	0x3d8256da	0.06364222
113	0xbcbacd95	-0.022803107
114	0x3d0d7d85	0.034543533
115	0xbd1c3831	-0.038139526
116	0x3b501607	0.003175141
117	0xbc82d0e9	-0.015968757
118	0xbd6ce59c	-0.05783616
119	0xbd9dcfd7	-0.07705658
120	0xbc234e4b	-0.009967397
121	0x3cc90a89	0.024541156
122	0xbd4f6cb1	-0.050640766
123	0x3d5652b4	0.052324966
124	0x3db6b042	0.08920337
125	0xbd180a91	-0.037119452
126	0xbc4adf5d	-0.0123823555
127	0xbd1df895	-0.038567144
128	0xbd4623a6	-0.04837384
129	0xbd362fe8	-0.04447928
130	0x3b4b06b3	0.0030979335
131	0xbdbc3404	-0.09189609
132	0x3c283c63	0.010268304
133	0x3d2505de	0.0402888
134	0x3d55482d	0.052070785
135	0x3d0f45f3	0.03497882
136	0x3d8d98e1	0.06913925
137	0x3dd41c35	0.103569426
138	0x3c357113	0.011074322
139	0x3b0c02c6	0.0021363958
140	0xbd02c781	-0.031928543
141	0xbd61de3a	-0.055143572
142	0xbdce8058	-0.100830734
143	0xbd9a9498	-0.07547873
144	0xbd26a5fb	-0.040685635
145	0xbda7906e	-0.08181845
146	0xbd9dd126	-0.077059075
147	0xbdd57ed3	-0.104245804
148	0xbdbe80dc	-0.09301922
149	0xbc9c1774	-0.019054152
150	0xbd2fe755	-0.042945225
151	0x3cc6c9d5	0.024266163
152	0x3cb0c156	0.021576565
153	0x3d238d20	0.03992951
154	0xbcde6ca8	-0.02715142
155	0xbd024d80	-0.03181219
156	0xbc8ac61d	-0.01694017
157	0xbcd0c04e	-0.025482323
158	0xbbcb8dd3	-0.006211975
159	0xbd0ec672	-0.03485722
160	0xbc6686c4	-0.014070217
161	0x3ccf7819	0.025325822
162	0x3dae4b61	0.08510471
163	0x3d11df49	0.035613332
164	0x3dc6d91c	0.09709379
165	0x3d9bf19d	0.076144435
166	0x3dbfc7c4	0.09364274
167	0x3df13efc	0.117795914
168	0x3d951285	0.07278923
169	0xbba1d2a8	-0.0049384423
170	0x39551e53	0.0002032456
171	0xbc32f2c5	-0.010922139
172	0xbd0a486a	-0.033760466
173	0xbd502845	-0.050819654
174	0xbc905916	-0.017620604
175	0xbd55e7f3	-0.052223157
176	0xbdbd90a0	-0.09256101
177	0x3977533a	0.0002358676
178	0x3d82a2e1	0.06378723
179	0x3dffcdd1	0.12490428
180	0x3e06e2bf	0.13172434
181	0x3d5ce186	0.053926013
182	0x3e0ff261	0.14057304
183	0x3e1d5afd	0.1536674
184	0x3e0abcf0	0.13548636
185	0x3dff2833	0.12458839
186	0x3d24fefc	0.040282235
187	0xbd87c342	-0.06629039
188	0xbe0d8e2f	-0.1382377
189	0xbdeb33b2	-0.114844695
190	0xbe2089d3	-0.15677576
191	0xbe5d4c72	-0.21611193
192	0xbd8f4747	-0.06996017
193	0x3cd9f244	0.026604779
194	0x3a9b257b	0.0011836732
195	0x3c89ade4	0.01680655
196	0x3d3eb382	0.04655791
197	0x3ce759cf	0.028241066
198	0xbd57b98a	-0.05266718
199	0xbdbdd9a4	-0.09270027
200	0xbdfc4617	-0.12318056
201	0xbd8ae467	-0.067818455
202	0xbcf47554	-0.029841103
203	0xbb3920c3	-0.0028248287
204	0x3d2381ac	0.039918587
205	0x3dc820de	0.09771894
206	0x3d8f7d01	0.070062645
207	0x3d015ea9	0.031584416
208	0xbd0e9d39	-0.034817908
209	0xbd13f274	-0.036119893
210	0x3cdae666	0.02672119
211	0xbc186fbc	-0.009303983
212	0xbd0893bf	-0.033344027
213	0xbd478571	-0.048711244
214	0xbd9670bb	-0.073457204
215	0xbd3e321c	-0.046434507
216	0xbc0df9b1	-0.008665488
217	0xbd86d139	-0.06582875
218	0xbcce86b1	-0.02521071
219	0xbca42e27	-0.020041538
220	0xbd0a86c9	-0.033819947
221	0xbba099ba	-0.004901138
222	0x3d07cc2e	0.033153705
223	0x3cea3609	0.02859022
224	0x3d9d050f	0.076669805
225	0x3c11e68e	0.008905066
226	0xbbebd330	-0.0071968064
227	0x3bf59380	0.00749439
228	0xbc3fac57	-0.011698804
229	0xbc925cd6	-0.017866533
230	0xbcdf5d7b	-0.027266255
231	0x3c46fc1a	0.012145067
232	0xbd114a51	-0.035471264
233	0x3c9c4e0c	0.019080184
234	0x3d11d4ba	0.035603262
235	0xbc5fe27e	-0.01366484
236	0xba76e611	-0.0009418438
237	0xbc63ff44	-0.013915841
238	0x3c1c1129	0.009525576
239	0xbcbae3ba	-0.022813667
240	0x3c1ca791	0.009561435
241	0xbcccc522	-0.024996344
242	0xbd004f92	-0.031325884
243	0xbc57be18	-0.0131678805
244	0xbd2b8f8c	-0.041884944
245	0xbcab0ad6	-0.02087919
246	0xbd19b55f	-0.037526485
247	0xbbd40f14	-0.006471524
248	0xbc3d648e	-0.011559619
249	0xbcc697b7	-0.024242265
250	0x3ca86ffd	0.020561213
251	0x3c960dd7	0.018317146
252	0xbd107b62	-0.035273917
253	0xbb8b254b	-0.004246389
254	0xbe07d50f	-0.13264869
255	0xbddc49bf	-0.107562535

encoder_hidden_layer.bias f4 [128]
0	0x3b8855a9	0.004160602
1	0x3e43872e	0.19094536
2	0x3da489ca	0.08034094
3	0xbd019b90	-0.031642497
4	0xbd78b748	-0.060721666
5	0xbc937b96	-0.018003266
6	0x3dfc1242	0.1230817
7	0x3bd58b96	0.006516884
8	0xbbe4b9e9	-0.00698017
9	0xb9ecc6df	-0.00045161598
10	0xbc076d31	-0.008265779
11	0xbd355834	-0.04427357
12	0x3e158d12	0.14604595
13	0x3db35246	0.08755927
14	0xbd7f1a80	-0.06228113
15	0x3dbd58d1	0.09245456
16	0x3e550f1c	0.20806545
17	0x3d894f37	0.06704562
18	0x3d9216e4	0.07133272
19	0x3d9cc713	0.07655158
20	0x3db69a35	0.089161314
21	0x3d93d9a3	0.07219245
22	0x3e512754	0.20425159
23	0x3dce502c	0.10073885
24	0x3c620755	0.013795693
25	0x3ea57d71	0.32322267
26	0x3d857b01	0.06517602
27	0x3da16cc4	0.078820735
28	0x3e96bc1e	0.29440397
29	0x3e0be989	0.13663305
30	0x3db0fbd7	0.08641785
31	0x3c03813c	0.008026417
32	0x3dee09be	0.11622952
33	0x3c556fde	0.0130271595
34	0x3e0120a4	0.12610108
35	0x3c864cd8	0.016394064
36	0x3dfa1bf5	0.12212364
37	0x3e1788f7	0.14798342
38	0x3e45103d	0.19244476
39	0x3e77d1e1	0.24201156
40	0x3e81cdfd	0.2535247
41	0x3e036818	0.12832677
42	0xbc55b403	-0.013043406
43	0x3d6e0273	0.058107805
44	0x3e076c53	0.13224916
45	0x3d4dea82	0.050272472
46	0x3e93ca1f	0.28865144
47	0xbca8e026	-0.020614695
48	0x3e0a22c3	0.13489823
49	0x3e17a595	0.14809258
50	0x3cf5d4a5	0.030008623
51	0x3d44fb1b	0.048091035
52	0x3e1a319b	0.15057985
53	0x3e0872cc	0.13325042
54	0x3e248124	0.16064888
55	0x3e2244f4	0.15846616
56	0x3d4229c4	0.047403112
57	0x3ea2af5e	0.3177442
58	0x3d76a1d0	0.06021291
59	0x3ca2713f	0.01982939
60	0x3e9a04c0	0.3008175
61	0x3da826d6	0.08210532
62	0x3cda8a1d	0.026677186
63	0x3d1cfd85	0.038327713
64	0x3e7351a7	0.23761617
65	0x3d8b8151	0.068117745
66	0xbcf6d1f9	-0.03012942
67	0x3cd8e1ff	0.02647495
68	0x3e88071b	0.2656792
69	0x3e576ce5	0.21037634
70	0x3e8437bc	0.25823772
71	0x3d94cb94	0.07265392
72	0xbd89619a	-0.06708069
73	0x3e19fa66	0.15036926
74	0x3d00ddc2	0.031461485
75	0x3e34506f	0.17608808
76	0x3d0b46d8	0.03400311
77	0x3d557fb8	0.052123755
78	0x3e229f40	0.15881062
79	0x3d4ba4de	0.049717776
80	0x3d87f00c	0.06637582
81	0x3dc1a36f	0.094550006
82	0x3e378ad7	0.17924057
83	0xbcdd75cb	-0.027033707
84	0x3d032549	0.03201798
85	0x3e4f2b49	0.20231356
86	0xbb690f6a	-0.0035562166
87	0x3e74f423	0.23921256
88	0x3d9e3f96	0.07726972
89	0x3e141073	0.144594
90	0x3df78504	0.120859176
91	0x3d0bce7a	0.03413246
92	0x3dbfd6ae	0.09367119
93	0x3db02827	0.086014085
94	0x3e0d731c	0.13813442
95	0x3ca5e61b	0.020251324
96	0x3e29b6ca	0.16573635
97	0x3cd0311f	0.025414048
98	0x3dd861bf	0.105655186
99	0x3e8e31d0	0.2777238
100	0x3d904809	0.070449896
101	0x3d001a3f	0.03127503
102	0x3e2f7d23	0.1713758
103	0xbd5007f0	-0.05078882
104	0x3dc8921a	0.09793492
105	0x3e0e7d5a	0.13915005
106	0x3c89a5d4	0.016802706
107	0x3e0af478	0.1356982
108	0x3da95862	0.08268811
109	0x3dd0fe9f	0.10204815
110	0x3e126fe4	0.14300495
111	0x3d6e03ac	0.05810897
112	0x3d53a33f	0.051669355
113	0x3dae084b	0.084976755
114	0x3e96077c	0.29302585
115	0xbd447299	-0.04796085
116	0xbcbaa649	-0.022784369
117	0x3e73afc6	0.23797521
118	0x3dc6a0dc	0.0969865
119	0x3da1dc22	0.07903315
120	0x3e04982a	0.12948671
121	0x3c9cd8e7	0.019146396
122	0x3dd72f1c	0.10507032
123	0x3e08a5ea	0.13344541
124	0x3d818b15	0.06325356
125	0x3c9e4c2f	0.019323437
126	0x3e041cfa	0.12901679
127	0x3dcf8bf7	0.10134118

encoder_output_layer.weight f4 [128, 128]
0	0xbd2eb964	-0.04265727
1	0x3d0e63fa	0.034763314
2	0xbda07ccb	-0.07836302
3	0x3ce798e5	0.028271148
4	0x3d4e7834	0.050407603
5	0x3c81308e	0.015770223
6	0x3df28df2	0.1184348
7	0x3d81d8e9	0.063402005
8	0xbdb30087	-0.08740335
9	0xbd168ebb	-0.036757212
10	0xbbb70ad5	-0.005586008
11	0xbd8cb105	-0.06869701
12	0x3d4e5efb	0.05038355
13	0x3c8cf932	0.01720867
14	0xbd9dc3a0	-0.07703328
15	0x3d18075c	0.037116393
16	0x3d95637f	0.07294368
17	0xbcb2d91d	-0.021832043
18	0xbc165147	-0.0091746515
19	0x3d67fc33	0.056637
20	0x3d99ee23	0.07516124
21	0xbd2b077e	-0.041755192
22	0xbcdf60c3	-0.02726782
23	0x3c92cf4c	0.017921112
24	0xbd8a49dd	-0.067523696
25	0x3e3caaa0	0.18424463
26	0xbc8dbc27	-0.017301632
27	0xbca48d0b	-0.020086786
28	0xbbdaa13d	-0.006672053
29	0x3c72c249	0.014816829
30	0x3da0dfd3	0.07855191
31	0xba8abb15	-0.0010584319
32	0xbdbaaba1	-0.09114767
33	0xbd34d3ce	-0.044147305
34	0x3d4e1dad	0.05032127
35	0x3da40ba3	0.08010032
36	0x3d915511	0.07096303
37	0x3c9ab543	0.01888526
38	0x3db487a2	0.088149324
39	0x3d87ad7e	0.06624888
40	0x3dde905c	0.10867378
41	0x3c820ff7	0.015876753
42	0xba90c116	-0.0011043872
43	0x3d9742cb	0.073857866
44	0x3dab1532	0.08353652
45	0x3d0112d0	0.03151208
46	0xbc9903fa	-0.018678654
47	0xbd05740a	-0.032581367
48	0x3db135ce	0.086528406
49	0x3d850f63	0.064970754
50	0xbc25b46b	-0.010113816
51	0x3d6d086c	0.05786936
52	0xbb42f077	-0.002974538
53	0x3d464e93	0.048414778
54	0x3d2911bd	0.041276682
55	0x3cc4e9ba	0.02403723
56	0xbde3fb9e	-0.111319765
57	0xbdd6cc49	-0.10488183
58	0xbd1bc1a1	-0.038026456
59	0xbcd2c234	-0.025727369
60	0x3d80a690	0.06281769
61	0x3d9e665a	0.07734366
62	0x3d3be047	0.045868184
63	0x3d7c3f24	0.061583653
64	0xbd3fbf4f	-0.046813305
65	0xbb0262fa	-0.001989542
66	0x3d63cc42	0.055614717
67	0x3dbb6125	0.09149388
68	0x3e01108b	0.12603967
69	0x3d4dd292	0.050249644
70	0xbc6e0535	-0.014527609
71	0x3d3e6f4a	0.046492852
72	0xbd6dee1b	-0.058088403
73	0xbcf107d0	-0.02942267
74	0x3ce8487c	0.028354876
75	0x3dce15a9	0.10062725
76	0x3d0d2d29	0.034466896
77	0xbd765984	-0.060143963
78	0xbdb04230	-0.08606374
79	0x3cb07a47	0.021542681
80	0x3d7617cf	0.0600813
81	0xbd16e7f9	-0.03684232
82	0x3d1f9978	0.03896472
83	0x3d2d3f46	0.04229667
84	0x3cefbf8a	0.029266138
85	0x3d8bfc27	0.068352036
86	0x3a5a3183	0.0008323418
87	0xbd54700c	-0.05186467
88	0xbda0ccf6	-0.07851593
89	0xbd8571b7	-0.0651583
90	0x3d2807e1	0.04102314
91	0x3caaa8a5	0.02083237
92	0xbcdb15ae	-0.026743736
93	0xbd769f1b	-0.06021033
94	0xbc110343	-0.008850875
95	0x3dcb51aa	0.099276856
96	0xbd789ce2	-0.06069649
97	0x3dd48aa2	0.103780046
98	0xbcff157a	-0.03113817
99	0xbc869f8b	-0.016433498
100	0x3d4dfba8	0.050288826
101	0x3be710a5	0.0070515447
102	0x3cc88dd6	0.024481695
103	0x3d6ac2b9	0.05731461
104	0x3d03b38c	0.03215365
105	0x3cedb190	0.029015332
106	0x3ca8dc0b	0.020612737
107	0x3cadde1f	0.02122408
108	0xbd68ad58	-0.05680594
109	0x3d085685	0.033285636
110	0x3e034f4b	0.12823217
111	0xbd7ca1bd	-0.061677683
112	0xbb0b08d5	-0.002121498
113	0x3d41530e	0.047198348
114	0x3d90ba49	0.07066781
115	0x3ce24093	0.027618682
116	0xbc82ced3	-0.015967762
117	0xbdb2ea1e	-0.087360606
118	0xbd98ff53	-0.07470574
119	0x3d716cde	0.058941714
120	0xbd000ab6	-0.031260215
121	0xbd119e71	-0.035551492
122	0xbd04bf82	-0.0324092
123	0x3deb27e1	0.11482216
124	0xbd2dfaa7	-0.04247537
125	0xbd3aafde	-0.045577876
126	0x3cdcc603	0.026949888
127	0x3d0e445b	0.034733158
128	0xbd3f753f	-0.046742674
129	0x3d6504c5	0.05591275
130	0x3cb45304	0.022012241
131	0xbcdd61c3	-0.027024155
132	0x3d5398b1	0.05165929
133	0xbca802e1	-0.020509185
134	0x3db79b2b	0.08965143
135	0x3d0aa36b	0.033847254
136	0x3d9435b6	0.07236807
137	0x3d1db903	0.03850652
138	0x3d66800b	0.056274455
139	0x3c94b189	0.018151062
140	0xbe1aeb4f	-0.15128826
141	0xbd56a65c	-0.052404746
142	0x3ccf1335	0.025277713
143	0x3da70bb5	0.0815653
144	0xbd683762	-0.056693442
145	0xbca5ffed	-0.020263636
146	0x3d0b2a12	0.03397567
147	0xbd33f4f0	-0.043934762
148	0xbcf476c6	-0.029841792
149	0x3c2e42cb	0.010636042
150	0x3cc74aea	0.024327714
151	0x3d441882	0.047874935
152	0x3d3abfc3	0.045593034
153	0x3da6777d	0.08128259
154	0x3e064005	0.13110359
155	0xbba670f5	-0.0050793835
156	0x3d3b9639	0.04579756
157	0x3d6c38b9	0.057671282
158	0x3e10f3af	0.14155458
159	0x3d1cb8b1	0.038262073
160	0xbc731f26	-0.014838969
161	0x3d890173	0.066897295
162	0x3e53bd03	0.20677571
163	0xbd69dbb8	-0.057094306
164	0x3cbacf98	0.022804067
165	0x3da1affe	0.07894896
166	0x3e0a6eb4	0.13518792
167	0x3d85db61	0.06535984
168	0xbca05dc6	-0.019575965
169	0xbd16f027	-0.03685012
170	0x3ddac74e	0.106825456
171	0xbd78a78e	-0.060706668
172	0xbd5641ae	-0.05230873
173	0x3cc1c0fc	0.023651592
174	0x3db3caf1	0.087789424
175	0xbd1cf2ec	-0.038317606
176	0xbb996569	-0.0046812785
177	0xbd880d69	-0.06643183
178	0xbce39df0	-0.027785271
179	0xbd3d3b5d	-0.04619919
180	0xbd1ed36f	-0.038775858
181	0x3dfa8e8e	0.122342214
182	0xbc1ccbcd	-0.009570074
183	0x3c65aa40	0.014017642
184	0xbc84d4ee	-0.016214814
185	0x3d09a68c	0.033606097
186	0x3d7a1bfa	0.061061837
187	0xbcf105df	-0.029421745
188	0x3d9e711e	0.07736419
189	0x3d10dca3	0.035366666
190	0xbc9022bd	-0.01759469
191	0x3d106139	0.03524897
192	0xbcf4d007	-0.029884351
193	0x3d830d95	0.06399075
194	0xbbe2d80e	-0.0069227284
195	0x3d4b962a	0.049703754
196	0xbe203751	-0.15646102
197	0xbdf40a55	-0.11916033
198	0x3cdd93e3	0.027048057
199	0xbbde58b5	-0.006785477
200	0xbbb65daf	-0.005565367
201	0xbc806989	-0.015675323
202	0x3d7c816d	0.061646868
203	0xbb111c30	-0.0022142045
204	0xbd03809f	-0.032105085
205	0x3da1b8c4	0.07896569
206	0x3d02e3a5	0.03195538
207	0x3d59b958	0.053155273
208	0xbd454e7b	-0.048170548
209	0xbcbdebff	-0.02318382
210	0xbdfc1096	-0.12307851
211	0xbd015899	-0.031578634
212	0x3c9180f3	0.017761683
213	0x3dc35ac7	0.09538799
214	0x3c90f354	0.017694153
215	0x3ce10920	0.027470171
216	0x3c9368ec	0.017994367
217	0xbbab9a13	-0.005236873
218	0x3c283c18	0.010268234
219	0xbcfe13ab	-0.031015238
220	0x3d28d076	0.04121443
221	0xbcde3bea	-0.027128179
222	0xbdc34e9e	-0.095364794
223	0x3de3d162	0.11123921
224	0x3d658a9a	0.056040384
225	0xbd1e3bc0	-0.0386312
226	0xbafacad6	-0.0019133936
227	0x3e0822d4	0.13294536
228	0x3d29784d	0.041374493
229	0x3d10dea9	0.035368595
230	0x3dd1c045	0.10241751
231	0x3c497c53	0.012297708
232	0x3d9c6018	0.07635516
233	0xbc9da10d	-0.019241834
234	0x3d357fc3	0.044311296
235	0x3c0ce507	0.008599526
236	0xbc85e8d6	-0.016346376
237	0x3c937953	0.018002188
238	0x3de0ef1e	0.10983108
239	0xbca41617	-0.020030065
240	0xbd63d0ad	-0.05561893
241	0xbd585043	-0.05281092
242	0x3db4ba16	0.088245556
243	0x3ddec5bc	0.108775586
244	0x3d496313	0.04916675
245	0x3b4366ef	0.0029815992
246	0xbd291882	-0.041283138
247	0xbc82677c	-0.015918486
248	0xbd33dfaa	-0.043914475
249	0x3c9a1eb7	0.018813474
250	0xbddae3d9	-0.1068799
251	0x3d765c31	0.060146514
252	0xbd3820a7	-0.044953015
253	0xbc10080e	-0.008790983
254	0x3da58c5f	0.08083414
255	0xbd5eec7f	-0.05442476

encoder_output_layer.bias f4 [128]
0	0x3dcc15e7	0.09965115
1	0x3cae2f8d	0.021262908
2	0xbd7eef2b	-0.062239807
3	0x3d8654b1	0.06559122
4	0x3c51807c	0.012786981
5	0x3d7b6761	0.061377887
6	0x3cf6a183	0.030106312
7	0xbc21e2d7	-0.009880743
8	0x3d706e40	0.058698893
9	0x3d6323b8	0.055453986
10	0x3cb5435d	0.022126848
11	0xbc831c31	-0.016004654
12	0x3dc22006	0.09478764
13	0x3be63c8a	0.00702626
14	0x3d34d8c7	0.044152047
15	0x3d2b9897	0.041893568
16	0x3d5dd79c	0.0541607
17	0x3d88249b	0.06647607
18	0xbc8078ef	-0.015682666
19	0xbcabb7aa	-0.020961601
20	0x3db59b30	0.0886749
21	0xbda179bc	-0.07884547
22	0x3dd525c4	0.10407594
23	0x3ca849e7	0.020543052
24	0x3b791c62	0.0038011302
25	0x3d35e480	0.044407368
26	0x3cf62a16	0.030049365
27	0x3d27c22f	0.040956672
28	0x3de477d7	0.1115567
29	0xbc0a4960	-0.0084403455
30	0x3da42709	0.08015258
31	0xbc03a6af	-0.008035346
32	0x3d0d9c5e	0.03457295
33	0x3cfa239f	0.030534564
34	0x3dbe1336	0.09281008
35	0xbd2f789f	-0.042839643
36	0x3ac070e0	0.0014682077
37	0xbd8bd48a	-0.06827648
38	0xbac0de99	-0.0014714777
39	0x3d04caec	0.032420084
40	0x3da9d2b0	0.082921386
41	0x3d451619	0.048116777
42	0x3e17e9c0	0.14835262
43	0x3d8068db	0.062699996
44	0x3c6b655b	0.014367427
45	0xbc86b827	-0.016445233
46	0xbda5240e	-0.080635175
47	0x3d104c8d	0.035229255
48	0x3dacd40f	0.084388845
49	0x3ccd3b27	0.02505262
50	0x3d1da415	0.03848656
51	0xb99e9f56	-0.00030254823
52	0xbd52089e	-0.05127775
53	0x3d60f97b	0.054925423
54	0x3bd9b844	0.0066442806
55	0x3da672a9	0.081273384
56	0x3d8bf3e6	0.06833629
57	0x3cb4244c	0.021989964
58	0x3d6f522a	0.058427967
59	0x3d1945c5	0.037420053
60	0x3cc49255	0.023995558
61	0xbae759f4	-0.001765071
62	0x3d033d68	0.032040983
63	0xbc3f6726	-0.011682307
64	0x3d92653a	0.07148214
65	0x3d6b8cc4	0.05750729
66	0xbc60c454	-0.013718683
67	0xbd5398eb	-0.051659506
68	0xbd09282c	-0.033485577
69	0x3d873e42	0.066036716
70	0xbdcdc26a	-0.10046847
71	0x3d54381a	0.051811315
72	0x3d2dfd30	0.042477787
73	0x3e039809	0.12850966
74	0x3ce80e64	0.028327174
75	0xbd78cb0d	-0.06074052
76	0xbb84e75c	-0.0040559005
77	0x3d4ac198	0.04950103
78	0xbd1941a2	-0.037416108
79	0xbd718bf2	-0.058971353
80	0xbd108ea1	-0.03529227
81	0x3cccc663	0.024996942
82	0x3d0f3340	0.034960985
83	0xbd91254d	-0.07087193
84	0x3cfe2425	0.031023094
85	0xbca4ee75	-0.020133236
86	0x3d962e8d	0.073330976
87	0xbc9a9087	-0.018867744
88	0x3dea7ea8	0.11449939
89	0xbcbde03f	-0.023178218
90	0x3d70fa1b	0.05883227
91	0xbb7b7672	-0.003837016
92	0x3da40bf6	0.08010094
93	0x3cad3a0f	0.021145849
94	0x3d953333	0.07285156
95	0xbd84c813	-0.06483474
96	0x3d807ef7	0.062742166
97	0x3b95c5ab	0.004570683
98	0x3bb8675f	0.005627557
99	0xbd6ca13c	-0.057770953
100	0x3d54b695	0.051931936
101	0x3d77c59c	0.06049119
102	0xbd35476b	-0.044257563
103	0xbc3bb7fe	-0.011457441
104	0x3dc032aa	0.093846634
105	0xbd31c081	-0.043396477
106	0x3da33b37	0.07970279
107	0x3dcedb1e	0.10100387
108	0xbca115b9	-0.019663678
109	0xbcaf21de	-0.021378454
110	0xbca914cb	-0.020639798
111	0x3d526cfc	0.051373467
112	0x3d439ac4	0.047755018
113	0xbd23c881	-0.039986137
114	0xbd26477f	-0.040595528
115	0x3db8cce4	0.09023455
116	0x3d010aef	0.031504568
117	0x3d7a8e89	0.06117109
118	0x3d912def	0.07088839
119	0x3d037f3f	0.032103773
120	0xbd3cc158	-0.046082824
121	0x3cce5cf6	0.025190812
122	0xbd163e38	-0.03668043
123	0x3dd2be8f	0.102902524
124	0xbc21606e	-0.009849651
125	0xbbec3047	-0.0072079035
126	0xaeb633f2	-8.285629e-11
127	0x3de9a2e3	0.11408021

decoder_hidden_layer.weight f4 [128, 128]
0	0xbd9be0e6	-0.07611255
1	0xbb9460cc	-0.0045281406
2	0x3c04bde8	0.008101918
3	0x3cb3c0cf	0.021942524
4	0x3df4362d	0.11924396
5	0xbb0abb27	-0.002116868
6	0xbdcf7ade	-0.10130857
7	0xbc8c4730	-0.017123789
8	0x3ca08474	0.019594409
9	0xbc5a27fb	-0.013315196
10	0x3d408887	0.047005203
11	0xbd1bfef5	-0.038084943
12	0xbb7821c5	-0.0037861925
13	0x3d838f4a	0.064238146
14	0x3d148f57	0.036269512
15	0x3ca9dd3c	0.020735376
16	0xbd76f4af	-0.060291942
17	0x3ce0624a	0.027390618
18	0xbdb0bb63	-0.08629491
19	0xbd2ace5e	-0.041700713
20	0x3da92b80	0.0826025
21	0xbcdb99b8	-0.026806697
22	0x3c23d91c	0.010000493
23	0x3cc72462	0.02430934
24	0x3c8acf1c	0.01694446
25	0xbde0f8bc	-0.10984942
26	0xbbad2550	-0.005283989
27	0xbdc534e5	-0.096292295
28	0x3c95a5de	0.018267568
29	0xbc57c400	-0.013169289
30	0xbceb612a	-0.028732855
31	0x3d9b1da4	0.07574013
32	0x3d3441e6	0.04400816
33	0x3d0ea9b4	0.03482981
34	0xbd927133	-0.07150497
35	0x3da65582	0.08121778
36	0xbd7a6d69	-0.061139498
37	0xbc85ebaf	-0.016347734
38	0xbc87ebec	-0.016591989
39	0x3d89f1f3	0.06735601
40	0x3db8a543	0.09015896
41	0xbc10df14	-0.0088422485
42	0xbb148cd4	-0.0022666948
43	0xbdb63e2a	-0.088985756
44	0x3da5568f	0.0807315
45	0xbcc4abeb	-0.024007758
46	0x3de50462	0.111824766
47	0xbdb63339	-0.08896489
48	0x3d914258	0.07092732
49	0xbd85971a	-0.06522961
50	0x3d3adfe6	0.045623682
51	0x3d04ef43	0.03245474
52	0x3c9b1e67	0.018935395
53	0xbc97b137	-0.01851712
54	0xbd7d4914	-0.06183727
55	0x3dd37990	0.103259206
56	0x3d59ae86	0.053144954
57	0x3d852fc6	0.06503253
58	0x3d598892	0.05310876
59	0x3d13fef6	0.03613182
60	0xbd91bee3	-0.07116487
61	0xbd0bebb8	-0.034160346
62	0x3d8ae578	0.06782049
63	0x3ccdc320	0.025117457
64	0xbbcdee94	-0.0062845442
65	0x3c822cb2	0.015890453
66	0x3d0b66e1	0.03403366
67	0x3da12d74	0.078699976
68	0x3cc0ca9d	0.023534114
69	0xbd22201e	-0.03958141
70	0x3c12fa79	0.00897085
71	0x3c149a32	0.009069966
72	0x3dc3ed3f	0.095667355
73	0x3d914a58	0.07094258
74	0xbd93ddcc	-0.07220039
75	0x3ca00114	0.019531764
76	0xbd070869	-0.032967005
77	0xbcc6dbc6	-0.024274718
78	0xbca22a09	-0.019795435
79	0x3d205726	0.03914561
80	0x3d105b0e	0.035243087
81	0xbb92b192	-0.0044767344
82	0x3dfa7936	0.122301504
83	0x3d1b24a5	0.037876744
84	0x3d5463b1	0.051852886
85	0xbcdc1b1d	-0.026868397
86	0xbd4297c5	-0.04750802
87	0xbd987a3f	-0.074451916
88	0x3da45eee	0.08025919
89	0x3d89c52c	0.06727061
90	0xbccf0610	-0.025271446
91	0x3d132a58	0.035929054
92	0xbc2273e6	-0.009915328
93	0xbc904dfb	-0.017615309
94	0xbdc77bb6	-0.09740393
95	0xbcf8824b	-0.030335566
96	0xbc86c9ad	-0.016453588
97	0xbb750da8	-0.0037392173
98	0xbcfa71f3	-0.030571913
99	0xbc33aece	-0.01096697
100	0x3b116ae3	0.0022188954
101	0x3c5b39ff	0.013380527
102	0xbbc8fb9a	-0.006133509
103	0x3b33cc72	0.0027435091
104	0x3a98929f	0.0011640376
105	0x3d527a33	0.05138607
106	0x3d43fb55	0.04784711
107	0xbd3eac64	-0.046551123
108	0xbd94dbc1	-0.07268477
109	0x3c40fe86	0.011779433
110	0xbd031a63	-0.032007586
111	0x3bce516d	0.006296328
112	0xbd835f97	-0.06414717
113	0x3d60c08b	0.054871123
114	0x3d43e0da	0.047821857
115	0x3c6345bb	0.0138716055
116	0x3c6b31c6	0.014355129
117	0x3ca5b1b9	0.020226346
118	0x3c1a8169	0.009430268
119	0x3c0e22ba	0.008675272
120	0x3ded7a30	0.11595571
121	0x3c4c03d9	0.012452089
122	0x3d3bd95d	0.04586159
123	0xbd752c09	-0.05985645
124	0x3d970ca0	0.07375455
125	0xbd82aabf	-0.063802235
126	0x2df8ce09	2.8285834e-11
127	0x3b7b83bc	0.003837808
128	0x3ce8d48c	0.028421663
129	0x3d3ec969	0.0465788
130	0x3d2f1eba	0.042753913
131	0xbda97cc1	-0.08275748
132	0xbc8da4bc	-0.017290466
133	0x3d3d40af	0.046204265
134	0x3b815773	0.0039471923
135	0x3d961bd6	0.07329528
136	0xbb2ab9fb	-0.0026050794
137	0xbd80282f	-0.062576644
138	0x3d87477a	0.0660543
139	0x3d0adea9	0.03390375
140	0xbd31daf2	-0.043421693
141	0x3d83a45b	0.06427833
142	0x3da35beb	0.07976516
143	0xbd47086d	-0.04859202
144	0x3d40a93f	0.047036406
145	0x3c7361f3	0.014854896
146	0x3d8a27a5	0.06745843
147	0x3d0d7283	0.034533035
148	0x3c6f1e58	0.014594637
149	0xbba9da62	-0.005183504
150	0x3c410d7c	0.011783
151	0x3c94a001	0.018142702
152	0x3d808c8e	0.06276809
153	0xbd70ab91	-0.05875737
154	0xbb0d3def	-0.0021551808
155	0xbc2a5f8a	-0.010398755
156	0xbcac557d	-0.021036858
157	0x3d184eac	0.037184402
158	0x3d97e1b6	0.07416098
159	0x3d0a279f	0.033729192
160	0xbd8cc74c	-0.0687395
161	0xbcf50772	-0.029910777
162	0x3c5ea436	0.013588956
163	0xbdae2458	-0.08503026
164	0x3d501839	0.05080435
165	0xbb03e390	-0.0020124651
166	0xbd03ff95	-0.032226164
167	0x3c8dbe32	0.017302606
168	0x3d5e8ffd	0.054336537
169	0xbd1b5461	-0.037922267
170	0xbddb844e	-0.107185945
171	0x3cfe3ebb	0.031035772
172	0x3d7adb0b	0.061244052
173	0x3d96a594	0.073558
174	0xbca6c632	-0.020358179
175	0xbc48720d	-0.012234223
176	0xbd92001a	-0.071289256
177	0xbad0686c	-0.0015900261
178	0xbce40c98	-0.027838036
179	0xbda437e4	-0.08018473
180	0x3d633c40	0.05547738
181	0x3ce09a3d	0.027417297
182	0xbc753747	-0.014966792
183	0xbc09d94d	-0.008413625
184	0x3bd885dd	0.0066077546
185	0x3db2157f	0.08695506
186	0x3d79b3f0	0.060962617
187	0xbd8574e8	-0.06516439
188	0x3d0dabc0	0.03458762
189	0x3d8f8234	0.07007256
190	0xbd3c2391	-0.045932356
191	0x3d9a67ad	0.07539306
192	0x3d49c92a	0.04926411
193	0x3da104cf	0.07862245
194	0x3b2f13c1	0.0026714655
195	0x3daf82d9	0.08569879
196	0xbd763c28	-0.060115963
197	0x3c65e397	0.014031312
198	0xbc089a80	-0.008337617
199	0x3c5432a9	0.012951531
200	0x3d0197e5	0.031639
201	0x3c034675	0.008012404
202	0x3d593032	0.05302448
203	0x3db563ba	0.08856912
204	0xbcbbdb94	-0.022931851
205	0x3d3b18f6	0.0456781
206	0xbd8339f6	-0.064075395
207	0x3d581a81	0.05275965
208	0x3cccf3a8	0.025018528
209	0x3c979118	0.018501803
210	0x3cf3f57f	0.029780148
211	0xbc9b1152	-0.018929157
212	0x3dca5b6d	0.09880719
213	0xbcead608	-0.028666511
214	0xbcc081fe	-0.023499485
215	0xbd7a1e4f	-0.06106406
216	0x3dc1364d	0.09434185
217	0xbe032973	-0.1280878
218	0x3d98d6ce	0.07462846
219	0x3ca56481	0.020189526
220	0x3cc854ec	0.024454556
221	0xbcf57ae8	-0.029965833
222	0xbd5bc7cb	-0.053657334
223	0x3c0fd6cd	0.00877924
224	0xbcf0644a	-0.029344697
225	0xbcd6f3be	-0.026239272
226	0x3d25e61f	0.040502664
227	0xbd7a9534	-0.061177447
228	0xbc9c0116	-0.019043487
229	0xbd96bb07	-0.073598914
230	0xbd5ac27b	-0.053408127
231	0x3da9251c	0.08259031
232	0xbb1e41fc	-0.0024148216
233	0xbceb135c	-0.028695755
234	0x3cfdf07f	0.030998467
235	0xbbcbbd7b	-0.006217656
236	0x3da6e98f	0.081500165
237	0xbdaf8c81	-0.08571721
238	0xbd12b136	-0.035813533
239	0x3d4b5363	0.04964007
240	0x3da391c9	0.07986791
241	0x3c76468c	0.015031468
242	0x3d8c90ba	0.06863542
243	0xbb550068	-0.0032501463
244	0xbdbc1497	-0.09183615
245	0x3d63daac	0.055628464
246	0xbd3cb8d5	-0.046074707
247	0x3d4acff0	0.04951471
248	0x3a231bb6	0.0006222086
249	0xbc946007	-0.018112196
250	0xbd31b561	-0.043385867
251	0x3d06321b	0.032762628
252	0x3d46e151	0.048554722
253	0x3c49b422	0.012311013
254	0xae0e1ba6	-3.231162e-11
255	0xbd3d4ba0	-0.0462147

decoder_hidden_layer.bias f4 [128]
0	0xbd98b564	-0.074564725
1	0x3aed2434	0.0018092454
2	0x3c90d013	0.017677343
3	0x3cc341d7	0.023835106
4	0xbbc7e6c4	-0.0061005075
5	0x3baffe1e	0.0053708693
6	0xb89ced5e	-7.482873e-05
7	0x3d743be4	0.05962743
8	0xbcac14f7	-0.02100609
9	0x3dae8b97	0.085227184
10	0x3d5ae633	0.05344219
11	0xbddb27c3	-0.10700943
12	0xbd9ec258	-0.07751912
13	0x3d8359a3	0.06413581
14	0xbb627075	-0.0034551893
15	0xbd19663d	-0.037451018
16	0xbd11f709	-0.03563598
17	0xbbee59e6	-0.0072739003
18	0xbd60e7f8	-0.054908723
19	0xb306ef96	-3.141721e-08
20	0xbb5afeaf	-0.0033415963
21	0xb7d207ef	-2.5037645e-05
22	0x3c51df2f	0.012809559
23	0xbc21758f	-0.009854688
24	0x3c44333a	0.011975104
25	0x3dd22ef6	0.10262863
26	0xbd41e187	-0.04733422
27	0x3ca8cfaa	0.020606834
28	0x3dfc73c0	0.12326765
29	0x3dd5509c	0.10415766
30	0x3df8ea5f	0.12154078
31	0xbd591d81	-0.053006653
32	0x3c82ac3a	0.015951265
33	0x3df89aa9	0.12138874
34	0x3d992f34	0.074797064
35	0x3daa95d7	0.08329361
36	0xbd0ad1d4	-0.033891514
37	0x3d406868	0.04697457
38	0x3c20f0f2	0.009823071
39	0x3da0c1df	0.07849478
40	0xbd866e37	-0.065639906
41	0xbda09fd0	-0.07842982
42	0x3cdaf89b	0.026729872
43	0x3db24cac	0.0870603
44	0x3c1d12f8	0.009587042
45	0x3c81381d	0.015773827
46	0x3c8e9871	0.017406674
47	0xbceb5816	-0.028728526
48	0x3c8385a2	0.016054932
49	0x3d0a6f87	0.033797767
50	0xbab27f28	-0.0013618218
51	0xbc48af9f	-0.012248903
52	0x3d484b15	0.04889973
53	0x3cffc0d1	0.031219872
54	0xbb170e99	-0.0023049472
55	0x3c3ca760	0.011514515
56	0x3de8e075	0.11370937
57	0x3c8f5b62	0.01749963
58	0xb9c1b0a4	-0.00036943436
59	0xbcc4ea6e	-0.024037566
60	0xbc4ec02b	-0.012619059
61	0x3d8f23e3	0.06989267
62	0x3c146722	0.009057792
63	0xbd793cd5	-0.06084903
64	0x3cd99eb8	0.02656494
65	0x3d071266	0.03297653
66	0x3db96270	0.090519786
67	0x3d463658	0.04839167
68	0xbd6fbd1f	-0.05852997
69	0x3d5c9878	0.053856343
70	0xbd456364	-0.04819049
71	0x3d2e255a	0.04251609
72	0x3d53d1b2	0.051713653
73	0xbd14e97e	-0.036355488
74	0xbd580230	-0.05273646
75	0x3d8bdf35	0.06829683
76	0xbd30ef3b	-0.043196898
77	0x3b94d582	0.0045420537
78	0x3d850701	0.064954765
79	0x3be85312	0.007089981
80	0xbcc534e9	-0.024073081
81	0xbc60f2df	-0.01372978
82	0xb34e0680	-4.7969024e-08
83	0x3d51d14b	0.051224988
84	0x3d840962	0.06447102
85	0xbc822365	-0.015886018
86	0xb12760b1	-2.4356661e-09
87	0x3b745cce	0.0037286761
88	0xbcdd08df	-0.02698177
89	0xbb1437c5	-0.002261625
90	0xbd1e6b84	-0.038676754
91	0xbcd2744a	-0.025690217
92	0xbd45984a	-0.048240937
93	0x3d4b4d6f	0.049634393
94	0x3d92bd27	0.07164984
95	0x3db0a8a6	0.08625917
96	0xbd5276a9	-0.051382694
97	0xbc22056b	-0.009888987
98	0x3c9a40d5	0.018829742
99	0xbd26e486	-0.04074528
100	0x3d804890	0.0626384
101	0x3d3e864f	0.046514805
102	0x3cbfdbe9	0.023420291
103	0xbd83ec20	-0.06441522
104	0x3d6a1bd8	0.05715546
105	0x3c9db261	0.019250097
106	0x3c44fade	0.012022702
107	0xbcb7307f	-0.022361992
108	0x3aa7d984	0.0012805914
109	0xbd625b19	-0.05526266
110	0xbcf280be	-0.029602405
111	0xbc78a0f0	-0.015175089
112	0xbd272480	-0.040806293
113	0xbd2ee858	-0.04270205
114	0xbd400e49	-0.046888623
115	0x3ca9d932	0.02073345
116	0xbd966581	-0.07343579
117	0xbd225efb	-0.03964136
118	0x3c1be71f	0.009515553
119	0x3cd05355	0.02543036
120	0x3d9d259d	0.0767319
121	0xbd739156	-0.059464775
122	0x3d890529	0.06690437
123	0x3d0ab864	0.033867255
124	0xbd9f9089	-0.0779124
125	0x3c0a5e9f	0.008445411
126	0xbd3f1971	-0.046655122
127	0x3d127f6f	0.03576606

decoder_output_layer.weight f4 [128, 128]
0	0xbdf9d20e	-0.12198268
1	0x3d17f6d6	0.037100635
2	0xbd189b53	-0.037257504
3	0x3d572fa1	0.052535657
4	0x3d252231	0.04031581
5	0xbd0e3932	-0.034722514
6	0x9633c8ba	-1.4522843e-25
7	0x3ce9b04d	0.02852645
8	0xbd38c510	-0.04510981
9	0xbd07eadc	-0.033182964
10	0x3c963611	0.018336328
11	0xbc3ba940	-0.011453927
12	0x3ac82bc1	0.0015271829
13	0x3e407c45	0.18797405
14	0x3d4ac008	0.04949954
15	0x3d0baf3a	0.034102656
16	0xbc01c6a9	-0.007920899
17	0x3db50367	0.088385396
18	0xbb6c1acf	-0.0036026721
19	0x0851ce18	6.313591e-34
20	0xbad41a95	-0.0016182238
21	0x1718bcd8	4.9352203e-25
22	0x3bfb3cac	0.0076671448
23	0x3c7d0da6	0.015445149
24	0xbd9ce66a	-0.076611355
25	0x3d97935c	0.074011534
26	0xbc718e76	-0.014743438
27	0x3cbf43b6	0.023347717
28	0x3bb0dc32	0.005397343
29	0xbcc60819	-0.024173783
30	0xbc8a9d4a	-0.016920704
31	0xbd8f8541	-0.07007838
32	0xbcefa82c	-0.029254995
33	0xbcbb58e9	-0.022869544
34	0x3d46829c	0.048464403
35	0x3d7b84bb	0.06140588
36	0x3dab25cb	0.08356818
37	0x3cb624e2	0.022234384
38	0xbd3e2d86	-0.046430133
39	0x3d96d2df	0.07364439
40	0xbcb7ffb0	-0.022460788
41	0xbd8b5d93	-0.06804957
42	0x3ce4484e	0.027866509
43	0x3c85302a	0.016258318
44	0xbc20c859	-0.009813392
45	0x3d41a38c	0.04727511
46	0x3d80fd75	0.06298343
47	0x3959baed	0.00020764368
48	0xbcf3f3ea	-0.029779393
49	0xbc99734d	-0.018731738
50	0xbc8d30bc	-0.017235152
51	0x3d9d39b1	0.076770194
52	0x3d4228a4	0.04740204
53	0xbd6fcba3	-0.058543812
54	0x88908d9f	-8.69998e-34
55	0x3df6f4a2	0.12058379
56	0xbb8776b4	-0.0041340236
57	0xbce0e583	-0.02745319
58	0xbd195551	-0.03743488
59	0xbb60284e	-0.003420371
60	0xbd2f91ad	-0.042863537
61	0x3c9d752a	0.019220907
62	0xbadd94ac	-0.001690527
63	0x3ccb570e	0.024821784
64	0xbd8f8cfc	-0.070093125
65	0x3d19dfec	0.037567064
66	0x3d093d9d	0.033506025
67	0xbca5a44c	-0.020219944
68	0xbd985ce9	-0.07439596
69	0x3d373019	0.044723604
70	0xbc82833f	-0.015931724
71	0xbbeefcd9	-0.0072933254
72	0x3cb18c60	0.021673381
73	0x3ad79f78	0.0016450724
74	0x3c666810	0.014062896
75	0xbc9f0c06	-0.019414913
76	0x3dc59354	0.09647241
77	0xbd37e28d	-0.04489379
78	0xbba569fe	-0.0050480356
79	0x3be4b5c3	0.0069796755
80	0xbd3bdac5	-0.04586293
81	0xbda8dcd0	-0.08245242
82	0x19af4a67	1.8124627e-23
83	0x3d3a3355	0.04545911
84	0x3c0b2322	0.008492263
85	0x332587dd	3.8540623e-08
86	0x998a0043	-1.4268971e-23
87	0x3c1afd9a	0.009459877
88	0x39dd6c42	0.00042233063
89	0x0c9890c5	2.3506438e-31
90	0x3d19f1d6	0.03758415
91	0xbd5baca4	-0.05363144
92	0xb7a80801	-2.0030888e-05
93	0x3d2b0e40	0.041761637
94	0x3c9e57b4	0.01932893
95	0xbc0d2c4a	-0.008616516
96	0x3dc84514	0.097788006
97	0x3cf680da	0.030090738
98	0xbca6795e	-0.020321544
99	0x3bc22e94	0.0059259627
100	0xbc58a12f	-0.013222023
101	0xbc35e2de	-0.011101453
102	0xbc4e4cda	-0.012591565
103	0xbd57d490	-0.05269295
104	0xbbb151f1	-0.0054113795
105	0xbb872ccd	-0.0041252137
106	0xbcd994a0	-0.026560128
107	0x3bd5a78d	0.0065202178
108	0xbc47a9b4	-0.0121864565
109	0xbd1a098b	-0.037606757
110	0x3d44d339	0.048053
111	0xbbc65425	-0.0060525113
112	0xbc4ea13e	-0.012611685
113	0x3c113188	0.008861907
114	0x3ca9bbf7	0.020719511
115	0x3d6a3137	0.05717584
116	0x3cca74b9	0.02471386
117	0x3d670f89	0.0564113
118	0xbd3cf5dd	-0.04613291
119	0xbd23986e	-0.03994029
120	0x38d85ceb	0.0001031699
121	0xbd11dd61	-0.035611514
122	0xbccc87df	-0.024967132
123	0xbd6b5ca6	-0.057461403
124	0xbe0f245e	-0.13978717
125	0xbb255275	-0.002522615
126	0xbca83429	-0.020532684
127	0x3d6fa558	0.058507293
128	0xbd3906df	-0.04517257
129	0x3d3e11f8	0.046403855
130	0xbd2eb5cf	-0.042653855
131	0x3d025e37	0.03182813
132	0x3cb2a990	0.02180937
133	0xbc510764	-0.01275811
134	0x3b059637	0.0020383724
135	0x3d0d1ab9	0.034449313
136	0xbd179399	-0.037005994
137	0xbd6b3731	-0.05742568
138	0x3bdc1dd8	0.006717425
139	0x3cc745d4	0.024325289
140	0x3d423b98	0.047420114
141	0x3dc554e1	0.0963533
142	0x3d09ceee	0.03364461
143	0x3d9b011b	0.0756857
144	0x3be7a9f1	0.007069819
145	0x3d28f5cb	0.04125003
146	0x3c56f291	0.013119356
147	0x39a8e8ae	0.00032216817
148	0x3c1a24d9	0.009408199
149	0x3aae3dc9	0.001329356
150	0x3ca57a72	0.020199988
151	0x3d6903d5	0.05688842
152	0xbd417abc	-0.04723619
153	0x3d1461dd	0.036226142
154	0x3ba07bdd	0.004897578
155	0x39e80289	0.00044252377
156	0x3cc24a1f	0.023716984
157	0xbd0540ab	-0.032532375
158	0xbbbf83a3	-0.0058445497
159	0xbd8b5c60	-0.068047285
160	0xbd272a6b	-0.040811937
161	0xbce57030	-0.028007597
162	0x3caa68e7	0.020801974
163	0x3d2264a0	0.039646745
164	0x3ddb6445	0.10712484
165	0x3cd7fb1b	0.026364854
166	0xbce77881	-0.028255703
167	0x3d51058b	0.051030677
168	0xbd1aff3e	-0.037841074
169	0x39941911	0.00028247436
170	0x3ce56a00	0.028004646
171	0x3cd5e5e6	0.0261106
172	0xbcdfa7a7	-0.027301623
173	0x3ced9802	0.029003147
174	0x3d199646	0.037496828
175	0xbc905bcd	-0.017621899
176	0xbd901a9f	-0.070363276
177	0xbca18203	-0.019715315
178	0xbd2cc921	-0.042184
179	0x3cb94344	0.022615083
180	0x3c553d3f	0.0130150905
181	0xbd954930	-0.0728935
182	0x3ba0aff4	0.0049037877
183	0x3d9167de	0.07099889
184	0x3c08f658	0.008359514
185	0xbbfb36dc	-0.007666452
186	0xbc784d55	-0.015155156
187	0xbace4772	-0.0015737845
188	0xbd5fdb70	-0.05465263
189	0x3c95702a	0.01824196
190	0x3b4600a3	0.0030212782
191	0x3d44f5ed	0.048086096
192	0xbc8a04f6	-0.016848069
193	0x3d18156e	0.037129812
194	0x3ca12424	0.019670554
195	0x3b0d20ed	0.0021534518
196	0xbd1397ca	-0.03603343
197	0x3d6a899b	0.057260137
198	0xbcc761e5	-0.024338672
199	0xbc4734ea	-0.012158612
200	0x3cdc85c7	0.026919259
201	0x3c26642a	0.010155717
202	0x3b4a97e7	0.0030913295
203	0xbcb94261	-0.02261466
204	0x3d7a928d	0.061174918
205	0xbd863a93	-0.06554141
206	0x3b29a6ff	0.002588689
207	0x3cf7940e	0.030221965
208	0xbd1995ea	-0.037496485
209	0xbd95fb93	-0.073233746
210	0xbb91d8f3	-0.004450911
211	0x3cd34847	0.0257913
212	0x3c3a1ad3	0.011358934
213	0xb4f33331	-4.5299524e-07
214	0xb631a391	-2.6470263e-06
215	0x3c8a9a91	0.016919406
216	0x3cb19a86	0.021680128
217	0x3ae5b41c	0.001752499
218	0x3cc5c57a	0.024142016
219	0xbc8f4406	-0.01748849
220	0xbb8a8481	-0.0042272215
221	0x3d1836c9	0.037161622
222	0x3bc0f76d	0.0058888705
223	0xbc8df5bd	-0.017329091
224	0x3d6f5621	0.05843175
225	0x3ce7d382	0.028299097
226	0xbcc666f3	-0.024219012
227	0x3c92d7ba	0.017925132
228	0xbac48bac	-0.0014995239
229	0xba6cd983	-0.00090350973
230	0xbd04ad09	-0.03239158
231	0xbd2684e3	-0.040654074
232	0xbc702024	-0.0146561
233	0xbc106b63	-0.0088146655
234	0xbb1465a7	-0.0022643597
235	0xbbb78d70	-0.0056015775
236	0xbcc30826	-0.023807596
237	0xbd99967e	-0.07499407
238	0x3cf2a1d0	0.029618174
239	0x3c3d3c8c	0.01155008
240	0x3b876a13	0.004132518
241	0x3c18cec3	0.00932664
242	0x3cb58645	0.022158751
243	0x3d9af85c	0.07566902
244	0x3c63fd29	0.013915339
245	0x3d65930c	0.056048438
246	0xbc9b87d2	-0.018985663
247	0xbc90343c	-0.017603032
248	0xbbd71d03	-0.0065647378
249	0xbca7bfa9	-0.020477133
250	0xbcfa2034	-0.030532934
251	0xbcd68958	-0.026188537
252	0xbd99dd50	-0.07512915
253	0x3bf84e5f	0.007577702
254	0xbcadc5d2	-0.021212492
255	0x3d24c9a1	0.04023135

decoder_output_layer.bias f4 [128]
0	0x3cdca824	0.026935644
1	0x3c4be9d6	0.012445888
2	0x3c42cb1c	0.011889245
3	0xbcc853d6	-0.024454039
4	0xbd825f98	-0.06365889
5	0xbca9a2eb	-0.020707568
6	0xb6de1084	-6.6180382e-06
7	0xbd30d817	-0.04317483
8	0x3d2dc082	0.042419918
9	0x3d82e9a0	0.06392217
10	0x3c36e4fb	0.011162992
11	0xbc0c331e	-0.008557109
12	0x3d71245b	0.058872562
13	0x3de365ab	0.11103376
14	0x3c297ac3	0.01034421
15	0xbaa98fc1	-0.0012936519
16	0xbaf84551	-0.0018941556
17	0xbb75ea44	-0.0037523666
18	0xba81448b	-0.0009862346
19	0xbd09289a	-0.033485986
20	0xbcb1e4d4	-0.021715559
21	0x3ceff6c7	0.029292477
22	0xbba973a1	-0.0051712547
23	0xbcea4daf	-0.028601496
24	0xbd125b55	-0.035731632
25	0xbd03ec70	-0.032207906
26	0x3d59f68b	0.053213637
27	0x3c78973e	0.015172778
28	0x3cb9482a	0.022617418
29	0xbcb44b67	-0.02200861
30	0x3c57f726	0.013181483
31	0x3b66d266	0.0035220622
32	0xbd069bcb	-0.03286342
33	0x3cd24e36	0.02567206
34	0xbaa1943e	-0.0012327505
35	0x3c221682	0.009893062
36	0x3ccddd0a	0.025129814
37	0xbaa8c16a	-0.0012875025
38	0x3d105710	0.03523928
39	0xbc748c2f	-0.0149260005
40	0xbd6645ad	-0.05621879
41	0x3d4c908f	0.04994255
42	0xbd27a54d	-0.040929127
43	0xbc5d248f	-0.013497486
44	0xbcd6b4b9	-0.026209222
45	0x3d1c2354	0.03811963
46	0xbbdff802	-0.0068349848
47	0x3d7a2740	0.061072588
48	0x3c84a408	0.016191497
49	0x3d839a26	0.06425886
50	0x3c246e13	0.010036009
51	0x3d2d18c9	0.042259965
52	0xbca45198	-0.020058438
53	0xbcee2de6	-0.02907462
54	0xbcf46bf3	-0.02983663
55	0x3cedd46d	0.029031957
56	0xbbda64b4	-0.006664837
57	0xbcca85b9	-0.024721967
58	0xbc5ceca9	-0.013484159
59	0x3bc2fae8	0.0059503205
60	0xbbc0ac97	-0.0058799493
61	0xb4390830	-1.7232446e-07
62	0x3bbb887e	0.0057230582
63	0x3c767b63	0.015044066
64	0x3b679d62	0.003534161
65	0x9dfce515	-6.694071e-21
66	0xbbef84ad	-0.0073095174
67	0xbd104e79	-0.035231087
68	0x3b5d269e	0.0033744941
69	0xbad2c6fa	-0.0016081028
70	0x3bb081d6	0.0053865714
71	0x3d6e8758	0.058234543
72	0x3d2ff75a	0.042960502
73	0x3ccb8aff	0.024846552
74	0x3cfce0fa	0.030868996
75	0xbd62baae	-0.055353813
76	0xbcad328a	-0.021142263
77	0x3d6346b4	0.05548735
78	0xbd5f7be5	-0.054561514
79	0xbb7d4653	-0.0038646653
80	0x3d09da6b	0.033655565
81	0xbd88e367	-0.066839986
82	0xbd002695	-0.031286795
83	0x3c63232e	0.013863368
84	0x3c925bf4	0.017866112
85	0xbb22ddbd	-0.0024851405
86	0xbc682510	-0.014168993
87	0x3cff9de0	0.03120321
88	0x3c57c2a9	0.013168969
89	0xbca17273	-0.019707894
90	0x3cecaaad	0.028889978
91	0xbb43d42e	-0.0029881108
92	0xbbb4b900	-0.005515218
93	0xbd6287ae	-0.055305175
94	0xbcf1896b	-0.029484471
95	0x3c725024	0.014789615
96	0xbc57a103	-0.013160947
97	0x3d03c9ee	0.032174997
98	0x3c756578	0.014977805
99	0x3d8c0324	0.068365365
100	0x3caf9dd5	0.021437565
101	0x3d7fa9a8	0.062417656
102	0x3cab2b2e	0.020894613
103	0x3cf8162a	0.030284006
104	0x3c84c89d	0.016208941
105	0xbc857859	-0.016292738
106	0x3ae68e0b	0.001758994
107	0x3cdb3254	0.026757397
108	0x3c916ceb	0.017752131
109	0x3d568e28	0.052381665
110	0x3c095672	0.008382427
111	0x3d5302d7	0.05151638
112	0xbc86c3ad	-0.016450727
113	0x3be04af7	0.006844874
114	0x3c89fc12	0.01684383
115	0x3c60d564	0.013722751
116	0x3bb2f040	0.005460769
117	0x3c21ce40	0.009875834
118	0xbd877f56	-0.06616084
119	0xbcc82b68	-0.02443476
120	0x3ce84e7f	0.028357742
121	0xbcfb7278	-0.030694231
122	0x3c6f481f	0.014604597
123	0xbba54cce	-0.005044556
124	0x3cc82619	0.024432229
125	0xbd4f14d0	-0.050556958
126	0xbcaf57cc	-0.02140417
127	0x3d07a63e	0.033117525
