results/milestone/programming tutorials/GCP/params/AE/params5.pt (torch_old, 265742 bytes, 8 tensors)

encoder_hidden_layer.weight f4 [128, 128]
0.05697824 0.11166244 -0.059017174 -0.06386077 0.064734705 -0.0028760773 -0.029549945 -0.06140986
0.03604288 -0.024760988 0.08705783 0.013642677 -0.06295269 0.04153801 -0.02699874 -0.03911961
-0.067530364 0.051224455 0.058411665 0.0872179 0.089547634 0.010255222 0.06726823 -0.025770413
-0.016391609 0.0068386253 0.048577823 -0.030445594 0.059156697 -0.02844288 0.03351217 0.066111274
0.07866198 -0.05247786 0.032667827 0.09781252 0.043200143 0.069585614 0.06623382 0.09179527
0.003381099 0.054687437 0.0943244 -0.033160783 0.028103925 -0.0020142188 -0.03897365 -0.00398879
0.09085866 -0.018389445 -0.036713276 -0.01194693 -0.069836944 -0.021404298 -0.008648866 0.016672302
0.0010870938 0.058922842 -0.034409955 0.006899241 -0.062289935 -0.056333646 -0.05392514 0.030666556
0.041583344 -0.07498191 -0.060357712 0.04753158 -0.0021051117 0.059257243 -0.04583231 0.098245166
-0.057226285 -0.02429544 0.08537081 0.002492913 0.079980016 -0.028413108 0.016006943 -0.020066509
-0.023857214 0.0046091154 0.09000619 -0.06437329 0.045179807 0.083782025 0.08438286 -0.04869519
0.10067793 -0.0025677693 0.057893272 -0.00027242562 -0.05809128 0.039887603 0.08167911 0.017461117
-0.06419283 0.04706708 0.07957125 0.09822666 0.08264064 0.02266474 0.09051398 -0.014877951
-0.05802319 0.011560198 -0.05512034 0.023817543 -0.017735712 -0.064664125 0.016633447 -0.030300008
0.06894332 -0.020829849 0.03812652 -0.03683425 0.005983694 -0.015528921 -0.058200542 -0.07762181
-0.010213939 0.022230892 -0.058945492 0.050478667 0.089621134 -0.041482296 -0.012438927 -0.03424001
-0.094171554 -0.13095255 0.021821236 -0.084626645 0.066076756 0.074879915 0.09892656 -0.00270081
0.0355527 0.087584555 -0.0370877 0.024734842 -0.016128592 -0.02726571 -0.1063654 -0.046412736
-0.07393667 -0.09507996 -0.0516872 -0.11339067 -0.13033535 -0.0379899 -0.11305362 0.010173432
-0.0037918387 0.013087165 -0.06951397 -0.043149814 0.030579679 0.027737925 0.026316943 -0.03828433
-0.03099851 -0.017260203 0.06763818 -0.0039145844 0.09310746 0.05019442 0.044097155 0.075797945
0.033100244 -0.04748431 0.036145136 0.018132117 -0.01567223 -0.0718347 0.0178197 0.008119776
-0.027066026 0.03989248 0.10596213 0.11633698 0.07648536 0.020716673 0.088659205 0.09244129
0.108768724 0.08811095 0.01852016 0.02236522 -0.105901815 -0.10478457 -0.17209332 -0.2140334
-0.07498404 -0.0471157 -0.06127604 -0.033366237 -0.060551092 0.0010226675 -0.03564947 -0.012111941
-0.045568563 0.026274124 0.04524643 0.024436964 0.03586601 0.10305999 0.041644696 0.059252903
0.016247604 -0.007033332 0.07316097 -0.034500234 -0.04834204 -0.042320687 -0.098792456 -0.085760616
-0.0055652848 -0.05811535 0.028567523 0.0036695802 -0.07533491 -0.06257786 -0.0057009435 -0.028057
0.061328236 -0.02442281 -0.015004781 9.16939e-05 -0.01253739 -0.018031279 -0.031056417 0.039479718
-0.06973871 0.0021327974 0.05739269 -0.0063412446 0.039291438 0.02778503 0.039581206 -0.042919718
0.009561825 -0.043885805 -0.06005134 -0.02391767 -0.05180527 -0.0065652737 -0.0055546025 0.0016092252
-0.06852817 -0.08511507 -0.009177573 0.008202045 -0.063096344 0.02759286 -0.09704528 -0.06754771
00000000: 0462 693d 47af e43d febb 71bd 6fc9 82bd
00000010: a193 843d 927c 3cbb ba12 f2bc e888 7bbd
00000020: b3a1 133d 8ed7 cabc 604b b23d 8985 5f3c
00000030: 57ed 80bd c323 2a3d 762c ddbc e23b 20bd
00000040: 5c4d 8abd bcd0 513d 1241 6f3d 4c9f b23d
00000050: c064 b73d 8505 283c edc3 893d 791c d3bc
00000060: b247 86bc 8c16 e03b 8af9 463d 0a69 f9bc
00000070: 4b4e 723d 0b01 e9bc 0f44 093d 5965 873d
00000080: 8819 a13d 06f3 56bd b3ce 053d ee51 c83d
00000090: a2f2 303d e782 8e3d 99a5 873d 29ff bb3d
000000a0: 6e95 5d3b efff 5f3d 272d c13d 9ad3 07bd
000000b0: 343a e63c fc00 04bb d6a2 1fbd 65b4 82bb
000000c0: 1b14 ba3d 76a5 96bc a960 16bd 0ebd 43bc
000000d0: ac06 8fbd 1158 afbc f9b3 0dbc 5a94 883c
000000e0: d17c 8e3a 1459 713d 74f1 0cbd 0713 e23b
000000f0: bb23 7fbd 1cbe 66bd 9ce0 5cbd 6e38 fb3c
00000100: 4c53 2a3d 1e90 99bd a639 77bd 79b0 423d
00000110: eaf5 09bb b9b7 723d a9ba 3bbd c334 c93d
00000120: 1c66 6abd 3b07 c7bc e4d6 ae3d 2460 233b
00000130: 90cc a33d 9bc2 e8bc fe20 833c 8562 a4bc
00000140: 3470 c3bc 1008 973b 2a55 b83d 25d6 83bd
00000150: 760e 393d e995 ab3d ecd0 ac3d 9c74 47bd
00000160: 3b30 ce3d 0548 28bb 7f21 6d3d 59d4 8eb9
00000170: 1ff1 6dbd 2f61 233d 6147 a73d 9e0a 8f3c
00000180: 8877 83bd 69c9 403d 40f6 a23d 0f2b c93d
00000190: 7f3f a93d 68ab b93c 655f b93d a6c2 73bc
000001a0: b9a9 6dbd fc66 3d3c dec5 61bd 021d c33c
000001b0: 7c4a 91bc a06e 84bd de42 883c b937 f8bc
000001c0: 2832 8d3d 5ca3 aabc 8e2a 1c3d 83df 16bd
000001d0: dd12 c43b 046d 7ebc b163 6ebd 2ff8 9ebd
000001e0: 5d58 27bc 8f1d b63c d470 71bd b8c2 4e3d
000001f0: 498b b73d 57e9 29bd a4cc 4bbc 413f 0cbd
00000200: 04dd c0bd 6d18 06be 73c2 b23c bc50 adbd
00000210: 4053 873d a45a 993d 029a ca3d 1300 31bb
00000220: b59f 113d 885f b33d 46e9 17bd b9a0 ca3c
00000230: 1c20 84bc 575c dfbc 1ad6 d9bd 481b 3ebd
00000240: 1c6c 97bd 48b9 c2bd f5b5 53bd 5e39 e8bd
00000250: a176 05be 4c9b 1bbd a888 e7bd 77ae 263c
00000260: 7f80 78bb 8c6b 563c 575d 8ebd dcbd 30bd
00000270: 3c82 fa3c a53a e33c a196 d73c 08d0 1cbd
00000280: 96f0 fdbc 4565 8dbc e385 8a3d ea45 80bb
00000290: 20af be3d aa98 4d3d 389f 343d f43b 9b3d
000002a0: 1f94 073d e87e 42bd ec0c 143d ce89 943c
000002b0: 0c63 80bc 121e 93bd 9ffa 913c cf08 053c
000002c0: 92b9 ddbc 4c66 233d ac02 d93d 1542 ee3d
000002d0: 5ba4 9c3d 03b6 a93c f592 b53d dc51 bd3d
000002e0: 23c2 de3d 8473 b43d 97b7 973c 4437 b73c
000002f0: 0de3 d8bd 4b99 d6bd 3b39 30be 922b 5bbe
00000300: 3b91 99bd 64fc 40bd 96fc 7abd 09ab 08bd
00000310: 6c04 78bd 070b 863a 2e05 12bd 2a71 46bc
00000320: 1aa6 3abd d53c d73c 5254 393d 0730 c83c
00000330: 3de8 123d 1e11 d33d a193 2a3d 2cb3 723d
00000340: b219 853c dd77 e6bb 6bd5 953d 1e50 0dbd
00000350: 4e02 46bd 7558 2dbd b353 cabd 43a3 afbd
00000360: fe5c b6bb 5c0a 6ebd 7006 ea3c 577d 703b
00000370: 3049 9abd d228 80bd fbce babb cbd7 e5bc
00000380: 5133 7b3d 5812 c8bc 9dd6 75bc ca4b c038
00000390: a069 4dbc 55b6 93bc 076a febc 7cb5 213d
000003a0: 2bd3 8ebd 67c6 0b3b 9914 6b3d 37ca cfbb
000003b0: 0ff0 203d 6e9d e33c e71f 223d 96cc 2fbd
000003c0: 33a9 1c3c 9ac1 33bd 65f8 75bd fdee c3bc
000003d0: c331 54bd 8221 d7bb 6203 b6bb a3ec d23a
000003e0: 7f58 8cbd cf50 aebd 885d 16bc df61 063c
000003f0: a838 81bd 6c0a e23c adbf c6bd 7456 8abd

encoder_hidden_layer.bias f4 [128]
0.0019109779 0.080425575 0.05584509 -0.031254783 -0.06623196 -0.035194956 0.1347067 -0.01345095
-0.014790087 -0.018301444 -0.008506385 -0.06965095 0.06736303 0.04747685 -0.07348464 0.06494951
0.14750157 0.051799238 -0.010548555 0.032215208 0.07195519 0.07375141 0.109410234 0.059646897
-0.0104134865 0.14789237 0.045721233 0.073152825 0.24406144 -0.0019786763 0.051665608 -0.018496947
0.080908425 -0.009943172 0.032136973 0.0075406404 0.056900814 0.08581251 0.15113159 0.17509754
0.02240529 0.041517314 -0.015366846 0.036999594 0.05334834 0.022330627 0.14444233 -0.028126715
0.082884684 0.075331554 0.01675619 0.03657066 0.09584081 0.108773336 0.077037714 0.08717415
0.044913232 0.23026058 0.0569864 -0.017071452 0.053987917 0.07002764 0.020746903 0.0371201
0.05944043 0.06974364 -0.056259967 0.014638885 0.16314323 0.10104832 0.18761422 0.056160346
-0.06635193 0.118117146 0.023996174 0.03004015 0.006380752 0.009364019 0.11163363 0.02498747
0.033889726 0.08306322 0.102743804 -0.029824369 0.033700563 0.18751802 -0.02645543 0.19161476
0.07325869 0.007012677 0.0903679 -0.009613868 0.08157505 0.07716839 0.11510351 -0.0018102161
0.11955982 0.021346267 0.08200076 0.19286829 0.079737626 0.02391671 0.066322885 -0.066719495
-0.014780084 0.13132119 -0.047175333 0.08650544 0.08514232 0.043144014 0.06594477 0.033762623
0.04921476 0.071022555 0.20078534 -0.07022441 -0.028347742 0.13436502 0.0026323777 0.08211953
0.097022824 0.017719751 0.06851737 0.04479327 0.059253737 -0.0075643244 0.13514799 0.08490814
00000000: c779 fa3a 2ab6 a43d d2bd 643d 0405 00bd
00000010: 9fa4 87bd 9628 10bd 8ef0 093e 6061 5cbc
00000020: 1f52 72bc e9ec 95bc 5d5e 0bbc 28a5 8ebd
00000030: a1f5 893d 1677 423d 1d7f 96bd 4004 853d
00000040: a70a 173e 702b 543d d9d3 2cbc 18f4 033d
00000050: 3e5d 933d fb0a 973d 7912 e03d 4e50 743d
00000060: 549d 2abc 1971 173e 3046 3b3d 26d1 953d
00000070: 3eeb 793e aeac 01bb 519f 533d e986 97bc
00000080: 51b3 a53d b0e8 22bc 0fa2 033d 7a17 f73b
00000090: d410 693d 78be af3d 3dc2 1a3e c54c 333e
000000a0: 4c8b b73c 0f0e 2a3d 39c5 7bbc e38c 173d
000000b0: ca83 5a3d b8ee b63c b1e8 133e ff69 e6bc
000000c0: 72bf a93d 6e47 9a3d 4744 893c 1ecb 153d
000000d0: 3048 c43d 8ec4 de3d f3c5 9d3d 5c88 b23d
000000e0: f0f6 373d 6ec9 6b3e 926a 693d 6ed9 8bbc
000000f0: 6f22 5d3d a76a 8f3d 69f5 a93c 3f0b 183d
00000100: cf77 733d c1d5 8e3d da70 66bd efd7 6f3c
00000110: 050f 273e 6cf2 ce3d f11d 403e 6408 663d
00000120: 85e3 87bd 67e7 f13d a093 c43c c316 f63c
00000130: a115 d13b 8b6b 193c 2ca0 e43d 86b2 cc3c
00000140: f4cf 0a3d 0d1d aa3d 586b d23d 3c52 f4bc
00000150: 9a09 0a3d b904 403e 0fb9 d8bc a936 443e
00000160: a708 963d 99ca e53b ce12 b93d 7c83 1dbc
00000170: d210 a73d 760a 9e3d 64bb eb3d c644 edba
00000180: c7db f43d 5ede ae3c 04f0 a73d 447f 453e
00000190: 7b4d a33d faec c33c 4bd4 873d 3ba4 88bd
000001a0: 2a28 72bc 1079 063e ec3a 41bd c429 b13d
000001b0: 195f ae3d c7b7 303d 0d0e 873d ad4a 0a3d
000001c0: 6b95 493d 4674 913d ac9a 4d3e d1d1 8fbd
000001d0: 8639 e8bc fc96 093e f883 2c3b 492e a83d
000001e0: e7b3 c63d 0329 913c d652 8c3d 2679 373d
000001f0: 0cb4 723d 27de f7bb 3c64 0a3e 52e4 ad3d

encoder_output_layer.weight f4 [128, 128]
-0.03726733 0.02491732 -0.08081634 0.029838394 0.048360817 0.020666772 0.104359224 0.06679362
-0.08632782 -0.037193697 -0.008440716 -0.066844754 0.06466627 0.011723315 -0.07829812 0.024388518
0.09554833 -0.023922315 0.05238806 0.04505458 0.07280887 -0.042359363 -0.03796533 0.051462125
-0.06436452 0.13133435 -0.019850357 -0.02292863 -0.017175546 -0.015220581 0.037051328 -0.0024395485
-0.10068132 -0.050426293 0.01669971 0.07806211 0.08265197 0.02011117 0.097714044 0.012810326
0.07084048 -0.015691645 -0.009246639 0.07709644 0.08097366 0.031032588 -0.0009798508 -0.039676093
0.09518573 0.024314445 -0.021876736 0.061801694 0.0013529205 0.035735253 0.055363543 0.010020292
-0.100877404 -0.073210426 -0.040569592 -0.029119516 0.018947896 0.069809005 0.04522374 0.059117932
0.029756345 -0.0024469097 0.060465943 0.0858086 0.088973045 0.047322996 0.01639274 0.028223043
-0.056093164 -0.021230824 0.025736125 0.05527849 0.04530816 -0.06637108 -0.04724134 0.01650812
0.06634526 -0.036452074 0.04062451 0.04881876 0.031715803 0.06236782 0.0010583512 -0.03526475
-0.08231006 -0.061123364 0.043729857 -0.042948246 -0.030430183 -0.06716206 -0.0011560135 0.10572054
-0.059449848 0.11475006 -0.025604315 -0.013992191 0.04878299 0.018617118 0.003732469 0.058481306
0.0760183 0.03280264 0.024453053 0.047829878 -0.054306746 0.051470913 0.05638997 -0.075033404
-0.0016454767 0.053357955 0.06930161 0.040469956 -0.021314777 -0.05451452 -0.068190284 0.05476184
-0.029706305 -0.03594119 -0.024183875 0.0797555 -0.040117893 -0.05385793 0.017318992 0.03136412
-0.034648288 0.056292366 0.032125432 -0.028689437 0.052401077 -0.017249227 0.052595947 0.026036091
0.07966333 0.040636487 0.054873303 0.012182842 -0.1732043 -0.020830845 0.02339927 0.11109933
-0.106625706 -0.015243382 -0.008673959 0.0082795415 -0.03858818 0.017495569 -0.0021061357 0.060861293
0.027726142 0.12165392 0.13587762 0.0013718563 0.032542177 0.02128775 0.16199443 0.027314408
-0.010467202 0.081272624 0.23295538 -0.051651962 0.036001686 0.108704 0.14514603 0.09119727
-0.0006191167 -0.0021014242 0.09655617 -0.05643074 -0.0003845164 0.019497765 0.035791796 -0.0387885
0.0025502606 -0.030894345 -0.025826445 -0.037620462 -0.026208607 0.14613888 -0.013979503 0.0058745793
-0.0071808826 0.039834715 0.06505951 -0.034418453 -0.02600021 0.039074935 -0.01700261 0.039032534
0.020606643 0.06726291 -0.0022263764 0.052603297 -0.1613488 -0.07013394 0.036039654 -0.012030537
-0.004273942 -0.023412721 0.058360096 0.018793039 -0.013513876 0.06415629 0.10113397 0.039509147
-0.044320706 -0.026338546 -0.123506136 -0.022833357 0.019758357 0.09899152 0.057244815 0.03107259
0.018821064 -0.0062671234 0.012837852 0.027701657 0.044500627 -0.030369664 -0.10643617 0.13237703
0.050484903 -0.021798942 -0.007630955 0.09793013 0.040478934 0.048757717 0.07036246 0.01282379
0.077674314 -0.024980597 0.043495607 0.026157139 -0.01523197 -0.015775055 0.0414875 -0.020287115
-0.049609676 -0.06904285 0.06365412 0.10918119 0.04610387 0.01166816 -0.0287807 -0.016625619
-0.05349725 0.02682649 -0.101921685 0.036722705 -0.04530653 -0.0009364506 0.08456658 -0.050188404
00000000: a1a5 18bd 681f cc3c 0a83 a5bd a66f f43c
00000010: fe15 463d 5d4d a93c 4aba d53d 18cb 883d
00000020: a4cc b0bd 6b58 18bd ee4a 0abc e7e5 88bd
00000030: c06f 843d 2613 403c c45a a0bd 6eca c73c
00000040: d8ae c33d bbf8 c3bc dd94 563d 278b 383d
00000050: d11c 953d 0381 2dbd 8981 1bbd f3c9 523d
00000060: 8cd1 83bd 837c 063e 379d a2bc d2d4 bbbc
00000070: bbb3 8cbc be5f 79bc 22c3 173d d5e0 1fbb
00000080: 0232 cebd cd8b 4ebd d5cd 883c 07df 9f3d
00000090: 7045 a93d 2ec0 a43c 4d1e c83d 67e2 513c
000000a0: d014 913d c48b 80bc 377f 17bc bde4 9d3d
000000b0: 85d5 a53d 0e38 fe3c 566e 80ba 6683 22bd
000000c0: bcf0 c23d 162f c73c d736 b3bc c623 7d3d
000000d0: 7b54 b13a 215f 123d e2c4 623d 272c 243c
000000e0: d098 cebd 59ef 95bd 4d2c 26bd 0d8c eebc
000000f0: 9e38 9b3c 06f8 8e3d 873c 393d a525 723d
00000100: 94c3 f33c 555c 20bb 23ab 773d 6bbc af3d
00000110: 8037 b63d c2d5 413d 114a 863c 0334 e73c
00000120: f2c1 65bd 44ec adbc 91d4 d23c b36b 623d
00000130: 0d95 393d 90ed 87bd 2380 41bd 093c 873c
00000140: 06e0 873d c54e 15bd e365 263d 2ef6 473d
00000150: 6ee8 013d 6675 7f3d 60b8 8a3a c571 10bd
00000160: 2d92 a8bd 7e5c 7abd 141e 333d 80ea 2fbd
00000170: b848 f9bc 438c 89bd 6085 97ba 0384 d83d
00000180: af81 73bd 1402 eb3d 24c0 d1bc 813f 65bc
00000190: acd0 473d ed82 983c 709c 743b 188a 6f3d
000001a0: 7caf 9b3d 105c 063d c551 c83c 43e9 433d
000001b0: c070 5ebd 2ad3 523d 2bf9 663d 1dab 99bd
000001c0: 09ad d7ba df8d 5a3d 01ee 8d3d d3c3 253d
000001d0: 549c aebc 9e4a 5fbd 59a7 8bbd f34d 603d
000001e0: a35a f3bc 1237 13bd 431d c6bc da56 a33d
000001f0: a952 24bd 229a 5cbd 8fe0 8d3c aa77 003d
00000200: 5deb 0dbd d392 663d f595 033d 1c06 ebbc
00000210: 83a2 563d 404e 8dbc d96e 573d a449 d53c
00000220: 8726 a33d 7272 263d d4c2 603d 8b9a 473c
00000230: 785c 31be 73a5 aabc d3af bf3c 0c88 e33d
00000240: 945e dabd 61bf 79bc 391d 0ebc eaa6 073c
00000250: a40e 1ebd de52 8f3c 1807 0abb b149 793d
00000260: ef21 e33c b125 f93d 8123 0b3e dccf b33a
00000270: f24a 053d a663 ae3c dee1 253e 77c2 df3c
00000280: a17e 2bbc 4372 a63d db8b 6e3e 0291 53bd
00000290: 8176 133d 34a0 de3d 29a1 143e a2c5 ba3d
000002a0: 384c 22ba 0cb8 09bb 3ebf c53d eb23 67bd
000002b0: eb98 c9b9 c7b9 9f3c 6b9a 123d b1e0 1ebd
000002c0: 4622 273b 2316 fdbc fb91 d3bc ea17 1abd
000002d0: 6fb3 d6bc 6ea5 153e 490a 65bc 8b7f c03b
000002e0: 9c4d ebbb ba29 233d ec3d 853d 5dfa 0cbd
000002f0: 64fe d4bc 0a0d 203d 0f49 8bbc 94e0 1f3d
00000300: 43cf a83c 23c1 893d 66e8 11bb 8e76 573d
00000310: 9f38 25be 62a2 8fbd 519e 133d bb1b 45bc
00000320: 6d0c 8cbb 09cc bfbc ff0a 6f3d dcf3 993c
00000330: 4e69 5dbc 5f64 833d 541f cf3d 58d4 213d
00000340: a189 35bd efc3 d7bc c9f0 fcbd 050d bbbc
00000350: 47dc a13c 11bc ca3d 8a79 6a3d f28b fe3c
00000360: a22e 9a3c 715c cdbb db55 523c 96ee e23c
00000370: 4a46 363d cdc9 f8bc 35fb d9bd d88d 073e
00000380: 42c9 4e3d b293 b2bc 170d fabb 988f c83d
00000390: 3dcd 253d 2cb6 473d 321a 903d e01a 523c
000003a0: b613 9f3d 1ca4 ccbc 7328 323d 7f47 d63c
000003b0: 838f 79bc b03a 81bc ccee 293d 2a31 a6bc
000003c0: 8433 4bbd 5666 8dbd 175d 823d 639a df3d
000003d0: 69d7 3c3d cf2b 3f3c 81c5 ebbc 7332 88bc
000003e0: ef1f 5bbd 3ac3 db3c 51bc d0bd 8c6a 163d
000003f0: 5793 39bd 237c 75ba 3e31 ad3d 5b92 4dbd

encoder_output_layer.bias f4 [128]
0.094093814 0.020778995 -0.05861462 0.054804325 0.019325681 0.06231831 -0.018469349 -0.003809766
0.05471742 0.064619094 0.015654348 -0.016756324 0.07013924 0.011737552 0.042209446 0.062080286
0.037045505 0.04747545 -0.018853672 -0.027352663 0.086094536 -0.07248506 0.09493954 0.015669717
0.0011546338 -0.02800592 0.036472604 0.040860962 0.09253307 -0.00430868 0.07281462 -0.015148318
0.029079353 0.029029137 0.091422215 -0.044405613 0.0062560644 -0.0609431 -0.0010837176 0.034623474
0.09690386 0.056122888 0.14725359 0.062963635 0.02042021 -0.031852324 -0.068058856 0.028967597
0.089925006 -0.030864323 0.04377018 -0.004294845 -0.05318309 0.04558002 -0.017644914 0.091610275
0.06204298 0.028323898 0.05842851 0.035026316 0.0111971125 0.00224698 0.038673915 -0.01976794
0.07639479 0.056612026 -0.02934649 -0.054306887 -0.027958408 0.061598763 -0.074866146 0.05562815
0.01763943 0.12067106 0.030955974 -0.06100255 -0.0055989837 0.06095858 -0.049198616 -0.0632402
-0.03495178 0.029558823 0.019606527 -0.06679024 0.033425007 -0.012805908 0.059684657 -0.019586794
0.10492568 -0.021996401 0.07068162 -0.0090250615 0.013055027 0.041674145 0.07263693 -0.059261363
0.06035177 -0.021378117 -0.0054041184 -0.070741594 0.0197038 0.062480748 -0.04885059 -0.039328545
0.08475067 -0.036923155 0.08303652 0.0987053 -0.0204883 -0.019162254 -0.019365951 0.055110183
0.038612317 -0.036609028 -0.040252093 0.086232714 0.025383849 0.06348488 0.06945883 0.016195007
-0.043805927 0.027021483 -0.04309733 0.100927204 -0.0028634479 -0.0038171802 -0.01259358 0.112962104
00000000: 42b4 c03d b638 aa3c e215 70bd 807a 603d
00000010: e450 9e3c 7c41 7f3d 084d 97bc 44ad 79bb
00000020: 601f 603d 0457 843d 8c3d 803c 8f44 89bc
00000030: 29a5 8f3d dc4e 403c d0e3 2c3d e647 7e3d
00000040: 07bd 173d 9e75 423d 0473 9abc b112 e0bc
00000050: 5552 b03d 0c73 94bd a96f c23d c75d 803c
00000060: 1557 973a ac6c e5bc 4c64 153d d35d 273d
00000070: fa81 bd3d d42f 8dbb d51f 953d a730 78bc
00000080: d337 ee3c 83ce ed3c 923b bb3d a9e2 35bd
00000090: acff cc3b 799f 79bd 870b 8eba 58d1 0d3d
000000a0: 8875 c63d 1de1 653d a5c9 163e 14f3 803d
000000b0: 4948 a73c 9577 02bd 7162 8bbd 744d ed3c
000000c0: 9a2a b83d 2dd7 fcbc 5c48 333d c5bb 8cbb
000000d0: 83d6 59bd 1db2 3a3d 118c 90bc 2b9e bb3d
000000e0: c820 7e3d 8507 e83c bc52 6f3d c177 0f3d
000000f0: 1874 373c 1242 133b 8a68 1e3d 60f0 a1bc
00000100: df74 9c3d 03e2 673d 0d68 f0bc e670 5ebd
00000110: 0809 e5bc fc4e 7c3d 6c53 99bd 58da 633d
00000120: 9180 903c 6422 f73d 6297 fd3c cfdd 79bd
00000130: ae77 b7bb b4af 793d 7d84 49bd 1484 81bd
00000140: 9929 0fbd 5825 f23c de9d a03c 52c9 88bd
00000150: a9e8 083d dfcf 51bc e677 743d 7c74 a0bc
00000160: 46e3 d63d cc31 b4bc 86c1 903d dadd 13bc
00000170: c1e4 553c 82b2 2a3d acc2 943d 0bbc 72bd
00000180: 6b33 773d 2921 afbc 0815 b1bb f8e0 90bd
00000190: dd69 a13c d0eb 7f3d 8e17 48bd f816 21bd
000001a0: c291 ad3d bc3c 17bd 0d0f aa3d 0126 ca3d
000001b0: 14d7 a7bc 29fa 9cbc 58a5 9ebc 37bb 613d
000001c0: f327 1e3d 59f3 15bd 61df 24bd c79a b03d
000001d0: caf1 cf3c 5c04 823d 6e40 8e3d 64ab 843c
000001e0: d86d 33bd 285c dd3c d386 30bd ecb2 ce3d
000001f0: afa8 3bbb a829 7abb 4e55 4ebc ad58 e73d

decoder_hidden_layer.weight f4 [128, 128]
-0.08522467 -0.010080161 0.007579313 0.02325861 0.11532786 -0.0007611905 -0.042735226 -0.012098788
0.026645873 -0.010972829 0.026064329 -0.037900057 -0.016097538 0.06284798 0.027290858 0.0047077467
-0.05777661 0.028049167 -0.09410811 -0.06334082 0.07621516 -0.023823483 0.008013002 0.029657027
0.021324033 -0.059730902 -0.0001057481 -0.10198154 0.024122488 -0.0138657885 -0.035261832 0.077265
0.037705045 0.03708826 -0.06818828 0.07014051 -0.063555576 -0.018643027 -0.016204366 0.06717918
0.08458221 0.024874954 -0.0014748457 -0.098071404 0.075329825 -0.031581074 0.11143959 -0.10325485
0.07114519 -0.0361377 0.047951467 0.027188502 0.016703783 -0.060025796 -0.059796005 0.07164141
0.05077154 0.06249806 0.05601222 0.04425564 -0.06622831 -0.032809783 0.06984328 0.022903057
-0.0008318376 0.021259539 0.03543291 0.07438378 0.024945913 -0.03539341 -0.014627557 -0.0018082306
0.076435104 0.06602068 -0.07107345 0.015300571 0.0050265677 -0.017159048 -0.02307738 0.022418208
0.029341744 -0.006049955 0.11229287 0.040487614 0.058533896 -0.026331434 -0.0455236 -0.088124864
0.07551948 0.068374336 -0.023857825 0.026935719 -0.0002407965 -0.026663141 -0.09742547 -0.032161634
-0.01584515 0.0027544382 -0.03654868 -0.008054921 -0.0054440466 0.021455063 -0.0056724427 0.0004251048
0.01113585 0.054357693 0.04802398 -0.046302672 -0.074172296 0.009666082 -0.030353798 0.0011250476
-0.06544952 0.05578518 0.0515317 0.018705063 0.010294111 0.0029970957 0.01649808 0.003424245
0.107856266 0.010347869 0.048046827 -0.060707144 0.07529932 -0.063523374 -0.0020850778 0.0010747364
0.008407068 0.050923016 0.02408722 -0.07965347 -0.023083515 0.049791228 0.0073354086 0.07944761
0.0034797338 -0.07294658 0.069491506 0.034684964 -0.0393739 0.063206546 0.07678051 -0.040240753
0.05310481 -0.004777794 0.06716371 0.040737983 0.004962035 0.00050578767 0.0034685817 0.01669795
0.06430922 -0.02468119 -0.003925926 -0.014121436 5.0493203e-05 0.0367888 0.08808228 0.032568835
-0.069515534 -0.034522966 0.007962173 -0.084262855 0.05058563 -0.0064139953 -0.034874532 0.016478883
0.0505861 -0.04061213 -0.11348084 0.022115964 0.062328868 0.0812073 -0.035363715 -0.030350873
-0.07558717 -0.020064384 -0.028791485 -0.07882289 0.05244149 0.051779915 -0.012577363 -0.026372178
0.008194442 0.084166124 0.06460205 -0.066392764 -0.0062206085 0.07270122 -0.043436676 0.07034246
0.049713176 0.07801881 0.00404507 0.08343578 -0.064861655 0.011126171 -0.007846947 -0.03224722
0.07351862 0.0095907645 0.053849433 0.083487116 -0.0045517413 0.044851787 -0.0606456 0.057517514
0.026841931 0.019009 0.021315726 -0.025327887 0.08571546 -0.027011521 -0.027862692 -0.065384306
0.09283675 -0.124020964 0.0662691 0.019412482 3.1916945e-05 -0.02614462 -0.055622857 0.0065280455
-0.02812403 -0.028697591 0.032773945 -0.07194062 0.01192655 -0.06687223 -0.059727106 0.08069952
-0.0018212663 -0.038879767 0.03414121 -0.0056352112 0.08321113 -0.08715017 -0.03641004 0.05046177
0.08379198 0.020468725 0.068717904 -0.003142552 -0.0958797 0.06214798 -0.05158867 0.05455571
0.0014110798 -0.017445743 -0.056485966 0.034788273 0.053394236 0.0067049377 -0.0009352705 -0.05711067
00000000: 468a aebd 4227 25bc e35b f83b d788 be3c
00000010: 0331 ec3d a18a 47ba 220b 2fbd ff39 46bc
00000020: 7248 da3c 61c7 33bc dc84 d53c 173d 1bbd
00000030: fcde 83bc 71b6 803d 1491 df3c 7143 9a3b
00000040: 2ba7 6cbd 5ec7 e53c c1bb c0bd d5b8 81bd
00000050: b216 9c3d 7729 c3bc f748 033c 4bf3 f23c
00000060: bdaf ae3c 64a8 74bd 14c5 ddb8 b3db d0bd
00000070: 869c c53c 552d 63bc b66e 10bd 1d3d 9e3d
00000080: 9b70 1a3d dce9 173d 4ca6 8bbd d4a5 8f3d
00000090: 6d29 82bd 43b9 98bc 05bf 84bc 3d95 893d
000000a0: 7039 ad3d 8fc6 cb3c 9c4f c1ba a9d9 c8bd
000000b0: 8646 9a3d 285b 01bd 713a e43d 4777 d3bd
000000c0: 92b4 913d 2005 14bd c268 443d 6cba de3c
000000d0: 5fd6 883c 9cdd 75bd a8ec 74bd bbb8 923d
000000e0: d1f5 4f3d f7fd 7f3d 126d 653d 6745 353d
000000f0: b5a2 87bd 8d63 06bd fe09 8f3d 319f bb3c
00000100: ad0f 5aba 7c28 ae3c 1922 113d 8656 983d
00000110: 5f5b cc3c aef8 10bd 6ca8 6fbc 2702 edba
00000120: 028a 9c3d da35 873d f58e 91bd 3faf 7a3c
00000130: e8b5 a43b 2291 8cbc c60c bdbc 64a6 b73c
00000140: 195e f03c b33e c6bb cef9 e53d 57d6 253d
00000150: 3dc1 6f3d 05b5 d7bc f476 3abd cf7a b4bd
00000160: f5a9 9a3d d807 8c3d 7c71 c3bc 4ca8 dc3c
00000170: 517e 7cb9 a96c dabc 0187 c7bd ebbb 03bd
00000180: b0cd 81bc ce83 343b 12b4 15bd caf8 03bc
00000190: f963 b2bb 87c2 af3c e6df b9bb 9ae0 de39
000001a0: 2473 363c 2ca6 5e3d cbb4 443d dfa7 3dbd
000001b0: a5e7 97bd 7d5e 1e3c 87a8 f8bc 5576 933a
000001c0: 660a 86bd 007f 643d e712 533d 5c3b 993c
000001d0: a2a8 283c ec6a 443b fb26 873c 4c69 603b
000001e0: bfe3 dc3d 1c8a 293c c0cc 443d 0ea8 78bd
000001f0: 8836 9a3d 8b18 82bd cda5 08bb 2bde 8c3a
00000200: cdbd 093c a794 503d 9052 c53c 5c21 a3bd
00000210: a419 bdbc e3f1 4b3d de5d f03b 6eb5 a23d
00000220: 3f0c 643b 0465 95bd 9051 8e3d d211 0e3d
00000230: 8746 21bd 6f72 813d 1a3f 9d3d 7dd3 24bd
00000240: 6e84 593d 0a8f 9cbb 218d 893d dfdc 263d
00000250: 9198 a23b d696 043a 2551 633b 24ca 883c
00000260: 8db4 833d 3530 cabc 0ea5 80bb 985d 67bc
00000270: aac8 5338 daaf 163d 7b64 b43d e666 053d
00000280: 295e 8ebd f467 0dbd c673 023c 0192 acbd
00000290: e132 4f3d 7e2c d2bb 99d8 0ebd b9fe 863c
000002a0: 5f33 4f3d e858 26bd a568 e8bd 8a2c b53c
000002b0: 8e4c 7f3d 0350 a63d 8bd9 10bd 65a2 f8bc
000002c0: 72cd 9abd 105e a4bc 1fdc ebbc e56d a1bd
000002d0: e3cc 563d 2d17 543d 4911 4ebc 770a d8bc
000002e0: fb41 063c 4a5f ac3d 144e 843d eef8 87bd
000002f0: 3fd6 cbbb 61e4 943d a8ea 31bd b50f 903d
00000300: 0ba0 4b3d 53c8 9f3d 828c 843b 61e0 aa3d
00000310: 30d6 84bd 8b4a 363c 7b90 00bc a915 04bd
00000320: ee90 963d 9522 1d3c 3991 5c3d 4bfb aa3d
00000330: c626 95bb 82b6 373d 8567 78bd 7c97 6b3d
00000340: 9ce3 db3c c3b8 9b3c 519e ae3c 6e7c cfbc
00000350: 968b af3d 4447 ddbc 4d40 e4bc 35e8 85bd
00000360: 3221 be3d b4fe fdbd 18b8 873d ed06 9f3c
00000370: 8fde 0538 3e2d d6bc cbd4 63bd 37e9 d53b
00000380: 5e64 e6bc 3617 ebbc f93d 063d 9b55 93bd
00000390: 9467 433c 4ff4 88bd 69a4 74bd ca45 a53d
000003a0: 8eb7 eeba 6440 1fbd a7d7 0b3d 94a7 b8bb
000003b0: 996a aa3d ca7b b2bd b222 15bd 00b1 4e3d
000003c0: 219b ab3d 07ae a73c f9bb 8c3d 46f3 4dbb
000003d0: 935c c4bd e18e 7e3d a44e 53bd cf75 5f3d
000003e0: fbf3 b83a 60ea 8ebc d45d 67bd 267e 0e3d
000003f0: eab3 5a3d 18b5 db3b f12c 75ba e1ec 69bd

decoder_hidden_layer.bias f4 [128]
-0.072806746 0.0026894817 -0.004047249 0.028832931 0.0017423548 0.0030851448 -0.00918152 0.06352859
-0.023959883 0.08743105 0.056607895 -0.10048114 -0.06466105 0.0019452812 0.0015258583 0.014521416
-0.03718145 0.0016478417 -0.049521264 -0.010170841 0.000603086 3.6477346e-07 0.008026491 -0.005739546
0.017566437 0.104856186 -0.05229112 -0.00023127739 0.11290538 0.09459878 0.111327805 -0.058352873
0.018808391 0.121094786 0.07712437 0.08218187 -0.039149716 0.05040526 0.022061037 0.08244696
-0.054910466 -0.07247683 0.033817466 0.08929633 0.0058605927 0.017733295 0.025912346 -0.034322426
0.022387642 0.028608108 0.0014340174 -0.017732251 0.056088597 0.017830338 -0.0064338003 0.005178821
0.10708036 0.045255072 -0.0016743145 -0.0259131 0.00160356 0.08235137 0.002078846 -0.062044058
0.03891455 0.037373066 0.0884497 0.044483814 -0.058546897 0.043446917 -0.054199155 0.031669002
0.060167644 -0.038989376 -0.032924894 0.068529055 -0.055064082 0.0054590423 0.064923055 0.0042536124
-0.021430116 -0.007466771 2.9833416e-07 0.05646392 0.07419445 -0.063656695 -0.00043840412 0.009033314
-0.023625527 -0.0072634285 -0.034492455 -0.008651064 -0.04749582 0.05219239 0.07340611 0.07894473
-0.056006752 -0.002506559 0.020107407 -0.034029715 0.06311788 0.047961053 0.02112271 -0.06358693
0.045545466 0.016350608 0.010086079 -0.034689624 0.005019044 -0.048835844 -0.029095132 -0.02566934
-0.049469024 -0.03741299 -0.04705178 -0.016248174 -0.07327596 -0.04015629 0.006846006 0.037658233
0.07494772 -0.067977734 0.06940021 0.03772249 -0.020228557 0.008702647 -0.03703184 0.040057555
00000000: b41b 95bd 0442 303b c99e 84bb 0a33 ec3c
00000010: ba5f e43a 2430 4a3b 166e 16bc 471b 823d
00000020: 8447 c4bc 0d0f b33d aedd 673d 0ec9 cdbd
00000030: 036d 84bd cef8 fe3a 4fff c73a 3ceb 6d3c
00000040: 934b 18bd 64fc d73a cfd6 4abd 99a3 26bc
00000050: 6b18 1e3a 15d6 c334 8b81 033c cd12 bcbb
00000060: 7de7 8f3c d7be d63d 372f 56bd 0d83 72b9
00000070: f03a e73d 01bd c13d d5ff e33d 6c03 6fbd
00000080: 0e14 9a3c 8b00 f83d 62f3 9d3d f84e a83d
00000090: 745b 20bd bf75 4e3d 59b9 b43c f4d9 a83d
000000a0: cce9 60bd bb6e 94bd 2f84 0a3d ffe0 b63d
000000b0: 370a c03b 6a45 913c 2146 d43c ac95 0cbd
000000c0: 4a66 b73c 8d5b ea3c a4f5 bb3a 3a43 91bc
000000d0: 28bd 653d ee10 923c a1d2 d2bb 19b3 a93b
000000e0: f34c db3d 625d 393d ac74 dbba b647 d4bc
000000f0: 8c2e d23a d6a7 a83d 403d 083b e921 7ebd
00000100: dd64 1f3d 8014 193d 1e25 b53d a934 363d
00000110: dfce 6fbd 65f5 313d efff 5dbd 5bb7 013d
00000120: 5972 763d 53b3 1fbd 41dc 06bd f658 8c3d
00000130: e08a 61bd c4e1 b23b 61f6 843d e361 8b3b
00000140: 368e afbc d1ab f4bb bc2a a034 b646 673d
00000150: 43f3 973d 715e 82bd 9bd9 e5b9 7700 143c
00000160: 528a c1bc 0e02 eebb f647 0dbd 31bd 0dbc
00000170: fa8a 42bd b0c7 553d f155 963d c6ad a13d
00000180: 5667 65bd 1545 24bb 4ab8 a43c be62 0bbd
00000190: f243 813d cf72 443d 8909 ad3c dd39 82bd
000001a0: e28d 3a3d b6f1 853c 1540 253c b516 0ebd
000001b0: cb76 a43b 1808 48bd ea58 eebc 8248 d2bc
000001c0: 08a0 4abd 5d3e 19bd 5eb9 40bd e41a 85bc
000001d0: b511 96bd ec7a 24bd 7654 e03b 853f 1a3d
000001e0: 317e 993d e937 8bbd b321 8e3d e682 1a3d
000001f0: 5cb6 a5bc 8c95 0e3c b3ae 17bd 6413 243d

decoder_output_layer.weight f4 [128, 128]
1.4243647e-14 -1.4689958e-07 1.3770443e-17 -6.8688614e-08 7.671246e-12 1.2583265e-10 2.9693231e-08 -1.0751079e-09
3.2958592e-08 -0.00042174844 4.3669278e-08 -1.3290109e-09 2.8660397e-14 5.5348114e-15 3.789203e-08 -5.721147e-09
-7.607944e-08 4.3515205e-09 -2.485226e-08 6.8093512e-18 -3.5366025e-07 5.0734177e-09 -9.450458e-10 6.2254936e-14
-3.4106314e-08 7.581533e-10 1.3473057e-11 -1.1104764e-08 -1.3313608e-07 3.9651478e-09 -4.545231e-10 -3.731643e-15
9.552493e-08 2.5773459e-06 -4.025278e-08 4.890195e-06 2.0384022e-08 -1.7973693e-09 -3.301822e-07 3.658313e-08
-1.338688e-08 -1.5679382e-13 1.2863534e-07 -1.0163011e-07 1.21222525e-08 3.5357965e-07 -5.9109113e-09 -2.4687619e-08
-2.3554263e-08 -6.589768e-05 2.0546612e-08 1.7372198e-08 -6.861084e-08 -1.9368743e-07 -9.383119e-18 -8.30598e-08
-9.866709e-08 6.536591e-09 4.5905026e-08 -1.021065e-11 -1.8185997e-07 4.4427384e-07 -9.8837745e-08 -6.42343e-09
-8.951702e-07 2.100725e-06 -2.4083497e-09 -0.00017894691 -8.333809e-19 -3.7192126e-07 -7.91783e-14 7.085465e-14
3.7163517e-08 4.9204788e-14 6.0396376e-14 -4.9539918e-05 8.129168e-09 -1.8170331e-07 -4.0345103e-06 -2.7799499e-12
-2.997048e-10 -1.4720626e-10 -9.946506e-09 -9.9134665e-09 2.1617899e-08 3.1071286e-17 -6.431783e-08 1.0585349e-07
5.3832682e-08 2.5357428e-15 4.5598316e-08 -1.7928545e-10 6.0276006e-09 -3.076626e-09 -1.2714943e-07 9.4665955e-09
-1.0412266e-08 1.3093317e-07 2.941253e-13 1.14440404e-07 -1.1701974e-08 -0.00020987308 4.877066e-06 2.2649634e-13
3.766886e-07 4.0783515e-08 -2.8056601e-09 -2.8765806e-10 -1.5429341e-08 4.495285e-06 -7.3122697e-10 6.244693e-14
-2.905428e-10 -2.6988036e-17 -7.743515e-14 1.5016813e-08 4.459025e-08 -2.7768108e-09 -9.244538e-13 -4.783383e-08
5.4240065e-08 -9.4324645e-07 -2.8451473e-07 -3.0655545e-14 -7.1461684e-19 7.2934916e-09 1.5403026e-14 -6.6442425e-09
-0.049652282 0.052651398 -0.04880889 0.031382173 0.021580948 -0.020535253 0.006591988 0.03511757
-0.031750742 -0.06246443 0.007249278 0.033830967 0.051508237 0.109064065 0.028928032 0.053236887
0.0044284593 0.056576602 0.004038904 0.004818996 0.012600626 -7.310592e-18 0.02577135 0.06930448
-0.054140948 0.04251491 0.008447775 0.010148248 0.020655058 -0.03053597 -0.003974041 -0.06830808
-0.04277715 -0.016407186 0.01789635 0.034976948 0.10807669 0.022810185 -0.04408221 0.05627402
-0.017072825 -0.011947319 0.020649698 0.03826308 -0.024369624 0.026238238 0.038810737 -0.010462972
-0.07443486 -0.016209994 -0.025732988 0.024707478 0.011708517 -0.07941605 0.0083626425 0.073599875
-0.00090597675 -0.016636759 -0.017571373 0.00047393196 -0.0585017 0.012891898 -0.0019580629 0.051565498
-0.027521903 0.031573623 0.01916499 -0.00041862926 -0.049021345 0.06294864 -0.0065963403 -0.0051826397
0.023905016 0.009976788 0.0026578747 -0.015060941 0.06707841 -0.07315778 0.0041740965 0.03570887
-0.03817537 -0.05427591 1.3603132e-17 0.028092206 0.011754479 3.0786707e-16 -0.0006972371 0.018818883
0.01809807 0.0021120254 0.024529308 -0.026346168 -0.0043564066 0.0359756 0.004011036 -0.0111203585
0.062003292 0.026497062 -0.016813189 0.011698469 -0.00035092127 -0.006305886 -0.02360652 -0.041346475
-0.007541191 0.0018663971 -0.01695181 0.013825408 -0.022247557 -0.05503563 0.028614199 0.019476308
0.004263804 0.010498144 0.0201722 0.09747534 0.014924491 0.05174244 -0.019205883 -0.02822053
0.0034538428 -0.0028165663 -0.03763415 -0.028679762 -0.08920885 -0.0007173137 -0.02113753 0.039038688
00000000: 9d4b 8028 73bb 1db4 1405 7e23 f781 93b3
00000010: 38f4 062d be5a 0a2f 1b10 ff32 ffc2 93b0
00000020: 5b8e 0d33 1e1e ddb9 e18e 3b33 6aa8 b6b0
00000030: 3013 0129 a069 c727 babe 2233 be93 c4b1
00000040: 1d61 a3b3 6184 9531 b37a d5b2 8138 fb22
00000050: b2de bdb4 4152 ae31 d8e2 81b0 872f 8c29
00000060: 4a7c 12b3 4c66 5030 4105 6d2d 45c7 3eb2
00000070: 2bf4 0eb4 cf3d 8831 71e0 f9af 5572 86a7
00000080: 6323 cd33 77f6 2c36 66e2 2cb3 7516 a436
00000090: f018 af32 4f07 f7b0 e543 b1b4 941f 1d33
000000a0: 1ffc 65b2 be88 30aa 031f 0a34 be3f dab3
000000b0: 3b42 5032 9ed3 bd34 ed18 cbb1 a610 d4b2
000000c0: 5f54 cab2 8c32 8ab8 7a7e b032 de39 9532
000000d0: 3557 93b3 65f8 4fb4 8716 2da3 9c5e b2b3
000000e0: cee2 d3b3 7698 e031 1c29 4533 aea0 33ad
000000f0: 4a45 43b4 8884 ee34 a040 d4b3 16b5 dcb1
00000100: a14b 70b5 2efa 0c36 2380 25b1 b2a3 3bb9
00000110: 7bf8 75a1 78ac c7b4 2f4b b2a9 ed8c 9f29
00000120: b89d 1f33 4299 5d29 2400 8829 15c9 4fb8
00000130: 75a8 0b32 3a1a 43b4 2e60 87b6 209f 43ac
00000140: b3c3 a4af e1da 21af 32e1 2ab2 e34f 2ab2
00000150: 43b2 b932 804a 0f24 1a1f 8ab3 9251 e333
00000160: a935 6733 33b8 3627 e1d7 4333 5e20 45af
00000170: 561b cf31 946c 53b1 9286 08b4 87a2 2232
00000180: a1e1 32b2 a396 0c34 ec93 a52a 47c2 f533
00000190: d309 49b2 6011 5cb9 aea5 a336 2003 7f2a
000001a0: b03b ca34 f329 2f33 b2cd 40b1 4624 9eaf
000001b0: 7b89 84b2 34d6 9636 86ff 48b0 349e 8c29
000001c0: 44ba 9faf b3eb f8a3 535e aea9 52fe 8032
000001d0: 8083 3f33 2cd2 3eb1 f51a 82ab da71 4db3
000001e0: 95f5 6833 6733 7db5 68bf 98b4 700f 0aa9
000001f0: ecea 52a1 3b9a fa31 f6bc 8a28 604b e4b1
00000200: 3160 4bbd fea8 573d d5eb 47bd 988a 003d
00000210: 87ca b03c 8c39 a8bc 9a01 d83b 71d7 0f3d
00000220: 110d 02bd b4da 7fbd 5a8b ed3b 5792 0a3d
00000230: 4dfa 523d fb5c df3d 7bfa ec3c ec0e 5a3d
00000240: 9c1c 913b debc 673d c858 843b abe8 9d3b
00000250: db72 4e3c 4bdb 06a3 701e d33c 82ef 8d3d
00000260: e6c2 5dbd 1d24 2e3d 8968 0a3c d644 263c
00000270: cc34 a93c 9226 fabc ac38 82bb 1be5 8bbd
00000280: 1837 2fbd 5d68 86bc 5e9b 923c fd43 0f3d
00000290: 5057 dd3d 6ddc ba3c 8c8f 34bd 967f 663d
000002a0: 4fdc 8bbc b0be 43bc 8e29 a93c bfb9 1c3d
000002b0: cea2 c7bc 93f1 d63c 02f8 1e3d e36c 2bbc
000002c0: 4e71 98bd d2ca 84bc fdcd d2bc 5667 ca3c
000002d0: 14d5 3f3c e2a4 a2bd 7703 093c 88bb 963d
000002e0: 127f 6dba d049 88bc d7f1 8fbc 127a f839
000002f0: 7b9f 6fbd 8a38 533c d852 00bb 5836 533d
00000300: 9d75 e1bc 5853 013d e6ff 9c3c 787b dbb9
00000310: 9bca 48bd 37eb 803d 1d26 d8bb 22d3 a9bb
00000320: 74d4 c33c af75 233c bd2f 2e3b 2ac2 76bc
00000330: 6860 893d bfd3 95bd dcc6 883b 7743 123d
00000340: c75d 1cbd 6b50 5ebd faee 7a23 a021 e63c
00000350: dc95 403c 2979 b125 cac6 36ba 0f2a 9a3c
00000360: 6742 943c e869 0a3b b0f1 c83c ebd3 d7bc
00000370: 30c0 8ebb 275b 133d 026f 833b 2a32 36bc
00000380: 2af7 7d3d 5e10 d93c d0bb 89bc efaa 3f3c
00000390: dbfb b7b9 9ba1 cebb 7662 c1bc ec5a 29bd
000003a0: 181c f7bb e5a1 f43a 86de 8abc f783 623c
000003b0: 8240 b6bc 0a6d 61bd 5368 ea3c c78c 9f3c
000003c0: 61b7 8b3b 6800 2c3c 2b40 a53c 27a1 c73d
000003d0: da85 743c e1ef 533d a855 9dbc be2e e7bc
000003e0: de59 623b 2496 38bb 4426 1abd d2f1 eabc
000003f0: 21b3 b6bd 1c0a 3cba 9d28 adbc 08e7 1f3d

decoder_output_layer.bias f4 [128]
-2.9487487e-07 0.0058159335 0.011392205 -0.012493399 -0.044867862 -0.010707374 -0.0027029302 -0.028432876
0.061107483 0.07569436 0.01852081 -0.02826542 0.043128945 0.09396841 0.0027246284 -0.0012146431
-0.0060953503 0.012461361 0.029620204 -0.017859915 0.005064897 0.042295247 0.010416685 -0.025041064
-0.034041576 -0.04941559 0.055875592 0.0038885048 0.02205282 -0.03131853 0.0265174 0.010891901
-0.02698256 0.040383477 0.010473544 0.0056979028 0.038497902 0.0053963717 0.052782178 -0.010304703
-0.058145568 0.060072936 -0.047206566 -0.01574016 -0.040877473 0.045421883 -0.0026844146 0.07066892
0.017611824 0.07684001 0.020418238 0.04888577 -0.019540107 -0.038854588 -0.022183644 0.037156235
-0.0018614795 -0.020561652 -0.026633235 0.014616557 0.013202614 -0.0026418415 0.0033655255 0.026111137
0.018125158 -4.792383e-05 0.011842888 -0.033234924 0.012669975 -0.0041915313 -0.002415149 0.05825761
0.040886074 0.030776314 0.03825146 -0.058208067 -0.017422942 0.081355475 -0.051300097 0.001955589
0.061768282 -0.047254957 -0.038492914 0.016497357 0.021512885 -0.010241595 -0.021151718 0.031041915
-0.0045445734 -0.030866792 0.033087056 -0.012771571 0.0023737615 -0.05905766 -0.027706867 0.04114401
0.0040993253 0.040892374 0.02952148 0.07254649 0.022409491 0.060580343 0.015814565 0.024266798
0.012524614 -0.026229477 0.0052564093 0.021617273 0.022366714 0.07097513 -2.7391065e-05 0.06352569
-0.023636045 -2.490154e-07 0.012745147 0.010015592 -1.3048194e-07 0.030649673 -0.05544372 -0.017292127
0.037083376 -0.03799693 0.020140486 -0.0052426686 0.041031092 -0.044545908 -0.009701241 0.05586031
00000000: 4b4f 9eb4 9693 be3b 5fa6 3a3c 1db1 4cbc
00000010: 5dc7 37bd fb6d 2fbc a523 31bb 10ec e8bc
00000020: d74b 7a3d a505 9b3d f4b8 973c e28c e7bc
00000030: faa7 303d 8272 c03d ae8f 323b a934 9fba
00000040: 81bb c7bb bc2a 4c3c 12a6 f23c f54e 92bc
00000050: 6ff7 a53b c83d 2d3d beaa 2a3c eb22 cdbc
00000060: 2e6f 0bbd 0068 4abd cedd 643d 49d6 7e3b
00000070: 1ea8 b43c dc47 00bd 053b d93c f273 323c
00000080: 880a ddbc 2569 253d 3a99 2b3c 79b5 ba3b
00000090: faaf 1d3d 0cd4 b03b 2032 583d 0fd5 28bc
000000a0: 0c2a 6ebd 0a0f 763d ac5b 41bd 82f1 80bc
000000b0: 236f 27bd 4c0c 3a3d 01ed 2fbb deba 903d
000000c0: ac46 903c 4c5e 9d3d 2644 a73c 723c 483d
000000d0: 9312 a0bc fd25 1fbd 79ba b5bc 2331 183d
000000e0: e3fc f3ba e970 a8bc f12d dabc 497a 6f3c
000000f0: c74f 583c bf22 2dbb 2690 5c3b 06e7 d53c
00000100: 367b 943c d201 49b8 ac08 423c 5821 08bd
00000110: ba95 4f3c 1d59 89bb 7a47 1ebb 889f 6e3d
00000120: 2878 273d 9c1e fc3c 90ad 1c3d 956b 6ebd
00000130: 8fba 8ebc b39d a63d 0d20 52bd 5729 003b
00000140: bd00 7d3d 6a8e 41bd bfaa 1dbd 7725 873c
00000150: ca3b b03c 5dcc 27bc 5e46 adbc 9d4b fe3c
00000160: a5ea 94bb 5bdc fcbc 4b86 073d da3f 51bc
00000170: 1c91 1b3b 72e6 71bd 83f9 e2bc 9f86 283d
00000180: a253 863b c37e 273d 08d7 f13c 4193 943d
00000190: 1c94 b73c 1823 783d 8c8d 813c 2acb c63c
000001a0: 0a34 4d3c 33df d6bc f53d ac3b b516 b13c
000001b0: 663a b73c 695b 913d ddc5 e5b7 c219 823d
000001c0: 61a0 c1bc 6ab0 85b4 05d1 503c 7018 243c
000001d0: 9a1a 0cb4 0615 fb3c f418 63bd 38a8 8dbc
000001e0: bde4 173d aba2 1bbd a9fd a43c b1ca abbb
000001f0: 3810 283d c575 36bd f4f1 1ebc c8cd 643d
