results/milestone/programming tutorials/GCP/params/AE/params4.pt (torch_old, 265742 bytes, 8 tensors)

encoder_hidden_layer.weight f4 [128, 128]
0.057296716 0.11097214 -0.059761 -0.064293616 0.06461566 -0.002799043 -0.02940823 -0.06123295
0.036611922 -0.024250468 0.08742147 0.013783379 -0.06300675 0.041700114 -0.027015045 -0.038786698
-0.0674834 0.05118025 0.058296353 0.087225884 0.08972725 0.010257045 0.06745075 -0.025634356
-0.01612473 0.007097388 0.048692618 -0.030464742 0.059129037 -0.028533598 0.03366455 0.06642118
0.07875165 -0.052895278 0.03218113 0.09743498 0.042575512 0.06933692 0.06591804 0.091603905
0.003227598 0.05474768 0.09461781 -0.033069693 0.028336253 -0.0017943133 -0.038826272 -0.0039783386
0.09100698 -0.018550228 -0.036892436 -0.012163222 -0.07014311 -0.021494236 -0.0087469565 0.016738003
0.0012875436 0.059195735 -0.034460273 0.0067860936 -0.06253973 -0.056544844 -0.054009527 0.030885454
0.041876506 -0.07497177 -0.060276955 0.047980994 -0.0017844416 0.059435792 -0.04608693 0.09800712
-0.057536524 -0.024446948 0.085332125 0.0021512522 0.07962876 -0.029023515 0.015476464 -0.020561244
-0.024229743 0.004350618 0.08979736 -0.064840384 0.044982277 0.08366087 0.08424795 -0.049099628
0.10062886 -0.0022969958 0.058357485 1.7926448e-05 -0.057881773 0.040329687 0.082323834 0.017807344
-0.06422015 0.04703527 0.07940508 0.09796177 0.08236793 0.02233497 0.09022451 -0.0153963715
-0.0587021 0.011005338 -0.055468116 0.024051715 -0.017655935 -0.06434066 0.017216675 -0.029678883
0.06971283 -0.020247972 0.038788322 -0.036220804 0.006716047 -0.01491463 -0.057668533 -0.07711581
-0.009797455 0.022381688 -0.059264638 0.050427567 0.089635625 -0.041663013 -0.012206282 -0.033289406
-0.092106365 -0.1301096 0.02510544 -0.08909606 0.061435476 0.067758 0.09467606 -0.012933267
0.026961498 0.0811515 -0.0455485 0.020208893 -0.021831261 -0.026018284 -0.10412188 -0.047488138
-0.08130111 -0.09309193 -0.042454973 -0.10735052 -0.12741782 -0.03266524 -0.110988386 0.012579175
-0.0027218768 0.017800994 -0.06567196 -0.039905716 0.036413137 0.024009002 0.01354997 -0.05124639
-0.04734326 -0.03586185 0.052645598 -0.020418692 0.08101042 0.040742088 0.037751243 0.07264884
0.031709164 -0.04861783 0.043525305 0.025932895 -0.008707749 -0.06740023 0.023900386 0.013918175
-0.022119878 0.044979695 0.10983944 0.11534073 0.07125967 0.017897082 0.08265682 0.085384406
0.105554715 0.0823745 0.012188259 0.0268955 -0.10635526 -0.106978424 -0.1678066 -0.20405518
-0.07019961 -0.059758328 -0.070218995 -0.029195879 -0.055156223 0.019711424 -0.013197305 0.0062497845
-0.03431419 0.037184384 0.05332591 0.023858307 0.03334709 0.101161435 0.04018954 0.06540099
0.023466328 -0.0040660067 0.07620022 -0.036519676 -0.04485078 -0.03521543 -0.09431506 -0.08067412
0.0021779994 -0.05382936 0.03303252 0.0072489334 -0.0748011 -0.06495153 -0.01046842 -0.04005814
0.05127396 -0.031538635 -0.013755539 0.00652814 -0.006544375 -0.014687065 -0.033285607 0.03910768
-0.07383919 -0.001403014 0.055738088 -0.008842502 0.037910894 0.022914788 0.03296865 -0.053520024
0.0020786421 -0.051162656 -0.06670391 -0.024621824 -0.04908501 -4.1146155e-05 0.0037143237 0.010890459
-0.06429882 -0.08177436 -0.0054522324 0.012935793 -0.062825456 0.03118791 -0.09174391 -0.059714228
00000000: f6af 6a3d 5d45 e33d f3c7 74bd 5fac 83bd
00000010: 3755 843d 2670 37bb 87e9 f0bc 67cf 7abd
00000020: 62f6 153d eba8 c6bc 070a b33d afd3 613c
00000030: af09 81bd bdcd 2a3d a84e ddbc cdde 1ebd
00000040: bd34 8abd 62a2 513d 28c8 6e3d 7ca3 b23d
00000050: ecc2 b73d 2a0d 283c 9e23 8a3d 24ff d1bc
00000060: 0318 84bc 3591 e83b e971 473d 3291 f9bc
00000070: 4a31 723d 4bbf e9bc d7e3 093d d407 883d
00000080: 8c48 a13d b8a8 58bd 5cd0 033d fe8b c73d
00000090: a963 2e3d 8400 8e3d 0a00 873d d49a bb3d
000000a0: 1c86 533b 1a3f 603d fbc6 c13d 1674 07bd
000000b0: 6e21 e83c 2a2f ebba 4c08 1fbd b95c 82bb
000000c0: de61 ba3d a6f6 97bc 861c 17bd 4048 47bc
000000d0: 31a7 8fbd ae14 b0bc 654f 0fbc 231e 893c
000000e0: cbc2 a83a 3a77 723d 3726 0dbd e15d de3b
000000f0: d414 80bd 919b 67bd 1839 5dbd 7e03 fd3c
00000100: b386 2b3d cd8a 99bd f8e4 76bd b887 443d
00000110: ede3 e9ba f272 733d a6c5 3cbd f5b7 c83d
00000120: 6bab 6bbd f744 c8bc 9cc2 ae3d 06fc 0c3b
00000130: 6714 a33d b9c2 edbc ff90 7d3c 0e70 a8bc
00000140: 747d c6bc a18f 8e3b aee7 b73d 09cb 84bd
00000150: 563f 383d 6456 ab3d 308a ac3d b11c 49bd
00000160: 8116 ce3d 3289 16bb 4208 6f3d c160 9637
00000170: 7015 6dbd be30 253d 6699 a83d b5e0 913c
00000180: db85 83bd 0ea8 403d 219f a23d 2ea0 c83d
00000190: 84b0 a83d d4f7 b63c a1c7 b83d 1041 7cbc
000001a0: 9d71 70bd bc4f 343c 8932 63bd 1a08 c53c
000001b0: 2ea3 90bc 09c5 83bd fc09 8d3c 2121 f3bc
000001c0: 9ac5 8e3d 13df a5bc 81e0 1e3d 445c 14bd
000001d0: 4912 dc3b 7e5c 74bc d735 6cbd e5ee 9dbd
000001e0: 8185 20bc cd59 b73c 7abf 72bd 238d 4e3d
000001f0: e292 b73d d6a6 2abd dbfc 47bc 795a 08bd
00000200: 43a2 bcbd 733b 05be eca9 cd3c ff77 b6bd
00000210: c4a3 7b3d b5c4 8a3d 86e5 c13d 0ee6 53bc
00000220: 5cde dc3c c232 a63d 1091 3abd 1f8d a53c
00000230: 79d7 b2bc 4c24 d5bc da3d d5bd ec82 42bd
00000240: 3281 a6bd fba6 bebd 44e5 2dbd 97da dbbd
00000250: d179 02be fdcb 05bd e14d e3bd e218 4e3c
00000260: 8461 32bb 64d3 913c 057f 86bd 2d74 23bd
00000270: f125 153d 87ae c43c b200 5e3c bce7 51bd
00000280: 02eb 41bd e0e3 12bd e9a2 573d 1a45 a7bc
00000290: cbe8 a53d 2de1 263d 0ca1 1a3d eac8 943d
000002a0: 78e1 013d 7d23 47bd 9747 323d 3971 d43c
000002b0: f2aa 0ebc 2209 8abd beca c33c 0f09 643c
000002c0: bf34 b5bc a13c 383d 80f3 e03d c337 ec3d
000002d0: 97f0 913d e79c 923c fb47 a93d 05de ae3d
000002e0: 122d d83d f6b3 a83d 43b1 473c f453 dc3c
000002f0: c9d0 d9bd 8117 dbbd 7ed5 2bbe d7f3 50be
00000300: d0c4 8fbd 26c5 74bd face 8fbd 322c efbc
00000310: 7eeb 61bd da79 a13c 8239 58bc feca cc3b
00000320: 098d 0cbd a74e 183d 456c 5a3d 7f72 c33c
00000330: f596 083d ba2d cf3d c99d 243d f4f0 853d
00000340: 753c c03c 233c 85bb dc0e 9c3d a895 15bd
00000350: 74b5 37bd 0e3e 10bd 4128 c1bd 7938 a5bd
00000360: c4bc 0e3b 2d7c 5cbd 1c4d 073d 7688 ed3b
00000370: 5231 99bd 4f05 85bd bc83 2bbc 0114 24bd
00000380: a504 523d a82e 01bd ea5e 61bc 02ea d53b
00000390: 3272 d6bb 04a2 70bc 7d56 08bd 602f 203d
000003a0: 0039 97bd 56e5 b7ba 9f4d 643d 24e0 10bc
000003b0: 7448 1b3d cbb7 bb3c 230a 073d d037 5bbd
000003c0: d439 083b ef8f 51bd 0f9c 88bd b5b3 c9bc
000003d0: 5d0d 49bd 5994 2cb8 036c 733b e56d 323c
000003e0: 1aaf 83bd 5179 a7bd a4a8 b2bb a6f0 533c
000003f0: a2aa 80bd ca7d ff3c 3be4 bbbd e896 74bd

encoder_hidden_layer.bias f4 [128]
0.0017394859 0.052494857 0.054856043 -0.031145437 -0.06718951 -0.036465842 0.13268894 -0.0151533
-0.015496193 -0.018999247 -0.008625395 -0.07108069 0.06256096 0.04523732 -0.07435562 0.062240608
0.14276029 0.049554393 -0.012197582 0.028692408 0.07054994 0.07377119 0.10377392 0.055119123
-0.012759584 0.12921134 0.043469317 0.07234789 0.23800898 -0.012480536 0.048775803 -0.020790597
0.07793589 -0.011291102 0.024861494 0.006970007 0.052921627 0.07871336 0.14638679 0.16450198
0.0045754164 0.0357653 -0.016092407 0.033593733 0.04575579 0.022056675 0.12987562 -0.028285293
0.07769536 0.06112356 0.01583685 0.03598361 0.09152232 0.10692369 0.07132889 0.08499333
0.044754453 0.21309291 0.05698267 -0.018980443 0.01586994 0.069593996 0.020304687 0.03792315
0.044841483 0.06945602 -0.05748761 0.013327794 0.14204389 0.087762974 0.17616907 0.054001685
-0.06648135 0.11474443 0.02139588 0.021441529 0.003472745 0.007465859 0.10673718 0.023495685
0.03209001 0.08286269 0.100149415 -0.029835815 0.033566713 0.18545082 -0.028777048 0.18885095
0.07242757 -0.009387963 0.087717056 -0.015771756 0.07943483 0.07673597 0.11296614 -0.0053670523
0.116912946 0.020786192 0.08038366 0.18819621 0.08012711 0.023693241 0.06208622 -0.06782822
-0.024603741 0.13000715 -0.050937835 0.08507395 0.08512006 0.019693108 0.058906768 0.032240544
0.049203083 0.07006793 0.17849419 -0.072114244 -0.028587636 0.12855318 -0.00052941137 0.08221102
0.09549914 0.017812774 0.06530176 0.037529092 0.059340954 -0.008846723 0.13560587 0.08445801
00000000: 76ff e33a d904 573d bbb0 603d b724 ffbc
00000010: a79a 89bd 355d 15bd 9cdf 073e 8c45 78bc
00000020: bfe3 7dbc 4fa4 9bbc 8751 0dbc c192 91bd
00000030: f61f 803d c54a 393d c247 98bd 02f0 7e3d
00000040: c12f 123e 8cf9 4a3d 5ed8 47bc 570c eb3c
00000050: 7d7c 903d 5a15 973d 6c87 d43d 97c4 613d
00000060: 930d 51bc fa4f 043e e20c 323d 212b 943d
00000070: a0b8 733e 297b 4cbc 23c9 473d 0b51 aabc
00000080: da9c 9f3d 50fe 38bc 55aa cb3c a864 e43b
00000090: 59c4 583d 7834 a13d 6be6 153e 3573 283e
000000a0: 60ed 953b a37e 123d 39d4 83bc 9599 093d
000000b0: 6c6a 3b3d 33b0 b43c 1dfe 043e 8fb6 e7bc
000000c0: bf1e 9f3d b35c 7a3d 48bc 813c 8d63 133d
000000d0: 0e70 bb3d cffa da3d e214 923d fc10 ae3d
000000e0: 7250 373d 0735 5a3e a966 693d e07c 9bbc
000000f0: ad01 823c 4c87 8e3d 0456 a63c 4e55 1b3d
00000100: b4ab 373d f53e 8e3d 2178 6bbd d25c 5a3c
00000110: f473 113e 13bd b33d aa65 343e df30 5d3d
00000120: 6027 88bd 21ff ea3d 6a46 af3c 25a6 af3c
00000130: fe96 633b 2aa4 f43b 0699 da3d 067a c03c
00000140: d070 033d eab3 a93d 231b cd3d 3d6a f4bc
00000150: 407d 093d d2e6 3d3e d8bd ebbc 2562 413e
00000160: e854 943d f9cf 19bc 00a5 b33d c533 81bc
00000170: baae a23d c027 9d3d cb5a e73d 19de afbb
00000180: 0e70 ef3d ce47 aa3c 30a0 a43d 82b6 403e
00000190: af19 a43d 5418 c23c 1f4e 7e3d 86e9 8abd
000001a0: c98d c9bc 9820 053e 31a4 50bd 403b ae3d
000001b0: 6d53 ae3d 7153 a13c 3948 713d a90e 043d
000001c0: 2c89 493d c67f 8f3d 2ec7 363e a2b0 93bd
000001d0: 9e30 eabc 72a3 033e 32c8 0aba 405e a83d
000001e0: 0e95 c33d 18ec 913c eebc 853d 1bb8 193d
000001f0: 800f 733d d8f1 10bc 44dc 0a3e 52f8 ac3d

encoder_output_layer.weight f4 [128, 128]
-0.03719262 0.02597626 -0.08114303 0.030036487 0.048367232 0.020766059 0.10047074 0.067130394
-0.08656345 -0.03738308 -0.008656262 -0.06686707 0.06797185 0.011658076 -0.07845143 0.022768958
0.09639555 -0.023664614 0.061752383 0.042427883 0.07277073 -0.042518962 -0.03465176 0.05255291
-0.062024165 0.1242051 -0.020072991 -0.023596643 -0.01769549 -0.018093646 0.031725932 -0.002730164
-0.101163656 -0.05078897 0.014992666 0.07777602 0.08070426 0.019904371 0.0973594 0.009291266
0.065553166 -0.015873656 -0.009549517 0.077028885 0.07940035 0.03113313 0.0059715873 -0.040200345
0.09503183 0.02586734 -0.02252624 0.06222341 0.00030532436 0.036507398 0.05666715 0.0096187685
-0.1001256 -0.06422395 -0.04068433 -0.029107159 0.005123238 0.06920334 0.045248948 0.058966246
0.036425777 -0.002438582 0.060903005 0.086121 0.08888725 0.05012806 0.016543422 0.024021981
-0.055981442 -0.021575874 0.02542699 0.054494713 0.045473997 -0.06654596 -0.050406635 0.016414266
0.0666065 -0.03636604 0.037459616 0.049317718 0.03177385 0.06146825 0.0013144705 -0.034457944
-0.08252616 -0.06406719 0.043725073 -0.048506662 -0.030802675 -0.06749568 -0.00087427994 0.10719528
-0.05899584 0.11583525 -0.026067022 -0.013891031 0.04852417 0.0192583 -0.00031960465 0.058877736
0.08128181 0.03277942 0.024823446 0.048168346 -0.054220688 0.05874552 0.056120053 -0.075675026
-0.0018273183 0.05362333 0.068128034 0.0408491 -0.021452392 -0.05416351 -0.068314224 0.05448774
-0.029660916 -0.036081474 -0.023677101 0.07892561 -0.04011899 -0.054655526 0.016201142 0.0311726
-0.03357896 0.046739016 0.03250604 -0.028774273 0.05266343 -0.016611384 0.042699363 0.025611354
0.07927508 0.040476043 0.054329425 0.012488811 -0.16650258 -0.016991947 0.023122035 0.112980254
-0.11036422 -0.011328193 -0.013596469 0.010644423 -0.03927779 0.01806866 -0.003253561 0.063163444
0.018261319 0.12069665 0.1367548 0.0005703658 0.030939855 0.0228643 0.16066366 0.025265647
-0.011013811 0.081293635 0.22686686 -0.050616212 0.039718304 0.10970972 0.14214909 0.09099282
-0.00870792 0.008562465 0.09486723 -0.05664633 0.012330054 0.019637559 0.023682218 -0.03650147
0.0032722957 -0.03292996 -0.024947597 -0.036372986 -0.02819673 0.1413767 -0.009289986 0.0058610435
-0.0064845476 0.04187128 0.06541681 -0.034342818 -0.043137778 0.03839283 -0.01674713 0.039827403
0.020471126 0.06755238 -0.002112576 0.051373024 -0.15105344 -0.06065682 0.027812587 -0.020143988
-0.003960012 -0.02442366 0.058165215 0.01812053 -0.009259182 0.06310919 0.1010785 0.038329404
-0.04423684 -0.026252527 -0.118658595 -0.022978509 0.020044554 0.09710745 0.06017287 0.03245194
0.018667774 -0.005529995 0.012937756 0.026684938 0.044422895 -0.030148478 -0.10585384 0.13286424
0.05081185 -0.017145779 -0.009769095 0.096064955 0.03997633 0.049729 0.058474865 0.012618741
0.07072329 -0.023871675 0.04358413 0.021044625 -0.015422872 -0.012955619 0.029940313 -0.021056328
-0.04941626 -0.069672436 0.04741726 0.10904791 0.045860976 0.01156812 -0.025274014 -0.016426638
-0.054011993 0.027689712 -0.099974684 0.029528208 -0.045360178 -0.0014142563 0.083305225 -0.049922302
00000000: 4a57 18bd 2acc d43c 512e a6bd 140f f63c
00000010: b81c 463d 951d aa3c 9ac3 cd3d a97b 893d
00000020: 2e48 b1bd 001f 19bd ffd2 0dbc 9af1 88bd
00000030: d334 8b3d 8401 3f3c 25ab a0bd f785 ba3c
00000040: 086b c53d 4bdc c1bc 11f0 7c3d dcc8 2d3d
00000050: d208 953d 5d28 2ebd 01ef 0dbd b841 573d
00000060: 0d0d 7ebd 3e5f fe3d 1d70 a4bc bf4d c1bc
00000070: 22f6 90bc 2039 94bc 0df3 013d 8dec 32bb
00000080: e42e cfbd 1808 50bd cda3 753c 0949 9f3d
00000090: 4648 a53d 7e0e a33c 5d64 c73d 653a 183c
000000a0: bd40 863d 7809 82bc 9475 1cbc 52c1 9d3d
000000b0: a79c a23d e80a ff3c 4ead c33b 1ea9 24bd
000000c0: 0ca0 c23d bee7 d33c f388 b8bc f9dd 7e3d
000000d0: f113 a039 c888 153d d01b 683d 0a98 1d3c
000000e0: a70e cdbd d987 83bd 9da4 26bd 2372 eebc
000000f0: d6e0 a73b 7bba 8d3d f656 393d 9786 713d
00000100: 3233 153d 9ed0 1fbb 6e75 793d 3560 b03d
00000110: 850a b63d 1553 4d3d 1286 873c bfc9 c43c
00000120: cc4c 65bd e3bf b0bc 434c d03c d935 5f3d
00000130: f142 3a3d 4049 88bd 3077 4ebd 3677 863c
00000140: fd68 883d 8ff4 14bd 416f 193d 6001 4a3d
00000150: 4c25 023d 22c6 7b3d 504a ac3a c623 0dbd
00000160: 7a03 a9bd a935 83bd 1019 333d ecae 46bd
00000170: e455 fcbc 2d3b 8abd ef2f 65ba 3389 db3d
00000180: 9fa5 71bd 083b ed3d 828a d5bc 3597 63bc
00000190: 48c1 463d 95c3 9d3c 9c90 a7b9 c829 713d
000001a0: 1477 a63d b743 063d 8a5a cb3c 2c4c 453d
000001b0: 8316 5ebd 249f 703d 24de 653d 82fb 9abd
000001c0: a182 efba 23a4 5b3d b686 8b3d 6351 273d
000001d0: edbc afbc 8fda 5dbd 54e8 8bbd 892e 5f3d
000001e0: 73fb f2bc 2bca 13bd 7bf6 c1bc c0a3 a13d
000001f0: cf53 24bd 79de 5fbd 42b8 843c ae5d ff3c
00000200: 178a 09bd 6971 3f3d 0e25 053d 06b8 ebbc
00000210: 9cb5 573d 9914 88bc 87e5 2e3d e7ce d13c
00000220: f95a a23d 35ca 253d 8888 5e3d df9d 4c3c
00000230: a77f 2abe b232 8bbc 6c6a bd3c 3162 e73d
00000240: a306 e2bd e399 39bc b9c3 5ebc f265 2e3c
00000250: bfe1 20bd ba04 943c b239 55bb d65b 813d
00000260: c398 953c ce2f f73d 7309 0c3e 9a84 153a
00000270: 9475 fd3c ea4d bb3c 0485 243e e7f9 ce3c
00000280: 4673 34bc 477d a63d c94f 683e f252 4fbd
00000290: a9af 223d 7daf e03d 888f 113e 725a ba3d
000002a0: aaab 0ebc 9549 0c3c c049 c23d fb05 68bd
000002b0: ff03 4a3c f2de a03c 3601 c23c 9182 15bd
000002c0: 0374 563b 91e1 06bd e75e ccbc d7fb 14bd
000002d0: d4fc e6bc 0ec5 103e 0735 18bc ff0d c03b
000002e0: 547c d4bb 3881 2b3d 40f9 853d 0eab 0cbd
000002f0: 3db1 30bd cd41 1d3d 4731 89bc 0f22 233d
00000300: 10b3 a73c e758 8a3d 2573 0abb 856c 523d
00000310: c1ad 1abe 4973 78bd 39d7 e33c 0105 a5bc
00000320: fdc2 81bb 2114 c8bc a63e 6e3d 8171 943c
00000330: d3b3 17bc 643f 813d 3f02 cf3d 4bff 1c3d
00000340: b031 35bd 8a0f d7bc 4703 f3bd 6d3d bcbc
00000350: 7a34 a43c 45e0 c63d d477 763d 53ec 043d
00000360: 29ed 983c f634 b5bb e2f8 533c 5f9a da3c
00000370: c8f4 353d f1f9 f6bc e6c9 d8bd 900d 083e
00000380: 1620 503d 4e75 8cbc 8e0e 20bc b4bd c43d
00000390: 38be 233d a3b0 4b3d 5783 6f3d d6be 4e3c
000003a0: 5fd7 903d 888e c3bc 4685 323d c765 ac3c
000003b0: 37b0 7cbc ce43 54bc 6345 f53c 527e acbc
000003c0: b468 4abd 6cb0 8ebd 9a38 423d 8354 df3d
000003d0: b8d8 3b3d 3688 3d3c 730b cfbc 2891 86bc
000003e0: ae3b 5dbd 89d5 e23c 87bf ccbd 24e5 f13c
000003f0: 98cb 39bd 915e b9ba ee9b aa3d 547b 4cbd

encoder_output_layer.bias f4 [128]
0.09342438 0.019186368 -0.05987718 0.054146502 0.018857654 0.06228957 -0.025974482 -0.0036202003
0.05388173 0.06582725 0.014239855 -0.016672961 0.06835848 0.011468403 0.042620964 0.063215196
0.03651664 0.048599944 -0.018481873 -0.027475037 0.08571166 -0.07209949 0.094656356 0.014903618
0.0013723286 -0.02857454 0.03617323 0.041643575 0.09111491 -0.004200032 0.07207535 -0.015677467
0.028484026 0.028061653 0.0913636 -0.044430953 0.0057471395 -0.061148446 -0.0018166678 0.034635745
0.096511915 0.05512368 0.14702344 0.06209361 0.020335866 -0.03328077 -0.06797163 0.028951505
0.0900853 -0.03413421 0.044078942 -0.0044103516 -0.053576574 0.04567131 -0.019117687 0.09151747
0.061235838 0.028296348 0.058448467 0.035162676 0.011563118 0.0022609842 0.03758855 -0.020566905
0.07636348 0.05633113 -0.030301332 -0.054790907 -0.027374713 0.0604375 -0.07362361 0.05511725
0.014665768 0.12037393 0.03081982 -0.06192793 -0.00059441535 0.0610075 -0.050061345 -0.06384614
-0.034691717 0.029199244 0.015603302 -0.06654748 0.033034004 -0.013377529 0.059892192 -0.019351367
0.10327611 -0.022053458 0.071079314 -0.009520624 0.018060667 0.03803607 0.07248477 -0.05939844
0.060799725 -0.021883402 -0.00645179 -0.070636675 0.018188749 0.062400658 -0.049764078 -0.03897099
0.08415449 -0.03819147 0.08326106 0.098351404 -0.020460898 -0.019062068 -0.019162973 0.05481178
0.03818817 -0.036226902 -0.040393025 0.08343897 0.02455409 0.06462284 0.069077365 0.015528562
-0.04474163 0.027783597 -0.044276197 0.10075221 -0.002506965 -0.0038603544 5.896121e-06 0.11287602
00000000: 4855 bf3d bb2c 9d3c c641 75bd b9c8 5d3d
00000010: 5e7b 9a3c 5923 7f3d 70c8 d4bc e240 6dbb
00000020: 17b3 5c3d 70d0 863d 484e 693c bc95 88bc
00000030: 88ff 8b3d f8e5 3b3c 5293 2e3d f876 813d
00000040: 7992 153d bc10 473d 4c67 97bc 5413 e1bc
00000050: 9889 af3d e6a8 93bd 31db c13d 4e2e 743c
00000060: b5df b33a 2715 eabc 612a 143d 7492 2a3d
00000070: 749a ba3d 6ca0 89bb 3e9c 933d 086e 80bc
00000080: 5557 e93c 8de1 e53c d71c bb3d 3bfd 35bd
00000090: 8052 bc3b cb76 7abd 421d eeba 36de 0d3d
000000a0: 0aa8 c53d 5ec9 613d 508d 163e df55 7e3d
000000b0: 6797 a63c 6b51 08bd b634 8bbd b52b ed3c
000000c0: a47e b83d 50d0 0bbd 1f8c 343d b684 90bb
000000d0: 1c73 5bbd d711 3b3d b29c 9cbc 836d bb3d
000000e0: 6ed2 7a3d becd e73c a967 6f3d bd06 103d
000000f0: 3b73 3d3c 052d 143b 74f6 193d ed7b a8bc
00000100: 7564 9c3d 79bb 663d 803a f8bc 6e6c 60bd
00000110: ef40 e0bc 508d 773d fac7 96bd a0c2 613d
00000120: b048 703c 9b86 f63d d979 fc3c 24a8 7dbd
00000130: 8ad2 1bba 00e3 793d 200d 4dbd c4c1 82bd
00000140: e718 0ebd 4133 ef3c fea4 7f3c 0c4a 88bd
00000150: aa4e 073d 6c2d 5bbc 8451 753d c286 9ebc
00000160: 6d82 d33d 74a9 b4bc 0892 913d 64fc 1bbc
00000170: f7f3 933c b6cb 1b3d e572 943d c74b 73bd
00000180: 2209 793d d244 b3bc 8a69 d3bb f6a9 90bd
00000190: 9200 953c d597 7f3d 6bd5 4bbd 0ba0 1fbd
000001a0: 3059 ac3d a96e 1cbd c684 aa3d 766c c93d
000001b0: 9d9d a7bc 0e28 9cbc abfb 9cbc 5182 603d
000001c0: 336b 1c3d a962 14bd 2873 25bd 0de2 aa3d
000001d0: a925 c93c fb58 843d 6f78 8d3d 826b 7e3c
000001e0: 0043 37bd 6d9a e33c f55a 35bd 2d57 ce3d
000001f0: e54b 24bb 00fe 7cbb 4bd7 c536 8b2b e73d

decoder_hidden_layer.weight f4 [128, 128]
-0.08556594 -0.010169416 0.010299161 0.022453466 0.11399492 -0.0008102908 -0.031827442 -0.011600733
0.027264005 -0.010874878 0.027829526 -0.038354326 -0.016723057 0.061250407 0.027405577 0.002089777
-0.057344362 0.032027774 -0.094579525 -0.06467009 0.076354034 -0.023720482 0.00885638 0.030035658
0.021348689 -0.04941586 0.00048354804 -0.10254049 0.021313455 -0.013862257 -0.036396973 0.07840372
0.036568798 0.037280902 -0.06846433 0.06715867 -0.06302792 -0.018710116 -0.016246997 0.06720181
0.084010206 0.028480155 -0.0012840781 -0.09825554 0.074698254 -0.031307086 0.10910778 -0.10487211
0.07123595 -0.03720027 0.04789829 0.026719239 0.016919382 -0.06658992 -0.056635443 0.066329405
0.050432708 0.062315706 0.055584975 0.04408097 -0.06744611 -0.033426277 0.069747105 0.022850659
-0.00059844967 0.021605188 0.03343329 0.07462905 0.025078755 -0.034560915 -0.019662265 -0.0018769767
0.07683722 0.06464253 -0.07087282 0.016163291 5.7108095e-06 -0.015731713 -0.02253686 0.0221084
0.029017808 -0.006000794 0.10963179 0.0405087 0.0589468 -0.027163688 -0.04534096 -0.08969894
0.07513596 0.06778855 -0.023833603 0.026922002 0.00014205692 -0.030197281 -0.09747286 -0.032340366
-0.015270406 0.0029879345 -0.035475213 -0.008809092 -0.0075227427 0.021800209 -0.0041549383 -0.0010632937
0.011251816 0.05460003 0.047812518 -0.0463917 -0.074191146 0.009678008 -0.03001454 0.0007486308
-0.06488652 0.05574369 0.05166327 0.019440234 0.010927838 0.0030749345 0.017500235 0.002923703
0.1065803 0.009795002 0.04738444 -0.059307903 0.075311914 -0.0640782 7.750007e-07 0.0026297534
0.0076724435 0.05115695 0.019025981 -0.07903075 -0.023341775 0.049949683 -0.00729338 0.07902746
0.004965314 -0.0735206 0.06885596 0.03431942 -0.038831256 0.063226484 0.075301714 -0.0390932
0.053650353 -0.0093055125 0.06743013 0.04060943 0.0050458843 -0.00036450202 0.0021145444 0.016506277
0.06420372 -0.022241136 -0.003954493 -0.014739981 -0.0005293493 0.03649701 0.088176064 0.03268817
-0.07013862 -0.034713265 0.0071384097 -0.08421178 0.049970698 -0.0075365123 -0.03531561 0.01614379
0.050501663 -0.039990604 -0.11423658 0.020872952 0.062102396 0.08133491 -0.037138768 -0.033159718
-0.07606502 -0.020338777 -0.02906981 -0.079377495 0.052075695 0.051737677 -0.011306727 -0.032236915
0.008353678 0.08380344 0.06450426 -0.066550754 -0.007700195 0.0729027 -0.04302878 0.07059496
0.049314067 0.07787475 0.0037725095 0.083494574 -0.06547058 0.01055298 -0.009750904 -0.03609614
0.0745629 0.010294025 0.05384202 0.083897814 5.1784635e-05 0.040322356 -0.060578257 0.05845496
0.026790783 0.017938152 0.022372847 -0.026124986 0.0849559 -0.026489306 -0.029542541 -0.06538756
0.092527956 -0.12379308 0.06552901 0.019483354 -0.0020601756 -0.024145154 -0.055847753 0.0061833495
-0.028122904 -0.02890435 0.03316995 -0.0727281 0.014255719 -0.067006774 -0.058923848 0.08013208
-0.0021515947 -0.03956241 0.033752516 -0.006035976 0.082761034 -0.08741396 -0.03682919 0.050509136
0.08295713 0.020448603 0.06827827 -0.0028589652 -0.09650118 0.06340717 -0.051616758 0.055109896
0.0016760869 -0.01768835 -0.056714103 0.032845102 0.053507835 0.0060065896 -9.2730204e-08 -0.05898297
00000000: 323d afbd 9f9d 26bc d0bd 283c 55f0 b73c
00000010: 2b76 e93d b269 54ba 7e5d 02bd 0011 3ebc
00000020: c358 df3c 8b2c 32bc bffa e33c 6d19 1dbd
00000030: cbfe 88bc b5e1 7a3d a981 e03c a4f4 083b
00000040: ece1 6abd 8e2f 033d e9b2 c1bd c171 84bd
00000050: 815f 9c3d 7551 c2bc 5a1a 113c 570d f63c
00000060: 72e3 ae3c 4968 4abd b884 fd39 c000 d2bd
00000070: 8e99 ae3c 851e 63bc fe14 15bd 2192 a03d
00000080: 2ac9 153d dcb3 183d 0737 8cbd 7c8a 893d
00000090: c814 81bd f545 99bc 6c18 85bc 1aa1 893d
000000a0: 8b0d ac3d 374f e93c 834e a8ba 333a c9bd
000000b0: 66fb 983d dc3b 00bd e673 df3d 30c7 d6bd
000000c0: 27e4 913d 4f5f 18bd ff30 443d 4ee2 da3c
000000d0: 849a 8a3c 4c60 88bd 91fa 67bd b6d7 873d
000000e0: 8792 4e3d c13e 7f3d 12ad 633d 3f8e 343d
000000f0: 3021 8abd fee9 08bd 92d7 8e3d 4e31 bb3c
00000100: 47e1 1cba 5dfd b03c 58f1 083d 1ed7 983d
00000110: f671 cd3c bf8f 0dbd c212 a1bc e304 f6ba
00000120: d55c 9d3d 4e63 843d c525 91bd e168 843c
00000130: 7b9f bf36 cbdf 80bc 399f b8bc ad1c b53c
00000140: c1b6 ed3c 4fa2 c4bb a286 e03d 73ec 253d
00000150: 3372 713d 6286 debc 71b7 39bd 14b4 b7bd
00000160: e2e0 993d b9d4 8a3d b03e c3bc 888b dc3c
00000170: 1df5 1439 4a60 f7bc da9f c7bd 5577 04bd
00000180: ba30 7abc 39d1 433b 754e 11bd 0354 10bc
00000190: 5781 f6bb 5a96 b23c 2626 88bb 375e 8bba
000001a0: 8959 383c 48a4 5f3d 0fd7 433d 3905 3ebd
000001b0: 87f1 97bd 8290 1e3c 0de1 f5bc c33f 443a
000001c0: 39e3 84bd 7f53 643d dd9c 533d 2041 9f3c
000001d0: ad0a 333c d784 493b a75c 8f3c 999b 3f3b
000001e0: c646 da3d 377b 203c 3016 423d d8ec 72bd
000001f0: 223d 9a3d 6e3b 83bd a409 5035 f157 2c3b
00000200: 1f69 fb3b f389 513d 60dc 9b3c e0da a1bd
00000210: 4037 bfbc 0a98 4c3d 4efd eebb 26d9 a13d
00000220: 13b4 a23b f891 96bd 5b04 8d3d 8592 0c3d
00000230: 860d 1fbd e37c 813d c937 9a3d 3120 20bd
00000240: 79c0 5b3d 2676 18bc cf18 8a3d 1356 263d
00000250: f257 a53b a21a bfb9 2b94 0a3b 2c38 873c
00000260: 3d7d 833d 0b33 b6bc b194 81bb f67f 71bc
00000270: 08c4 0aba e47d 153d a795 b43d 08e4 053d
00000280: d6a4 8fbd 7f2f 0ebd 52e9 e93b 3a77 acbd
00000290: 13ae 4c3d d9f4 f6bb 1aa7 10bd fb3f 843c
000002a0: d5da 4e3d 30cd 23bd def4 e9bd c1fd aa3c
000002b0: 155f 7e3d eb92 a63d d21e 18bd 7cd2 07bd
000002c0: fac7 9bbd 829d a6bc cf23 eebc ab90 a2bd
000002d0: 534d 553d e3ea 533d da3f 39bc db0a 04bd
000002e0: dddd 083c 23a1 ab3d cf1a 843d c34b 88bd
000002f0: eb51 fcbb 034e 953d f23e 30bd 1794 903d
00000300: 8cfd 493d cc7c 9f3d 353c 773b 34ff aa3d
00000310: 7015 86bd 68e6 2c3c 41c2 1fbc 8cd9 13bd
00000320: 6fb4 983d 45a8 283c 7389 5c3d 9ed2 ab3d
00000330: 5433 5938 0e29 253d e820 78bd 786e 6f3d
00000340: 5878 db3c 08f3 923c 4347 b73c 1104 d6bc
00000350: 5cfd ad3d 1a00 d9bc 3303 f2bc eae9 85bd
00000360: 4c7f bd3d 3a87 fdbd 1334 863d 8e9b 9f3c
00000370: 0304 07bb 0fcc c5bc 9dc0 64bd b29d ca3b
00000380: 0162 e6bc d1c8 ecbc 37dd 073d 78f2 94bd
00000390: d290 693c d93a 89bd 225a 71bd 4a1c a43d
000003a0: c501 0dbb 320c 22bd 1440 0a3d 70c9 c5bb
000003b0: 9e7e a93d 1706 b3bd 34da 16bd abe2 4e3d
000003c0: 6ee5 a93d d483 a73c 7ad5 8b3d 7a5d 3bbb
000003d0: 69a2 c5bd 9edb 813d 186c 53bd eaba 613d
000003e0: 25b0 db3a 29e7 90bc 0c4d 68bd 9688 063d
000003f0: 082b 5b3d edd2 c43b f822 c7b3 2098 71bd

decoder_hidden_layer.bias f4 [128]
-0.07324107 0.0019847369 -0.005480594 0.029274197 -0.0012763648 0.002443933 3.691081e-06 0.063723445
-0.025533954 0.08728499 0.057074573 -0.100332014 -0.065080434 -0.0070541245 0.0015214281 0.017079145
-0.03681681 0.0019929823 -0.049431212 -0.01425456 0.0007557437 -5.0012677e-06 0.008333282 -0.005953009
0.018058253 0.104997724 -0.05281414 -0.00130064 0.11184246 0.09343488 0.11025166 -0.058132797
0.019163055 0.1211524 0.07701017 0.08299734 -0.03881645 0.0505346 0.023782816 0.082319
-0.05615638 -0.072418794 0.033734627 0.08872744 0.006113659 0.017076775 0.026472146 -0.034594283
0.022647869 0.02798484 0.002166444 -0.017793981 0.056812163 0.015664179 -0.006709743 0.0047249873
0.106907666 0.047025416 -0.0017766542 -0.024142865 0.0018371474 0.08298524 0.001732733 -0.062435877
0.038945828 0.03759291 0.08861326 0.04344514 -0.058142636 0.04243368 -0.055817246 0.031817008
0.060705435 -0.03953541 -0.033032425 0.068355955 -0.055781502 0.0051086633 0.06475385 0.00061974657
-0.021651875 -0.006839995 -4.0956434e-06 0.056145173 0.075079724 -0.06738039 -0.00042875588 0.008865835
-0.023152165 -0.007618221 -0.034164682 -0.0070734983 -0.046959706 0.052234117 0.07300725 0.078317575
-0.05577373 -0.0022714918 0.019713007 -0.033991456 0.062983945 0.048330754 0.02051525 -0.06266537
0.044931434 0.016452257 0.008960842 -0.033922013 0.005419975 -0.05148263 -0.02927031 -0.026306968
-0.05018759 -0.03767103 -0.04639489 -0.01663259 -0.07290442 -0.039728887 0.0060579297 0.037973873
0.075357 -0.06749982 0.070059456 0.036959287 -0.016559614 0.00866073 -0.036615115 0.040214147
00000000: 6aff 95bd 5c12 023b 8e96 b3bb 71d0 ef3c
00000010: b24b a7ba 642a 203b 4ab4 7736 7081 823d
00000020: 952c d1bc 79c2 b23d 07c7 693d df7a cdbd
00000030: e448 85bd 4926 e7bb a86a c73a 90e9 8b3c
00000040: 39cd 16bd b29c 023b 6278 4abd f58b 69bc
00000050: 1a1d 463a 90d0 a7b6 5188 083c 7511 c3bb
00000060: e7ee 933c 0c09 d73d a453 58bd 3d7a aaba
00000070: a90d e53d c95a bf3d 9fcb e13d a81c 6ebd
00000080: d7fb 9c3c c01e f83d 82b7 9d3d 82fa a93d
00000090: fffd 1ebd 5efd 4e3d 2ed4 c23c dd96 a83d
000000a0: 3b04 66bd 4e50 94bd 522d 0a3d bbb6 b53d
000000b0: 1755 c83b 98e4 8b3c 1ddc d83c bcb2 0dbd
000000c0: 0688 b93c 7740 e53c e6fa 0d3b afc4 91bc
000000d0: dfb3 683d 2a52 803c 67dd dbbb 11d4 9a3b
000000e0: 68f2 da3d b99d 403d 9fde e8ba 42c7 c5bc
000000f0: 70cc f03a 2af4 a93d df1c e33a c3bc 7fbd
00000100: a985 1f3d 06fb 193d de7a b53d 88f3 313d
00000110: f926 6ebd f0ce 2d3d a0a0 64bd 8d52 023d
00000120: 43a6 783d e2ef 21bd 024d 07bd 35fe 8b3d
00000130: 257b 64bd 9366 a73b ab9d 843d 7d76 223a
00000140: 465f b1bc 0922 e0bb 4f6d 89b6 7bf8 653d
00000150: 66c3 993d bbfe 89bd a4ca e0b9 0242 113c
00000160: 9ca9 bdbc 45a2 f9bb 44f0 0bbd cec8 e7bb
00000170: d258 40bd 71f3 553d d384 953d f764 a03d
00000180: ff72 64bd 4fdd 14bb 2c7d a13c a03a 0bbd
00000190: bafd 803d 78f6 453d 990f a83c b456 80bd
000001a0: 060a 383d e2c6 863c 7fd0 123c cff1 0abd
000001b0: 0c9a b13b 73df 52bd 4ac8 efbc b681 d7bc
000001c0: 8191 4dbd f04c 1abd 9108 3ebd 1241 88bc
000001d0: ea4e 95bd c2ba 22bd 9981 c63b 7e8a 1b3d
000001e0: c554 9a3d 583d 8abd 557b 8f3d 9f62 173d
000001f0: 07a8 87bc bce5 0d3c bbf9 15bd 97b7 243d

decoder_output_layer.weight f4 [128, 128]
-1.0170812e-13 2.3905513e-06 -9.83565e-17 3.4102214e-07 -4.367788e-11 -2.0983881e-09 3.3729518e-07 3.231936e-08
5.8497494e-07 -0.002254245 5.5837586e-07 1.5622849e-08 -2.0459472e-13 -3.9528585e-14 5.9804216e-07 -1.2365841e-08
1.4300472e-06 -1.831686e-07 -1.0275006e-06 -4.8636324e-17 5.4388474e-06 5.0726623e-08 -1.3337107e-07 -4.441218e-13
-8.7806704e-08 -1.0578023e-08 -3.4093037e-11 -2.0699932e-07 2.240354e-06 6.4362853e-09 9.3530765e-09 2.6651614e-14
-1.829728e-06 -0.00015731456 -6.474442e-07 -9.5290765e-05 -1.521031e-06 2.103512e-07 1.9320234e-07 -7.639567e-09
1.15752094e-07 1.1164813e-12 -7.813739e-07 1.2650428e-06 5.8676385e-08 -4.8202214e-06 1.7908437e-07 -1.0270696e-06
-5.7732983e-08 -0.000736542 4.3479068e-07 -2.1305385e-07 3.421348e-07 1.8699227e-06 6.7019616e-17 -8.824968e-07
1.8640848e-06 -7.639374e-08 5.1377737e-07 4.9642873e-11 2.495509e-06 -1.5022105e-06 1.2895057e-06 -1.6688055e-07
1.7958626e-05 1.4416389e-05 -9.0568e-09 -0.0013110125 5.952491e-18 5.4295097e-06 5.646639e-13 -5.05386e-13
2.308895e-07 -3.5111212e-13 -4.3087826e-13 -0.00063376414 1.1446232e-07 2.4959058e-06 -0.00025637393 1.8680129e-11
3.972289e-09 6.507119e-09 -3.7642207e-07 3.4814477e-07 -2.9607943e-07 -2.2192895e-16 -5.3495626e-07 3.4383496e-07
-1.3718019e-06 -1.8110845e-14 5.243571e-07 6.8255774e-09 1.692031e-07 -1.8154488e-07 8.430278e-07 -1.7038179e-06
-4.5588635e-07 -5.23299e-07 -2.0886903e-12 -6.025006e-07 5.848852e-08 -0.0014459628 -2.6222006e-05 -1.6105919e-12
-5.297781e-06 -1.943147e-06 -1.4108251e-07 3.7108552e-09 1.04998115e-07 -1.5808773e-05 1.1128039e-08 -4.4548935e-13
3.7545225e-09 1.9276408e-16 5.522514e-13 -4.077953e-08 3.8492445e-07 2.2299796e-08 6.480834e-12 -6.895134e-07
1.0862813e-06 1.0089465e-05 -2.9909e-07 2.1882905e-13 5.1042044e-18 3.534357e-08 -1.09984186e-13 1.5841653e-07
-0.044258777 0.050284714 -0.04753129 0.031122047 0.019068073 -0.021971134 2.0430713e-09 0.035395272
-0.02986943 -0.06261453 0.0084759435 0.029126367 0.04994072 0.09296416 0.027580516 0.042697303
0.0050997525 0.05623619 0.0055708434 0.004831728 0.012334696 5.221648e-17 0.0272806 0.06789616
-0.051236458 0.042587493 0.0054610986 0.007743754 0.020913983 -0.030049138 -0.0036448417 -0.06453655
-0.040360518 -0.0140813105 0.016734198 0.03296322 0.10461852 0.022284033 -0.042287968 0.054558888
-0.01781273 -0.010914691 0.019152362 0.038368274 -0.024044858 0.02493112 0.038120702 -0.011808502
-0.07177197 -0.015114828 -0.025272997 0.023595382 0.0115775615 -0.07638128 0.008547844 0.070994355
-0.004299707 -0.016243462 -0.016820068 0.00075844297 -0.057588324 0.01371142 -0.0011586087 0.050175335
-0.024841255 0.03109428 0.018693795 -0.00055852305 -0.047503106 0.059769247 -0.005257711 -0.006724848
0.023566898 0.011918573 0.0020394905 -0.013064604 0.06603169 -0.07315468 0.003000563 0.032776736
-0.03717329 -0.051399052 -9.7161475e-17 0.028864836 0.013251361 -2.1989511e-15 -0.00038332195 0.019524653
0.01955646 0.0021282963 0.0249862 -0.022361474 -0.0029893378 0.035429027 0.0032856243 -0.009747645
0.05953241 0.025993804 -0.014924955 0.013050041 -0.0003528773 -0.0053383647 -0.023844652 -0.036321726
-0.0077152885 0.0030439796 -0.017807519 0.015056389 -0.022905746 -0.054362793 0.027250644 0.020599993
0.0042081084 0.011840863 0.021442372 0.09692465 0.015340694 0.049792334 -0.017791105 -0.029376954
0.003444052 -0.0009599003 -0.035472237 -0.02641532 -0.07401129 0.00022088362 -0.019987855 0.03785469
00000000: bd06 e5a9 5c6d 2036 6ecb e2a4 ba15 b734
00000010: ec18 40ae 3c33 10b1 7f15 b534 83cf 0a33
00000020: 2c07 1d35 f5bb 13bb 4ce3 1535 0233 8632
00000030: 6a5a 66aa 5b05 32a9 2589 2035 8b71 54b2
00000040: 0cf0 bf35 00ad 44b4 a7e8 89b5 a34b 60a4
00000050: 587f b636 83de 5933 c334 0fb4 b204 faaa
00000060: 3f90 bcb3 a3ba 35b2 59f1 15ae 8a43 5eb4
00000070: fd58 1636 2a26 dd31 44af 2032 700e f028
00000080: fa94 f5b5 cef4 24b9 07cc 2db5 d7d6 c7b8
00000090: 3a26 ccb5 e6dc 6134 0e73 4f34 2c3f 03b2
000000a0: 6393 f833 7a21 9d2b 9bbf 51b5 8aca a935
000000b0: 5e03 7c33 63bd a1b6 564a 4034 d8d9 89b5
000000c0: 16f6 77b3 7f14 41ba 2d6d e934 ccc3 64b4
000000d0: a6ae b734 0efa fa35 6689 9a24 b8e4 6cb5
000000e0: 7731 fa35 e70d a4b3 83ea 0935 e854 5a2e
000000f0: 8578 2736 8f9f c9b5 1413 ad35 c72f 33b4
00000100: dba5 9637 ebdd 7137 3a98 1bb2 48d6 abba
00000110: b09b db22 222f b636 52f0 1e2b e640 0eab
00000120: 6cea 7734 97a8 c5aa 1a90 f2aa 3123 26ba
00000130: 53ce f533 567f 2736 ed69 86b9 e94f a42d
00000140: a07c 8831 3995 df31 0e17 cab4 a7e8 ba34
00000150: d9f4 9eb4 dddd 7fa5 ea99 0fb5 5198 b834
00000160: c11e b8b5 c420 a3a8 8cc1 0c35 6a86 ea31
00000170: 32ae 3534 adee 42b4 6e4c 6235 bdae e4b5
00000180: 8bc0 f4b4 d578 0cb5 80fa 12ac 87bb 21b5
00000190: cf34 7b33 7686 bdba 54f7 dbb7 b0ab e2ab
000001a0: 98c3 b1b6 0367 02b6 777c 17b4 0e02 7f31
000001b0: 537b e133 159d 84b7 a22d 3f32 c8c9 faaa
000001c0: 2101 8131 ea3d 5e25 e871 1b2b 9125 2fb3
000001d0: 9da7 ce34 c58d bf32 2a06 e42c 0017 39b5
000001e0: 57cc 9135 ec45 2937 9e92 a0b4 2e61 762a
000001f0: d94f bc22 abcc 1733 91a9 f7a9 3419 2a34
00000200: b148 35bd 58f7 4d3d 2cb0 42bd aaf3 fe3c
00000210: a634 9c3c cffc b3bc 1766 0c31 a2fa 103d
00000220: bcb0 f4bc 0c3c 80bd afde 0a3c 6b9a ee3c
00000230: a48e 4c3d fe63 be3d 89f0 e13c 5ee3 2e3d
00000240: d31b a73b eb57 663d 9f8b b63b 7953 9e3b
00000250: 7717 4a3c 57ce 7024 917b df3c 240d 8b3d
00000260: 52dd 51bd 3970 2e3d 04f3 b23b 51bf fd3b
00000270: cd53 ab3c 9c29 f6bc 4cde 6ebb bd2b 84bd
00000280: 1251 25bd 4cb5 66bc 2816 893c 7104 073d
00000290: 3c42 d63d 018d b63c 2636 2dbd 2479 5f3d
000002a0: 01ec 91bc 88d3 32bc 6ae5 9c3c 0d28 1d3d
000002b0: b9f9 c4bc 593c cc3c 7424 1c3d 7278 41bc
000002c0: 2ffd 92bd 2fa4 77bc 5109 cfbc 1a4b c13c
000002d0: d0af 3d3c ca6d 9cbd 420c 0c3c 7d65 913d
000002e0: 8ee4 8cbb 0211 85bc 3dca 89bc 3fd2 463a
000002f0: bce1 6bbd dda5 603c 75dc 97ba a784 4d3d
00000300: e37f cbbc 6eb9 fe3c bb23 993c d969 12ba
00000310: 9e92 42bd 99d0 743d e048 acbb 1d5c dcbb
00000320: 5e0f c13c 1e46 433c f9a8 053b ec0c 56bc
00000330: 9f3b 873d 1fd2 95bd 18a5 443b e640 063d
00000340: 0543 18bd d087 52bd 030a e0a4 f375 ec3c
00000350: 3d1c 593c 7d73 1ea7 9af8 c8b9 2af2 9f3c
00000360: df34 a03c e37a 0b3b dcaf cc3c 692f b7bc
00000370: c4e8 43bb 071e 113d a153 573b 96b4 1fbc
00000380: 42d8 733d f5f0 d43c cc87 74bc d7cf 553c
00000390: 6402 b9b9 73ed aebb dc55 c3bc 17c6 14bd
000003a0: 88d0 fcbb 817d 473b 13e1 91bc 13af 763c
000003b0: d5a4 bbbc 85ab 5ebd be3c df3c 51c1 a83c
000003c0: 2ce4 893b 2e00 423c eaa7 af3c 6e80 c63d
000003d0: 8957 7b3c 0cf3 4b3d a7be 91bc f0a7 f0bc
000003e0: 9bb5 613b d2a1 7bba 564b 11bd f164 d8bc
000003f0: 3b93 97bd ff9c 6739 92bd a3bc 850d 1b3d

decoder_output_layer.bias f4 [128]
5.191611e-06 0.005633428 0.010703388 -0.012233616 -0.044153403 -0.011076035 -0.0039340123 -0.02882042
0.061679456 0.0770056 0.018738786 -0.028824706 0.04254432 0.093864426 0.0037724678 -0.00038506894
-0.0063935975 0.013071476 0.03309831 -0.01609562 0.007147234 0.04495544 0.0122497985 -0.022950063
-0.034268796 -0.050322384 0.057548624 0.0033800236 0.021517623 -0.032835945 0.027223181 0.010897124
-0.026327405 0.041472867 0.011402173 0.006161983 0.03978956 0.0064728493 0.054397754 -0.01038577
-0.05891104 0.0606339 -0.0475289 -0.016866494 -0.04201409 0.046571396 -0.0023398849 0.07165526
0.018242542 0.07703242 0.01957293 0.049865127 -0.019720083 -0.039320465 -0.02018587 0.0389691
-0.00017901856 -0.019744553 -0.02798082 0.0146389315 0.0141302105 -0.0038163853 0.0028091557 0.026047446
0.019313809 -0.0002835206 0.013656071 -0.032996673 0.013661547 -0.005356228 -0.0045056697 0.057746466
0.04055719 0.030942919 0.038280003 -0.058381215 -0.017840778 0.08187265 -0.05190825 0.005708699
0.063089095 -0.046897255 -0.039767314 0.016076839 0.021499507 -0.00990185 -0.020425154 0.032277662
-0.004109743 -0.029763494 0.036289167 -0.013570676 0.00293753 -0.060122952 -0.028843746 0.043433614
0.0059606126 0.040970743 0.02889264 0.071628205 0.02123348 0.059835494 0.014668106 0.022404972
0.011092758 -0.028260343 0.004088894 0.020749789 0.022298627 0.071692966 -0.00039140714 0.064396486
-0.02562276 4.919911e-06 0.01226061 0.0096308915 6.5588284e-07 0.031445105 -0.05436228 -0.015343726
0.039733794 -0.038041897 0.021549292 -0.005250989 0.04166679 -0.044350967 -0.009236011 0.057022538
00000000: 9933 ae36 9f98 b83b 435d 2f3c 816f 48bc
00000010: 33da 34bd 4278 35bc e3e8 80bb cd18 ecbc
00000020: 99a3 7c3d 1db5 9d3d 1582 993c ca21 ecbc
00000030: f442 2e3d fe3b c03d 823b 773b 14e3 c9b9
00000040: 6281 d1bb be29 563c 1892 073d f6da 83bc
00000050: 5833 ea3b 3223 383d 61b3 483c c501 bcbc
00000060: 705d 0cbd d81e 4ebd 1bb8 6b3d 6383 5d3b
00000070: ba45 b03c fc7e 06bd 2603 df3c da89 323c
00000080: 92ac d7bc 74df 293d 2ed0 3a3c 76ea c93b
00000090: 61fa 223d 321a d43b 2ed0 5e3d 1429 2abc
000000a0: b44c 71bd 415b 783d aaad 42bd 9a2b 8abc
000000b0: f716 2cbd a6c1 3e3d c158 19bb febf 923d
000000c0: 6271 953c 2cc3 9d3d 6957 a03c 603f 4c3d
000000d0: 038c a1bc 7f0e 21bd d65c a5bc 109e 1f3d
000000e0: eeb6 3bb9 54bf a1bc 0838 e5bc 21d8 6f3c
000000f0: 6682 673c 521c 7abb d019 383b 7461 d53c
00000100: fe37 9e3c 7ea5 94b9 b7bd 5f3c 8527 07bd
00000110: aed4 5f3c 4c83 afbb 4ca4 93bb 8f87 6c3d
00000120: 4c1f 263d 017c fd3c 7ecb 1c3d 2421 6fbd
00000130: d326 92bc d9ac a73d bf9d 54bd 0a10 bb3b
00000140: db34 813d 5617 40bd 0de3 22bd 93b3 833c
00000150: bc1f b03c 5e3b 22bc a752 a7bc 9535 043d
00000160: 06ab 86bb 92d2 f3bc f3a3 143d 8a57 5ebc
00000170: 9383 403b 7c43 76bd b849 ecbc 72e7 313d
00000180: 3e51 c33b f0d0 273d 42b0 ec3c cfb1 923d
00000190: d6f1 ad3c 1016 753d 7f52 703c a28a b73c
000001a0: 66be 353c 3c82 e7bc 21fc 853b 76fb a93c
000001b0: 9cab b63c c3d3 923d c735 cdb9 4ee2 833d
000001c0: d3e6 d1bc b715 a536 bae0 483c e3ca 1d3c
000001d0: ed0f 3035 95cc 003d fbaa 5ebd 4064 7bbc
000001e0: e7bf 223d d2d1 1bbd 2488 b03c 7d10 acbb
000001f0: ccaa 2a3d 5ca9 35bd a352 17bc 7790 693d
