results/milestone/programming tutorials/GCP/params/AE/params1.pt (torch_old, 265742 bytes, 8 tensors)

encoder_hidden_layer.weight f4 [128, 128]
0	0x3d63692b	0.055520218
1	0x3ddc3511	0.10752309
2	0xbd81c018	-0.06335467
3	0xbd87061a	-0.06592961
4	0x3d83589f	0.064133875
5	0xbb337f03	-0.0027388937
6	0xbcf46da8	-0.029837444
7	0xbd7daa9f	-0.061930295
8	0x3d16cc29	0.036815796
9	0xbcc2f44c	-0.02379813
10	0x3db3b771	0.08775223
11	0x3c60368c	0.01368488
12	0xbd8223a3	-0.063544534
13	0x3d2c92c3	0.04213215
14	0xbcddb692	-0.027064595
15	0xbd1c366f	-0.03813785
16	0xbd89e960	-0.06733966
17	0x3d51906a	0.051163115
18	0x3d6daf35	0.05802842
19	0x3db32a4f	0.08748304
20	0x3db89d1d	0.09014342
21	0x3c2846bd	0.010270772
22	0x3d8aeed9	0.06783838
23	0xbccee9e8	-0.02525802
24	0xbc7ccc1d	-0.015429524
25	0x3bfc901e	0.00770761
26	0x3d48d3f6	0.049030267
27	0xbcfa5ffc	-0.030563347
28	0x3d71eded	0.059064794
29	0xbcea76a9	-0.028621035
30	0x3d0b9605	0.034078617
31	0x3d89befc	0.067258805
32	0x3da289ff	0.07936477
33	0xbd5a3990	-0.053277552
34	0x3d021ff0	0.03176874
35	0x3dc76ae2	0.09737183
36	0x3d2b8599	0.041875456
37	0x3d8e4b60	0.069479704
38	0x3d86be08	0.06579214
39	0x3dbb4be9	0.09145338
40	0x3b3aa84f	0.0028481667
41	0x3d605436	0.05476781
42	0x3dc2cb91	0.095114835
43	0xbd0724e7	-0.032994177
44	0x3ceabcee	0.028654542
45	0xbabb1e44	-0.0014275988
46	0xbd1dc75c	-0.038520202
47	0xbb85e301	-0.004085899
48	0x3dbb1964	0.09135702
49	0xbc990792	-0.018680368
50	0xbd177ada	-0.036982395
51	0xbc4a4bc9	-0.01234717
52	0xbd907c5c	-0.0705497
53	0xbcaede8e	-0.021346357
54	0xbc0b3ee7	-0.008498884
55	0x3c8e1cf7	0.017347796
56	0x3b0b40e1	0.0021248388
57	0x3d767e1e	0.06017887
58	0xbd0c8133	-0.0343029
59	0x3bdf5400	0.0068154335
60	0xbd809240	-0.06277895
61	0xbd6817e9	-0.056663428
62	0xbd5cc6d4	-0.053900555
63	0x3d01a235	0.031648833
64	0x3d2f15b2	0.0427453
65	0xbd99194f	-0.0747553
66	0xbd75d94e	-0.06002169
67	0x3d487afd	0.048945416
68	0xba70bbf1	-0.0009183279
69	0x3d7602cf	0.060061272
70	0xbd3d9d6b	-0.046292704
71	0x3dc8a56d	0.097971775
72	0xbd6c3e0d	-0.057676364
73	0xbcc62c01	-0.024190905
74	0x3daff077	0.08590787
75	0x3b1567e1	0.0022797512
76	0x3da3de10	0.080013394
77	0xbceddde7	-0.029036475
78	0x3c81d361	0.015847864
79	0xbca2cf05	-0.019874105
80	0xbcc09183	-0.023506885
81	0x3ba58533	0.005051279
82	0x3db96680	0.090527534
83	0xbd84c264	-0.064823896
84	0x3d3a51ff	0.045488354
85	0x3dac95a3	0.084269784
86	0x3dadafa8	0.084807694
87	0xbd493bd2	-0.049129315
88	0x3dcf7054	0.10128847
89	0xba963303	-0.0011459294
90	0x3d75489f	0.05988371
91	0x3a9f4843	0.0012152273
92	0xbd69b21b	-0.05705462
93	0x3d2a3c0f	0.041561183
94	0x3dab8fe5	0.08377055
95	0x3c97cf1c	0.018531375
96	0xbd83b4ff	-0.06431007
97	0x3d3ffb5e	0.04687058
98	0x3da19fa4	0.07891777
99	0x3dc7273e	0.09724282
100	0x3da736bd	0.081647374
101	0x3caf8e84	0.021430261
102	0x3db71e60	0.089413404
103	0xbc88709d	-0.01665526
104	0xbd774201	-0.06036568
105	0x3c1d0405	0.009583478
106	0xbd677600	-0.056509018
107	0x3cc43645	0.023951659
108	0xbc921253	-0.017831003
109	0xbd835269	-0.06412203
110	0x3c935334	0.01798401
111	0xbcec8d97	-0.028876109
112	0x3d90dbe9	0.070731945
113	0xbca248bd	-0.019810075
114	0x3d20ee1a	0.03928957
115	0xbd12f9f9	-0.035882924
116	0x3bf22682	0.0073898444
117	0xbc6ba3b0	-0.014382288
118	0xbd6a6390	-0.057223856
119	0xbd9d0f16	-0.07668893
120	0xbc1b5c1f	-0.009482413
121	0x3cb816f4	0.022471882
122	0xbd749253	-0.05970986
123	0x3d4efc74	0.050533727
124	0x3db80a35	0.08986322
125	0xbd2b5975	-0.04183336
126	0xbc42eadb	-0.011896814
127	0xbd02923c	-0.03187774
128	0xbda319aa	-0.079638794
129	0xbe0557db	-0.13021795
130	0x3ccbb7d2	0.024867926
131	0xbdd70728	-0.10499412
132	0x3d5b55ec	0.05354874
133	0x3d634177	0.055482354
134	0x3da2e01d	0.079529025
135	0xbd2f7bb3	-0.04284258
136	0x3b816684	0.0039489884
137	0x3d8337f0	0.064071536
138	0xbd93ad4f	-0.0721079
139	0x3be8b526	0.0071016727
140	0xbd172a3f	-0.036905523
141	0xbcd8d811	-0.026470216
142	0xbdd172af	-0.10226952
143	0xbd3cd97c	-0.046105847
144	0xbdb57d27	-0.088617615
145	0xbdb17acc	-0.08666
146	0xbca1ebd7	-0.019765778
147	0xbdba82cd	-0.091069795
148	0xbdf690bf	-0.12039327
149	0xbcc43766	-0.023952197
150	0xbdf0c8b7	-0.11757033
151	0x3be27d5d	0.006911917
152	0xbc35687a	-0.011072272
153	0x3c79ec91	0.015254156
154	0xbdb3b426	-0.08774595
155	0xbd78968d	-0.06069045
156	0x3cd6aabf	0.026204465
157	0x3b83d111	0.0040227254
158	0xbc7d92f2	-0.015476929
159	0xbd996504	-0.0748997
160	0xbd99e83b	-0.075149976
161	0xbd7c1125	-0.061539788
162	0x3d1e8e8d	0.038710166
163	0xbd2bf77d	-0.04198407
164	0x3d922b91	0.07137216
165	0x3d1851d1	0.0371874
166	0x3d1b8296	0.037966333
167	0x3d9b67ad	0.07588134
168	0x3d002504	0.0312853
169	0xbd55b495	-0.05217417
170	0x3d6524fe	0.05594348
171	0x3d243e03	0.0400982
172	0x3a73b5f9	0.00092968304
173	0xbd791855	-0.06081422
174	0x3d10248d	0.035191108
175	0x3cae2fbb	0.021262994
176	0xbca1da4e	-0.019757416
177	0x3d39cd9d	0.045362104
178	0x3de48ca4	0.111596376
179	0x3de58b66	0.11208229
180	0x3d72ca01	0.059274677
181	0x3be2bcb2	0.006919467
182	0x3d86ec73	0.06588068
183	0x3d86dd7f	0.06585216
184	0x3db892d5	0.09012381
185	0x3d6e1457	0.058124866
186	0xbc9051a7	-0.01761706
187	0x3d251ba1	0.040309552
188	0xbdb92b68	-0.09041482
189	0xbda36b12	-0.079794064
190	0xbdf4e8e2	-0.11958481
191	0xbe13329b	-0.14374773
192	0xbccef420	-0.025262892
193	0xbd908a9d	-0.070576884
194	0xbdb0d803	-0.08634951
195	0xbcdc62af	-0.026902525
196	0xbd913463	-0.0709007
197	0x3cf2d163	0.029640859
198	0xb9cc4e09	-0.00038968053
199	0xbbcd292e	-0.0062610125
200	0xbd866b24	-0.06563404
201	0x3c0383e4	0.008027051
202	0x3cd0b508	0.025476947
203	0xbc954dee	-0.018225636
204	0xbbe08e5a	-0.006852907
205	0x3d90f2aa	0.070775345
206	0x3c6b8594	0.014375109
207	0x3d81916c	0.06326565
208	0x3cdd913c	0.027046792
209	0xbc026af4	-0.00796007
210	0x3da05ca8	0.07830173
211	0xbd2fcc10	-0.04291922
212	0xbd18e37c	-0.03732632
213	0xbc8761ec	-0.016526185
214	0xbda34ee2	-0.0797403
215	0xbd7a0986	-0.06104424
216	0x3d00789d	0.031365026
217	0xbd138e27	-0.03602424
218	0x3d6abb57	0.057307567
219	0x3cecf0d7	0.028923435
220	0xbd6dac5e	-0.05802571
221	0xbd434457	-0.047672596
222	0x3aa5e74b	0.0012657432
223	0xbd519701	-0.0511694
224	0x3d3052d4	0.04304774
225	0xbd2a567b	-0.04158638
226	0xbc8c2d9b	-0.01711159
227	0x3c1ecd2a	0.00969247
228	0xbaf24b08	-0.0018485496
229	0xbc20f877	-0.009824864
230	0xbd174641	-0.036932234
231	0x3d2ee455	0.042698223
232	0xbda875f9	-0.082256265
233	0xbb9f1ec5	-0.004855963
234	0x3d6d41c9	0.057924066
235	0xbc171993	-0.009222406
236	0x3d210076	0.03930708
237	0x3c87dfc6	0.016586196
238	0x3cad8438	0.02118121
239	0xbd9eed2d	-0.077600814
240	0xbc7c97b1	-0.015417025
241	0xbd8ff688	-0.07029444
242	0xbdab79d8	-0.08372849
243	0xbcddc102	-0.027069572
244	0xbd2e9de4	-0.042631045
245	0x3c58d96a	0.013235429
246	0x3c929600	0.017893791
247	0x3cba4583	0.022738224
248	0xbd862b82	-0.06551267
249	0xbdb0f458	-0.08640355
250	0xbb735806	-0.0037131323
251	0x3cb572ec	0.022149526
252	0xbd7901be	-0.060792677
253	0x3d26b1ac	0.040696785
254	0xbda079b5	-0.07835714
255	0xbd09bc8e	-0.033627085

encoder_hidden_layer.bias f4 [128]
0	0x3b3109c9	0.002701389
1	0xbb403614	-0.0029329108
2	0x3d5e1ad5	0.054224808
3	0xbcf70947	-0.030155791
4	0xbd8e680d	-0.0695344
5	0xbd1f3117	-0.038865175
6	0x3e067bd5	0.13133176
7	0xbca35157	-0.019936247
8	0xbc94a027	-0.018142773
9	0xbc8d3370	-0.017236441
10	0xbc03d6be	-0.008046804
11	0xbd99fe76	-0.07519238
12	0x3d4893d9	0.048969124
13	0x3d208acf	0.03919488
14	0xbd991f8c	-0.0747672
15	0x3d55df5b	0.05221496
16	0x3e0a2535	0.13490756
17	0x3d3892fc	0.04506205
18	0xbcc94cf3	-0.024572825
19	0x3ca7c688	0.02048041
20	0x3d8a47af	0.06751954
21	0x3d97730a	0.07394989
22	0x3da0f925	0.078600205
23	0x3d31dd8d	0.043424178
24	0xbc9c593d	-0.01908552
25	0x3dc59d01	0.09649087
26	0x3d1e0167	0.038575556
27	0x3d90e615	0.07075135
28	0x3e6432da	0.22285023
29	0xbd021d0c	-0.031765983
30	0x3d3a7535	0.045521934
31	0xbcf8fcf3	-0.030394053
32	0x3d81a62e	0.063305244
33	0xbc87763d	-0.016535873
34	0x3c5cf92a	0.01348714
35	0x3bea72ef	0.0071548144
36	0x3d37e96f	0.044900354
37	0x3d601322	0.054705746
38	0x3e0a53fe	0.13508603
39	0x3e0fa731	0.14028622
40	0xbd032207	-0.032014873
41	0x3cd05295	0.025430003
42	0xbc822f95	-0.01589183
43	0x3cd92c1d	0.026510293
44	0x3cfe7630	0.031062216
45	0x3ca8c14f	0.02059999
46	0x3dda4c3f	0.10659074
47	0xbce51b4b	-0.027967116
48	0x3d8ac341	0.06775523
49	0x3cfa53f9	0.03055762
50	0x3c7cd164	0.015430782
51	0x3d0d706b	0.03453104
52	0x3da5f98d	0.08104239
53	0x3dd32a77	0.10310834
54	0x3d72adf0	0.05924791
55	0x3d9c8a99	0.07643623
56	0x3d358a09	0.044321094
57	0x3e37526e	0.17902538
58	0x3d6a7bb3	0.057246875
59	0xbcba304b	-0.022728106
60	0xbd9bc58f	-0.07606041
61	0x3d8bcf02	0.06826593
62	0x3ca4b441	0.020105483
63	0x3d13f301	0.03612042
64	0x3cbd1904	0.023083217
65	0x3d8e75a0	0.06956029
66	0xbd727565	-0.059193987
67	0x3c52841d	0.012848881
68	0x3dd29370	0.10282028
69	0x3d06143d	0.032734144
70	0x3e1774c0	0.1479063
71	0x3d4b0b96	0.049571596
72	0xbd872065	-0.06597976
73	0x3dd66be8	0.104698
74	0x3c7334ca	0.014844129
75	0x3b43227a	0.0029775188
76	0xbb1508fc	-0.002274095
77	0x3b6025d5	0.0034202237
78	0x3dcaaf9a	0.098967746
79	0x3c8ec7a4	0.01742918
80	0x3cfda07d	0.030960316
81	0x3dace668	0.08442384
82	0x3dcc5c46	0.09978537
83	0xbcee0e19	-0.029059457
84	0x3d0a9cdc	0.033841
85	0x3e37ee64	0.17962033
86	0xbcfa210d	-0.030533338
87	0x3e3bc8b2	0.18338278
88	0x3d921cf3	0.07134428
89	0xbc75d7df	-0.015005081
90	0x3da4193b	0.08012625
91	0xbd0a6061	-0.03378332
92	0x3d9b3838	0.07579082
93	0x3d9b6da9	0.075892754
94	0x3ddcc37e	0.10779475
95	0xbc48d3bc	-0.012257513
96	0x3de0f1cb	0.10983618
97	0x3c95640b	0.01823618
98	0x3d9e5b36	0.07732241
99	0x3e3352e9	0.17512096
100	0x3da427bf	0.080153935
101	0x3cbc0d5b	0.022955587
102	0x3d3b1e52	0.045683213
103	0xbd8f19bc	-0.0698733
104	0xbd18b854	-0.037285164
105	0x3e0125a4	0.12612015
106	0xbd671e1c	-0.0564252
107	0x3da66aa4	0.08125809
108	0x3db039c6	0.086047694
109	0xbcc0998e	-0.02351072
110	0x3d2e3c6c	0.04253809
111	0x3cf566f6	0.029956322
112	0x3d4fa0eb	0.050690573
113	0x3d8bcab2	0.068257704
114	0x3de7e3b7	0.1132273
115	0xbd9e5a3d	-0.07732055
116	0xbcebba8e	-0.02877548
117	0x3dee84d2	0.11646427
118	0xbc480c02	-0.012209894
119	0x3daa612b	0.083193146
120	0x3db569a5	0.08858041
121	0x3c9a87a5	0.018863508
122	0x3d7c3de5	0.061582465
123	0x3cf9621b	0.030442288
124	0x3d770191	0.06030423
125	0xbc2dd899	-0.010610723
126	0x3e0afe5b	0.13573591
127	0x3da7496e	0.081683025

encoder_output_layer.weight f4 [128, 128]
0	0xbd1e8a6d	-0.03870623
1	0x3cc69fcc	0.024246119
2	0xbda8ae07	-0.08236318
3	0x3cecb423	0.02889449
4	0x3d442c06	0.047893547
5	0x3ca71e6e	0.020400252
6	0x3dac387f	0.08409213
7	0x3d89987c	0.06718537
8	0xbdb4d3ae	-0.08829437
9	0xbd1fbf96	-0.03900107
10	0xbc26bbbc	-0.010176595
11	0xbd8b1f1c	-0.06793043
12	0x3da0ad30	0.07845533
13	0x3c20c24e	0.009811951
14	0xbda7e2cb	-0.08197554
15	0x3ca353b0	0.019937366
16	0x3dc613d2	0.09671749
17	0xbce627c5	-0.028095135
18	0x3d8b18d0	0.06791842
19	0x3d1afd96	0.037839495
20	0x3d932025	0.071838655
21	0xbd33da7d	-0.04390954
22	0xbcec69b3	-0.028858995
23	0x3d6fea27	0.058572914
24	0xbd8820e9	-0.06646902
25	0x3ddd2b7a	0.10799308
26	0xbcb12560	-0.021624267
27	0xbcdafacb	-0.026730916
28	0xbc9c58cc	-0.01908531
29	0xbcbfb203	-0.023400312
30	0x3d003f6a	0.031310476
31	0xbb93dd2d	-0.00451245
32	0xbdd268e4	-0.102739125
33	0xbd57592d	-0.05257528
34	0x3c52281a	0.012826944
35	0x3d9b75e4	0.07590845
36	0x3da8bd41	0.08239222
37	0x3cb34e53	0.021887934
38	0x3dd1dcb2	0.102471724
39	0x3be2f8e4	0.0069266427
40	0x3d81efe5	0.063445844
41	0xbc0c9d33	-0.008582401
42	0xbc2f3da5	-0.01069585
43	0x3d9b54de	0.075845465
44	0x3d9133c5	0.070899524
45	0x3cfacf08	0.030616298
46	0x3c8fcb60	0.017553031
47	0xbd2f911c	-0.042862996
48	0x3dc2bce5	0.09508685
49	0x3ce3e86d	0.02782079
50	0xbcc63836	-0.024196725
51	0x3d7e6947	0.06211212
52	0x3b7957c8	0.0038046706
53	0x3d31171e	0.043234937
54	0x3d79a553	0.06094868
55	0x3c087e08	0.008330829
56	0xbdcc88b2	-0.0998701
57	0xbd618b86	-0.0550647
58	0xbd2ddacf	-0.042445
59	0xbcf72b3b	-0.030171981
60	0xbc8a1235	-0.016854385
61	0x3d87c63e	0.066296086
62	0x3d3692fb	0.044573765
63	0x3d639358	0.05556044
64	0x3d18ec0e	0.037334494
65	0xbb7151cf	-0.0036822443
66	0x3d793095	0.060837347
67	0x3daf14b8	0.08548874
68	0x3d9bfa71	0.07616127
69	0x3d1b834f	0.037967023
70	0x3ce42113	0.027847802
71	0x3c9a96d4	0.018870749
72	0xbd69bc01	-0.05706406
73	0xbcb6d26d	-0.022317136
74	0x3ccaf477	0.024774773
75	0x3d61d847	0.0551379
76	0x3d34d0bc	0.044144377
77	0xbd8a5a93	-0.06755557
78	0xbd7479dc	-0.059686527
79	0x3c88d2e3	0.016702121
80	0x3d866b3a	0.065634206
81	0xbd1b5e4e	-0.037931733
82	0x3d292fd1	0.041305367
83	0x3d47068a	0.04859022
84	0x3cfa8cdd	0.030584747
85	0x3d71f000	0.059066772
86	0xb94b39bb	-0.00019381095
87	0xbd0466aa	-0.03232447
88	0xbdac40ec	-0.0841082
89	0xbd616406	-0.05502703
90	0x3d312d57	0.04325613
91	0xbd409eef	-0.04702657
92	0xbd025d8b	-0.03182749
93	0xbd8d376c	-0.068953365
94	0xbb6dcb68	-0.003628457
95	0x3de42ca5	0.11141328
96	0xbd70bbc7	-0.05877283
97	0x3dfd115d	0.123568274
98	0xbcd0d04a	-0.025489945
99	0xbc7b1a7e	-0.01532614
100	0x3d3b5bb5	0.045741756
101	0x3ca7d194	0.020485677
102	0xbb979c0c	-0.0046267565
103	0x3d6d4900	0.057930946
104	0x3db235c4	0.08701661
105	0x3d079699	0.033102605
106	0x3cccb9fd	0.02499103
107	0x3d3961e5	0.045259375
108	0xbd639166	-0.055558585
109	0x3d9ad067	0.07559281
110	0x3d629f55	0.055327732
111	0xbd9ffca3	-0.078118585
112	0xbb5c6493	-0.0033629283
113	0x3d5aa705	0.05338194
114	0x3d9cc0be	0.0765395
115	0x3d23bec7	0.03997686
116	0xbcb7ffea	-0.022460897
117	0xbd5694b6	-0.052387916
118	0xbd8e1981	-0.06938458
119	0x3d58f322	0.052966245
120	0xbcf2f5ca	-0.029658217
121	0xbd198d1c	-0.037488088
122	0xbcc21662	-0.023692314
123	0x3db07aa1	0.086171396
124	0xbd2ae9d7	-0.041726913
125	0xbd706077	-0.058685746
126	0x3c73d220	0.014881641
127	0x3cf4fcad	0.029905641
128	0xbd035ebc	-0.032072768
129	0x3d123434	0.035694316
130	0x3d07142d	0.032978225
131	0xbcf504ee	-0.029909577
132	0x3d56d404	0.052448288
133	0xbc78eae2	-0.015192719
134	0x3c95d7bf	0.018291352
135	0x3cc42c94	0.023947038
136	0x3d9d9ca2	0.07695891
137	0x3d24a778	0.040198773
138	0x3d574647	0.052557256
139	0x3c4f4a5d	0.012652007
140	0xbe25303a	-0.16131678
141	0xbc089cc8	-0.008338161
142	0x3ca817c9	0.020519154
143	0x3ddf0448	0.108894885
144	0xbde6bf96	-0.11267011
145	0xbc02d14b	-0.00798447
146	0xbcc601dd	-0.02417081
147	0x3c20a0e0	0.009803981
148	0xbd29cbab	-0.041454
149	0x3c998207	0.01873876
150	0xbabe52f9	-0.0014520577
151	0x3d912729	0.07087547
152	0x3b81c5fe	0.00396037
153	0x3de445db	0.111461364
154	0x3e0c4788	0.13699162
155	0xbac7305b	-0.0015196906
156	0x3d00c9ee	0.031442575
157	0x3d18d560	0.037312865
158	0x3e240012	0.16015652
159	0x3cb21e97	0.021743102
160	0xbc4d520a	-0.012531767
161	0x3da958f8	0.082689226
162	0x3e5e232f	0.21693109
163	0xbd49c5b9	-0.04926083
164	0x3d41d922	0.047326215
165	0x3dd5003e	0.10400437
166	0x3e0a41b9	0.13501634
167	0x3da1696c	0.07881436
168	0xbc7ffd0e	-0.015624298
169	0x3cd12114	0.025528468
170	0x3db8ce84	0.09023765
171	0xbd6dfda1	-0.058103207
172	0x3cdd3b73	0.027005887
173	0x3c9d902c	0.019233786
174	0x3c7c3270	0.015392885
175	0xbd069c12	-0.032863684
176	0x3b9c0ba7	0.0047621313
177	0xbd309f87	-0.043120887
178	0xbcc80f7a	-0.024421442
179	0xbd0ccfcc	-0.034377858
180	0xbd3d6335	-0.04623719
181	0x3e06cafe	0.13163373
182	0xbaf205e4	-0.001846489
183	0x3bdbcc59	0.0067077097
184	0xbbc9a052	-0.006153145
185	0x3d45e5e0	0.04831493
186	0x3d853a6e	0.06505285
187	0xbd0c6ef2	-0.034285493
188	0xbd77cd4f	-0.060498532
189	0x3d16382e	0.03667467
190	0xbc8889fe	-0.016667362
191	0x3d2d3897	0.042290296
192	0x3cabdb0d	0.020978475
193	0x3d88f83e	0.066879734
194	0xbb28c21d	-0.0025750466
195	0x3d3bcfcb	0.045852464
196	0xbe06e346	-0.13172635
197	0xbc5d6727	-0.013513363
198	0x3b729a62	0.003701829
199	0xbd200cf4	-0.039074853
200	0xbb78aea8	-0.00379459
201	0xbcf9bd96	-0.03048591
202	0x3d6636dc	0.05620466
203	0x3ba3f0c8	0.0050030686
204	0xbb9d53ee	-0.004801265
205	0x3d79572b	0.060874145
206	0x3dc0ee11	0.094204076
207	0x3d127b57	0.035762157
208	0xbd351616	-0.044210516
209	0xbce53c59	-0.027982878
210	0xbde8a428	-0.11359435
211	0xbcc39f32	-0.023879621
212	0x3ca256d7	0.0198168
213	0x3dba5547	0.090982966
214	0x3d8306c2	0.06397773
215	0x3d090771	0.033454362
216	0x3c955031	0.018226715
217	0x3a56593f	0.0008176751
218	0x3c37cd59	0.011218392
219	0x3c519b0c	0.012793314
220	0x3d33986a	0.043846525
221	0xbcf87db3	-0.030333376
222	0xbdd6f747	-0.10496383
223	0x3df9fa97	0.12205999
224	0x3d4f615d	0.050629962
225	0xbc06d55c	-0.00822958
226	0xbc937c5c	-0.018003635
227	0x3dbe365a	0.092877105
228	0x3d1a315f	0.03764474
229	0x3d5aacef	0.05338758
230	0x3cec154d	0.02881875
231	0x3c2ff5a0	0.010739714
232	0x3d6310dd	0.055436004
233	0xbccc433a	-0.0249344
234	0x3d397764	0.045279875
235	0x3c86c0d8	0.016449377
236	0xbc8673dd	-0.01641267
237	0xbca9808f	-0.020691184
238	0x3c16966b	0.009191136
239	0xbcb8e858	-0.022571728
240	0xbd4dd1a2	-0.05024875
241	0xbd92a894	-0.0716106
242	0x3c84bc1c	0.016202979
243	0x3ddc8ee2	0.1076944
244	0x3d34600b	0.044036906
245	0x397465ea	0.00023307619
246	0xbce76729	-0.028247433
247	0xbc8948ed	-0.016758407
248	0xbd6306e6	-0.0554265
249	0x3ceb62ae	0.028733578
250	0xbdc54ea0	-0.09634137
251	0x3c0cf452	0.008603172
252	0xbd387482	-0.045032986
253	0xbb8a9d69	-0.0042301905
254	0x3dac42cf	0.0841118
255	0xbd4dc7a6	-0.050239228

encoder_output_layer.bias f4 [128]
0	0x3db9a593	0.09064784
1	0x3c71d2d0	0.014759734
2	0xbd817155	-0.063204445
3	0x3d4ee70e	0.05051332
4	0x3c8e7288	0.017388597
5	0x3d7ed262	0.062212355
6	0xbcdc5e88	-0.026900545
7	0xbb67ecdd	-0.0035388984
8	0x3d4fa3e4	0.050693408
9	0x3d8a8d59	0.06765241
10	0x3c2d0487	0.010560161
11	0xbc97eb28	-0.018544748
12	0x3d7a502e	0.06111162
13	0x3c2ca4bd	0.010537324
14	0x3d23ba76	0.039972745
15	0x3d89c5d9	0.067271896
16	0x3d0e90f2	0.0348062
17	0x3d4f239e	0.050571077
18	0xbc8cd8e4	-0.017193265
19	0xbcf78171	-0.03021309
20	0x3dabfaf9	0.083974786
21	0xbd923cac	-0.071404785
22	0x3dbf8950	0.09352362
23	0x3c59556f	0.013264998
24	0x3b392512	0.0028250855
25	0xbce7e505	-0.028307447
26	0x3d15f5ab	0.03661124
27	0x3d3037bc	0.043021902
28	0x3da9d0bd	0.08291767
29	0xbb7fdbd2	-0.0039040935
30	0x3d9019e6	0.0703619
31	0xbc9095f6	-0.017649632
32	0x3cd9287e	0.026508566
33	0x3cd441e0	0.025910318
34	0x3dba8cdc	0.09108898
35	0xbd3f80ba	-0.046753623
36	0x3ba2612f	0.004955433
37	0xbd7eb936	-0.06218835
38	0xbb5f71d5	-0.0034094949
39	0x3d112b28	0.035441548
40	0x3dc0e356	0.09418361
41	0x3d59e476	0.053196393
42	0x3e1608f6	0.14651856
43	0x3d787769	0.060660753
44	0x3ca23817	0.019802136
45	0xbd15708a	-0.03648428
46	0xbd89a4f8	-0.067209184
47	0x3cdef0f5	0.027214507
48	0x3dba3b6b	0.09093364
49	0xbd1f77ff	-0.038932797
50	0x3d38aac9	0.04508475
51	0xbbb49f13	-0.005512127
52	0xbd5cfd1b	-0.053952318
53	0x3d31c294	0.043398455
54	0xbcabea8e	-0.020985868
55	0x3dbcd4ed	0.092203
56	0x3d6e026d	0.058107782
57	0x3cea6fa4	0.028617688
58	0x3d705990	0.058679163
59	0x3d147d75	0.036252458
60	0x3c18ce1f	0.009326487
61	0x3b080adc	0.0020758426
62	0x3d11f91e	0.035637967
63	0xbcbb7e95	-0.022887507
64	0x3d9cd33f	0.076574795
65	0x3d65aebd	0.056074847
66	0xbd0d0ac7	-0.034434106
67	0xbd659dfa	-0.05605886
68	0xbccf0e6a	-0.025275428
69	0x3d6536f1	0.0559606
70	0xbd96c3f6	-0.07361595
71	0x3d5be18b	0.05368189
72	0x3bce667c	0.006298838
73	0x3df376f0	0.1188792
74	0x3cff8a57	0.031193895
75	0xbd819814	-0.06327835
76	0xba127e80	-0.0005588308
77	0x3d81ee7d	0.06344316
78	0xbd56b786	-0.052421115
79	0xbd8190b6	-0.063264295
80	0xbd093e17	-0.03350648
81	0x3cdd3143	0.027001029
82	0xbb665066	-0.0035143136
83	0xbd83e532	-0.064402
84	0x3d086e14	0.033308104
85	0xbc59fd62	-0.01330504
86	0x3d6c261e	0.05765354
87	0xbca8cdf7	-0.020606024
88	0x3dc7db38	0.097586095
89	0xbcca512a	-0.024696905
90	0x3d928596	0.07154386
91	0xbc3e40bd	-0.0116121145
92	0x3d20f230	0.039293468
93	0xba8077a1	-0.0009801277
94	0x3d9562e3	0.07294252
95	0xbd70e9e5	-0.05881681
96	0x3d819ba0	0.06328511
97	0xbcc465ed	-0.023974383
98	0xbc0ad520	-0.0084736645
99	0xbd91d90f	-0.07121479
100	0x3c627ed2	0.013824182
101	0x3d7f76e2	0.062369235
102	0xbd572eaf	-0.052534755
103	0xbd151ac1	-0.036402468
104	0x3da70a4f	0.08156263
105	0xbd21a9be	-0.03946852
106	0x3dac01fe	0.083988175
107	0x3dc6f3ef	0.097144954
108	0xbcafe75f	-0.021472631
109	0xbc9d7bec	-0.01922413
110	0xbc95c371	-0.01828167
111	0x3d61ffdc	0.055175647
112	0x3d128cee	0.035778932
113	0xbd10994e	-0.035302453
114	0xbd2430b9	-0.040085528
115	0x3d9db85d	0.0770118
116	0x3cbac86f	0.022800652
117	0x3d738a06	0.0594578
118	0x3d895d37	0.067072324
119	0x3c707b99	0.0146779055
120	0xbd451836	-0.048118792
121	0x3cf60c10	0.030035049
122	0xbd41aded	-0.04728501
123	0x3dcc9ab9	0.099904485
124	0xb8451bba	-4.6994282e-05
125	0xbb74fc93	-0.0037381991
126	0x3ad59484	0.0016294871
127	0x3de40b56	0.11134975

decoder_hidden_layer.weight f4 [128, 128]
0	0xbdb3dca5	-0.08782319
1	0xbc443f5e	-0.011977999
2	0x3c223ae8	0.00990174
3	0x3c9305a0	0.017947018
4	0x3ddc67b9	0.10761971
5	0x37edffd7	2.8371736e-05
6	0xbcbcfc64	-0.023069568
7	0xbc18ad50	-0.009318665
8	0x3cd2558c	0.025675558
9	0xbc32bcfb	-0.010909314
10	0x3ced02cb	0.028931996
11	0xbd241232	-0.040056415
12	0xbc94392d	-0.01809367
13	0x3d75c9d8	0.060006946
14	0x3cdd248c	0.026994966
15	0xbbc1bff0	-0.0059127733
16	0xbd63d73a	-0.055625178
17	0x3d1c9857	0.03823122
18	0xbdc1c81f	-0.09461998
19	0xbd7cc0ba	-0.061707236
20	0x3d9a9b85	0.07549194
21	0xbcb2bc52	-0.021818314
22	0x3c2929c9	0.010324904
23	0x3cfa9ad1	0.0305914
24	0x3cbc50f9	0.02298783
25	0xbd288199	-0.04113922
26	0x3b254011	0.0025215189
27	0xbdd312cc	-0.103063196
28	0x3c764cb1	0.015032933
29	0xbc42383f	-0.01185423
30	0xbd1e1bcd	-0.03860073
31	0x3da2a6b4	0.07941952
32	0x3d09f087	0.03367665
33	0x3d134bd1	0.035960976
34	0xbd8908b3	-0.06691112
35	0x3d74414e	0.059632592
36	0xbd7d9386	-0.061908267
37	0xbc9bb173	-0.019005513
38	0xbc803270	-0.01564905
39	0x3d8b912a	0.06814797
40	0x3dac32c2	0.08408119
41	0x3d0f605f	0.035004016
42	0xba3219db	-0.0006794014
43	0xbdcc8270	-0.099858165
44	0x3d97f553	0.07419839
45	0xbcf99241	-0.030465247
46	0x3dd1d8b4	0.10246411
47	0xbde9cde6	-0.11416225
48	0x3d945068	0.07241899
49	0xbd5633e6	-0.052295588
50	0x3d457fdf	0.04821765
51	0x3cd7ba9d	0.026334101
52	0x3c98afad	0.018638456
53	0xbd88da27	-0.06682234
54	0xbd5d8da7	-0.05409017
55	0x3d4e5685	0.05037548
56	0x3d4b5e30	0.04965037
57	0x3d802a27	0.0625804
58	0x3d619e14	0.055082396
59	0x3d376d61	0.044782046
60	0xbd8a9a16	-0.06767671
61	0xbd08b8db	-0.033379417
62	0x3d8cf43d	0.06882522
63	0x3cc312d5	0.02381269
64	0x3a306145	0.00067283615
65	0x3cb53e9e	0.022124585
66	0x3cd73e89	0.026274936
67	0x3d9bba57	0.07603901
68	0x3cd7da2f	0.026349155
69	0xbcfd6075	-0.030929783
70	0xbcd5c9ed	-0.026097262
71	0xbc33e667	-0.010980225
72	0x3d7cc081	0.061707024
73	0x3d7d6d96	0.061872087
74	0xbd90c6c5	-0.07069162
75	0x3c7c5c56	0.015402874
76	0xbc888a99	-0.016667651
77	0xbc39baf7	-0.01133608
78	0xbcadc14d	-0.021210337
79	0x3cb1f121	0.021721425
80	0x3cf309f0	0.029667825
81	0xbc05adbb	-0.008159096
82	0x3dd5ae14	0.104335934
83	0x3d260f5c	0.04054199
84	0x3d7519e1	0.059839133
85	0xbcecdee5	-0.028914878
86	0xbd396c51	-0.045269314
87	0xbdb70c35	-0.08937875
88	0x3d9583bf	0.07300519
89	0x3d82efc1	0.06393386
90	0xbcbc05a7	-0.022951914
91	0x3cda799d	0.026669318
92	0x3a91ab3c	0.0011113654
93	0xbd7f0455	-0.06225999
94	0xbdc50749	-0.0962053
95	0xbd02039c	-0.031741723
96	0xbc5e2c4d	-0.013560367
97	0x3b60e1b4	0.0034314217
98	0xbd279e32	-0.04092235
99	0xbc09915e	-0.008396475
100	0xbcc105d4	-0.02356235
101	0x3cb52d7f	0.02211642
102	0xbb082f7a	-0.0020780251
103	0xbb2316fd	-0.0024885528
104	0x3c3c9c02	0.011511805
105	0x3d62c9c6	0.055368207
106	0x3d44a4c5	0.0480087
107	0xbd4c1fbd	-0.049834955
108	0xbd962427	-0.07331114
109	0x3c2bd641	0.010488094
110	0xbceb8f37	-0.028754814
111	0x3a861935	0.0010230901
112	0xbd83dccd	-0.06438599
113	0x3d62be66	0.05535736
114	0x3d599ef3	0.0531301
115	0x3ca0990a	0.019604225
116	0x3c2f19c2	0.0106872935
117	0x3b99154b	0.004671728
118	0x3c87baed	0.016568625
119	0x3b851dc0	0.0040623844
120	0x3dd34b64	0.10317114
121	0x3c28b846	0.01029784
122	0x3d45e7b6	0.04831668
123	0xbd6af019	-0.05735788
124	0x3d9abb30	0.075552344
125	0xbd84021f	-0.06445717
126	0x3ad31db4	0.0016106875
127	0x3b817802	0.0039510736
128	0x3b54a40e	0.0032446417
129	0x3d4eb49d	0.050465215
130	0x3c349264	0.01102123
131	0xbd9be985	-0.076129
132	0xbcc05ea6	-0.023482632
133	0x3d4c26d5	0.04984172
134	0xbbf42499	-0.007450652
135	0x3d9f757c	0.0778608
136	0x3c08d6b4	0.00835197
137	0xbd97538e	-0.07388984
138	0x3d7ee827	0.062233116
139	0x3d0c991a	0.034325697
140	0xbd22bdd7	-0.039731827
141	0x3d81a50f	0.063303106
142	0x3d99195f	0.07475542
143	0xbd059a1b	-0.03261767
144	0x3d635bc1	0.055507425
145	0xbc7663dd	-0.015038458
146	0x3d8c1304	0.068395644
147	0x3d27452d	0.040837456
148	0x3bad711b	0.0052930242
149	0xbadfd338	-0.0017076498
150	0xbb2f2dad	-0.0026730106
151	0x3c7cb890	0.0154248625
152	0x3d83d1cd	0.06436501
153	0xbc8bbe96	-0.017058652
154	0xbb818cdd	-0.00395356
155	0xbc849cf9	-0.016188132
156	0xbb9132cf	-0.0044311057
157	0x3d1406d8	0.03613934
158	0x3db00f2d	0.085966446
159	0x3d0c03c3	0.034183275
160	0xbd936d2d	-0.07198558
161	0xbd0d67da	-0.03452287
162	0x3bca7b0d	0.0061792196
163	0xbdab9f3a	-0.083799794
164	0x3d47c456	0.048771225
165	0xbc1b6c0a	-0.009486208
166	0xbd1293c3	-0.035785448
167	0x3c734cb6	0.014849832
168	0x3d50b11f	0.050950166
169	0xbd1d2da6	-0.038373612
170	0xbdea86e2	-0.11451508
171	0x3c8c45c8	0.017123118
172	0x3d7b6270	0.061373174
173	0x3da87080	0.08224583
174	0xbd2b5ffb	-0.04183958
175	0xbd089e2b	-0.033353966
176	0xbd9d03a4	-0.0766671
177	0xbcc910ac	-0.024544083
178	0xbcf25800	-0.029582977
179	0xbda77824	-0.08177212
180	0x3d504a7f	0.050852295
181	0x3d7cf444	0.061756387
182	0xbc110239	-0.008850628
183	0xbd2299f2	-0.039697595
184	0x3c13e0dd	0.00902578
185	0x3daa1bc5	0.08306078
186	0x3d832eef	0.06405436
187	0xbd8c55b5	-0.06852285
188	0xbc04a2fa	-0.008095497
189	0x3d967c92	0.07347979
190	0xbd31bc16	-0.043392263
191	0x3d8c563c	0.068523854
192	0x3d455431	0.048175994
193	0x3d9f66bc	0.07783267
194	0x3acbc8b4	0.0015547485
195	0x3daad261	0.08340908
196	0xbd8745c1	-0.066051014
197	0x3c0b0a8c	0.008486401
198	0xbc4d287a	-0.012521857
199	0xbd2f0701	-0.04273129
200	0x3d9d2de2	0.07674767
201	0x3c3e1b9a	0.01160326
202	0x3d5afa8b	0.053461593
203	0x3daaf449	0.08347375
204	0xba24dd9d	-0.00062891265
205	0x3d0f43a4	0.034976617
206	0xbd7b082f	-0.0612871
207	0x3d74987b	0.05971573
208	0x3cd58833	0.026065921
209	0x3c84bee8	0.016204312
210	0x3ccef8ec	0.02526518
211	0xbcdd49d0	-0.027012736
212	0x3da9159c	0.08256075
213	0xbcd3ad96	-0.025839608
214	0xbd0555b9	-0.032552455
215	0xbd8762a2	-0.066106096
216	0x3dbcab08	0.09212309
217	0xbdfab2dc	-0.12241146
218	0x3d8419be	0.064502224
219	0x3c9ccd38	0.019140825
220	0x3d1e8721	0.038703088
221	0xbd36d72e	-0.044638805
222	0xbd660b12	-0.0561629
223	0x3baa7686	0.0052021174
224	0xbce082a9	-0.027406054
225	0xbcf8f969	-0.030392366
226	0x3cfc0e66	0.030768584
227	0xbd985cf2	-0.07439603
228	0x3c9ec665	0.019381711
229	0xbd8a76f2	-0.06760968
230	0xbd6e8c3c	-0.058239207
231	0x3da35a10	0.079761624
232	0xbb28445a	-0.0025675506
233	0xbd2921b1	-0.041291896
234	0x3d09475a	0.03351531
235	0xbbd33ff3	-0.0064468323
236	0x3da7e684	0.08198264
237	0xbdb380ae	-0.08764778
238	0xbd189328	-0.037249714
239	0x3d4c4e8e	0.049879603
240	0x3da17f06	0.07885556
241	0x3cb48d6f	0.022040097
242	0x3d89adb0	0.067225814
243	0xbae752ca	-0.0017648574
244	0xbdc9bb72	-0.098502055
245	0x3d88d4d4	0.06681219
246	0xbd4d7819	-0.050163362
247	0x3d648820	0.05579388
248	0x3b0e30ff	0.0021696684
249	0xbc930d0b	-0.017950555
250	0xbd6de76e	-0.058082037
251	0x3cee2298	0.02906923
252	0x3d5cf6e7	0.053946402
253	0x3b971d78	0.0046116672
254	0xb828f73d	-4.028458e-05
255	0xbd807866	-0.06272964

decoder_hidden_layer.bias f4 [128]
0	0xbd9748b1	-0.07386912
1	0x3b0375a6	0.0020059138
2	0xbc8b498b	-0.017002841
3	0x3cfae7eb	0.030628165
4	0x3b915525	0.004435199
5	0x3b21de1d	0.002469904
6	0x3c3d6940	0.011560738
7	0x3d841173	0.06448641
8	0xbcf9e9d4	-0.030507006
9	0x3daff2d3	0.08591237
10	0x3d73832d	0.05945127
11	0xbdc6fa79	-0.097157426
12	0xbd870d4e	-0.065943345
13	0xbad6055f	-0.0016328505
14	0x3b1459fb	0.002263664
15	0xbc615fa7	-0.013755715
16	0xbd1d8b97	-0.0384632
17	0x3b471a21	0.0030380564
18	0xbd4bb090	-0.04972893
19	0xbcac25d9	-0.02101414
20	0x3ad18ef4	0.0015988038
21	0xbc51d4ad	-0.0128070535
22	0x3bf44736	0.007454778
23	0xbbbec451	-0.0058217426
24	0x3c985dec	0.018599473
25	0x3dd7de96	0.10540502
26	0xbd5e76a8	-0.05431238
27	0xbba5da65	-0.005061435
28	0x3ddf02a6	0.10889177
29	0x3dba34eb	0.090921246
30	0x3dd84985	0.10560898
31	0xbd73e829	-0.059547577
32	0x3c96dad9	0.018414902
33	0x3df70536	0.12061541
34	0x3d9e95b2	0.07743396
35	0x3dae612a	0.08514626
36	0xbd162e6b	-0.03666536
37	0x3d526b24	0.05137171
38	0x3ce0c48f	0.027437476
39	0x3da72d9c	0.08162996
40	0xbd735cfb	-0.059414845
41	0xbd938f79	-0.072050996
42	0x3d0f8c7d	0.03504609
43	0x3daff267	0.085911565
44	0x3bd6be30	0.006553434
45	0x3c7b681b	0.015344645
46	0x3ce000be	0.027344104
47	0xbd101c97	-0.035183515
48	0x3c98bdcd	0.018645192
49	0x3cd2403c	0.025665395
50	0x3b9d3fd3	0.004798868
51	0xbc9062f2	-0.017625306
52	0x3d71bfc9	0.05902079
53	0x3c13b8ab	0.009016196
54	0xbbeb4ed5	-0.0071810284
55	0x3b6c677b	0.0036072421
56	0x3dd75264	0.10513762
57	0x3d4951e6	0.04915037
58	0xbaac5771	-0.0013148618
59	0xbc7b7767	-0.015348292
60	0x3b0f9b12	0.0021912497
61	0x3daddcc6	0.08489375
62	0xbb0b2675	-0.002123264
63	0xbd7372f6	-0.059435807
64	0x3d22a478	0.03970763
65	0x3d1e2825	0.038612504
66	0x3db884f5	0.090097345
67	0x3d2e2bf7	0.042522397
68	0xbd6c64be	-0.057713263
69	0x3d222717	0.03958806
70	0xbd6c7704	-0.05773069
71	0x3d008a56	0.031381927
72	0x3d805d16	0.06267755
73	0xbd23ed2c	-0.040021107
74	0xbd068b21	-0.032847527
75	0x3d887429	0.06662781
76	0xbd6ab4dd	-0.05730139
77	0x3b970d32	0.0046097273
78	0x3d82de32	0.06390037
79	0xbc159e31	-0.009131954
80	0xbcb48003	-0.022033697
81	0xbbe1f8df	-0.006896123
82	0xbc423ebd	-0.011855778
83	0x3d619c2a	0.05508057
84	0x3d9fbc58	0.077995956
85	0xbd9bc991	-0.07606805
86	0x3cafeec7	0.021476163
87	0x3c0dc777	0.008653513
88	0xbcb73ff8	-0.02236937
89	0xbbff3e56	-0.0077894134
90	0xbd08dcd4	-0.033413723
91	0xbb852111	-0.0040627797
92	0xbd37c5be	-0.044866316
93	0x3d56d264	0.052446738
94	0x3d99410e	0.07483111
95	0x3d9a3dc6	0.075313136
96	0xbd65e6c6	-0.056128286
97	0xbabd6c05	-0.0014451748
98	0x3c963e7d	0.018340344
99	0xbd0b08a2	-0.03394378
100	0x3d7b2b51	0.061320607
101	0x3d4ae238	0.049532145
102	0x3c9d54f7	0.019205553
103	0xbd70220a	-0.058626212
104	0x3d302df2	0.043012567
105	0x3c7b3fa4	0.015334997
106	0x3bf40df8	0.0074479543
107	0xbd07a176	-0.033112966
108	0x3be661a6	0.0070306836
109	0xbd689ab0	-0.056788146
110	0xbcf4d278	-0.029885516
111	0xbced0164	-0.028931327
112	0xbd4d2115	-0.050080378
113	0xbd18d3ae	-0.03731125
114	0xbd317d34	-0.043332294
115	0xbd05c9cb	-0.032663148
116	0xbd91e6d0	-0.07124102
117	0xbd1dcb81	-0.038524155
118	0x3b914966	0.0044337986
119	0x3d1fae19	0.03898439
120	0x3d98dc4d	0.07463894
121	0xbd8caa7c	-0.06868455
122	0x3d929a37	0.071583204
123	0x3d0e07a2	0.034675248
124	0xbc28c792	-0.0103014875
125	0x3c12b99f	0.008955388
126	0xbd10ea28	-0.03537956
127	0x3d276d34	0.04087563

decoder_output_layer.weight f4 [128, 128]
0	0xb01ef9f3	-5.7835264e-10
1	0x3c2d951d	0.010594633
2	0xab1d5531	-5.589583e-13
3	0x3a3f239d	0.00072913786
4	0xb4d04c29	-3.8798433e-07
5	0x36dc9062	6.5733193e-06
6	0xb9dc745a	-0.0004204836
7	0xb74511f0	-1.1746291e-05
8	0xbaf2b465	-0.0018516897
9	0xbd697573	-0.056996774
10	0x3aa83a38	0.0012834733
11	0x3849bb39	4.80965e-05
12	0xb09ffec5	-1.1641182e-09
13	0xaf770d62	-2.2469274e-10
14	0xbae57d2e	-0.001750862
15	0xb9a7ccfb	-0.00032005445
16	0x3abd2415	0.0014430309
17	0x3ad5b387	0.0016304114
18	0xbaa52562	-0.0012599642
19	0xaa9b995b	-2.7639943e-13
20	0x3c686956	0.01418527
21	0x38e0e331	0.0001072347
22	0xb99300c1	-0.00028038587
23	0xb12de686	-2.530585e-09
24	0xbaea2f87	-0.0017866947
25	0x36cfdc23	6.194708e-06
26	0xb585bcf6	-9.964267e-07
27	0x39bd7143	0.00036133276
28	0x3c2bf0ee	0.010494454
29	0x389abe3d	7.378727e-05
30	0xb7a539da	-1.9696472e-05
31	0x2f268f29	1.5148473e-10
32	0xbc2782dd	-0.010224071
33	0xbd1882f4	-0.03723426
34	0x3af2ca76	0.0018523473
35	0xbd11253c	-0.0354359
36	0xba7d1fcd	-0.0009655923
37	0xbad6c28f	-0.0016384887
38	0xbc93d967	-0.018048001
39	0xba2d628c	-0.0006614111
40	0x38c68a51	9.467139e-05
41	0x31db76ec	6.3872587e-09
42	0xbb146733	-0.002264452
43	0x3ae24d7b	0.0017265523
44	0xb96b2563	-0.00022425274
45	0xbc4e0908	-0.012575395
46	0x3762f844	1.3528454e-05
47	0xbaa50a35	-0.0012591543
48	0x3990ae54	0.00027595705
49	0xbd3c870f	-0.04602724
50	0xbadf3d3f	-0.0017031803
51	0x39faa48f	0.00047806322
52	0x3a3f4fbe	0.0007297954
53	0xbbf3b0c6	-0.0074368445
54	0x2ad66966	3.808717e-13
55	0xb81e2831	-3.7707567e-05
56	0x3c27e126	0.010246551
57	0xb980a5f2	-0.000245377
58	0x3aae5515	0.0013300503
59	0x351b08e4	5.775494e-07
60	0xbbcb450a	-0.0062032985
61	0x3c97a0a1	0.018509211
62	0x3addabf8	0.0016912213
63	0x38b09f4e	8.422007e-05
64	0xbcbfcc68	-0.023412898
65	0xbcec61a8	-0.02885516
66	0xb81c1c87	-3.7219866e-05
67	0xbd5110ee	-0.051041536
68	0x291858e6	3.3827887e-14
69	0x3c6173a5	0.013760482
70	0x315d4255	3.2197438e-09
71	0xb145f626	-2.8807192e-09
72	0x3ac3210a	0.0014887166
73	0xb10967e7	-1.9995186e-09
74	0xb128b3ac	-2.454935e-09
75	0xbd37ed20	-0.044903874
76	0xb989510c	-0.0002619106
77	0xbbcb2bc1	-0.006200284
78	0xbd217df4	-0.03942676
79	0x3401a75e	1.2074949e-07
80	0xb72dd04b	-1.03601005e-05
81	0xb7d3e1cd	-2.5258307e-05
82	0x3af13603	0.0018402938
83	0xb9f76504	-0.00047186774
84	0xba392737	-0.00070630334
85	0xabb18040	-1.2612203e-12
86	0xbade7a18	-0.0016973643
87	0xbb519fb4	-0.003198606
88	0xbc229f36	-0.009925654
89	0xaee25b17	-1.0293471e-10
90	0x3aad1342	0.0013204592
91	0xb7cf8619	-2.4738767e-05
92	0xb8a974fe	-8.0803395e-05
93	0x386e22cc	5.677603e-05
94	0x3b108a93	0.0022055253
95	0x3b8f8942	0.004380376
96	0x39898c2c	0.00026235112
97	0xbb239b11	-0.0024964253
98	0xb24e7e93	-1.2019558e-08
99	0x3c0c8905	0.00857759
100	0xba32d3b8	-0.00068217097
101	0xbd551216	-0.0520192
102	0xbd05142a	-0.032489933
103	0xb21ec46a	-9.24147e-09
104	0xbc5a3608	-0.013318546
105	0x3b986887	0.0046511325
106	0xb996c911	-0.00028760036
107	0xb7346409	-1.0752127e-05
108	0xba3068a1	-0.0006729458
109	0xbd026f79	-0.03184459
110	0xb73c4d9f	-1.1223746e-05
111	0xb12e700a	-2.538402e-09
112	0xb7342f69	-1.0739875e-05
113	0x2b9a2cb3	1.0954765e-12
114	0x31586123	3.1487353e-09
115	0xb9221fae	-0.00015461326
116	0x3ab9aa15	0.0014165068
117	0xb89168a1	-6.9336274e-05
118	0x3324aac9	3.8339554e-08
119	0x3ae960a2	0.0017805288
120	0xbb7929f1	-0.0038019384
121	0xbcac6d8b	-0.021048328
122	0xbc925612	-0.017863307
123	0x30ab2400	1.2452119e-09
124	0x2902a2ee	2.9007118e-14
125	0x39a8ae83	0.00032173478
126	0xb02bebdd	-6.254462e-10
127	0xbad4ba32	-0.0016229807
128	0xbbc1dfc2	-0.0059165666
129	0x3cbf9555	0.023386637
130	0xbd04b6f7	-0.03240105
131	0x3ca320d6	0.019913118
132	0xbae5626f	-0.0017500649
133	0x3aaca311	0.0013171156
134	0xb55efd91	-8.307043e-07
135	0x3cc304c6	0.023805987
136	0xbc812d9a	-0.015768815
137	0xbd56871e	-0.05237495
138	0x3c6a24ec	0.014291029
139	0x3c3ebfaf	0.011642381
140	0x3cafed5f	0.021475492
141	0x3a3194ca	0.00067741855
142	0x3c970581	0.018435242
143	0xb79b43ce	-1.8509014e-05
144	0xb9760d40	-0.00023465324
145	0x3cf7d542	0.030253056
146	0x3c74db60	0.014944881
147	0x2d457414	1.1223928e-11
148	0x3b71ceec	0.0036897017
149	0x2aa70d91	2.9674573e-13
150	0x3ccac25c	0.02475088
151	0x3d08174d	0.033225346
152	0xbc8ef459	-0.017450498
153	0x3ccfabc2	0.025350455
154	0x3ba889b5	0.005143369
155	0xba6f051b	-0.0009117887
156	0x3c9c005a	0.019043136
157	0xbc86751c	-0.016413264
158	0xba3134f1	-0.0006759903
159	0xbcb6b23c	-0.022301786
160	0xbcfcadec	-0.030844651
161	0xbb870083	-0.004119934
162	0x3c809d42	0.015699986
163	0x3c96e3c3	0.018419152
164	0x3d459b67	0.048243906
165	0x3ca1da30	0.01975736
166	0xbc0f1d82	-0.008735063
167	0x3c99fd3e	0.018797513
168	0xbc5152d8	-0.012776099
169	0x3c46314d	0.012096715
170	0x3c8a5e29	0.016890602
171	0x3d0a67cd	0.0337904
172	0xbcd3f3ec	-0.025873147
173	0x3cb28243	0.02179063
174	0x3cb7a629	0.022418099
175	0xbc261f1a	-0.010139251
176	0xbd59f247	-0.05320957
177	0xbc289cae	-0.010291262
178	0xbd0b1e1a	-0.033964254
179	0x3c4b62ed	0.012413722
180	0x3c463aee	0.012099011
181	0xbd1ddb83	-0.03853942
182	0x3c0fa86b	0.008768181
183	0x3cfe4884	0.031040438
184	0xbbda81d9	-0.006668311
185	0x3b2460e2	0.002508216
186	0x3b051f1c	0.0020312732
187	0xbbd3885e	-0.006455465
188	0xbd23af4b	-0.039962094
189	0x3c85c05f	0.016327081
190	0xbba28cc3	-0.0049606278
191	0x3d05a4cb	0.032627862
192	0x3c3bf80b	0.011472712
193	0x3cb4398c	0.022000097
194	0x3c7bfae2	0.015379639
195	0x3be053d5	0.006845931
196	0xbbb6659a	-0.005566311
197	0x3cc73dab	0.024321398
198	0x3b1ab23c	0.002360477
199	0xbbfd8360	-0.0077366084
200	0x3c9c8185	0.019104728
201	0x3c96127f	0.018319366
202	0xbb883561	-0.004156754
203	0xbbf88bec	-0.0075850394
204	0x3d01cf68	0.03169194
205	0xbd5e01a6	-0.05420079
206	0xbb6c95fe	-0.0036100144
207	0xbb7765db	-0.003774992
208	0xbc575d54	-0.01314481
209	0xbce32882	-0.027729277
210	0xab1b6bcf	-5.5216677e-13
211	0x3ca6b97c	0.020352118
212	0x3c7f228b	0.0155722005
213	0xad5bd87c	-1.2496778e-11
214	0x364a5970	3.0152405e-06
215	0x3c987cdf	0.01861423
216	0x3cb1e663	0.021716302
217	0x3b0cbe37	0.0021475682
218	0x3c890147	0.016724242
219	0x3ae2317c	0.0017257179
220	0x3c0729bc	0.008249696
221	0x3cc81d07	0.024427904
222	0x3bfc2ddf	0.007695898
223	0xbbc45160	-0.005991146
224	0x3ced3fcb	0.028961083
225	0x3ca473f9	0.020074831
226	0xbc2d3eb1	-0.010574029
227	0x3c95e1a2	0.018296067
228	0xbbe2d3ba	-0.0069222124
229	0x3c014ae5	0.007891391
230	0xbc8fa881	-0.017536404
231	0xbc27f275	-0.010250677
232	0xbc1e7679	-0.009671801
233	0xbb5a8547	-0.00333436
234	0xbb8a9f14	-0.0042303894
235	0x3bc7cc32	0.00609734
236	0xbc6cd28c	-0.014454495
237	0xbd09e839	-0.03366873
238	0x3cb6a074	0.022293307
239	0x3c6fec83	0.014643791
240	0x3c859b22	0.016309325
241	0x3c7a2dfc	0.015269753
242	0x3c86c53d	0.016451472
243	0x3c3d177b	0.011541243
244	0x3c71ca53	0.0147577105
245	0x3ce55b02	0.027997497
246	0x3ab32a5a	0.0013669238
247	0xbc372837	-0.011179022
248	0xbbe4c01c	-0.006980909
249	0xbbdb7af3	-0.0066980063
250	0xbc12ee38	-0.008967929
251	0xbb6cbe59	-0.0036124198
252	0xbcd82956	-0.026386898
253	0x3c3df19f	0.0115932515
254	0xbb9bd1f2	-0.004755252
255	0x3cb8c927	0.022556854

decoder_output_layer.bias f4 [128]
0	0x3c73c89e	0.014879374
1	0x3be6c307	0.007042292
2	0x3c1bc832	0.0095081795
3	0xbc169d27	-0.0091927415
4	0xbd2d3847	-0.04229
5	0xbc4a39a5	-0.012342845
6	0xba9757df	-0.0011546573
7	0xbcfccdf6	-0.030859929
8	0x3d7c74c5	0.061634798
9	0x3da51d9f	0.080622904
10	0x3ca2fc02	0.019895557
11	0xbcfb32e7	-0.03066392
12	0x3d23d712	0.04000003
13	0x3dbec6c2	0.09315254
14	0x3c05e70a	0.00817276
15	0x3b0ce506	0.0021498813
16	0xbbdbeb7b	-0.006711421
17	0x3c5a7c24	0.0133352615
18	0x3d392376	0.045199834
19	0xbc343260	-0.010998338
20	0x3c632b6f	0.013865336
21	0x3d5e179d	0.054221738
22	0x3c978d2f	0.018499939
23	0xbc943c0f	-0.018095044
24	0xbd0d99ce	-0.034570508
25	0xbd561ed9	-0.052275512
26	0x3d7e8241	0.06213594
27	0x3b3214fc	0.0027173152
28	0x3ca7c2fe	0.020478722
29	0xbd18c100	-0.037293434
30	0x3cefe6c5	0.029284844
31	0x3c57eef2	0.013179528
32	0xbcb79ff7	-0.022415144
33	0x3d3d8a75	0.04627462
34	0x3c4a9ff0	0.012367234
35	0x3beef253	0.007292071
36	0x3d28c08b	0.04119925
37	0x3bf8d8c8	0.0075942017
38	0x3d6738b2	0.056450553
39	0xbc2f0272	-0.010681735
40	0xbd761995	-0.06008299
41	0x3d80047b	0.062508546
42	0xbd41d918	-0.047326177
43	0xbca402e7	-0.020020915
44	0xbd363eb3	-0.04449339
45	0x3d4b8a25	0.04969229
46	0xb8888958	-6.5105676e-05
47	0x3d976f2e	0.07394253
48	0x3ca03a36	0.019559007
49	0x3d9d5ecd	0.076840974
50	0x3c869875	0.016430119
51	0x3d56ad6c	0.05241148
52	0xbcb03564	-0.021509834
53	0xbd24f4b5	-0.040272433
54	0xbc781354	-0.015141327
55	0x3d31a494	0.043369845
56	0x3b96b15f	0.004598781
57	0xbca4bcf2	-0.020109627
58	0xbcff8e60	-0.03119582
59	0x3c83db80	0.016095877
60	0x3c9e330e	0.019311454
61	0xbc06a735	-0.008218576
62	0x3bbf2472	0.005833202
63	0x3ce0584f	0.027385859
64	0x3cc75c40	0.02433598
65	0xbbf9dadf	-0.0076249684
66	0x3c95fa7b	0.018307915
67	0xbd0a1a3e	-0.033716433
68	0x3c7edfb4	0.015556265
69	0xbc0a1941	-0.008428873
70	0xbc10405c	-0.008804407
71	0x3d6b03ab	0.057376545
72	0x3d227ac7	0.03966787
73	0x3cfa57d7	0.030559463
74	0x3d1f2f36	0.038863383
75	0xbd778a53	-0.06043465
76	0xbca0ff40	-0.019652963
77	0x3dab7223	0.08371379
78	0xbd5b55b0	-0.053548515
79	0xbcfa4173	-0.030548787
80	0x3d8a0c3c	0.06740615
81	0xbd45d7d6	-0.04830154
82	0xbd3569ad	-0.044290233
83	0x3c8b73c0	0.017022967
84	0x3cbf8c67	0.023382379
85	0xbbae0191	-0.0053102453
86	0xbc71aed4	-0.014751155
87	0x3d196778	0.03745219
88	0xbaac0a6c	-0.0013125665
89	0xbce67a45	-0.028134475
90	0x3d3a6a46	0.045511506
91	0xbc6709e2	-0.014101477
92	0x3be3ce3b	0.006952075
93	0xbd7e2861	-0.062050227
94	0xbcff7e58	-0.031188175
95	0x3d4b2d9c	0.049604043
96	0x3c4161cb	0.011803101
97	0x3d2f90a2	0.042862542
98	0x3ced1bb3	0.028943872
99	0x3d906f75	0.07052509
100	0x3c9a9f43	0.01887477
101	0x3d712155	0.05886968
102	0x3c4ac46b	0.012375931
103	0x3c9a989b	0.018871596
104	0xbbd4e581	-0.0064970856
105	0xbd033de6	-0.032041453
106	0xbcb25a9f	-0.021771727
107	0x3c96fc82	0.018430952
108	0x3c9dda01	0.019268991
109	0x3d923996	0.0713989
110	0xba09d43e	-0.0005257762
111	0x3d80143c	0.062538594
112	0xbd03ebee	-0.032207422
113	0x3c79e1f1	0.015251623
114	0x3cc12687	0.023577942
115	0x3c20e6b9	0.009820634
116	0x3b1bf646	0.0023797913
117	0x3d052e0f	0.032514628
118	0xbd55521b	-0.052080255
119	0xbc353da4	-0.01106206
120	0x3d40ebfc	0.047100052
121	0xbd21d2c8	-0.039507657
122	0x3ce8f8f5	0.028439024
123	0xbbab0394	-0.0052189324
124	0x3d39bec9	0.045347963
125	0xbd2f63e2	-0.042819865
126	0xbbee4b6d	-0.007272175
127	0x3d68cb57	0.056834545
