results/milestone/programming tutorials/GCP/params/AE/params9.pt (torch_old, 265742 bytes, 8 tensors)

encoder_hidden_layer.weight f4 [128, 128]
0.05988213 0.11540633 -0.05653719 -0.063068405 0.064105794 -0.003588673 -0.029275063 -0.06069339
0.034938246 -0.025403248 0.08696351 0.014663234 -0.06221309 0.038722508 -0.028500127 -0.041949198
-0.06846475 0.05099842 0.058918774 0.087817535 0.08988635 0.011703348 0.06731276 -0.0255277
-0.016851716 0.005971515 0.04784778 -0.030697273 0.058496576 -0.028652513 0.031997744 0.06397003
0.07780154 -0.049996316 0.036009826 0.101055115 0.04777828 0.0720742 0.069036156 0.09342031
0.0045362255 0.054595027 0.09267186 -0.03392646 0.02560293 -0.004410747 -0.040775277 -0.0055236155
0.08852907 -0.018137 -0.03598951 -0.010561015 -0.067489944 -0.019914644 -0.0070655737 0.017615559
0.0014625083 0.059117395 -0.032936014 0.007838986 -0.06093046 -0.055411045 -0.053833604 0.029177714
0.039887287 -0.07548252 -0.061674107 0.04390982 -0.004899159 0.057271764 -0.04544305 0.09798482
-0.057136074 -0.025343055 0.0836517 0.0020511046 0.07870989 -0.028320309 0.015778944 -0.020365162
-0.025329482 0.0022934305 0.08775907 -0.06413645 0.044569172 0.0833516 0.08433732 -0.046821028
0.101184756 -0.0033959579 0.05604301 -0.0013735639 -0.058785904 0.037823133 0.0778087 0.014580182
-0.06504759 0.045950394 0.07896631 0.098496884 0.083065294 0.023667285 0.09132178 -0.012816517
-0.055080816 0.013634377 -0.054030586 0.022245599 -0.0182694 -0.066472284 0.014136467 -0.032646127
0.0660228 -0.02247859 0.036104303 -0.038203456 0.0041943244 -0.01656135 -0.05887059 -0.078280665
-0.011153851 0.022016887 -0.056857273 0.05091291 0.08940724 -0.040552728 -0.013446859 -0.037490565
-0.067432396 -0.09041313 0.020181892 -0.08705644 0.0525017 0.060836516 0.072488256 0.0033034172
0.04090891 0.08953201 -0.022482233 0.0126373395 -0.028982833 -0.049881794 -0.123754 -0.063747644
-0.06065938 -0.10006239 -0.072064236 -0.11831759 -0.1182724 -0.0311429 -0.079965115 0.018219132
0.0063500884 0.015853744 -0.062527336 -0.051396303 -0.0038567104 -0.0053835725 0.013463289 -0.034355965
-0.009506588 0.027970325 0.10413092 0.045292176 0.12566288 0.07775322 0.07100649 0.08971824
0.04092666 -0.033085562 0.007188749 -0.008815671 -0.041726448 -0.08323583 -0.0047938153 -0.014790922
-0.046882402 0.032363314 0.10689347 0.1403883 0.11288944 0.033574935 0.0994464 0.10272838
0.09921511 0.0878296 0.025798086 -0.007262864 -0.106536925 -0.08899083 -0.15825206 -0.21481617
-0.05483842 0.01430801 -0.024462085 -0.02627066 -0.03456108 -0.013864368 -0.0658703 -0.054656696
-0.08030583 -0.011964631 0.018597608 0.022953834 0.037327886 0.0985252 0.04065522 0.028022543
-0.024977034 -0.036376636 0.047085043 -0.027048344 -0.05120836 -0.049320057 -0.085004844 -0.0647618
0.0019000266 -0.0652444 0.012695853 0.004301869 -0.046957314 -0.023119114 0.020732658 0.011248821
0.09218748 -0.0039763637 -0.017560905 -0.0069595175 -0.016776036 -0.010227091 -0.009782958 0.0484273
-0.0415241 0.026044108 0.06426715 -0.003996976 0.028143719 0.015409383 0.032137834 -0.034426708
0.01168441 -0.031300608 -0.042875018 -0.018687759 -0.051317938 -0.01657019 -0.02342186 -0.012685801
-0.061754115 -0.07748794 -0.0062839147 0.013160875 -0.04168601 0.026113465 -0.112070926 -0.08220523
00000000: f746 753d 275a ec3d 8a93 67bd 022a 81bd
00000010: e649 833d f12f 6bbb 42d2 efbc a299 78bd
00000020: 681b 0f3d 791a d0bc ed19 b23d 103e 703c
00000030: 27d3 7ebd 7e9b 1e3d 1979 e9bc ecd2 2bbd
00000040: 3f37 8cbd b8e3 503d d054 713d aed9 b33d
00000050: 5616 b83d 66bf 3f3c 46db 893d 781f d1bc
00000060: 9c0c 8abc b3ac c33b 09fc 433d d978 fbbc
00000070: 1b9a 6f3d adb8 eabc 1110 033d b802 833d
00000080: 6a56 9f3d f0c8 4cbd 0a7f 133d fcf5 ce3d
00000090: 28b3 433d a39b 933d d462 8d3d 2653 bf3d
000000a0: 9ea4 943b 099f 5f3d beca bd3d 79f6 0abd
000000b0: 3cbd d13c 0788 90bb fa03 27bd 72ff b4bb
000000c0: bb4e b53d 0c94 94bc bd69 13bd 1c08 2dbc
000000d0: 2b38 8abd 0924 a3bc 5486 e7bb 814e 903c
000000e0: a3b1 bf3a 1525 723d eae7 06bd 176f 003c
000000f0: 3892 79bd b1f6 62bd a080 5cbd 1a06 ef3c
00000100: da60 233d 9496 9abd fd9d 7cbd c9da 333d
00000110: 2089 a0bb cc95 6a3d 7e22 3abd 44ac c83d
00000120: 8407 6abd 3d9c cfbc 9551 ab3d d36b 063b
00000130: a732 a13d feff e7bc d842 813c d7d4 a6bc
00000140: c67f cfbc 614d 163b 07bb b33d f959 83bd
00000150: 2a8e 363d 3eb4 aa3d 0bb9 ac3d 68c7 3fbd
00000160: f439 cf3d b88e 5ebb 5b8d 653d 2809 b4ba
00000170: 7dc9 70bd 6eec 1a3d 2b5a 9f3d b7e1 6e3c
00000180: ac37 85bd 7b36 3c3d 17b9 a13d bcb8 c93d
00000190: 231e aa3d e5e1 c13c ea06 bb3d 5efc 51bc
000001a0: 6c9c 61bd b962 5f3c 2d4f 5dbd 673c b63c
000001b0: b5a9 95bc 9f22 88bd a49c 673c f2b7 05bd
000001c0: f636 873d 0525 b8bc 1be2 133d 3a7b 1cbd
000001d0: 8b70 893b abab 87bc 4a22 71bd 9d51 a0bd
000001e0: a4be 36bc c25c b43c 2ce3 68bd 0e8a 503d
000001f0: 251b b73d 9e1a 26bd 3750 5cbc b58f 19bd
00000200: ff19 8abd 852a b9bd 7f54 a53c a64a b2bd
00000210: 060c 573d b62f 793d b974 943d 257e 583b
00000220: 1a90 273d 8f5c b73d a92c b8bc d80c 4f3c
00000230: 686d edbc da50 4cbd bd72 fdbd 208e 82bd
00000240: f875 78bd 83ed ccbd 6a96 93bd 7e50 f2bd
00000250: cd38 f2bd 651f ffbc c0c4 a3bd 4a40 953c
00000260: 6714 d03b b6df 813c 550e 80bd ee84 52bd
00000270: ddc0 7cbb ae68 b0bb 2095 5c3c d7b8 0cbd
00000280: 85c1 1bbc 0622 e53c 9742 d53d 4a84 393d
00000290: c5ad 003e 153d 9f3d da6b 913d 32be b73d
000002a0: b7a2 273d ba84 07bd 998f eb3b 9b6f 10bc
000002b0: 5ae9 2abd 8c77 aabd 7015 9dbb a055 72bc
000002c0: c307 40bd 658f 043d f7ea da3d f3c1 0f3e
000002d0: 9432 e73d df85 093d 8eaa cb3d 4263 d23d
000002e0: 4b31 cb3d 01e0 b33d 8256 d33c 52fd edbb
000002f0: 0830 dabd d340 b6bd d40c 22be c5f8 5bbe
00000300: 409e 60bd 256c 6a3c b664 c8bc 9135 d7bc
00000310: eb8f 0dbd 6027 63bc 02e7 86bd b3df 5fbd
00000320: 6277 a4bd 4d07 44bc 035a 983c ae09 bc3c
00000330: 20e5 183d 94c7 c93d 1786 263d 888f e53c
00000340: a39c ccbc abff 14bd 3fdc 403d 7d94 ddbc
00000350: dbbf 51bd d403 4abd 0517 aebd d6a1 84bd
00000360: 500a f93a db9e 85bd 4402 503c b1f6 8c3b
00000370: 5056 40bd 4c64 bdbc 89d7 a93c fa4c 383c
00000380: cacc bc3d 284c 82bb e3db 8fbc aa0c e4bb
00000390: e66d 89bc 878f 27bc b348 20bc b45b 463d
000003a0: 2d15 2abd 745a d53c 7f9e 833d 11f9 82bb
000003b0: a88d e63c a377 7c3c f6a2 033d 0503 0dbd
000003c0: f86f 3f3c 1135 00bd b79d 2fbd 1217 99bc
000003d0: c232 52bd 35be 87bc 33df bfbc 1bd8 4fbc
000003e0: e2f1 7cbd ffb1 9ebd 4ce9 cdbb b6a0 573c
000003f0: f3be 2abd e8eb d53c 7185 e5bd 375b a8bd

encoder_hidden_layer.bias f4 [128]
0.00219652 0.13787305 0.06376165 -0.0316709 -0.06370873 -0.027393825 0.12984075 -0.0039170007
-0.012853384 -0.012290156 -0.008378943 -0.063400276 0.09669014 0.059387032 -0.0701066 0.07286843
0.171044 0.060843553 0.0062707188 0.050269574 0.07527772 0.07373937 0.14922091 0.07600469
-0.0007791184 0.24397072 0.050691284 0.07502853 0.26717886 0.042375587 0.06360296 -0.0060522514
0.09070163 -0.004861448 0.059473246 0.009290718 0.0767832 0.10870571 0.1628879 0.21937343
0.11591417 0.07380923 -0.012342766 0.047374822 0.09203308 0.03182672 0.21736836 -0.026836766
0.10736513 0.09875705 0.022033159 0.039980143 0.11701689 0.11528416 0.10957215 0.10514222
0.04327828 0.27460998 0.05715518 -0.006703719 0.2156002 0.07051482 0.023197379 0.036629997
0.10646692 0.069438726 -0.04901406 0.019967325 0.21971036 0.15012343 0.22518156 0.056417532
-0.06626547 0.12923166 0.030299762 0.07000777 0.020074869 0.021778874 0.13365407 0.03598024
0.044672728 0.087019205 0.12924817 -0.02983951 0.03400149 0.19446036 -0.021022901 0.20832638
0.07519513 0.081521966 0.100061804 0.009504056 0.088227585 0.080262326 0.12368996 0.006722146
0.13428128 0.020177737 0.082156986 0.22360466 0.07586398 0.024854412 0.104299895 -0.061163686
0.02643756 0.1375567 -0.019234784 0.09308811 0.085122414 0.08067612 0.095370926 0.04124394
0.05007727 0.07519173 0.25221866 -0.06463305 -0.026641978 0.16591002 0.025609907 0.08254535
0.11036122 0.017376395 0.084856 0.074868225 0.06078307 0.0013006292 0.13310786 0.08802451
00000000: 7ef3 0f3b 982e 0d3e 7895 823d 58b9 01bd
00000010: b979 82bd 0469 e0bc f9f4 043e 2f5a 80bb
00000020: 0097 52bc a75c 49bc d647 09bc 01d8 81bd
00000030: 7b05 c63d d13f 733d 0d94 8fbd 0b3c 953d
00000040: 2926 2f3e 1737 793d 9a7a cd3b 78e7 4d3d
00000050: 352b 9a3d ab04 973d 5ecd 183e 59a8 9b3d
00000060: c03d 4cba 76d3 793e aaa1 4f3d 8fa8 993d
00000070: abcb 883e 0692 2d3d 4542 823d f751 c6bb
00000080: c7c1 b93d c84c 9fbb 389a 733d 1838 183c
00000090: 8340 9d3d 19a1 de3d 16cc 263e 6ea3 603e
000000a0: 6964 ed3d 4b29 973d 5039 4abc 1a0c 423d
000000b0: d77b bc3d bc5c 023d d095 5e3e c7d8 dbbc
000000c0: 40e2 db3d 2341 ca3d e27e b43c 38c2 233d
000000d0: 8da6 ef3d 1a1a ec3d 5d67 e03d ce54 d73d
000000e0: 9144 313d ae99 8c3e 8d1b 6a3d dfaa dbbb
000000f0: 4dc6 5c3e 136a 903d 6e08 be3c 5609 163d
00000100: 540b da3d e435 8e3d f8c2 48bd 8492 a33c
00000110: c1fb 603e f5b9 193e ff95 663e 1216 673d
00000120: 31b6 87bd 4e55 043e 3537 f83c 3c60 8f3d
00000130: 0d74 a43c 9c69 b23c 9ddc 083e 0460 133d
00000140: c0fa 363d 2037 b23d a259 043e fd71 f4bc
00000150: 2545 0b3d 9e20 473e 3838 acbc 8353 553e
00000160: e8ff 993d fdf4 a63d 34ed cc3d e6b6 1b3c
00000170: aab0 b43d 9360 a43d 2951 fd3d 7345 dc3b
00000180: 0881 093e c84b a53c ec41 a83d 9ff8 643e
00000190: 935e 9b3d 7b9b cb3c 2f9b d53d c686 7abd
000001a0: 9593 d83c aadb 0c3e 4492 9dbc fba4 be3d
000001b0: a954 ae3d 8639 a53d d551 c33d 68ef 283d
000001c0: d31d 4d3d 1ffe 993d ce22 813e 555e 84bd
000001d0: 4740 dabc 51e4 293e decb d13c 890d a93d
000001e0: 1005 e23d f158 8e3c fcc8 ad3d 8354 993d
000001f0: abf7 783d e079 aa3a 6d4d 083e 3246 b43d

encoder_output_layer.weight f4 [128, 128]
-0.0387307 0.009585219 -0.07943618 0.029764641 0.049419463 0.018829405 0.10684216 0.06573836
-0.08495284 -0.035542075 -0.006051715 -0.06680625 0.05506186 0.01385171 -0.07797569 0.027290434
0.072441384 -0.022648487 0.0025302381 0.056078177 0.073270924 -0.041244566 -0.030412853 0.029461233
-0.070139624 0.17210303 -0.017762985 -0.01933394 -0.013513703 -0.0040277047 0.04976081 0.000521954
-0.098375455 -0.04609407 0.033580467 0.07994941 0.07640212 0.01706242 0.096365586 0.04577524
0.1044534 -0.02636231 -0.005375243 0.0782525 0.081575245 0.030325647 -0.018633435 -0.03643549
0.09350523 0.03605539 -0.018341148 0.059619013 -0.005098604 0.04334302 0.045455884 0.014514715
-0.10465717 -0.10533716 -0.03977045 -0.028304037 0.052349754 0.074452445 0.04603623 0.061075777
0.008549314 -0.0018680103 0.05868432 0.08833274 0.11164864 0.059846524 0.01327746 0.037657708
-0.05610637 -0.023063093 0.026531365 0.06117288 0.034226663 -0.06495277 -0.0606868 0.019318677
0.065365985 -0.037301082 0.046513837 0.047201622 0.03170504 0.0664573 0.0011180725 -0.041221496
-0.08053474 -0.05762698 0.043383103 -0.003358327 -0.028401552 -0.06440478 -0.003187885 0.101543866
-0.0611155 0.10243865 -0.026637908 -0.016896596 0.049768463 0.014707942 0.018618064 0.056754675
0.062890686 0.030560814 0.023954114 0.042743314 -0.053924598 0.043474603 0.07631356 -0.06962675
-0.00049302494 0.051854756 0.07706316 0.03758788 -0.019155646 -0.072419055 -0.06700338 0.05649098
-0.029365342 -0.035116248 -0.026157048 0.0918267 -0.03964823 -0.04928953 0.022830945 0.0324244
-0.040432867 0.06802257 0.029549455 -0.028001921 0.05258575 -0.020000972 0.07540426 0.029495982
0.07979315 0.040701378 0.056608103 0.012128115 -0.18808144 -0.03697912 0.021123238 0.094223544
-0.09720043 -0.020256422 0.010982813 -0.012675789 -0.03511112 0.014316655 0.009527519 0.04312453
0.054787796 0.098871276 0.13271071 0.0021291054 0.040031716 0.034139775 0.15954548 0.03510874
-0.009507861 0.077186055 0.22636884 -0.055562608 0.027085071 0.09355762 0.15200877 0.052515596
0.0148621285 -0.043514904 0.10190589 -0.057580568 -0.06459866 0.020860787 0.10359745 -0.043499004
0.00088607176 -0.054345258 -0.028465219 -0.040991884 -0.030166795 0.14251408 -0.01855286 0.00810373
-0.010253317 0.025237963 0.06374482 -0.034023803 0.043619797 0.038664125 -0.017991021 0.03711081
0.009947285 0.06625694 -0.00281628 0.05247973 -0.16598296 -0.08494297 0.050695576 -0.0039268434
-0.004974785 -0.022315854 0.061883 0.01966239 -0.03461312 0.06877035 0.07409855 0.046671424
-0.044878356 -0.026543954 -0.14157668 -0.024417806 0.018583762 0.10099475 0.034607477 0.028598491
0.018685315 -0.0076968092 0.011623746 0.0027744328 0.04271215 -0.030537562 -0.098723754 0.12174563
0.048754975 -0.032228734 -0.003473029 0.11071361 0.0415681 0.044238474 0.11135964 0.01122602
0.09262359 -0.022852631 0.046042275 0.029507697 -0.014709147 0.015520702 0.06719235 -0.018966058
-0.051633637 -0.06469857 0.081076026 0.109801136 0.047916707 0.0052675405 -0.02887691 -0.016601412
-0.048095755 0.02317393 -0.10902951 0.05691661 -0.045012016 -0.0015619247 0.083655946 -0.050860155
00000000: 15a4 1ebd 530b 1d3c 70af a2bd fad4 f33c
00000010: 106c 4a3d 2040 9a3c 10d0 da3d d5a1 863d
00000020: c1fb adbd 9194 11bd 774d c6bb b7d1 88bd
00000030: 8b88 613d 48f2 623c b8b1 9fbd 3090 df3c
00000040: 265c 943d 5289 b9bc 5ad2 253b 3bb2 653d
00000050: 110f 963d 10f0 28bd 6024 f9bc af58 f13c
00000060: 5da5 8fbd c73b 303e ae83 91bc 3662 9ebc
00000070: 9468 5dbc d6fa 83bb fed1 4b3d bdd3 083a
00000080: 1279 c9bd 23cd 3cbd ac8b 093d 84bc a33d
00000090: b778 9c3d 7dc6 8b3c 525b c53d d17e 3b3d
000000a0: aaeb d53d c5f5 d7bc ce22 b0bb d942 a03d
000000b0: ec10 a73d 7e6d f83c 25a5 98bc 613d 15bd
000000c0: ac7f bf3d d1ae 133d 2d40 96bc 1133 743d
000000d0: 3112 a7bb 7388 313d f32f 3a3d 21cf 6d3c
000000e0: 8056 d6bd 02bb d7bd 57e6 22bd dedd e7bc
000000f0: b26c 563d 867a 983d 7c90 3c3d 982a 7a3d
00000100: 6c12 0c3c 06d8 f4ba f85e 703d cce7 b43d
00000110: 0ba8 e43d a121 753d b489 593c f83e 1a3d
00000120: cbcf 65bd d0ee bcbc 4e58 d93c 6a90 7a3d
00000130: 4231 0c3d f505 85bd b992 78bd 3442 9e3c
00000140: 9ade 853d 05c9 18bd 4b85 3e3d 7d56 413d
00000150: 25dd 013d c41a 883d 4a8c 923a dfd7 28bd
00000160: 66ef a4bd 450a 6cbd 7bb2 313d 6117 5cbb
00000170: 5faa e8bc a7e6 83bd d6eb 50bb 3bf6 cf3d
00000180: 3f54 7abd 5bcb d13d be37 dabc bb6a 8abc
00000190: 04da 4b3d 94f9 703c e984 983c 9777 683d
000001a0: d5cc 803d ac5a fa3c 6b3b c43c 9d13 2f3d
000001b0: 0ae0 5cbd 6d12 323d 494a 9c3d 7898 8ebd
000001c0: 583e 01ba a765 543d 4ad3 9d3d c0f5 193d
000001d0: 4dec 9cbc 7150 94bd 1139 89bd 1663 673d
000001e0: 968f f0bc 0ed6 0fbd 4e47 d6bc a30f bc3d
000001f0: 2f66 22bd d1e3 49bd f607 bb3c 73cf 043d
00000200: ef9c 25bd 6b4f 8b3d b311 f23c 4964 e5bc
00000210: 2864 573d 14d9 a3bc 8c6d 9a3d 8fa1 f13c
00000220: 976a a33d 7db6 263d e6dd 673d 00b5 463c
00000230: 6c98 40be 6b77 17bd a40a ad3c 46f8 c03d
00000240: 0511 c7bd ccf0 a5bc 42f1 333c 1dae 4fbc
00000250: aed0 0fbd 6790 6a3c 5019 1c3c 59a3 303d
00000260: 2b69 603d 067d ca3d 51e5 073e 7688 0b3b
00000270: 4cf8 233d 26d6 0b3d e45f 233e 2fce 0f3d
00000280: dcc6 1bbc b913 9e3d 3ccd 673e 9e95 63bd
00000290: 83e1 dd3c 239b bf3d 30a8 1b3e 981a 573d
000002a0: 4980 733c af3c 32bd 09b4 d03d 9ad9 6bbd
000002b0: 4d4c 84bd 3ee4 aa3c e62a d43d 032c 32bd
000002c0: 4547 683a 2299 5ebd e42f e9bc 1be7 27bd
000002d0: 5b20 f7bc 36ef 113e 2bfc 97bc 82c5 043c
000002e0: 87fd 27bc d8bf ce3c a58c 823d 8b5c 0bbd
000002f0: acaa 323d 465e 1e3d e861 93bc 8101 183d
00000300: f0f9 223c b8b1 873d 5691 38bb fcf4 563d
00000310: 70f7 29be 94f6 adbd 2aa6 4f3d c0ac 80bb
00000320: 8503 a3bb bdcf b6bc 0779 7d3d 0513 a13c
00000330: 7dc6 0dbd 78d7 8c3d fbc0 973d 892a 3f3d
00000340: 5ed2 37bd b572 d9bc 7af9 10be da07 c8bc
00000350: f93c 983c 56d6 ce3d 92c0 0d3d 6247 ea3c
00000360: f211 993c 8435 fcbb 8671 3e3c 42d3 353b
00000370: eff2 2e3d e929 fabc ae2f cabd c655 f93d
00000380: 4cb3 473d 4702 04bd c29b 63bb d1bd e23d
00000390: 5043 2a3d 6733 353d 8610 e43d 57ed 373c
000003a0: 70b1 bd3d 7135 bbbc d396 3c3d 20ba f13c
000003b0: a2fe 70bc 8b4a 7e3c 259c 893d b55e 9bbc
000003c0: cb7d 53bd af80 84bd 300b a63d 6bdf e03d
000003d0: 4f44 443d 559b ac3b 458f ecbc afff 87bc
000003e0: 0e00 45bd 41d7 bd3c dd4a dfbd 6421 693d
000003f0: 855e 38bd 7fb9 ccba cf53 ab3d bd52 50bd

encoder_output_layer.bias f4 [128]
0.09825166 0.022773521 -0.060597397 0.057509914 0.017249534 0.061947614 0.014758802 -0.0059675407
0.055307336 0.061306085 0.018300937 -0.018468207 0.07688774 0.012002201 0.0424319 0.05696223
0.04534153 0.045127586 -0.017291714 -0.027115498 0.08738136 -0.07475779 0.09840799 0.018036364
0.00245005 -0.012497892 0.036079634 0.03941452 0.09571078 -0.005571898 0.07690023 -0.011316817
0.032061953 0.030284716 0.09058252 -0.045267668 0.0056740064 -0.062855706 0.00043229669 0.03381489
0.095872834 0.055585943 0.14774485 0.06511869 0.0183376 -0.02289636 -0.071978085 0.03148225
0.0884406 -0.018952128 0.041347906 -0.0037708199 -0.05258386 0.042416006 -0.010747766 0.085066676
0.064819746 0.026142413 0.05679405 0.034402333 0.019031314 0.0010966745 0.036845 -0.017508099
0.07537239 0.057129964 -0.024032595 -0.0538523 -0.030240143 0.06606443 -0.079351515 0.05446195
0.027848527 0.12380786 0.030268237 -0.060097776 0.00799231 0.05629737 -0.04556192 -0.061227888
-0.035587385 0.027173406 0.029530423 -0.06813888 0.034755144 -0.015230806 0.06138582 -0.018504258
0.109521575 -0.023079365 0.067521505 -0.007915394 0.083406724 0.03372884 0.072951615 -0.060158603
0.060498644 -0.014522102 -4.390538e-06 -0.066250004 0.033279035 0.06155849 -0.044462778 -0.032250892
0.08692865 -0.03745533 0.0815898 0.09980715 -0.02066867 -0.019625142 -0.02042664 0.05544666
0.041595835 -0.038061187 -0.04000584 0.093127735 0.027809467 0.05999918 0.07044467 0.021910198
-0.045091365 0.024754979 -0.042536847 0.101641275 -0.004538079 -0.0047959466 -1.2274376e-05 0.11340204
00000000: 2b38 c93d 898f ba3c fa34 78bd 848f 6b3d
00000010: e54e 8d3c c8bc 7d3d e7ce 713c 5c8b c3bb
00000020: f289 623d 171c 7b3d d9eb 953c a34a 97bc
00000030: 5277 9d3d e1a4 443c 12cd 2d3d 3a51 693d
00000040: 0ab8 393d b4d7 383d 5aa7 8dbc 5221 debc
00000050: 00f5 b23d 9d1a 99bd 218a c93d ffc0 933c
00000060: 0591 203b f5c3 4cbc 3dc8 133d 1f71 213d
00000070: 0304 c43d 7894 b6bb de7d 9d3d 2c6a 39bc
00000080: 6553 033d a717 f83c 5483 b93d 976a 39bd
00000090: 04ed b93b 7eba 80bd e1a5 e239 7b81 0a3d
000000a0: fa58 c43d 16ae 633d 6d4a 173e f35c 853d
000000b0: bc38 963c 2691 bbbc 3f69 93bd 88f3 003d
000000c0: 5820 b53d 7e41 9bbc 6c5c 293d dc1f 77bb
000000d0: 2c62 57bd 68bc 2d3d 6617 30bc 7037 ae3d
000000e0: 37c0 843d 9d28 d63c e1a0 683d 76e9 0c3d
000000f0: 8fe7 9b3c 4abe 8f3a c8ea 163d 256d 8fbc
00000100: d75c 9a3d 1c01 6a3d 01e0 c4bc 3b94 5cbd
00000110: 2dba f7bc ca4c 873d 0c83 a2bd 7e13 5f3d
00000120: 9822 e43c fa8e fd3d 18f5 f73c 1629 76bd
00000130: 2ef2 023c 1298 663d 239f 3abd 18ca 7abd
00000140: 14c4 11bd c39a de3c c9e9 f13c 668c 8bbd
00000150: 695b 0e3d a18a 79bc b36f 7b3d 3e96 97bc
00000160: d94c e03d f010 bdbc b748 8a3d 92af 01bc
00000170: 25d1 aa3d 4127 0a3d a867 953d de68 76bd
00000180: 6dcd 773d 1cee 6dbc 6f52 93b6 15ae 87bd
00000190: 994f 083d c124 7c3d 9a1e 36bd 8319 04bd
000001a0: a607 b23d c36a 19bd 8e18 a73d b167 cc3d
000001b0: 5851 a9bc e8c4 a0bc c555 a7bc 091c 633d
000001c0: 6560 2a3d 0ce6 1bbd 2add 23bd c1b9 be3d
000001d0: aed0 e33c b3c1 753d 4c45 903d 047d b33c
000001e0: b9b1 38bd f4ca ca3c 1e3b 2ebd 4d29 d03d
000001f0: 2ab4 94bb 5127 9dbb 0bee 4db7 543f e83d

decoder_hidden_layer.weight f4 [128, 128]
-0.07983739 -0.007654947 0.0037971456 0.023982545 0.118852496 -0.001337452 -0.07194135 -0.014024778
0.023635512 -0.012869118 0.029879097 -0.03758559 -0.012024087 0.06499286 0.028889313 0.010046403
-0.058925997 0.02249848 -0.09204887 -0.056462117 0.077614896 -0.024648922 0.007753369 0.027831092
0.01960824 -0.09377434 -0.003721484 -0.09980935 0.031705342 -0.01375758 -0.031996462 0.074581236
0.040436614 0.03589847 -0.06895129 0.07924124 -0.06401063 -0.018383529 -0.016755441 0.06690386
0.08507787 0.0050513293 -0.0018105534 -0.0957431 0.07712313 -0.030424794 0.1137213 -0.100674815
0.070440516 -0.04826474 0.047330666 0.029560314 0.017584242 -0.03938824 -0.059554905 0.08568946
0.052426282 0.063310005 0.055840362 0.043395855 -0.06541488 -0.03234489 0.07070811 0.02521529
-0.0026974834 0.01972696 0.037392974 0.07550002 0.023790015 -0.038442567 0.00018280203 0.00096218043
0.07735685 0.070043035 -0.07104295 0.015475988 -0.0072788647 -0.021610668 -0.022321291 0.02766844
0.031660672 -0.005824071 0.12280757 0.039517634 0.055392608 -0.024824347 -0.045960024 -0.08183627
0.07676345 0.06972371 -0.024479782 0.028316343 -0.0047472147 -0.02330457 -0.0979365 -0.032033622
-0.017066084 -0.0003857028 -0.038353257 -0.007788791 -0.0044840574 0.01843231 -0.009164602 0.003956537
0.008262131 0.052801676 0.047720682 -0.046857607 -0.07405908 0.009428739 -0.031424325 0.002884442
-0.065318406 0.05494023 0.050498456 0.01581883 0.009680376 0.005407373 0.011286791 0.005264327
0.112584025 0.01160833 0.049645316 -0.0634567 0.07411406 -0.06283862 3.7068109e-09 -0.0018119119
0.0137414485 0.047386024 0.036187813 -0.07900279 -0.022147212 0.048935484 0.008930491 0.07904887
0.0007663876 -0.06949739 0.07058228 0.03399095 -0.039761204 0.06275377 0.08003834 -0.04512874
0.051621147 0.015177184 0.06777702 0.037314586 0.007453757 -0.0005013464 0.007858859 0.017372152
0.06424129 -0.0487242 -0.0030655353 -0.012455447 -0.012832468 0.037602127 0.08149547 0.032911543
-0.06771557 -0.03197806 0.011070961 -0.084707275 0.051868703 -0.0039729998 -0.03338611 0.0171471
0.051954854 -0.04003763 -0.10991468 0.02469348 0.06271526 0.0782033 -0.02694523 -0.02365257
-0.073815584 -0.01578618 -0.028238237 -0.075431526 0.052680064 0.0370179 -0.016000252 -0.014713488
0.009484866 0.08557137 0.06397841 -0.06416619 0.009642822 0.07217506 -0.043778475 0.07106141
0.048915386 0.079632536 0.004683156 0.083524436 -0.061713062 0.011113027 -0.00495904 -0.009043068
0.0473496 0.00668471 0.054371774 0.084965676 -0.0047499607 0.050004754 -0.06207376 0.056324385
0.025722086 0.020517569 0.024258394 -0.02166102 0.08986889 -0.0275299 -0.024775134 -0.0642406
0.093574524 -0.12478673 0.06997013 0.019033458 0.01803933 -0.029414082 -0.054840956 0.0074979896
-0.028384943 -0.029224215 0.036473155 -0.065946 0.0041340967 -0.06831839 -0.058087945 0.08284594
-0.0019149476 -0.03350682 0.03345091 -0.0061382623 0.084094174 -0.086425826 -0.035095166 0.050206408
0.08442478 0.018410241 0.06907609 -0.003744609 -0.09243136 0.0575149 -0.050230715 0.052774005
0.0034239101 -0.016749902 -0.051117655 0.035560735 0.051883895 0.009824175 -6.9651036e-09 -0.05150892
00000000: c981 a3bd 5ad6 fabb 88d9 783b 0b77 c43c
00000010: f068 f33d 714d afba fd55 93bd 2fc8 65bc
00000020: 439f c13c fed8 52bc 02c5 f43c 59f3 19bd
00000030: ad00 45bc fa1a 853d 48a9 ec3c ab99 243c
00000040: 635c 71bd bb4e b83c 1e84 bcbd d244 67bd
00000050: 8ff4 9e3d 89ec c9bc f90f fe3b 08fe e33c
00000060: 76a1 a03c c30c c0bd 24e4 73bb d868 ccbd
00000070: 76dd 013d 7967 61bc b90e 03bd 0cbe 983d
00000080: dda0 253d 460a 133d 5536 8dbd 3b49 a23d
00000090: 0118 83bd 0e99 96bc b542 89bc e404 893d
000000a0: 4e3d ae3d 9f85 a53b 1750 edba f514 c4bd
000000b0: bbf2 9d3d 6b3d f9bc b7e6 e83d 992e cebd
000000c0: 1e43 903d 3fb1 45bd cddd 413d 7928 f23c
000000d0: d40c 903c 9055 21bd d8ef 73bd f57d af3d
000000e0: f1bc 563d ada8 813d ddb8 643d dabf 313d
000000f0: 3df8 85bd 137c 04bd 6acf 903d 4c90 ce3c
00000100: 43c8 30bb 6f9a a13c 6029 193d c19f 9a3d
00000110: 47e3 c23c f475 1dbd 8cae 3f39 d63a 7c3a
00000120: 456d 9e3d b972 8f3d f77e 91bd 008f 7d3c
00000130: 8b83 eebb db08 b1bc 24db b6bc eda8 e23c
00000140: 9fae 013d d9d7 bebb 8982 fb3d 3edd 213d
00000150: 5ce3 623d 6e5c cbbc 9440 3cbd c699 a7bd
00000160: 2836 9d3d 4ecb 8e3d d389 c8bc adf7 e73c
00000170: 868e 9bbb 3ae9 bebc ef92 c8bd b035 03bd
00000180: 2cce 8bbc 2738 cab9 4e18 1dbd 1d39 ffbb
00000190: 00ef 92bb 5bff 963c 2027 16bc d7a5 813b
000001a0: e45d 073c 9246 583d c376 433d c3ed 3fbd
000001b0: 49ac 97bd ff7a 1a3c cbb6 00bd e808 3d3b
000001c0: a8c5 85bd 0209 613d 78d7 4e3d 7e96 813c
000001d0: 719a 1e3c 5530 b13b 3cec 383c 6080 ac3b
000001e0: 7492 e63d dd30 3e3c e358 4b3d 96f5 81bd
000001f0: 1dc9 973d 89b1 80bd e8ba 7e31 ad7d edba
00000200: d023 613c d917 423d ac39 143d 37cc a1bd
00000210: 126e b5bc 9370 483d 3251 123c 60e4 a13d
00000220: 67e7 483a a654 8ebd 718d 903d 183a 0b3d
00000230: a5dc 22bd 0c85 803d 24eb a33d ead8 38bd
00000240: b270 533d b9a9 783c aece 8a3d 2ed7 183d
00000250: a53e f43b ca6c 03ba 72c2 003c 0b50 8e3c
00000260: f090 833d 0793 47bd 26e7 48bb ee11 4cbc
00000270: 463f 52bc b004 1a3d 19e7 a63d 41ce 063d
00000280: 76ae 8abd 6dfb 02bd fa62 353c 027b adbd
00000290: 4774 543d f02f 82bb e0bf 08bd 1378 8c3c
000002a0: 9dce 543d 7ffe 23bd f31a e1bd fb49 ca3c
000002b0: dc70 803d 0d29 a03d 3ebc dcbc 09c3 c1bc
000002c0: a02c 97bd 0552 81bc e053 e7bc d87b 9abd
000002d0: 0dc7 573d 15a0 173d f612 83bc d710 71bc
000002e0: 6966 1b3c 0b40 af3d 1d07 833d 9069 83bd
000002f0: edfc 1d3c 85d0 933d 0f51 33bd a588 913d
00000300: 805b 483d 6216 a33d 2975 993b dc0e ab3d
00000310: d6c6 7cbd 6a13 363c 717f a2bb 6029 14bc
00000320: a7f1 413d 690b db3b f0b4 5e3d 7c02 ae3d
00000330: 8fa5 9bbb c9d1 4c3d 0e41 7ebd 66b4 663d
00000340: 20b7 d23c 7614 a83c 8ab9 c63c 7472 b1bc
00000350: 2e0d b83d 6386 e1bc 39f5 cabc 9390 83bd
00000360: 00a4 bf3d 2f90 ffbd 804c 8f3d 0eec 9b3c
00000370: 38c7 933c cdf5 f0bc e9a0 60bd b2b1 f53b
00000380: 8a87 e8bc 9f67 efbc e064 153d b20e 87bd
00000390: 5177 873b 83ea 8bbd a0ed 6dbd 22ab a93d
000003a0: fbfe faba 733e 09bd d203 093d 7a23 c9bb
000003b0: 9139 ac3d 0600 b1bd f3bf 0fbd 3ca5 4d3d
000003c0: e6e6 ac3d 13d1 963c c477 8d3d 1d68 75bb
000003d0: a74c bdbd be94 6b3d b9be 4dbd 8e29 583d
000003e0: ae63 603b 1737 89bc bf60 51bd 22a8 113d
000003f0: 3584 543d 94f5 203c b351 efb1 04fb 52bd

decoder_hidden_layer.bias f4 [128]
-0.073438615 0.0036833347 0.0018036138 0.027497642 0.009355033 0.003901964 -0.0055304887 0.061765518
-0.020118577 0.087771885 0.054205455 -0.10285607 -0.06639049 0.035221763 0.00084584975 0.005716443
-0.036988985 3.950947e-05 -0.050074354 -0.0004522524 0.0003224566 -0.0065793125 0.0077775116 -0.0062369127
0.013803631 0.10386398 -0.049794033 0.0073621534 0.11753748 0.09768043 0.11487521 -0.05875415
0.016185388 0.121111244 0.07588784 0.0836024 -0.03839102 0.049647205 0.016885264 0.081097804
-0.05601073 -0.074220136 0.032228928 0.08996395 0.0063093 0.01811519 0.022791326 -0.03208915
0.015830023 0.030168485 0.0015937489 -0.015281995 0.052699808 0.022270082 -0.004912098 0.0057033966
0.108673394 0.0354349 -0.0024057368 -0.027133122 -0.0025808306 0.07798199 0.0048368596 -0.06005675
0.03475733 0.03557716 0.088630386 0.04652037 -0.059734527 0.04944151 -0.05035505 0.032254916
0.057232045 -0.03734368 -0.045152202 0.06845216 -0.05118839 0.0051102987 0.06572073 0.01294361
-0.022705523 -0.009868518 -0.0024558078 0.055325784 0.06993474 -0.04419024 -0.00053966657 0.008118077
-0.025259055 -0.0053456374 -0.036002133 -0.016250564 -0.049610965 0.051580433 0.0738235 0.08138936
-0.054577198 -0.004353809 0.020730512 -0.03606071 0.06334462 0.045829587 0.022281887 -0.06516217
0.04965257 0.017373562 0.014398958 -0.029702893 0.0020876792 -0.047550913 -0.028684694 -0.023148894
-0.04765987 -0.039292853 -0.047271848 -0.000360167 -0.07453399 -0.040226225 0.008174242 0.033138618
0.07473006 -0.07211718 0.06852138 0.037148893 -0.05306857 0.007637859 -0.040422466 0.038742658
00000000: fc66 96bd 1a64 713b 3d67 ec3a bc42 e13c
00000010: da45 193c 18b8 7f3b 1a39 b5bb d7fd 7c3d
00000020: b7cf a4bc bfc1 b33d 8a06 5e3d 34a6 d2bd
00000030: bdf7 87bd b244 103d 04bc 5d3a 0051 bb3b
00000040: c381 17bd f8b6 2538 c41a 4dbd 4a1c edb9
00000050: 640f a939 4697 d7bb 7fda fe3b 045f ccbb
00000060: a028 623c a3b6 d43d d4f4 4bbd 383e f13b
00000070: 7eb7 f03d ad0c c83d b243 eb3d 31a8 70bd
00000080: 3897 843c 2c09 f83d 156b 9b3d bc37 ab3d
00000090: e73f 1dbd de5a 4b3d f752 8a3c 9b16 a63d
000000a0: 826b 65bd ba00 98bd 7b02 043d 053f b83d
000000b0: 3fbe ce3b 4f66 943c e0b4 ba3c ea6f 03bd
000000c0: f7ad 813c e623 f73c 57e5 d03a 5561 7abc
000000d0: c1db 573d bf6f b63c aaf5 a0bb 8fe3 ba3b
000000e0: 2890 de3d 3024 113d 91a9 1dbb 4846 debc
000000f0: 2723 29bb 06b5 9f3d 857e 9e3b 11fe 75bd
00000100: b45d 0e3d 5bb9 113d d983 b53d 258c 3e3d
00000110: 31ac 74bd 2e83 4a3d 1941 4ebd bb1d 043d
00000120: 266c 6a3d b0f5 18bd 84f1 38bd a530 8c3d
00000130: ebaa 51bd 4b74 a73b 9798 863d 6f11 543c
00000140: ef00 babc 91af 21bc 9ef1 20bb 4a9d 623d
00000150: f239 8f3d d300 35bd 6978 0dba af01 053c
00000160: 14ec cebc 752a afbb f976 13bd e71f 85bc
00000170: de34 4bbd 0146 533d c630 973d 77af a63d
00000180: 578c 5fbd 66aa 8ebb 09d3 a93c 65b4 13bd
00000190: d3ba 813d ceb7 3b3d 8188 b63c be73 85bd
000001a0: 7e60 4b3d 0053 8e3c 9be9 6b3c 7b53 f3bc
000001b0: 72d1 083b bfc4 42bd 2afc eabc c0a2 bdbc
000001c0: ff36 43bd 8bf1 20bd 20a0 41bd ccd4 bcb9
000001d0: 47a5 98bd 41c4 24bd 42ed 053c 5cbc 073d
000001e0: 130c 993d 2cb2 93bd f054 8c3d 7029 183d
000001f0: 6e5e 59bd 0147 fa3b 0792 25bd 9fb0 1e3d

decoder_output_layer.weight f4 [128, 128]
-0.07322242 0.047029793 -0.06188828 0.041634426 0.017612392 -0.022972455 -2.0223196e-14 0.034721725
-0.030389799 -0.026137205 0.013403522 0.00044567944 0.022346068 0.10654119 0.036583412 0.018348262
-0.0033063781 0.052788652 0.0027384614 8.3778085e-24 -0.0002704827 -3.374298e-15 0.008275738 0.05306172
-0.05342443 0.055156615 -0.0013347615 0.005562729 -0.0024624954 -0.027352978 -0.010893565 -0.053383764
-0.020174405 -0.01686642 0.027445938 0.054428868 0.07498112 0.025752312 -0.03943037 0.049035475
-0.008138298 -0.02258314 0.027388826 0.008251796 -0.008448914 0.03140631 0.043076944 -0.016840748
-0.032970518 -0.020272996 -0.0078619225 0.036017485 0.02642584 -0.045521583 -1.1544432e-23 0.08063603
-0.00089058495 0.002127726 -0.026324835 -0.007529002 -0.04531786 0.01746113 -0.011078866 0.02143294
-0.03605353 0.03410208 0.025200691 -0.010020588 -0.050908856 0.042028002 -0.012197752 -0.0069859233
0.02704161 0.011287344 -0.00046576193 -0.016791714 0.08300968 -0.045026015 -0.007029788 0.0051716054
-0.044376764 -0.0554101 -2.0562291e-13 0.03742142 0.009791729 3.82283e-23 -1.9929522e-13 0.018261768
0.017361933 3.1204884e-21 0.028713712 -0.03718936 -0.009958839 0.044070065 0.018140417 -0.015179465
0.08221683 0.03545533 -0.01374183 0.016001172 -0.011777911 -0.004652236 -0.013170188 -0.035213795
-0.012546271 -0.006968785 -0.015504185 -0.001341597 -0.026572324 -0.024237823 0.043475565 0.011211413
-0.018969782 0.0033987556 0.018616175 0.025099758 0.019528072 0.056623355 -0.021894004 -0.034250095
-0.0005226174 -0.017390668 -0.041522723 -0.037934583 -0.07243169 -0.00014028112 -0.00743793 0.04412038
-0.05672964 0.048602697 -0.046469036 0.0333289 0.023731463 -0.014290026 0.0075163054 0.036388837
-0.040171914 -0.05927527 0.011172144 0.030175416 0.047413755 0.12540613 0.034281287 0.07548964
0.0030694376 0.05626427 0.0055701765 0.0023793092 0.002605419 0.014673911 0.019656813 0.06036295
-0.055519555 0.04066059 0.0071032853 0.0045288973 0.01861864 -0.030802852 -0.008720903 -0.07071184
-0.046175174 -0.028304454 0.025216531 0.03862897 0.10516978 0.027177026 -0.034004275 0.052420318
-0.024062946 -0.011628753 0.026780654 0.037102647 -0.029879749 0.030360961 0.045057192 -0.0075989417
-0.07478282 -0.020538844 -0.035059284 0.029244967 0.016330043 -0.08166437 0.0072658304 0.07575495
0.00627092 -0.013149902 -0.013381806 -0.0031941358 -0.057569265 0.017020432 -0.002085916 0.045742556
-0.024806459 0.03652319 0.02372347 -0.0013838919 -0.04112576 0.058248334 -0.022822332 -0.0056359046
0.027078925 0.010241954 0.002620881 -0.022642482 0.06322591 -0.06694206 0.0044845287 0.026611932
-0.03567716 -0.060542867 -0.014254087 0.030543901 0.014446499 3.7878947e-22 -0.0011657315 0.020429824
0.019064708 0.002010599 0.02571608 -0.022744898 0.0008930523 0.035694465 0.006747816 -0.017654728
0.061445303 0.028569778 -0.025380474 0.013832925 -0.0025385304 -0.004805629 -0.02458446 -0.05172879
-0.011950226 -0.005884421 -0.011348616 -4.8983537e-05 -0.019900747 -0.064383335 0.033455584 0.011638828
0.0064755566 0.012627832 0.01817525 0.0725689 0.01685336 0.054095186 -0.023751043 -0.016570218
-0.005299121 -0.018598214 -0.032744903 -0.026552266 -0.104941525 0.004588741 -0.016801532 0.042064916
00000000: a3f5 95bd 50a2 403d 917e 7dbd dc88 2a3d
00000010: dd47 903c bb30 bcbc 8427 b6a8 5e38 0e3d
00000020: 07f4 f8bc b11d d6bc 729a 5b3c 15aa e939
00000030: 1a0f b73c 4432 da3d 7dd8 153d 184f 963c
00000040: d2af 58bb ea38 583d c277 333b e60c 2219
00000050: 93cf 8db9 d024 73a7 f696 073c 3f57 593d
00000060: 93d3 5abd e7eb 613d 2af3 aeba 8e47 b63b
00000070: d161 21bb 5a13 e0bc ec7a 32bc efa8 5abd
00000080: cb44 a5bc 722b 8abc 4ed6 e03c cef0 5e3d
00000090: b48f 993d 83f6 d23c bd81 21bd 6cd9 483d
000000a0: 7f56 05bc 4700 b9bc 885e e03c 8a32 073c
000000b0: 506d 0abc e7a3 003d 7371 303d 9cf5 89bc
000000c0: 180c 07bd 8e13 a6bc 4bcf 00bc 1287 133d
000000d0: 017b d83c d774 3abd 424d 5f99 8124 a53d
000000e0: 2576 69ba 5271 0b3b 2ea7 d7bc d9b5 f6bb
000000f0: 389f 39bd a50a 8f3c 2284 35bc 2294 af3c
00000100: deac 13bd 9fae 0b3d ae71 ce3c 642d 24bc
00000110: ce85 50bd 8e25 2c3d 14d9 47bc 2cea e4bb
00000120: 5e86 dd3c 8dee 383c 8231 f4b9 c78e 89bc
00000130: fb00 aa3d 336d 38bd 235a e6bb 9276 a93b
00000140: 69c4 35bd b3f5 62bd c582 67aa 3447 193d
00000150: 7d6d 203c 58dc 381a f062 60aa b499 953c
00000160: 9d3a 8e3c 06c7 6b1d 0539 eb3c df53 18bd
00000170: 662a 23bc d082 343d 369b 943c 4ab3 78bc
00000180: 4c61 a83d 9c39 113d 6a25 61bc e414 833c
00000190: 24f8 40bc c971 98bb c6c7 57bc 573c 10bd
000001a0: e08e 4dbc 685a e4bb 4405 7ebc 86d8 afba
000001b0: 34ae d9bc 668e c6bc 6f13 323d 13b0 373c
000001c0: 8466 9bbc a8bd 5e3b f380 983c 029e cd3c
000001d0: 56f9 9f3c e4ed 673d 0e5b b3bc d449 0cbd
000001e0: 4300 09ba e076 8ebc bb13 2abd 4b61 1bbd
000001f0: 1157 94bd 6d18 13b9 e1b9 f3bb 92b7 343d
00000200: 575d 68bd 9f13 473d 5156 3ebd e283 083d
00000210: 7c68 c23c b720 6abc 574b f63b 760c 153d
00000220: 4e8b 24bd a0ca 72bd 5e0b 373c 6f32 f73c
00000230: ed34 423d 776a 003e 896a 0c3d 509a 9a3d
00000240: 9e28 493b 5d75 663d 0786 b63b 2fee 1b3b
00000250: adbf 2a3b d86a 703c 5307 a13c 243f 773d
00000260: 7968 63bd b88b 263d adc2 e83b 2567 943b
00000270: 1e86 983c 4356 fcbc 1ee2 0ebc 5fd1 90bd
00000280: 2e22 3dbd bede e7bc e692 ce3c 6939 1e3d
00000290: 4163 d73d 5ba2 de3c 1148 0bbd b0b6 563d
000002a0: a81f c5bc 8686 3ebc 1a63 db3c f2f8 173d
000002b0: 60c6 f4bc 8db7 f83c e48d 383d 8b00 f9bb
000002c0: bc27 99bd 1441 a8bc 539a 0fbd 2493 ef3c
000002d0: 95c6 853c a63f a7bd 3416 ee3b 6925 9b3d
000002e0: 4a7c cd3b b072 57bc 5d3f 5bbc b554 51bb
000002f0: c0cd 6bbd 6f6e 8b3c ddb3 08bb 8c5c 3b3d
00000300: ea36 cbbc 5799 153d b957 c23c b563 b5ba
00000310: 7c73 28bd ce95 6e3d e6f5 babc 65ad b8bb
00000320: 9fd4 dd3c decd 273c 16c3 2b3b ba7c b9bc
00000330: 967c 813d eb18 89bd f4f2 923b 4401 da3c
00000340: 3722 12bd ccfb 77bd f989 69bc 3437 fa3c
00000350: 02b1 6c3c d5f6 e41b 75cb 98ba 725c a73c
00000360: 972d 9c3c 41c4 033b 87aa d23c 8253 babc
00000370: ba1b 6a3a 5c34 123d c91c dd3b a6a0 90bc
00000380: 12ae 7b3d 2b0b ea3c b6ea cfbc 7ea3 623c
00000390: 795d 26bb 8a78 9dbb 5965 c9bc 91e1 53bd
000003a0: e1ca 43bc 1ad2 c0bb 8cef 39bc ac73 4db8
000003b0: e406 a3bc 69db 83bd b908 093d c8b0 3e3c
000003c0: e830 d43b f7e4 4e3c 43e4 943c 019f 943d
000003d0: 0f10 8a3c ea92 5d3d 8c91 c2bc 44be 87bc
000003e0: 40a4 adbb 485b 98bc 851f 06bd 2384 d9bc
000003f0: 95eb d6bd 265d 963b 5ea3 89bc 434c 2c3d

decoder_output_layer.bias f4 [128]
0.008390625 0.010277612 0.01382332 -0.017038397 -0.05206714 -0.012537509 -0.00022783958 -0.032413848
0.0563983 0.06944138 0.015964381 -0.022071555 0.049303837 0.1001659 0.0027089538 -0.0023045242
-0.004483647 0.0074727037 0.015491544 -0.025661234 -0.0076046255 0.03325821 0.0036309892 -0.030052282
-0.035315957 -0.043497432 0.054120064 0.010583086 0.022986235 -0.024701327 0.023684915 0.0070297513
-0.029365612 0.0353624 0.0051305257 0.0059316037 0.032463107 7.531317e-05 0.0422624 -0.01346886
-0.05891991 0.055035464 -0.046446677 -0.012164899 -0.034027413 0.042665616 -0.0049285754 0.06840268
0.016248466 0.07503714 0.020588893 0.044788882 -0.020373708 -0.035994917 -0.029808028 0.03157456
-0.0079084085 -0.023847481 -0.0219155 0.012859654 0.007050048 -0.0002343572 0.004557074 0.024650032
0.012422647 -8.32414e-11 0.0038586052 -0.03574426 0.008068198 -0.0021394768 0.0014504812 0.056547493
0.04028574 0.0278221 0.033895575 -0.060030002 -0.01819327 0.073718645 -0.05012301 0.004528233
0.05293094 -0.05220923 -0.03168229 0.01744396 0.02108505 -0.0078072306 -0.02097385 0.028259795
-0.0011919823 -0.0330425 0.025123816 -0.0075603924 0.0010588665 -0.05700401 -0.025531683 0.03294283
-0.0051834043 0.036985468 0.025174057 0.07079487 0.024716226 0.06357404 0.018363314 0.027266594
0.013933855 -0.023720838 0.005809817 0.023861928 0.021238975 0.06380481 8.074275e-11 0.058457907
-0.019807622 -0.0065189176 0.013934113 0.011818502 -0.0020739005 0.024635391 -0.060594473 -0.02091782
0.032993827 -0.035399884 0.015600823 -0.0051896484 0.033922657 -0.049462557 -0.015108252 0.047845002
00000000: d578 093c 6e63 283c 357b 623c 1c94 8bbc
00000010: 5a44 55bd 206a 4dbc 39e8 6eb9 62c4 04bd
00000020: e701 673d 4837 8e3d bcc7 823c 68cf b4bc
00000030: d2f2 493d c823 cd3d b488 313b 8007 17bb
00000040: 8feb 92bb 95dd f43b 3fd0 7d3c 8237 d2bc
00000050: 3930 f9bb c339 083d e4f5 6d3b 3430 f6bc
00000060: 77a7 10bd 5d2a 32bd 00ad 5d3d ae64 2d3c
00000070: a14d bc3c 705a cabc de06 c23c d459 e63b
00000080: 2790 f0bc 2ad8 103d f81d a83b e65d c23b
00000090: 09f8 043d 73f1 9d38 571b 2d3d 7eac 5cbc
000000a0: 0156 71bd de6c 613d df3e 3ebd 494f 47bc
000000b0: 5460 0bbd 24c2 2e3d e37f a1bb b416 8c3d
000000c0: 811b 853c 12ad 993d 0aaa a83c 8c74 373d
000000d0: c3e6 a6bc 686f 13bd f72f f4bc 5354 013d
000000e0: 4592 01bc cb5b c3bc 2288 b3bc 4cb1 523c
000000f0: 1704 e73b c8bd 75b9 8253 953b ddee c93c
00000100: 5c88 4b3c be0c b7ae a7e0 7c3b 9368 12bd
00000110: 7a30 043c 7736 0cbb 131e be3a 589e 673d
00000120: a902 253d 2ceb e33c 16d6 0a3d 05e2 75bd
00000130: 0d0a 95bc cdf9 963d c94d 4dbd 9261 943b
00000140: 1dce 583d 58d9 55bd 4ac5 01bd a3e6 8e3c
00000150: 8eba ac3c ccd3 ffbb 5ad1 abbc 1681 e73c
00000160: 4a3c 9cba 9357 07bd 76d0 cd3c 2bbd f7bb
00000170: aac9 8a3a 097d 69bd d227 d1bc 10ef 063d
00000180: 8cd9 a9bb 137e 173d d339 ce3c e7fc 903d
00000190: af79 ca3c 1b33 823d a96e 963c 315e df3c
000001a0: d34a 643c 3452 c2bc 4760 be3b 177a c33c
000001b0: 5cfd ad3c 19ac 823d 218e b12e 8f71 6f3d
000001c0: 9843 a2bc a59c d5bb e84b 643c 64a2 413c
000001d0: 47ea 07bb 29d0 c93c e931 78bd d95b abbc
000001e0: 8924 073d 78ff 10bd 989a 7f3c ed0d aabb
000001f0: 7cf2 0a3d 4099 4abd 9a88 77bc 1ff9 433d
