results/milestone/programming tutorials/GCP/params/AE/params3.pt (torch_old, 265742 bytes, 8 tensors)

encoder_hidden_layer.weight f4 [128, 128]
0.057377096 0.11018248 -0.060830668 -0.06501284 0.06423186 -0.0029786339 -0.029543702 -0.06137206
0.036858436 -0.023967722 0.087636724 0.013785472 -0.063194245 0.041864604 -0.026992138 -0.03847671
-0.06735602 0.051267628 0.058272567 0.08734117 0.08993404 0.010295265 0.06764908 -0.025490293
-0.015858341 0.0073384824 0.04879921 -0.03052717 0.05910193 -0.028621 0.03379121 0.06671984
0.07889996 -0.053185776 0.03186608 0.09722814 0.042111345 0.06921871 0.06570132 0.09141997
0.0030218193 0.054709222 0.094777614 -0.033072546 0.028458357 -0.0016356235 -0.0386809 -0.003970782
0.091175176 -0.018635063 -0.036999464 -0.0123434365 -0.07042729 -0.021543255 -0.00878506 0.016834976
0.0014819392 0.0594629 -0.034522228 0.006692 -0.06271266 -0.056673493 -0.05403537 0.031119743
0.042153604 -0.074959435 -0.060248386 0.048277617 -0.0015555217 0.059562933 -0.046304397 0.097833514
-0.057758298 -0.02451584 0.08537115 0.002008413 0.07959076 -0.029218363 0.015437454 -0.020468954
-0.024081735 0.004502659 0.089979105 -0.0649371 0.045110486 0.08383325 0.08439701 -0.04922184
0.100773625 -0.0018799026 0.05893509 0.00043190978 -0.057563774 0.040827785 0.08293875 0.0181383
-0.06422142 0.047019795 0.079283044 0.097747475 0.08210895 0.021991087 0.0899341 -0.01587627
-0.0593878 0.010369284 -0.055926915 0.024123386 -0.0176526 -0.064190745 0.017620485 -0.02923947
0.070251256 -0.019925948 0.039153807 -0.03592185 0.007145975 -0.0145143205 -0.05730659 -0.076776646
-0.009536258 0.0223972 -0.059651807 0.050262205 0.08951579 -0.041954953 -0.012142864 -0.03264433
-0.08592729 -0.12758806 0.028046276 -0.092302494 0.059999596 0.064045124 0.090837784 -0.022741688
0.019163612 0.07527494 -0.054017663 0.016757477 -0.02660561 -0.024617916 -0.10182571 -0.046019685
-0.08331436 -0.08807303 -0.031577684 -0.09869027 -0.12242587 -0.026538182 -0.1101228 0.012971742
-0.0041744984 0.018069934 -0.072222985 -0.046370335 0.03332645 0.016055021 0.0009421112 -0.06303261
-0.061063476 -0.04885872 0.043336038 -0.032764953 0.07331015 0.036362663 0.03590189 0.072498284
0.031276636 -0.04984337 0.048812028 0.032128803 -0.0042726183 -0.06481506 0.028266404 0.01691079
-0.021054717 0.04446127 0.10918507 0.11269057 0.06627334 0.01543975 0.077752165 0.07930076
0.1019749 0.0751872 0.0033420755 0.033038188 -0.10075758 -0.10099576 -0.15539756 -0.1854565
-0.056798726 -0.06692867 -0.07849449 -0.03099992 -0.058852177 0.029156677 -0.00074299827 0.01219251
-0.036755342 0.033873912 0.048785646 0.0133160455 0.023354596 0.093200244 0.03350336 0.06690321
0.027059905 -0.0041821306 0.077478394 -0.03867644 -0.04192203 -0.028893597 -0.091053165 -0.07626839
0.008700577 -0.050668783 0.037614755 0.010621848 -0.073617846 -0.064633824 -0.011220688 -0.047845308
0.044766754 -0.036995985 -0.014782652 0.008874292 -0.004131235 -0.0130638825 -0.034523334 0.040099215
-0.077800766 -0.0044200243 0.054249894 -0.011936899 0.035374228 0.016479034 0.024333298 -0.06642675
-0.007827087 -0.060562283 -0.07451724 -0.026520604 -0.04715784 0.005602175 0.01252489 0.019951494
-0.05944522 -0.07815937 -0.0005298269 0.01952329 -0.05994755 0.037684765 -0.08334257 -0.04813962
00000000: 3f04 6b3d 5aa7 e13d 9429 79bd 7425 85bd
00000010: fe8b 833d 2f35 43bb a205 f2bc 4561 7bbd
00000020: dff8 163d f557 c4bc e27a b33d 76dc 613c
00000030: fc6b 81bd 387a 2b3d 9e1e ddbc c199 1dbd
00000040: f4f1 89bd 01fe 513d 37af 6e3d eddf b23d
00000050: 572f b83d 79ad 283c 9a8b 8a3d 05d1 d0bc
00000060: 5ae9 81bc a777 f03b aee1 473d 1e14 fabc
00000070: de14 723d 9676 eabc a768 0a3d 69a4 883d
00000080: 4d96 a13d 54d9 59bd 0286 023d 8c1f c73d
00000090: f27c 2c3d 8ac2 8d3d 6a8e 863d 653a bb3d
000000a0: b709 463b c716 603d c41a c23d 1477 07bd
000000b0: 8021 e93c 6b62 d6ba dd6f 1ebd 551d 82bb
000000c0: 0dba ba3d 8fa8 98bc c08c 17bd 203c 4abc
000000d0: 2f3c 90bd 7b7b b0bc 36ef 0fbc 81e9 893c
000000e0: a13d c23a 5f8f 733d 2e67 0dbd 9148 db3b
000000f0: 7f6f 80bd 7722 68bd 3154 5dbd d5ee fe3c
00000100: 42a9 2c3d 5584 99bd 03c7 76bd c0be 453d
00000110: a6e2 cbba 43f8 733d aea9 3dbd f05c c83d
00000120: f793 6cbd 71d5 c8bc 12d7 ae3d 949f 033b
00000130: 7b00 a33d 595b efbc 60ed 7c3c 82ae a7bc
00000140: 0f47 c5bc 0b8b 933b f746 b83d befd 84bd
00000150: c6c5 383d c4b0 ab3d 57d8 ac3d d79c 49bd
00000160: 6762 ce3d 1067 f6ba ec65 713d f371 e239
00000170: fec7 6bbd 093b 273d cbdb a93d c696 943c
00000180: 8586 83bd d497 403d 265f a23d d42f c83d
00000190: bd28 a83d a726 b43c 5f2f b83d f40e 82bc
000001a0: 9f40 73bd eee3 293c 9f13 65bd 689e c53c
000001b0: 2f9c 90bc 7076 83bd d658 903c 9d87 efbc
000001c0: e4df 8f3d be3b a3bc be5f 203d ca22 13bd
000001d0: c828 ea3b 79cd 6dbc 51ba 6abd 133d 9dbd
000001e0: f73d 1cbc 557a b73c 7455 74bd bedf 4d3d
000001f0: 0e54 b73d f5d8 2bbd ddf2 46bc 10b6 05bd
00000200: a6fa afbd 72a6 02be 4ec1 e53c 1709 bdbd
00000210: 23c2 753d 172a 833d 2909 ba3d c74c babc
00000220: 02fd 9c3c bf29 9a3d a041 5dbd fa46 893c
00000230: 02f4 d9bc 83ab c9bc ff89 d0bd 237f 3cbd
00000240: b8a0 aabd a25f b4bd 9a57 01bd 201e cabd
00000250: 6aba fabd 9a66 d9bc 1088 e1bd 6e87 543c
00000260: 3bca 88bb 6607 943c a5e9 93bd d2ee 3dbd
00000270: 5181 083d d285 833c 03f8 763a 3e17 81bd
00000280: b21d 7abd 1520 48bd 2181 313d 8b34 06bd
00000290: a223 963d 04f1 143d dc0d 133d fb79 943d
000002a0: ee1b 003d 9028 4cbd 1fef 473d 7e99 033d
000002b0: 5201 8cbb c2bd 84bd f28e e73c 7f88 8a3c
000002c0: f17a acbc 051d 363d 6c9c df3d 50ca e63d
000002d0: 51ba 873d 01f7 7c3c 873c 9f3d 7068 a23d
000002e0: 37d8 d03d bffb 993d b906 5b3b 0d53 073d
000002f0: fd59 cebd ddd6 cebd 8a20 1fbe 4fe8 3dbe
00000300: c8a5 68bd e611 89bd b8c1 a0bd 8bf3 fdbc
00000310: fb0e 71bd fcd9 ee3c c5c5 42ba 18c3 473c
00000320: c58c 16bd 5fbf 0a3d 75d3 473d 8b2b 5a3c
00000330: 2352 bf3c c5df be3d d23a 093d 8d04 893d
00000340: bcac dd3c 410a 89bb feac 9e3d 306b 1ebd
00000350: 6fb6 2bbd 44b2 ecbc 157a babd 9a32 9cbd
00000360: dd8c 0e3c 128a 4fbd ee11 1a3d 4207 2e3c
00000370: f4c4 96bd bd5e 84bd fad6 37bc 71f9 43bd
00000380: 585d 373d 1a89 17bd f032 72bc 7a65 113c
00000390: 505f 87bb e509 56bc 5768 0dbd 133f 243d
000003a0: 0256 9fbd dad5 90bb 2335 5e3d fc92 43bc
000003b0: 91e4 103d 0aff 863c a056 c73c bf0a 88bd
000003c0: 2f3d 00bc 2810 78bd 7f9c 98bd bd41 d9bc
000003d0: 9428 41bd 7392 b73b 3235 4d3c 5171 a33c
000003e0: d57c 73bd 0512 a0bd 15e4 0aba 4fef 9f3c
000003f0: 908b 75bd 575b 1a3d 82af aabd 0d2e 45bd

encoder_hidden_layer.bias f4 [128]
0.0017580418 0.024063913 0.05465147 -0.031103095 -0.068203166 -0.03752824 0.13092917 -0.01652335
-0.016451428 -0.018872185 -0.008646696 -0.072311066 0.057399713 0.043227937 -0.07490388 0.058530334
0.13864656 0.047833577 -0.01586097 0.026106127 0.06922492 0.073619805 0.09633579 0.051164206
-0.01508491 0.117211 0.04104166 0.0713389 0.23176537 -0.021422224 0.046813928 -0.023261452
0.07370582 -0.012999163 0.020394534 0.006544484 0.050805334 0.07038107 0.14235476 0.15438093
-0.009501683 0.031673227 -0.016495558 0.029791977 0.037499387 0.02182373 0.11870243 -0.028532678
0.07330801 0.0449243 0.015621915 0.035055365 0.08785893 0.10568816 0.06671049 0.08180574
0.04433949 0.19779712 0.056930132 -0.02143367 -0.014661201 0.06840007 0.020098193 0.037678394
0.03535475 0.06918791 -0.05841431 0.012249521 0.12330375 0.07149856 0.16719274 0.052251544
-0.066655844 0.111120574 0.018338956 0.011042877 0.0018224675 0.0057088933 0.10375912 0.020964008
0.030472003 0.08319961 0.100198805 -0.029965147 0.033421624 0.1833627 -0.030547924 0.18676938
0.07182716 -0.01533679 0.08500706 -0.020098437 0.07770847 0.07610221 0.11061155 -0.008473714
0.11437548 0.021173228 0.0789641 0.18436575 0.08017379 0.023469172 0.054104637 -0.06868385
-0.03159068 0.12876286 -0.053444184 0.08307636 0.085253425 -0.0027307034 0.05147066 0.031180328
0.049352076 0.06915816 0.14766297 -0.07408154 -0.028902074 0.12334436 -0.005122081 0.08226678
0.093899615 0.01814042 0.06318277 0.03363229 0.059540927 -0.009667759 0.13604137 0.083549686
00000000: 186e e63a af21 c53c 38da 5f3d ebcb febc
00000010: 1aae 8bbd 36b7 19bd 4c12 063e fa5b 87bc
00000020: 25c5 86bc d799 9abc dfaa 0dbc d317 94bd
00000030: f61b 6b3d c70f 313d 3567 99bd 81bd 6f3d
00000040: 5df9 0d3e 24ed 433d ddee 81bc 84dc d53c
00000050: cbc5 8d3d fbc5 963d b34b c53d 8f91 513d
00000060: b326 77bc 520c f03d 4d1b 283d 211a 923d
00000070: e753 6d3e a97d afbc f6bf 3f3d cd8e bebc
00000080: 14f3 963d 71fa 54bc 7012 a73c 1c73 d63b
00000090: 4119 503d f323 903d 72c5 113e 0916 1e3e
000000a0: f2ac 1bbc c9bb 013d b121 87bc 4e0e f43c
000000b0: f598 193d aec7 b23c 421a f33d 5dbd e9bc
000000c0: 8322 963d 8b02 383d 10f3 7f3c 3796 0f3d
000000d0: 62ef b33d 0973 d83d 829f 883d c589 a73d
000000e0: 539d 353d 548b 4a3e 922f 693d aa95 afbc
000000f0: 8935 70bc 5615 8c3d f7a4 a43c a954 1a3d
00000100: 24d0 103d 64b2 8d3d d843 6fbd 37b2 483c
00000110: ad86 fc3d d66d 923d 9334 2b3e b705 563d
00000120: dc82 88bd 2f93 e33d 943b 963c 2fed 343c
00000130: dddf ee3a ab11 bb3b a97f d43d b6bc ab3c
00000140: 6ca0 f93c 8f64 aa3d 0835 cd3d 7879 f5bc
00000150: 1de5 083d 6ec3 3b3e a43f fabc 7940 3f3e
00000160: 1e1a 933d 2947 7bbc 2e18 ae3d 7aa5 a4bc
00000170: 9e25 9f3d 7adb 9b3d 4f88 e23d 55d5 0abc
00000180: b13d ea3d 7a73 ad3c eeb7 a13d 60ca 3c3e
00000190: 2832 a43d 6c42 c03c d39c 5d3d 1eaa 8cbd
000001a0: 3b65 01bd 69da 033e 4ae8 5abd f023 aa3d
000001b0: 5999 ae3d 9af5 32bb e6d2 523d e36d ff3c
000001c0: 6725 4a3d cba2 8d3d f634 173e 10b8 97bd
000001d0: 0bc4 ecbc f89b fc3d 21d7 a7bb 7c7b a83d
000001e0: 714e c03d 389b 943c f865 813d 03c2 093d
000001f0: 30e1 733d 8565 1ebc 6e4e 0b3e 191c ab3d

encoder_output_layer.weight f4 [128, 128]
-0.037729807 0.02908583 -0.08165421 0.029742396 0.048166 0.02065816 0.095138945 0.06721287
-0.08716382 -0.038004827 -0.009212373 -0.06727306 0.07279272 0.010864797 -0.079734966 0.02137952
0.10020041 -0.025218023 0.066549525 0.04025469 0.072458506 -0.043027334 -0.033737645 0.05334932
-0.06269878 0.11947117 -0.020571042 -0.02469699 -0.017753275 -0.019133177 0.029637178 -0.003484617
-0.10187828 -0.051449135 0.013324877 0.077042624 0.080242746 0.02017983 0.09886272 0.00721562
0.06273166 -0.014185407 -0.010168213 0.07654537 0.07579534 0.030928204 0.012439513 -0.041146655
0.09485322 0.02670293 -0.02326232 0.06231383 0.0026453263 0.03860087 0.057564627 0.0091259675
-0.0997765 -0.059059016 -0.041283235 -0.02942829 -0.012889634 0.068218105 0.04498257 0.057666298
0.03908915 -0.0028973205 0.06093373 0.085873015 0.083114885 0.0436232 0.01732483 0.02219061
-0.056317966 -0.021953626 0.025072033 0.05502236 0.044892993 -0.06687118 -0.053558543 0.01646885
0.06624877 -0.036949515 0.0383144 0.04916615 0.031394403 0.060283646 0.00066096336 -0.03382774
-0.08310095 -0.0633456 0.043503784 -0.048750773 -0.031241456 -0.06800932 -0.001485944 0.108500734
-0.05873869 0.11724734 -0.026029052 -0.014742519 0.04757994 0.019715143 -0.0027883137 0.058705933
0.085612066 0.032712594 0.024977108 0.047659677 -0.054641336 0.06510642 0.057211384 -0.076588675
-0.0024212785 0.053520095 0.068552196 0.040557794 -0.021829206 -0.05294751 -0.06883465 0.05391482
-0.029644521 -0.036618803 -0.023609057 0.081000485 -0.04065933 -0.05621143 0.015319153 0.03070426
-0.032789133 0.03648685 0.032637455 -0.029365378 0.052513454 -0.01613226 0.032876603 0.024695318
0.07859882 0.0403101 0.053390212 0.012236039 -0.16465636 -0.0130740255 0.021963159 0.11305806
-0.11469491 -0.009561251 -0.021694755 0.011979869 -0.040199857 0.018330695 -0.0052312696 0.067413375
0.010559141 0.116608374 0.13692628 -0.00043098093 0.028598305 0.025391012 0.15939775 0.02340842
-0.011476423 0.08132968 0.22211568 -0.049962074 0.043672714 0.108502336 0.13850823 0.08644744
-0.014173089 0.017652368 0.09309492 -0.057224214 0.019467885 0.019388733 0.015360584 -0.035073664
0.004693073 -0.03805092 -0.024742257 -0.035557993 -0.034559034 0.135877 -0.0048665632 0.0057511367
-0.006417253 0.041715924 0.06535698 -0.034349907 -0.0506883 0.037446056 -0.01687508 0.04067808
0.018864023 0.06735786 -0.0021003282 0.049495704 -0.14179237 -0.046706256 0.018383512 -0.027474709
-0.0039792727 -0.0263108 0.057571787 0.01370098 -0.006904639 0.06185224 0.099220365 0.037127998
-0.044229608 -0.0268357 -0.11428353 -0.023200048 0.01993531 0.094793506 0.062561974 0.033283602
0.018155597 -0.003575235 0.012339295 0.021451032 0.04397613 -0.030367486 -0.106212124 0.13068606
0.050511915 -0.012279447 -0.014311589 0.094751075 0.03896913 0.051068727 0.04437936 0.011853786
0.061450344 -0.023777664 0.043917555 0.018361138 -0.015972132 -0.010620922 0.016506445 -0.02205807
-0.04953484 -0.07073745 0.03268777 0.10862584 0.045182765 0.007303332 -0.024828121 -0.01658836
-0.054787 0.028131325 -0.09833371 0.0192592 -0.045383923 -0.0021066663 0.08279019 -0.050043203
00000000: 928a 1abd 6845 ee3c 533a a7bd 53a6 f33c
00000010: b649 453d 4d3b a93c 35d8 c23d e7a6 893d
00000020: f282 b2bd f3aa 1bbd 7eef 16bc 75c6 89bd
00000030: 5914 953d 4302 323c 164c a3bd 1a24 af3c
00000040: df35 cd3d 0796 cebc 1e4b 883d 1ae2 243d
00000050: 2065 943d 6e3d 30bd 7c30 0abd d184 5a3d
00000060: 3868 80bd 4dad f43d 9a84 a8bc 5851 cabc
00000070: 516f 91bc 2ebd 9cbc abc9 f23c 2c5e 64bb
00000080: 8fa5 d0bd 54bc 52bd 9650 5a3c 86c8 9d3d
00000090: 4f56 a43d 2c50 a53c 8a78 ca3d 0271 ec3b
000000a0: 7579 803d e969 68bc 9498 26bc d2c3 9c3d
000000b0: 963a 9b3d 255d fd3c 19cf 4b3c 6589 28bd
000000c0: 6842 c23d 1ac0 da3c 9f90 bebc c93c 7f3d
000000d0: 365d 2d3b f21b 1e3d e3c8 6b3d 1585 153c
000000e0: 9f57 ccbd dee7 71bd 9c18 29bd 9913 f1bc
000000f0: 0b2f 53bc efb5 8b3d a53f 383d 7f33 6c3d
00000100: f21b 203d f9e0 3dbb a695 793d 31de af3d
00000110: 2338 aa3d 3eae 323d cdec 8d3c 15c9 b53c
00000120: abad 66bd 17d8 b3bc dd63 cd3c 205f 613d
00000130: b7e1 373d c2f3 88bd 3460 5bbd afe9 863c
00000140: 6fad 873d 6058 17bd 8fef 1c3d 7262 493d
00000150: 6b97 003d fceb 763d 8044 2d3a f58e 0abd
00000160: d530 aabd 57bb 81bd 0631 323d e4ae 47bd
00000170: 15ee ffbc 7848 8bbd 02c4 c2ba a235 de3d
00000180: fb97 70bd 601f f03d e13a d5bc 9b8a 71bc
00000190: 2fe3 423d a781 a13c 24bc 36bb a275 703d
000001a0: 6155 af3d a4fd 053d cb9c cc3c cb36 433d
000001b0: 98cf 5fbd 8456 853d 7c56 6a3d 86da 9cbd
000001c0: 50ae 1ebb e337 5b3d 1865 8c3d ee1f 263d
000001d0: 2ad3 b2bc 7ddf 58bd 2ef9 8cbd c9d5 5c3d
000001e0: 11d9 f2bc 99fd 15bd c867 c1bc 95e3 a53d
000001f0: 668a 26bd f53d 66bd 2ffd 7a3c 8087 fb3c
00000200: e64d 06bd 3c73 153d daae 053d a98f f0bc
00000210: 5918 573d cd27 84bc 9ea9 063d d64d ca3c
00000220: 6bf8 a03d 341c 253d b2af 5a3d ab79 483c
00000230: ad9b 28be 7034 56bc 15ec b33c fc8a e73d
00000240: 2ae5 eabd cba6 1cbc 33b9 b1bc 3647 443c
00000250: 9ba8 24bd 412a 963c 126b abbb 0610 8a3d
00000260: 3f00 2d3c 5fd0 ee3d 6736 0c3e 48f5 e1b9
00000270: fe46 ea3c d000 d03c 2a39 233e 04c3 bf3c
00000280: 9b07 3cbc 2d90 a63d 4b72 633e 08a5 4cbd
00000290: 29e2 323d 7936 de3d 1ad5 0d3e 5b0b b13d
000002a0: 3e36 68bc b39b 903c 8da8 be3d f063 6abd
000002b0: 1d7b 9f3c 1fd5 9e3c f5aa 7b3c 67a9 0fbd
000002c0: 5ac8 993b 48db 1bbd 46b0 cabc 42a5 11bd
000002d0: c68d 0dbd 5723 0b3e b177 9fbb 0874 bc3b
000002e0: d247 d2bb 51de 2a3d e1d9 853d 7db2 0cbd
000002f0: 899e 4fbd 0961 193d 9c3d 8abc 0f9e 263d
00000300: b988 9a3c ebf2 893d a9a5 09bb 02bc 4a3d
00000310: 0532 11be 0f4f 3fbd 0599 963c a412 e1bc
00000320: 8f64 82bb bf89 d7bc 65d0 6b3d 137a 603c
00000330: 4f40 e2bb c658 7d3d 0c34 cb3d 8713 183d
00000340: 1b2a 35bd 8bd6 dbbc 7c0d eabd 070e bebc
00000350: 604f a33c 1923 c23d 7e20 803d 6354 083d
00000360: 0cbb 943c 7d4e 6abb c12a 4a3c 13ba af3c
00000370: 5120 343d 3cc5 f8bc be85 d9bd 91d2 053e
00000380: 95e5 4e3d bc2f 49bc 287b 6abc da0c c23d
00000390: 189e 1f3d 712d 513d 22c7 353d 6236 423c
000003a0: 5bb3 7b3d 60c9 c2bc e5e2 333d 196a 963c
000003b0: fdd7 82bc 6003 2ebc 8638 873c 20b3 b4bc
000003c0: 0be5 4abd ccde 90bd 9ce3 053d 3977 de3d
000003d0: 9011 393d ca50 ef3b 5864 cbbc 50e4 87bc
000003e0: 5568 60bd aa73 e63c 2f63 c9bd 78c5 9d3c
000003f0: 7ee4 39bd ff0f 0abb e78d a93d 1afa 4cbd

encoder_output_layer.bias f4 [128]
0.092480384 0.017105488 -0.06149538 0.053382713 0.018791212 0.062091906 -0.029614244 -0.003536032
0.05280521 0.06693507 0.012719265 -0.016890464 0.06605744 0.011268977 0.041982055 0.06467744
0.03614241 0.049639177 -0.017901523 -0.027908776 0.08521861 -0.07182305 0.09428175 0.01428411
0.0018128186 -0.026611764 0.03583243 0.04245385 0.089604944 -0.0042012073 0.07173933 -0.016086835
0.028042179 0.02672932 0.09130822 -0.045068685 0.005296296 -0.061734036 -0.0027043272 0.034737866
0.09599307 0.054075677 0.14665839 0.0616383 0.020133693 -0.03395708 -0.06780125 0.028833997
0.09019914 -0.03618807 0.044332195 -0.0048017753 -0.05398195 0.046471603 -0.019655786 0.09196091
0.060099196 0.028176127 0.058337007 0.035832506 0.010433243 0.002096666 0.036505416 -0.021356719
0.076328896 0.05603165 -0.03112863 -0.05528845 -0.02676115 0.059723105 -0.07317813 0.05457053
0.012268134 0.12012957 0.030686153 -0.06271339 -1.3161307e-05 0.06159973 -0.05125493 -0.06406211
-0.034263823 0.028538626 0.010092337 -0.066156276 0.033311963 -0.014070315 0.060246516 -0.019530052
0.10156225 -0.022495171 0.07119347 -0.010191411 0.02435411 0.027827846 0.07233253 -0.05950382
0.061544903 -0.022607235 -0.007147888 -0.070312425 0.016646584 0.062321194 -0.05061145 -0.03836494
0.083404265 -0.03945756 0.083432116 0.098082826 -0.02094795 -0.019320289 -0.019029316 0.05481452
0.03775691 -0.035936214 -0.04048989 0.08021349 0.02387541 0.063618824 0.06860296 0.015249126
-0.046197146 0.028628165 -0.045413677 0.100645594 -0.0019269678 -0.003929454 5.87699e-06 0.11272677
00000000: 5b66 bd3d cf20 8c3c 94e2 7bbd d5a7 5a3d
00000010: 07f0 993c 1554 7e3d 9299 f2bc c6bc 67bb
00000020: 474a 583d 4115 893d 7764 503c df5d 8abc
00000030: 2049 873d 84a1 383c 60f5 2b3d 9b75 843d
00000040: 100a 143d 7352 4b3d 37a6 92bc f2a0 e4bc
00000050: 1887 ae3d f717 93bd ca16 c13d e607 6a3c
00000060: 199c ed3a ea00 dabc 07c5 123d 17e4 2d3d
00000070: cc82 b73d 48aa 89bb 12ec 923d 8ac8 83bc
00000080: b6b8 e53c 72f7 da3c ceff ba3d f199 38bd
00000090: 8d8c ad3b d4dc 7cbd 153b 31bb 4b49 0e3d
000000a0: 0498 c43d 757e 5d3d 9e2d 163e 7178 7c3d
000000b0: 6aef a43c 9416 0bbd 62db 8abd 4635 ec3c
000000c0: 54ba b83d f139 14bd ad95 353d 3658 9dbb
000000d0: 2d1c 5dbd 0259 3e3d 2c05 a1bc 0056 bc3d
000000e0: 932a 763d 9fd1 e63c c9f2 6e3d 1bc5 123d
000000f0: 31f0 2a3c 3868 093b b486 153d 49f4 aebc
00000100: 5352 9c3d 7281 653d 7801 ffbc 2476 62bd
00000110: 333a dbbc 37a0 743d 6ade 95bd 5985 5f3d
00000120: 4900 493c 7e06 f63d 8761 fb3c e16f 80bd
00000130: 62cf 5cb7 0050 7c3d b1f0 51bd ff32 83bd
00000140: 3958 0cbd d6c9 e93c 545a 253c f17c 87bd
00000150: 2072 083d 2e87 66bc 0dc5 763d 7dfd 9fbc
00000160: deff cf3d cb47 b8bc e2cd 913d e0f9 26bc
00000170: 4582 c73c 39f7 e33c 1423 943d 47ba 73bd
00000180: 8216 7c3d cf32 b9bc d538 eabb f6ff 8fbd
00000190: 6b5e 883c 8244 7f3d f44d 4fbd 8e24 1dbd
000001a0: dbcf aa3d 409e 21bd 75de aa3d a6df c83d
000001b0: 099b abbc 9545 9ebc 5ee3 9bbc 3185 603d
000001c0: fda6 1a3d da31 13bd bad8 25bd f846 a43d
000001d0: 5d96 c33c 964a 823d b57f 8c3d 78d7 793c
000001e0: 3839 3dbd 9d85 ea3c b103 3abd 471f ce3d
000001f0: 4f92 fcba a6c2 80bb f632 c536 4bdd e63d

decoder_hidden_layer.weight f4 [128, 128]
-0.08596749 -0.010339458 0.012080233 0.021009214 0.11237442 -0.0005847912 -0.016582146 -0.01082083
0.027442511 -0.0107307155 0.029609192 -0.03864574 -0.0175702 0.06041553 0.027743077 -0.0010509259
-0.056698885 0.03544593 -0.095005386 -0.06419594 0.076380685 -0.023106711 0.009728128 0.030107776
0.021718241 -0.04219657 0.0011582312 -0.102978215 0.019914526 -0.013380207 -0.037700646 0.079117365
0.035501663 0.03692321 -0.06836235 0.06436648 -0.062469553 -0.018858917 -0.016127996 0.067404374
0.08376222 0.03068521 -0.00095477497 -0.09859126 0.07436238 -0.030581202 0.10693226 -0.109036595
0.0715598 -0.04139499 0.04790375 0.026725477 0.01761678 -0.07022368 -0.053438842 0.05944409
0.050336156 0.06234494 0.055262268 0.04421953 -0.067949265 -0.033860892 0.069691665 0.023241203
-0.00025889435 0.021991825 0.03054273 0.07529906 0.025364738 -0.033323377 -0.02390749 -0.0039505176
0.07203398 0.06365852 -0.07049938 0.01694746 9.7267344e-05 -0.014789514 -0.021678697 0.022155738
0.029209482 -0.0063901776 0.10818595 0.04038183 0.05946315 -0.027926283 -0.04494484 -0.09040509
0.07469554 0.0670278 -0.023801312 0.026780348 -0.00030082723 -0.037727248 -0.09727206 -0.032336492
-0.014528794 0.0029266675 -0.03604732 -0.009343952 -0.012812421 0.021863418 -0.0031527653 -0.0020042846
0.011125182 0.054825515 0.04787708 -0.04762285 -0.07386059 0.009830024 -0.029526237 0.0008157181
-0.06398548 0.055653125 0.05200528 0.019981328 0.011231543 0.0035931093 0.017553052 0.0029874207
0.10543058 0.00965151 0.047258373 -0.05842067 0.07530833 -0.06454146 -1.5052943e-06 0.003502138
0.00650643 0.051340707 0.016201548 -0.07753479 -0.023545159 0.050120734 -0.020532811 0.07873384
0.00652596 -0.073712006 0.06799354 0.034189455 -0.03861289 0.06355534 0.074678406 -0.036512837
0.054756194 -0.010917476 0.06829096 0.040660404 0.005178491 -0.000657405 0.00034301737 0.01634213
0.06453765 -0.018785806 -0.0036414983 -0.015003003 -0.001451532 0.036514062 0.08772319 0.033666074
-0.07055217 -0.034337305 0.0065689534 -0.08407117 0.049771506 -0.008317681 -0.0353149 0.015820757
0.050720226 -0.038680375 -0.11436632 0.019522704 0.06197975 0.08205879 -0.039486933 -0.034223624
-0.07622553 -0.022712234 -0.029122826 -0.08016468 0.05195312 0.053284943 -0.008118817 -0.035909012
0.008597977 0.08362319 0.06457599 -0.066973664 -0.0080625005 0.073330894 -0.042784847 0.07039278
0.04910844 0.07788927 0.0033847569 0.083736524 -0.06561995 0.009884185 -0.011988719 -0.039196033
0.0758875 0.011268612 0.054042064 0.084022865 2.195253e-06 0.03761562 -0.06039986 0.059353087
0.026798494 0.017153054 0.02579862 -0.02642711 0.08410897 -0.026116783 -0.030594863 -0.065329224
0.09249467 -0.12319048 0.06516474 0.019701991 -0.0018299137 -0.021815285 -0.055869468 0.0059758257
-0.02780468 -0.029122438 0.034344662 -0.07330188 0.016684582 -0.06688324 -0.057704728 0.07995866
-0.0021317536 -0.040128503 0.033680856 -0.0063601695 0.08251633 -0.087284066 -0.03682856 0.05058506
0.08189247 0.02117023 0.06803357 -0.0025426412 -0.096976 0.06523833 -0.05091399 0.055898823
0.0019355384 -0.017658064 -0.057082575 0.03150704 0.05388913 0.00555464 -2.9758548e-06 -0.060374804
00000000: b90f b0bd d466 29bc 2bec 453c 841b ac3c
00000010: 8f24 e63d ac4c 19ba 48d7 87bc da49 31bc
00000020: 1ecf e03c e2cf 2fbc fa8e f23c ff4a 1ebd
00000030: 61ef 8fbc 4676 773d 7345 e33c 39bf 89ba
00000040: 173d 68bd c02f 113d 2f92 c2bd 2979 83bd
00000050: 7a6d 9c3d 494a bdbc ba62 1f3c 95a4 f63c
00000060: 74ea b13c 50d6 2cbd cacf 973a 3ee6 d2bd
00000070: ca23 a33c a838 5bbc fe6b 1abd 4908 a23d
00000080: 316a 113d cb3c 173d 8f01 8cbd 93d2 833d
00000090: 13e0 7fbd 047e 9abc dc1e 84bc 4e0b 8a3d
000000a0: 878b ab3d 8d5f fb3c dd49 7aba 37ea c9bd
000000b0: 4e4b 983d 6e85 fabc 4dff da3d 944e dfbd
000000c0: f28d 923d cb8d 29bd b936 443d 63ef da3c
000000d0: 1151 903c 6fd1 8fbd b0e2 5abd a57b 733d
000000e0: 492d 4e3d 685d 7f3d b05a 623d 8a1f 353d
000000f0: fc28 8bbd b8b1 0abd 81ba 8e3d 5664 be3c
00000100: 36bc 87b9 3328 b43c bf34 fa3c 6536 9a3d
00000110: b6c9 cf3c 187e 08bd a4d9 c3bc 5873 81bb
00000120: 8d86 933d 665f 823d fb61 90bd 66d5 8a3c
00000130: 02fc cb38 b84f 72bc 8697 b1bc f37f b53c
00000140: b948 ef3c b264 d1bb 9890 dd3d 6b67 253d
00000150: a28f 733d a9c5 e4bc 1518 38bd 4e26 b9bd
00000160: faf9 983d df45 893d f8fa c2bc 7662 db3c
00000170: 59b8 9db9 e387 1abd 9336 c7bd 4573 04bd
00000180: 2e0a 6ebc 55cd 3f3b 5ba6 13bd 6017 19bc
00000190: 30eb 51bc e91a b33c a09e 4ebb 515a 03bb
000001a0: 6546 363c b890 603d c21a 443d 2d10 43bd
000001b0: 3944 97bd 1c0e 213c 02e1 f1bc ead5 553a
000001c0: d20a 83bd 88f4 633d 7d03 553d e2af a33c
000001d0: 8104 383c 5f7a 6b3b 6bcb 8f3c 9ac8 433b
000001e0: fdeb d73d 5e21 1e3c ff91 413d 834a 6fbd
000001f0: 413b 9a3d 502e 84bd 8509 cab5 2084 653b
00000200: e433 d53b a24a 523d 1cb9 843c 8fca 9ebd
00000210: c7e1 c0bc 664b 4d3d 6d34 a8bc 353f a13d
00000220: b8d7 d53b 52f6 96bd 3240 8b3d 3e0a 0c3d
00000230: 8d28 1ebd 4d29 823d fef0 983d 7c8e 15bd
00000240: 0848 603d 37df 32bc 21dc 8b3d 868b 263d
00000250: 55b0 a93b b455 2cba 03d7 b339 eedf 853c
00000260: 512c 843d b1e4 99bc 34a6 6ebb 28cf 75bc
00000270: 5541 beba c58f 153d 37a8 b33d 70e5 093d
00000280: a87d 90bd 46a5 0cbd 6040 d73b 812d acbd
00000290: 35dd 4b3d e246 08bc 5ba6 10bd 889a 813c
000002a0: 03c0 4f3d 506f 1ebd e438 eabd 14ee 9f3c
000002b0: 7ade 7d3d 700e a83d 0dbd 21bd 122e 0cbd
000002c0: 211c 9cbd 020f babc fe92 eebc 612d a4bd
000002d0: cbcc 543d 5041 5a3d c904 05bc 5415 13bd
000002e0: 88de 0c3c a342 ab3d 6b40 843d 7d29 89bd
000002f0: 9418 04bc 822e 963d 2a3f 2fbd 172a 903d
00000300: ee25 493d 6984 9f3d ccd2 5d3b 0e7e ab3d
00000310: c163 86bd 47f1 213c 556c 44bc 058c 20bd
00000320: e86a 9b3d fc9f 383c 365b 5d3d 2e14 ac3d
00000330: 2952 1336 d612 1a3d d865 77bd 391c 733d
00000340: 8488 db3c 9084 8c3c a157 d33c ab7d d8bc
00000350: 5341 ac3d ddf2 d5bc 14a2 fabc 54cb 85bd
00000360: d86d bd3d 4a4b fcbd 1775 853d 1266 a13c
00000370: b7d9 efba f8b5 b2bc 62d7 64bd dcd0 c33b
00000380: a4c6 e3bc 2e92 eebc fdac 0c3d 4c1f 96bd
00000390: 1bae 883c 15fa 88bd cb5b 6cbd 5ec1 a33d
000003a0: e4b4 0bbb c95d 24bd f0f4 093d f868 d0bb
000003b0: 52fe a83d fdc1 b2bd 8bd9 16bd 4832 4f3d
000003c0: 3db7 a73d 316d ad3c 2f55 8b3d 71a2 26bb
000003d0: 5a9b c6bd ac9b 853d 308b 50bd 2af6 643d
000003e0: e4b1 fd3a a5a7 90bc 6bcf 69bd 870d 013d
000003f0: d9ba 5c3d b303 b63b ccb4 47b6 924b 77bd

decoder_hidden_layer.bias f4 [128]
-0.073700376 0.0018432207 -0.008706262 0.029692382 -0.0034752127 0.0021252236 -3.8724567e-05 0.06380826
-0.02722112 0.08690386 0.057948522 -0.0997027 -0.06577012 -0.009754404 0.0015320166 0.0193875
-0.03658265 0.0026037751 -0.04966601 3.2103173e-05 0.00067248323 6.0170212e-05 0.00818379 -0.0058302907
0.018190358 0.1050621 -0.053078625 -0.0015866762 0.11074499 0.09249235 0.10873018 -0.058252037
0.01918053 0.12136866 0.07693975 0.08343105 -0.03775831 0.050796468 0.02519107 0.08188089
-0.05674509 -0.07227654 0.033873733 0.0878691 0.0066246805 0.01643269 0.026700824 -0.035027526
0.021534584 0.027494837 0.0035448468 -0.017841166 0.057555713 0.012890063 -0.0069593494 0.0043683774
0.10663438 0.04831535 -0.001954758 -0.021107322 0.00179358 0.08362725 0.0013564645 -0.06187941
0.039026212 0.037868213 0.088829085 0.042366732 -0.05824359 0.041399244 -0.056574244 0.0315269
0.06133359 -0.039888095 -0.033465482 0.06810124 -0.056470565 0.004612893 0.06465602 -0.0032958766
-0.021821065 -0.006629377 4.4423487e-05 0.05548663 0.0759981 -0.07079708 -1.5899053e-05 0.008646648
-0.022955136 -0.007940799 -0.033789426 -0.0059995954 -0.046271715 0.052177396 0.0733289 0.07740964
-0.055931386 -0.0020905358 0.019231478 -0.03401798 0.062689476 0.048678003 0.020019714 -0.06045655
0.044291425 0.016519189 0.008122183 -0.032835603 0.0059568062 -0.05391096 -0.029521162 -0.027294476
-0.050542094 -0.038027562 -0.045613583 -0.01726453 -0.072344914 -0.03915084 0.0050836876 0.03818499
0.07557526 -0.06748148 0.07025392 0.035929732 -0.016377471 0.008617997 -0.03626991 0.040340897
00000000: 39f0 96bd 3998 f13a b6a4 0ebc 703d f33c
00000010: 65c0 63bb 5647 0b3b 306c 22b8 e8ad 823d
00000020: d4fe debc a7fa b13d 6e5b 6d3d ee30 ccbd
00000030: 7cb2 86bd f0d0 1fbc f2cd c83a 89d2 9e3c
00000040: b0d7 15bd 19a4 2a3b 966e 4bbd 85a6 0638
00000050: 9649 303a 465f 7c38 4e15 063c 060c bfbb
00000060: f203 953c cc2a d73d f968 59bd 05f8 cfba
00000070: 45ce e23d a16c bd3d eead de3d b099 6ebd
00000080: 7d20 9d3c 2290 f83d 9692 9d3d e6dd aa3d
00000090: 75a8 1abd f50f 503d 815d ce3c 2bb1 a73d
000000a0: 8a6d 68bd b905 94bd 2fbf 0a3d b7f4 b33d
000000b0: d913 d93b d99d 863c b0bb da3c 0679 0fbd
000000c0: 4c69 b03c da3c e13c a950 683b a327 92bc
000000d0: 8abf 6b3d d830 533c 410b e4bb 9b24 8f3b
000000e0: 2063 da3d 51e6 453d 661b 00bb 43e9 acbc
000000f0: 8f16 eb3a c344 ab3d 65cb b13a 4475 7dbd
00000100: f3d9 1f3d b31b 1b3d 06ec b53d bd88 2d3d
00000110: d590 6ebd 4192 293d 65ba 67bd 5a22 013d
00000120: ee38 7b3d b361 23bd 1a13 09bd aa78 8b3d
00000130: ae4d 67bd c027 973b 606a 843d a2ff 57bb
00000140: 17c2 b2bc 3f3b d9bb 5b53 3a38 f345 633d
00000150: e4a4 9b3d 0ffe 90bd f55e 85b7 acaa 0d3c
00000160: 690c bcbc 201a 02bc c866 0abd 4198 c4bb
00000170: 6987 3dbd f7b7 553d 762d 963d f288 9e3d
00000180: 4f18 65bd 5f01 09bb 558b 9d3c 7056 0bbd
00000190: 5763 803d 9662 473d 6200 a43c 4aa1 77bd
000001a0: ed6a 353d 4053 873c e812 053c a07e 06bd
000001b0: 5031 c33b bdd1 5cbd 5dd6 f1bc aa98 dfbc
000001c0: 3a05 4fbd cac2 1bbd 4fd5 3abd 586e 8dbc
000001d0: 9229 94bd a25c 20bd 1095 a63b dd67 1c3d
000001e0: 34c7 9a3d bb33 8abd 4ae1 8f3d 0e2b 133d
000001f0: 0c2a 86bc 8032 0d3c c28f 14bd 7f3c 253d

decoder_output_layer.weight f4 [128, 128]
-1.3187304e-13 -2.263064e-05 -1.2681714e-16 1.5772828e-05 -3.484293e-10 3.2214345e-08 -1.7729151e-06 -1.3029074e-07
1.1131587e-05 -0.00870763 6.1857177e-06 -8.519659e-08 -2.6677678e-13 -5.1077974e-14 6.461837e-06 1.3338323e-06
-2.2170752e-06 -1.8754093e-06 -8.237454e-06 -6.2710104e-17 -7.972022e-05 2.3120913e-07 -1.3585998e-06 -5.866921e-13
8.308251e-06 1.3849636e-07 -1.696783e-09 5.0903213e-06 -2.0916224e-05 -3.4106083e-07 -1.6721201e-07 3.4414444e-14
1.6332628e-05 -0.0019780337 -1.1144774e-05 -0.0015959871 8.214383e-06 2.1529804e-06 9.163736e-05 -5.2749356e-06
8.7736584e-07 1.5289873e-12 -8.71508e-06 1.5538631e-06 -2.4708052e-06 5.6454155e-05 -3.2129105e-07 -8.254992e-06
5.582072e-06 -0.004422131 4.530775e-06 2.2870297e-06 1.5767802e-05 -2.215047e-05 8.641341e-17 1.6407605e-05
-1.6710836e-05 -1.9836637e-06 5.5226187e-06 6.7842115e-10 -3.0503476e-05 -8.70053e-05 1.0805201e-06 1.6210054e-06
-7.3812305e-05 -0.00054571 5.1987547e-07 -0.0062218993 7.674888e-18 -7.4250886e-05 7.508193e-13 -6.6984683e-13
2.3105206e-06 -4.614925e-13 -5.6879143e-13 -0.004058053 1.3220708e-06 -3.0515284e-05 -0.0024988148 5.4813397e-11
-5.2769394e-08 -1.5393985e-07 -1.064314e-05 -3.6162203e-06 3.832197e-06 -2.861503e-16 4.6928576e-06 -1.986642e-05
1.1370234e-05 -2.3374816e-14 5.6692024e-06 -1.5581935e-07 -1.5827957e-06 1.2950478e-06 7.94343e-06 2.9315637e-05
-7.547021e-07 -1.1694377e-05 -3.00915e-12 8.982905e-06 2.5579118e-06 -0.0066048955 -0.0010585478 -2.2636836e-12
6.7998495e-05 3.0557618e-05 -1.1631663e-06 -4.9251884e-08 2.1708008e-06 -0.0009554568 -1.5919296e-07 -5.8855015e-13
-4.978763e-08 2.485476e-16 7.338246e-13 -1.6962651e-06 3.959557e-06 5.148985e-07 1.1542306e-11 -7.741324e-06
-2.546869e-05 3.1187777e-05 9.306566e-05 2.855545e-13 6.5812342e-18 -1.1747503e-06 -1.4267239e-13 1.6238149e-06
-0.037227005 0.04671712 -0.04560757 0.030588068 0.013546275 -0.020205682 -2.2118014e-08 0.03483414
-0.028199911 -0.062211927 0.010126246 0.024881702 0.04639276 0.071826816 0.025115814 0.024021888
0.0060155336 0.055372562 0.008409585 -1.0664442e-05 0.011854335 6.7326374e-17 0.030527256 0.06501767
-0.046959847 0.042010896 0.006556887 0.006959173 0.02244837 -0.02885542 -0.0016391872 -0.05749391
-0.037533607 -0.010772917 0.016398134 0.030650103 0.09836796 0.021894487 -0.037608907 0.051115647
-0.017366499 -0.0075800843 0.017430734 0.039290708 -0.022966458 0.023676498 0.03647363 -0.012625029
-0.06884429 -0.013623436 -0.025311152 0.021512484 0.011501924 -0.07179785 0.008712328 0.06677276
-0.008029298 -0.012642407 -0.015417325 0.00041030807 -0.056069903 0.014623271 -0.0003259752 0.04691031
-0.01966571 0.029657612 0.018117523 0.0011532073 -0.042722322 0.05520969 -0.00066802726 -0.006552823
0.022827683 0.014499653 0.0014948978 -0.010568099 0.06332042 -0.07277332 0.0016136325 0.025488991
-0.03473435 -0.046988264 -1.252759e-16 0.02867136 0.015071522 -2.8356162e-15 3.488073e-09 0.020020116
0.021851555 0.0021425607 0.024783479 -0.016848266 -0.0007980464 0.034656957 0.002386439 -0.008081044
0.05675657 0.024969371 -0.010338365 0.014812351 -0.001047593 -0.0029509123 -0.022223044 -0.031568963
-0.007827079 0.003705422 -0.017365605 0.019802898 -0.023421874 -0.05161893 0.026111228 0.023285378
0.00518891 0.012377126 0.022161955 0.08179063 0.015925776 0.047337998 -0.015205928 -0.029165031
0.0032664714 0.00096108613 -0.031446166 -0.024857325 -0.059650782 0.0016600257 -0.017857393 0.035770748
00000000: d179 14aa eed6 bdb7 d035 12a5 e44f 8437
00000010: 118d bfaf 0c5c 0a33 e6f4 edb5 0ce6 0bb4
00000020: cdc1 3a37 73aa 0ebc e98e cf36 52f5 b6b3
00000030: 962e 96aa e508 66a9 c2d2 d836 2106 b335
00000040: 10c9 14b6 93b6 fbb5 9833 0ab7 8399 90a4
00000050: 782f a7b8 4842 7834 2259 b6b5 9f23 25ab
00000060: ab63 0b37 97b5 1434 3f34 e9b0 87cd aa36
00000070: 4075 afb7 0b1b b7b4 e38a 33b4 27fd 1a29
00000080: 0d02 8937 e6a1 01bb 71fa 3ab7 7130 d1ba
00000090: 82d0 0937 ec7b 1036 6f2d c038 5aff b0b6
000000a0: 1f84 6b35 932f d72b fc36 12b7 548e d035
000000b0: 1cd0 25b6 30c9 6c38 e87d acb4 ec7e 0ab7
000000c0: a24d bb36 86e7 90bb 1007 9836 df7a 1936
000000d0: 1945 8437 c6cf b9b7 7941 c724 10a3 8937
000000e0: 3f2e 8cb7 151f 05b6 ef4e b936 a57b 3a30
000000f0: b7e1 ffb7 9d76 b6b8 6306 9135 5291 d935
00000100: aecb 9ab8 fa0d 0fba 928d 0b35 13e1 cbbb
00000110: a293 0d23 24b7 9bb8 3b56 532b 8d8b 3cab
00000120: 710e 1b36 0ae6 01ab be19 20ab 6af9 84bb
00000130: 0272 b135 13fb ffb7 28c3 23bb 6612 712e
00000140: 90a4 62b3 aa4a 25b4 f08f 32b7 31ae 72b6
00000150: 5296 8036 55f4 a4a5 5777 9d36 d0a6 a6b7
00000160: c8c2 3e37 a88a d2a8 143a be36 4c4f 27b4
00000170: 7270 d4b5 81d1 ad35 c644 0537 daea f537
00000180: bc96 4ab5 f732 44b7 07c0 53ac 48b5 1637
00000190: 97a8 2b36 e16d d8bb f8be 8aba e64a 1fac
000001a0: 6a9a 8e38 fe2a 0038 171e 9cb5 0589 53b3
000001b0: 13ae 1136 9f77 7aba a1ee 2ab4 82a9 25ab
000001c0: 14d6 55b3 2747 8f25 a38d 4e2b 3aab e3b5
000001d0: 56dc 8436 8e37 0a35 ed0d 4b2d bce0 01b7
000001e0: 98a5 d5b7 9fcf 0238 3f2c c338 bec0 a02a
000001f0: 00ce f222 1dac 9db5 84a2 20aa dbf1 d935
00000200: 587b 18bd 735a 3f3d 01cf 3abd d493 fa3c
00000210: 32f1 5d3c 6386 a5bc 07fe bdb2 3eae 0e3d
00000220: 8003 e7bc efd1 7ebd 8ee8 253c b6d4 cb3c
00000230: 5606 3e3d f019 933d aebf cd3c 8dc9 c43c
00000240: f41d c53b 57ce 623d 5bc8 093c 6eeb 32b7
00000250: af38 423c 7a3e 9b24 4c14 fa3c fc27 853d
00000260: f858 40bd 9e13 2c3d 28db d63b c609 e43b
00000270: a5e5 b73c 3462 ecbc ffd9 d6ba bc7e 6bbd
00000280: d7bc 19bd e480 30bc 6155 863c ed15 fb3c
00000290: 2475 c93d 115c b33c cc0b 1abd a45e 513d
000002a0: 3044 8ebc 5b62 f8bb e6ca 8e3c 4bef 203d
000002b0: 2724 bcbc 37f5 c13c 6065 153d 36d9 4ebc
000002c0: 3cfe 8cbd d534 5fbc 5559 cfbc f33a b03c
000002d0: 9172 3c3c c00a 93bd 27be 0e3c 28c0 883d
000002e0: 518d 03bc 1922 4fbc f398 7cbc 9e1e d739
000002f0: 8ea9 65bd 7296 6f3c a7e7 aab9 0625 403d
00000300: fc19 a1bc 85f4 f23c 336b 943c 3727 973a
00000310: 9afd 2ebd 8e23 623d 8d1e 2fba 10b9 d6bb
00000320: 1f01 bb3c f48f 6d3c 72f0 c33a d225 2dbc
00000330: 23ae 813d 2e0a 95bd 8680 d33a 4ace d03c
00000340: 9b45 0ebd c476 40bd eb6e 10a5 33e0 ea3c
00000350: 8cee 763c e353 4ca7 d4b2 6f31 3a01 a43c
00000360: 0802 b33c 346a 0c3b b906 cb3c 6005 8abc
00000370: fd33 51ba 74f4 0d3d cd65 1c3b 5b66 04bc
00000380: 9479 683d 918c cc3c 3f62 29bc 81af 723c
00000390: 634f 89ba 1864 41bb 1a0d b6bc 754e 01bd
000003a0: 263d 00bc aad6 723b 5042 8ebc b039 a23c
000003b0: 3bdf bfbc 5f6e 53bd 37e7 d53c fac0 be3c
000003c0: bb07 aa3b 6ec9 4a3c fd8c b53c d981 a73d
000003d0: c676 823c 7de5 413d 4922 79bc 81eb eebc
000003e0: 4c12 563b 66f1 7b3a b2cd 00bd 97a1 cbbc
000003f0: 6154 74bd 3895 d93a ab49 92bc 5984 123d

decoder_output_layer.bias f4 [128]
-8.729847e-05 0.0066135465 0.010187689 -0.01122359 -0.043561302 -0.01150738 -0.0054368195 -0.02967522
0.061692353 0.078192316 0.018664353 -0.029438185 0.04181916 0.09367161 0.005223179 0.00060108525
-0.0066647944 0.014156842 0.03681094 -0.0138048 0.010187987 0.048928965 0.015174432 -0.020861998
-0.03451688 -0.0510645 0.058772415 0.0027228007 0.020825624 -0.035208113 0.027092692 0.011175951
-0.025341509 0.042698607 0.012418224 0.006413081 0.040621534 0.006936751 0.05536053 -0.0104910955
-0.0591882 0.06138579 -0.04774778 -0.017931022 -0.0431789 0.04772054 -0.0019029166 0.07250862
0.018750861 0.07710833 0.018705202 0.05103498 -0.019937433 -0.039730493 -0.018507876 0.040698353
0.0015014715 -0.019599605 -0.029495107 0.014809843 0.015556032 -0.005241158 0.0033795745 0.0262085
0.020637587 -0.0011712791 0.015088527 -0.033588972 0.0140652545 -0.0066389013 -0.006066172 0.05760191
0.040245 0.030651616 0.03866946 -0.058912743 -0.018353852 0.08209064 -0.052924287 -0.0007642276
0.06440936 -0.047285657 -0.04122896 0.01614819 0.022169586 -0.00881813 -0.018909 0.033933606
-0.003513521 -0.028966965 0.03943642 -0.014043946 0.0038917789 -0.06061244 -0.030054606 0.045870572
0.008258369 0.041017476 0.02912623 0.071091175 0.019920155 0.059557937 0.01378981 0.020818109
0.010170181 -0.02973488 0.0025115728 0.020048013 0.021473091 0.07181007 -0.0025274744 0.06401505
-0.027900467 -9.0564165e-05 0.01106737 0.008998913 1.0209195e-05 0.032103788 -0.053390265 -0.013830064
0.042896017 -0.037859928 0.024152536 -0.0052582365 0.04329411 -0.043683663 -0.008996521 0.05772455
00000000: 0214 b7b8 73b6 d83b 44ea 263c 26e3 37bc
00000010: 566d 32bd 7389 3cbc 5927 b2bb 7219 f3bc
00000020: 1fb1 7c3d 4b23 a03d fce5 983c 5928 f1bc
00000030: 914a 2b3d e7d6 bf3d 3327 ab3b 2692 1d3a
00000040: 5964 dabb 19f2 673c 11c7 163d 872d 62bc
00000050: 84eb 263c bd69 483d 2e9e 783c c8e6 aabc
00000060: 9261 0dbd 0229 51bd 58bb 703d 0471 323b
00000070: 809a aa3c 6236 10bd 7ef1 dd3c 561b 373c
00000080: ff98 cfbc bce4 2e3d ce75 4b3c d324 d23b
00000090: c462 263d af4d e33b b9c1 623d d8e2 2bbc
000000a0: 536f 72bd ab6f 7b3d 2d93 43bd 14e4 92bc
000000b0: 5cdc 30bd 9d76 433d 496b f9ba 667f 943d
000000c0: 689b 993c f9ea 9d3d a73b 993c 0e0a 513d
000000d0: d453 a3bc 71bc 22bd d49d 97bc 51b3 263d
000000e0: 06cd c43a 5a8f a0bc b99f f1bc fca4 723c
000000f0: bade 7e3c 05be abbb da7b 5d3b 35b3 d63c
00000100: 2810 a93c 9b85 99ba df35 773c 9794 09bd
00000110: f471 663c 248b d9bb bdc6 c6bb fbef 6b3d
00000120: f1d7 243d 1919 fb3c de63 1e3d 7d4e 71bd
00000130: d15a 96bc 231f a83d 23c7 58bd 7256 48ba
00000140: 0ee9 833d 9bae 41bd b3df 28bd 3549 843c
00000150: fe9c b53c eb79 10bc 0ce7 9abc f7fd 0a3d
00000160: 1a43 66bb 214c edbc 1588 213d 9418 66bc
00000170: 370d 7f3b c044 78bd 1435 f6bc c8e2 3b3d
00000180: 1c4e 073c f101 283d 229a ee3c 4098 913d
00000190: 982f a33c 06f3 733d a8ee 613c bd8a aa3c
000001a0: d5a0 263c 9096 f3bc 3399 243b bb3b a43c
000001b0: 56e8 af3c 2811 933d fca3 25bb 531a 833d
000001c0: 858f e4bc 44ed bdb8 ea53 353c 2d70 133c
000001d0: 2948 2b37 437f 033d c0af 5abd 7e97 62bc
000001e0: bcb3 2f3d 0313 1bbd 8adb c53c 494d acbb
000001f0: 2a55 313d a4ed 32bd 2566 13bc 9470 6c3d
