results/milestone/programming tutorials/GCP/params/AE/params16.pt (torch_old, 265742 bytes, 8 tensors)

encoder_hidden_layer.weight f4 [128, 128]
0.070324786 0.11827836 -0.056024443 -0.0664675 0.058249146 -0.0072769383 -0.029794335 -0.058097064
0.035640433 -0.02334982 0.08953333 0.019659137 -0.057761084 0.03520408 -0.030045446 -0.04585147
-0.06961314 0.050120283 0.059803225 0.08989615 0.09174446 0.015594686 0.06726727 -0.025393546
-0.017752849 0.0051767873 0.046999857 -0.029489662 0.059451412 -0.026598742 0.031233417 0.061525133
0.075852014 -0.04753044 0.03937849 0.103587575 0.05317845 0.07305822 0.071411535 0.09519128
0.0074376627 0.05516782 0.09118279 -0.033275213 0.022829775 -0.0063091875 -0.04121573 -0.0055389623
0.085674055 -0.015741633 -0.033429876 -0.007672025 -0.06334601 -0.017270148 -0.0037221708 0.020308532
0.0026239415 0.05978868 -0.029932374 0.009247588 -0.0591086 -0.054504834 -0.053378873 0.02674687
0.03661938 -0.077257745 -0.06421236 0.039140914 -0.0076612965 0.05596165 -0.04217432 0.10018868
-0.05368278 -0.024694446 0.081605785 0.0013380568 0.07654502 -0.028249856 0.015010167 -0.021353722
-0.027989566 -0.0016708609 0.08406638 -0.062328078 0.04573742 0.08475962 0.086102836 -0.041785944
0.103848726 -0.0020254757 0.055223387 -0.0026971954 -0.05958821 0.035002556 0.07337561 0.012074647
-0.06462776 0.04613189 0.07989528 0.10125863 0.08543807 0.025984915 0.091367446 -0.010989467
-0.05191968 0.01505911 -0.05367886 0.020028906 -0.018225022 -0.067915425 0.012393346 -0.03349182
0.06395966 -0.022907207 0.034792356 -0.038140513 0.0035205223 -0.015905512 -0.057836507 -0.076983504
-0.009887679 0.024307502 -0.05163346 0.052454807 0.08967707 -0.03753186 -0.012367884 -0.03855879
-0.048729133 -0.047959927 0.008120956 -0.09280365 0.018338036 0.043605104 0.05359638 0.026681615
0.062648535 0.1011368 0.0069102533 0.006674669 -0.029578825 -0.051723797 -0.10813564 -0.07580127
-0.046972666 -0.09009026 -0.07941766 -0.111720845 -0.10078158 -0.02244464 -0.04726326 0.0265696
0.021170301 0.03653798 -0.030968023 -0.033336096 -0.015194912 -0.02795641 -0.007460745 -0.037943073
-0.015070987 0.026854115 0.090884134 0.041835792 0.106439695 0.07763511 0.08950941 0.110675775
0.064876564 -0.011932012 -0.0012106287 -0.013555099 -0.038096186 -0.06133617 -0.019826824 -0.047176097
-0.086176574 0.002920294 0.07048545 0.12922381 0.13238627 0.052456606 0.13377509 0.14506777
0.13037935 0.11963886 0.039027333 -0.054597992 -0.13187283 -0.11326269 -0.15985496 -0.21672593
-0.06398724 0.029172644 -0.0048509953 0.004849523 0.03193344 0.019818813 -0.05153328 -0.08344634
-0.11575564 -0.05722178 -0.020198122 0.0033839387 0.03766534 0.09573053 0.06133147 0.028457563
-0.037035458 -0.041621435 0.02723725 -0.011754223 -0.03383987 -0.04580982 -0.0697671 -0.043192495
-0.0027106807 -0.06550702 -0.014065165 -0.009988657 -0.03254546 -0.007644873 0.027350899 0.020794079
0.0768179 0.005335509 -0.008273604 0.008894515 -0.006779793 -0.009005798 -0.016833559 0.024431879
-0.0308396 0.025182521 0.043855034 -0.013788248 0.0017411185 -0.008119326 0.014343614 -0.024157988
0.01267603 -0.022691835 -0.03069299 -0.011073635 -0.041219596 -0.017138718 -0.033434562 -0.008859353
-0.022035653 -0.035553813 0.01694009 0.021862118 -0.030493574 0.005978421 -0.12849209 -0.10998985
00000000: 7106 903d ed3b f23d e379 65bd 1d20 88bd
00000010: a896 6e3d 6273 eebb 4013 f4bc 30f7 6dbd
00000020: b4fb 113d 1f48 bfbc 405d b73d 330c a13c
00000030: e396 6cbd 2732 103d de21 f6bc c0ce 3bbd
00000040: 5591 8ebd ed4a 4d3d 3af4 743d 791b b83d
00000050: 85e4 bb3d db80 7f3c 6cc3 893d 2006 d0bc
00000060: 6c6e 91bc 0aa2 a93b ec82 403d 4e94 f1bc
00000070: 5383 733d 9be5 d9bc 39dd ff3c c701 7c3d
00000080: 4d58 9b3d 47af 42bd 574b 213d b925 d43d
00000090: a5d1 593d 8c9f 953d 3640 923d a5f3 c23d
000000a0: a3b7 f33b a7f7 613d 0bbe ba3d 974b 08bd
000000b0: 8205 bb3c 4dbd cebb d3d1 28bd 2f80 b5bb
000000c0: e175 af3d 99f4 80bc c4ed 08bd 9c65 fbbb
000000d0: 8ebb 81bd 207a 8dbc aaef 73bb 145e a63c
000000e0: 6ff6 2b3b fae4 743d bd34 f5bc 3283 173c
000000f0: dc1b 72bd 7640 5fbd cea3 5abd 401c db3c
00000100: 34fe 153d 4f39 9ebd c581 83bd 3952 203d
00000110: 9d0b fbbb 0b38 653d fbbe 2cbd b92f cd3d
00000120: 7ae2 5bbd 024c cabc ef20 a73d bc61 af3a
00000130: a3c3 9c3d 3e6c e7bc 34ed 753c 00ee aebc
00000140: 604a e5bc ca00 dbba ff2a ac3d ba4b 7fbd
00000150: 2957 3b3d 7496 ad3d af56 b03d bd27 2bbd
00000160: a4ae d43d d8bd 04bb eb31 623d 6ec3 30bb
00000170: c412 74bd d75e 0f3d f445 963d bdd4 453c
00000180: 8f5b 84bd cbf4 3c3d 23a0 a33d af60 cf3d
00000190: 28fa ae3d 51de d43c db1e bb3d 2a0d 34bc
000001a0: bba9 54bd 7cba 763c 5dde 5bbd a913 a43c
000001b0: a44c 95bc 3e17 8bbd 760d 4b3c b82e 09bd
000001c0: 48fd 823d e5a7 bbbc 6e82 0e3d 3a39 1cbd
000001d0: 90b8 663b 474c 82bc f9e5 6cbd 87a9 9dbd
000001e0: eeff 21bc 8720 c73c 9b7d 53bd dada 563d
000001f0: 9da8 b73d 02bb 19bd aaa2 4abc d2ef 1dbd
00000200: 3398 47bd a171 44bd c20d 053c d70f bebd
00000210: a639 963c 449b 323d e187 5b3d 6793 da3c
00000220: e04d 803d d020 cf3d 686f e23b 2fb7 da3b
00000230: 4b4f f2bc 55dc 53bd 3876 ddbd b23d 9bbd
00000240: 6966 40bd 3e81 b8bd baa5 a2bd e6cd e4bd
00000250: 9366 cebd d2dd b7bc 1f97 41bd 7da8 d93c
00000260: 576d ad3c d9a8 153d a7b0 fdbc 6e8b 08bd
00000270: 15f4 78bc d704 e5bc 4479 f4bb 326a 1bbd
00000280: 4dec 76bc 29fd db3c 7621 ba3d 025c 2b3d
00000290: 0efd d93d 28ff 9e3d b650 b73d fba9 e23d
000002a0: 01de 843d 7c7e 43bc f5ad 9eba 3516 5ebc
000002b0: bf0a 1cbd a33b 7bbd dd6b a2bc b93b 41bd
000002c0: 587d b0bd 6762 3f3b ad5a 903d 3f53 043e
000002d0: 4490 073e bddc 563d 56fc 083e a58c 143e
000002e0: 2a82 053e 3805 f53d 20db 1f3d 25a2 5fbd
000002f0: ac09 07be 45f6 e7bd 05b1 23be 67ed 5dbe
00000300: be0b 83bd 78fb ee3c 19f5 9ebb bfe8 9e3b
00000310: a4cc 023d 105b a23c 9014 53bd eae5 aabd
00000320: 4b11 edbd 6361 6abd 8876 a5bc 12c5 5d3b
00000330: f946 1a3d 5e0e c43d b536 7b3d d61f e93c
00000340: 7eb2 17bd 3d7b 2abd a720 df3c c994 40bc
00000350: ad9b 0abd 14a3 3bbd 0ee2 8ebd 9dea 30bd
00000360: ada5 31bb 8b28 86bd 9471 66bc 77a7 23bc
00000370: 634e 05bd d881 fabb fe0e e03c 5858 aa3c
00000380: b452 9d3d 7ed5 ae3b 038e 07bc 4dba 113c
00000390: 0729 debb 0e8d 13bc 88e6 89bc 5d25 c83c
000003a0: 54a3 fcbc 934b ce3c 56a1 333d 1be8 61bc
000003b0: 3e36 e43a ec06 05bc 7a01 6b3c f9e6 c5bc
000003c0: 20af 4f3c 3ae4 b9bc de6f fbbc 316e 35bc
000003d0: e1d5 28bd 7f66 8cbc aef2 08bd d226 11bc
000003e0: 1d84 b4bc e0a0 11bd f2c5 8a3c 2f18 b33c
000003f0: a9cd f9bc a1e6 c33b 6e93 03be 5c42 e1bd

encoder_hidden_layer.bias f4 [128]
0.0038735005 0.177837 0.075848356 -0.031682134 -0.06162561 -0.019839067 0.12394936 0.0045127496
-0.008698062 -0.0027974595 -0.00848779 -0.049226675 0.1369288 0.08081181 -0.06423568 0.08830719
0.20455247 0.0666362 0.0605273 0.069668464 0.083997935 0.072502784 0.19530004 0.09554386
0.011115864 0.31074914 0.06140747 0.07731244 0.28982368 0.12100917 0.08079896 0.0035271144
0.111136526 0.008322295 0.11347009 0.014708281 0.111577936 0.13973765 0.18770763 0.23872639
0.23747405 0.11410692 -0.013189625 0.05631786 0.126453 0.04671799 0.2758586 -0.021744883
0.12992436 0.1396628 0.02831446 0.04627378 0.14582285 0.12939179 0.15129888 0.14584343
0.046024937 0.30936205 0.059608094 0.013559293 0.28758484 0.07925301 0.02599427 0.037073463
0.20935172 0.068255164 -0.03501462 0.025943777 0.25790745 0.19940816 0.24959177 0.06809203
-0.066829726 0.14558816 0.031319648 0.15182711 0.031291794 0.04604434 0.15370528 0.045657545
0.062097445 0.09330521 0.16828677 -0.027706485 0.03239553 0.19964989 -0.007535011 0.23243979
0.07661305 0.13037345 0.11626006 0.029643046 0.09233426 0.08502526 0.13450211 0.017879425
0.15873632 0.026913406 0.10143813 0.2676187 0.07089211 0.029468335 0.1645248 -0.05323604
0.086307526 0.1389935 0.009598481 0.12069926 0.08288979 0.09677986 0.13674712 0.05356622
0.051211897 0.08281288 0.28539047 -0.052199714 -0.023780428 0.22567354 0.083643675 0.079648316
0.12603568 0.018647335 0.10111729 0.12403745 0.062353157 0.015102433 0.12989643 0.09840254
00000000: 8eda 7d3b e71a 363e 6256 9b3d 20c5 01bd
00000010: 236b 7cbd 8a85 a2bc 29d9 fd3d b0df 933b
00000020: 5182 0ebc 9555 37bb 5f10 0bbc e9a1 49bd
00000030: 1037 0c3e aa80 a53d ff8d 83bd 66da b43d
00000040: 3476 513e 8f78 883d 79eb 773d 57ae 8e3d
00000050: 1c07 ac3d 577c 943d bcfc 473e 80ac c33d
00000060: 501f 363c 831a 9f3e 6686 7b3d fc55 9e3d
00000070: c563 943e a8d3 f73d ed79 a53d 2927 673b
00000080: 8c9b e33d 3c5a 083c 0263 e83d 00fb 703c
00000090: f982 e43d 6317 0f3e 6e36 403e b174 743e
000000a0: 662c 733e e4b0 e93d 4c19 58bc 8ead 663d
000000b0: e57c 013e 5d5b 3f3d 573d 8d3e 5322 b2bc
000000c0: e40a 053e c403 0f3e baf3 e73c 9389 3d3d
000000d0: 9652 153e 487f 043e 18ee 1a3e fb57 153e
000000e0: a584 3c3d b464 9e3e 9e27 743d cc27 5e3c
000000f0: 523e 933e 674f a23d eff1 d43c 58da 173d
00000100: 4c60 563e 5dc9 8b3d 7d6b 0fbd 0b88 d43c
00000110: 720c 843e a731 4c3e fc94 7f3e d673 8b3d
00000120: 06de 88bd 1015 153e 0849 003d 9178 1b3e
00000130: d32b 003d fd98 3c3d eb64 1d3e 6803 3b3d
00000140: e459 7e3d cd16 bf3d 5e53 2c3e b6f8 e2bc
00000150: 2db1 043d 0571 4c3e 41e8 f6bb b204 6e3e
00000160: 4ee7 9c3d 9e80 053e c119 ee3d f9d5 f23c
00000170: bf19 bd3d b921 ae3d ecba 093e df77 923c
00000180: c68b 223e 8179 dc3c cbbe cf3d 5105 893e
00000190: e22f 913d 9467 f13c 3079 283e 090e 5abd
000001a0: 00c2 b03d 5054 0e3e f242 1d3c 2c31 f73d
000001b0: 1fc2 a93d 8534 c63d 7007 0c3e 4168 5b3d
000001c0: 91c3 513d cd99 a93d b31e 923e 5ecf 55bd
000001d0: 2ccf c2bc f716 673e 604d ab3d a81e a33d
000001e0: 7f0f 013e 4cc2 983c 9516 cf3d 5907 fe3d
000001f0: 0666 7f3d 3270 773c 9203 053e 4587 c93d

encoder_output_layer.weight f4 [128, 128]
-0.042489767 0.025329728 -0.078879185 0.028445922 0.050281137 0.015947279 0.11864954 0.06346252
-0.08683479 -0.036675785 -0.0059725298 -0.06825815 0.05254514 0.016991999 -0.07832285 0.03506517
0.07299464 -0.021710021 -0.0060150665 0.056252956 0.074554905 -0.041862376 -0.026311597 0.016135687
-0.06571375 0.18225048 -0.01734431 -0.019975726 -0.008446531 0.014620677 0.07083077 -0.00095162104
-0.09275256 -0.04492398 0.046952907 0.07996432 0.07158765 0.017336877 0.09159269 0.06660673
0.110601425 0.0072410596 -0.0020817711 0.07444694 0.08300597 0.03082011 -0.018108288 -0.033001695
0.08715594 0.060010824 -0.012199319 0.058060993 -0.0026099067 0.044839676 0.04474752 0.02236079
-0.110481665 -0.106764555 -0.038766768 -0.026628278 0.061188474 0.0772771 0.045879208 0.061841585
-0.03277525 -0.0021863305 0.05593024 0.09067861 0.12452168 0.051692538 -0.010108269 0.047939572
-0.058018886 -0.028016496 0.027548995 0.09483985 0.032579705 -0.06087052 -0.08441648 0.021732915
0.060981844 -0.037388023 0.041289475 0.043022517 0.029433243 0.067871414 0.0005478688 -0.049988873
-0.079438105 -0.06200342 0.041404516 0.019883677 -0.026831103 -0.061021518 -0.007286194 0.10058621
-0.061571218 0.10458407 -0.03060701 -0.017641839 0.049784087 0.007832328 0.02426597 0.056833003
0.0412104 0.029061513 0.021052849 0.02345633 -0.0564364 0.034921877 0.12655134 -0.06364377
-0.0020126586 0.047962766 0.0723957 0.029378604 -0.016676418 -0.08876701 -0.07497031 0.058132187
-0.031077852 -0.03568185 -0.030657897 0.113121994 -0.042327214 -0.04572669 0.025753943 0.033895407
-0.045838367 0.056959044 0.023234919 -0.027423974 0.052078754 -0.020702304 0.08764877 0.032610923
0.07362128 0.038860116 0.05652982 0.016467141 -0.16107015 -0.051228218 0.02397145 0.08354491
-0.0637543 -0.021409415 0.026598765 -0.040203407 -0.030281167 0.011040041 0.02103192 0.045022316
0.048767436 0.081835285 0.13202624 -0.0041799466 0.04421824 0.056306034 0.14782113 0.03861745
-0.01455489 0.06892143 0.20844083 -0.057234786 0.022638634 0.079639934 0.13824493 0.06321999
-0.016185796 -0.046010096 0.10625509 -0.060218938 -0.05614385 0.0230574 0.09083064 -0.040230617
-0.003034948 -0.069224365 -0.029100945 -0.0450242 -0.03957889 0.12534694 -0.008205149 0.012723197
-0.015368568 0.03294029 0.06127227 -0.031508423 0.07308168 0.0357457 -0.017737772 0.036138706
-0.017586926 0.06417527 -0.0057713487 0.05010693 -0.1593025 -0.11566301 0.026953153 -0.011320672
-0.0054745562 -0.017301423 0.061697938 0.0034055372 -0.035306614 0.07749391 0.037244238 0.05239394
-0.047893103 -0.02448118 -0.12826812 -0.030987283 0.017847639 0.09684095 0.019242452 0.02800969
0.018000783 -0.0049944147 0.010029535 -0.023616279 0.041430112 -0.028247766 -0.09784595 0.113016196
0.055048555 -0.037483227 -0.0033744455 0.12807411 0.04101243 0.03653918 0.10748984 0.012276885
0.0791427 -0.020932026 0.04441069 0.012285761 -0.0160869 0.018534057 0.10364331 -0.019487878
-0.05522538 -0.05615134 0.08790138 0.10895105 0.04885053 0.0023285167 -0.041372914 -0.01622435
-0.04469429 0.019471115 -0.10815135 0.061629783 -0.045006562 -0.008391103 0.08111179 -0.05373591
00000000: c009 2ebd 4a80 cf3c 698b a1bd 6c07 e93c
00000010: 98f3 4d3d dea3 823c 88fe f23d a3f8 813d
00000020: 70d6 b1bd 5939 16bd 36b5 c3bb eeca 8bbd
00000030: 9339 573d ce32 8b3c bb67 a0bd 7fa0 0f3d
00000040: 377e 953d 37d9 b1bc 091a c5bb 8069 663d
00000050: 3eb0 983d e277 2bbd 6b8b d7bc fd2e 843c
00000060: ee94 86bd df9f 3a3e a815 8ebc 22a4 a3bc
00000070: 5263 0abc 908b 6f3c b90f 913d 3576 79ba
00000080: 0ef5 bdbd 3502 38bd b151 403d 55c4 a33d
00000090: 8c9c 923d 1106 8e3c f394 bb3d 1c69 883d
000000a0: 0083 e23d 6946 ed3b 536e 08bb a377 983d
000000b0: 09ff a93d 757a fc3c d557 94bc c92c 07bd
000000c0: d07e b23d e9cd 753d a7df 47bc 5dd1 6d3d
000000d0: f80a 2bbb cfa9 373d 2d49 373d fa2d b73c
000000e0: 3644 e2bd 60a7 dabd e7c9 1ebd 8c23 dabc
000000f0: c4a0 7a3d 7543 9e3d d6eb 3b3d 9a4d 7d3d
00000100: 573f 06bd 8a48 0fbb 1b17 653d b5b5 b93d
00000110: 3905 ff3d 8ebb 533d 279d 25bc 495c 443d
00000120: 36a5 6dbd da82 e5bc 6eae e13c 653b c23d
00000130: 4c72 053d 5e53 79bd 8ce2 acbd 3a09 b23c
00000140: 19c8 793d 2f24 19bd 271f 293d 6138 303d
00000150: fc1d f13c 2b00 8b3d da9e 0f3a 22c1 4cbd
00000160: 72b0 a2bd 4cf7 7dbd c897 293d 18e3 a23c
00000170: e7cc dbbc b3f1 79bd 06c1 eebb 2500 ce3d
00000180: 1a32 7cbd 2c30 d63d 8dbb fabc 9e85 90bc
00000190: 66ea 4b3d 2a53 003c 6dc9 c63c b9c9 683d
000001a0: 3dcc 283d 6912 ee3c 0677 ac3c 7d27 c03c
000001b0: db29 67bd 3e0a 0f3d ad96 013e aa57 82bd
000001c0: cfe6 03bb 9b74 443d 3244 943d 66ab f03c
000001d0: fc9c 88bc 7acb b5bd 098a 99bd 041c 6e3d
000001e0: fb96 febc 2227 12bd 4526 fbbc 81ac e73d
000001f0: 4d5f 2dbd e94b 3bbd eff9 d23c e9d5 0a3d
00000200: 03c1 3bbd e34d 693d 2857 be3c 3ea8 e0bc
00000210: 8850 553d e197 a9bc 3381 b33d 0893 053d
00000220: c1c6 963d c92b 1f3d d08b 673d 19e6 863c
00000230: 93ef 24be aed4 51bd c65f c43c 9819 ab3d
00000240: 9d91 82bd cc62 afbc a7e5 d93c 54ac 24bd
00000250: 3610 f8bc 4ae1 343c 224b ac3c 5269 383d
00000260: 5dc0 473d 4299 a73d e331 073e eff7 88bb
00000270: 2f1e 353d 28a1 663d 6c5e 173e 552d 1e3d
00000280: a277 6ebc ae26 8d3d 8371 553e 066f 6abd
00000290: a874 b93c 431a a33d 1490 0d3e 7b79 813d
000002a0: 1398 84bc 1575 3cbd 459c d93d 22a8 76bd
000002b0: 18f7 65bd dfe2 bc3c 6a05 ba3d dcc8 24bd
000002c0: fae5 46bb 81c5 8dbd 1b65 eebc 4c6b 38bd
000002d0: 791d 22bd f35a 003e e46e 06bc f574 503c
000002e0: 72cc 7bbc 66ec 063d a2f8 7a3d fa0e 01bd
000002f0: d9ab 953d 156a 123d ce4e 91bc 2e06 143d
00000300: 7512 90bc 536e 833d 951d bdbb ed3c 4d3d
00000310: 3220 23be bae0 ecbd dccc dc3c 577a 39bc
00000320: e863 b3bb b7bb 8dbc fab6 7c3d 6f2f 5f3b
00000330: ab9d 10bd 21b5 9e3d 6a8d 183d 079b 563d
00000340: 8f2b 44bd c18c c8bc b858 03be 0bd9 fdbc
00000350: 3635 923c 8c54 c63d 59a2 9d3c 9474 e53c
00000360: 6176 933c 30a8 a3bb eb52 243c ed76 c1bc
00000370: 9fb2 293d dc67 e7bc 7563 c8bd 0975 e73d
00000380: 987a 613d 0388 19bd cd25 5dbb dc25 033e
00000390: a6fc 273d 1baa 153d a223 dc3d fd24 493c
000003a0: 9115 a23d a479 abbc fce7 353d 374a 493c
000003b0: adc8 83bc bcd4 973c f242 d43d 0ba5 9fbc
000003c0: 0234 62bd f3fe 65bd a405 b43d ba21 df3d
000003d0: 7e17 483d 079a 183b a576 29bd eee8 84bc
000003e0: 5c11 37bd e381 9f3c 747e ddbd 836f 7c3d
000003f0: cd58 38bd d67a 09bc f01d a63d 301a 5cbd

encoder_output_layer.bias f4 [128]
0.09917727 0.021053731 -0.06218994 0.06427449 0.012662855 0.061608072 0.027056977 -0.00921522
0.058195278 0.05676724 0.02097494 -0.016353851 0.0915805 0.00786094 0.04378999 0.044463277
0.052296307 0.06266559 -0.016135765 -0.022169374 0.088474974 -0.0783436 0.1032014 0.019803556
0.003266501 0.03650394 0.031325284 0.040422074 0.10892365 -0.00806669 0.07962095 -0.008710585
0.0337189 0.03058266 0.09297755 -0.04272599 0.0020545295 -0.06755275 -0.0009548834 0.03264268
0.08478988 0.04959976 0.14911996 0.06258595 0.014994973 -0.01757793 -0.07914895 0.0347543
0.08519276 0.021346934 0.038986973 -0.0012030934 -0.05143793 0.05170926 0.0037723952 0.08157968
0.06821824 0.022642942 0.05787462 0.037127335 0.023266658 -0.001290468 0.033413265 -0.012347685
0.07236693 0.057790317 -0.015536336 -0.051985443 -0.033011448 0.06524792 -0.09608443 0.05331502
0.03751932 0.12760644 0.028569862 -0.060362425 -0.0055241543 0.050691836 -0.03945887 -0.059482962
-0.035362236 0.025076114 0.033783283 -0.07058359 0.031348154 -0.018352963 0.071281694 -0.01849054
0.11400448 -0.023222163 0.060406025 -0.0048962985 0.07819129 0.022655483 0.07324261 -0.06394726
0.06296418 0.0011683605 0.0045114094 -0.058896873 0.04912424 0.06055036 -0.044285093 -0.014808204
0.092903085 -0.041998956 0.08013001 0.100658834 -0.019489948 -0.020926664 -0.020562068 0.052181147
0.046633083 -0.03966408 -0.0404866 0.09156505 0.03093063 0.061317597 0.070935845 0.030553687
-0.045241576 0.025197383 -0.037316907 0.10265599 -0.009100103 -0.00666866 -9.957548e-10 0.11399829
00000000: 741d cb3d e078 ac3c e1ba 7ebd 58a2 833d
00000010: dd77 4f3c bf58 7c3d 98a6 dd3c 6ffb 16bc
00000020: 2c5e 6e3d c484 683d a3d3 ab3c 83f8 85bc
00000030: 8f8e bb3d 2ccb 003c 225d 333d 201f 363d
00000040: a734 563d d156 803d 272f 84bc 8c9c b5bc
00000050: 5e32 b53d 9c72 a0bd 415b d33d 113b a23c
00000060: cb12 563b 2885 153d f14e 003d 9e91 253d
00000070: 5d13 df3d 262a 04bc 4f10 a33d d7b6 0ebc
00000080: d41c 0a3d 7d88 fa3c 046b be3d 7301 2fbd
00000090: 49a5 063b 1959 8abd 2451 7aba 55b4 053d
000000a0: 51a6 ad3d 1e29 4b3d e7b2 183e 102d 803d
000000b0: 7aad 753c 97ff 8fbc d818 a2bd 865a 0e3d
000000c0: 8b79 ae3d c4df ae3c ceb0 1f3d 1eb1 9dba
000000d0: 94b0 52bd 17cd 533d 4a3a 773b 3f13 a73d
000000e0: 01b6 8b3d b17d b93c f00d 6d3d d512 183d
000000f0: b899 be3c ec24 a9ba 59dc 083d f24d 4abc
00000100: 1d35 943d 8ab5 6c3d 1e8c 7ebc b0ee 54bd
00000110: 0337 07bd b4a0 853d eac7 c4bd da60 5a3d
00000120: dcad 193d 43ab 023e 580b ea3c 973e 77bd
00000130: f703 b5bb 3ea2 4f3d a09f 21bd 68a4 73bd
00000140: fed7 10bd 6c6c cd3c 5760 0a3d 218e 90bd
00000150: ec66 003d f458 96bc 23fc 913d 7979 97bc
00000160: 2e7b e93d 683c bebc 4f6c 773d 2171 a0bb
00000170: c122 a03d fe97 b93c 3900 963d c8f6 82bd
00000180: 5df3 803d ac23 993a 72d4 933b d93d 71bd
00000190: 8036 493d a703 783d 4964 35bd 1c9e 72bc
000001a0: f943 be3d 1907 2cbd 341b a43d 3826 ce3d
000001b0: 62a9 9fbc 656e abbc c871 a8bc e6bb 553d
000001c0: 5502 3f3d cd76 22bd 47d5 25bd 7586 bb3d
000001d0: 3c62 fd3c 2928 7b3d d046 913d ba4b fa3c
000001e0: 3b4f 39bd be6a ce3c 9dd9 18bd 4e3d d23d
000001f0: 9918 15bc c684 dabb 02db 88b0 ef77 e93d

decoder_hidden_layer.weight f4 [128, 128]
-0.077250995 -0.0054431683 0.007966857 0.022605205 0.11952091 -0.0019205657 -0.09715634 -0.016592937
0.019315982 -0.013462537 0.0454577 -0.038086265 -0.0055179843 0.06484739 0.03505963 0.019416139
-0.059819244 0.026529059 -0.08737306 -0.045186915 0.08188503 -0.026291607 0.009688062 0.025035936
0.017449347 -0.105409 -0.0051564155 -0.09669915 0.022028929 -0.013367753 -0.02854723 0.076040715
0.043630734 0.034921937 -0.07115754 0.081445366 -0.061799977 -0.016168969 -0.016483122 0.06752561
0.08895601 -0.008456952 -0.001951452 -0.08983713 0.07993626 -0.024950808 0.11204449 -0.090589575
0.07075548 -0.06532699 0.04593007 0.031314958 0.018768638 -0.01997328 -0.061533228 0.10169771
0.053189933 0.06483233 0.053383462 0.03788641 -0.07049954 -0.033958547 0.068236284 0.025238972
-0.005788078 0.016630584 0.034798823 0.07801042 0.023523746 -0.039903156 0.008904907 0.006789591
0.09649956 0.07129518 -0.07195374 0.018551907 -0.031175192 -0.024356725 -0.020239081 0.03719267
0.034460966 -0.004688069 0.1229587 0.038247515 0.05237274 -0.026613887 -0.04708438 -0.07530174
0.0797862 0.06735601 -0.025063237 0.03450599 -0.010282028 -0.018207267 -0.09764603 -0.030759545
-0.016389864 -0.003321554 -0.032785863 -0.010307279 0.0046095364 0.014222607 -0.0067650126 0.0027171515
0.0024841235 0.051592458 0.047795378 -0.04656234 -0.07324948 0.011298926 -0.031893346 0.0056762467
-0.06416155 0.05458437 0.048421554 0.0138731375 0.013579636 0.01820908 0.010127785 0.008704661
0.11583281 0.012266854 0.04673613 -0.060692444 0.07372306 -0.063552424 2.1876835e-10 0.0032490185
0.025860306 0.04644139 0.042087954 -0.08172481 -0.018154487 0.04683607 0.0047367457 0.07488153
-0.002323459 -0.06410637 0.0682476 0.03373182 -0.04211623 0.0643689 0.08063034 -0.047249343
0.04823769 0.016932921 0.06849193 0.035754986 0.0134151075 -0.0044098636 0.010763597 0.018175224
0.06332412 -0.060155455 -0.002259987 -0.010290194 -0.020198707 0.037377696 0.07638274 0.034462392
-0.06867492 -0.029985515 0.013157948 -0.08459328 0.051130593 -0.0020405776 -0.032510947 0.017493825
0.0541509 -0.03895702 -0.1078014 0.030291842 0.06164019 0.07478895 -0.02103411 -0.012808541
-0.071652606 -0.0057602245 -0.027823461 -0.0789245 0.054956015 0.028704066 -0.015043801 -0.007883365
0.007582659 0.08672272 0.061483566 -0.064405404 0.02960904 0.070664234 -0.045273524 0.0743756
0.04863275 0.07871622 0.0038952925 0.085045286 -0.060210776 0.013571212 -0.00934602 0.009834033
0.035176378 0.00792581 0.052973814 0.08800616 -0.021578178 0.046611287 -0.06381227 0.05408073
0.025328994 0.019291153 0.029314691 -0.01937441 0.097479805 -0.028523313 -0.023910929 -0.061547138
0.09495085 -0.12702502 0.073959894 0.019940529 0.019810133 -0.02987102 -0.053909276 0.00872197
-0.02919667 -0.02657193 0.04177925 -0.061329115 -0.013282166 -0.072739996 -0.054547656 0.08249478
-0.0022959819 -0.028926544 0.031589027 -0.0058742617 0.081931524 -0.08556395 -0.035570342 0.05004083
0.081166334 0.015843032 0.06860251 -0.0033478949 -0.09154059 0.056086723 -0.04686977 0.05042645
0.0020203418 -0.017583363 -0.044447653 0.03388452 0.04944037 0.011951102 9.8484276e-11 -0.046142615
00000000: c535 9ebd 9b5c b2bb 6c87 023c 8d2e b93c
00000010: 61c7 f43d 7ebb fbba e7f9 c6bd e9ed 87bc
00000020: 8d3c 9e3c f991 5cbc da31 3a3d 5800 1cbd
00000030: 35d0 b4bb b5ce 843d b09a 0f3d 980e 9f3c
00000040: 0605 75bd 7853 d93c a6f0 b2bd ea15 39bd
00000050: 57b3 a73d 7f61 d7bc adba 1e3c 2a18 cd3c
00000060: eff1 8e3c ace0 d7bd 26f7 a8bb 340a c6bd
00000070: 0376 b43c 6b04 5bbc e1db e9bc 3cbb 9b3d
00000080: 24b6 323d 4e0a 0f3d 0bbb 91bd d4cc a63d
00000090: f921 7dbd c974 84bc 9d07 87bc de4a 8a3d
000000a0: 922e b63d 078f 0abc ddc7 ffba 87fc b7bd
000000b0: 9fb5 a33d a365 ccbc 9577 e53d 0787 b9bd
000000c0: 40e8 903d 28ca 85bd 2b21 3c3d 1d44 003d
000000d0: b0c0 993c 019f a3bc 440a 7cbd e446 d03d
000000e0: b0dd 593d d0c6 843d 9ea8 5a3d c82e 1b3d
000000f0: 1062 90bd 1e18 0bbd 77bf 8b3d f6c1 ce3c
00000100: eba9 bdbb dd3c 883c 3689 0e3d edc3 9f3d
00000110: dfb4 c03c 7e71 23bd e3e5 113c 387b de3b
00000120: 90a1 c53d 3503 923d 7c5c 93bd 2bfa 973c
00000130: 1e63 ffbc c187 c7bc 6ecc a5bc 5757 183d
00000140: f126 0d3d 609e 99bb c5d1 fb3d 6da9 1c3d
00000150: cc84 563d 5e05 dabc 8ddb 40bd cc37 9abd
00000160: f266 a33d f3f1 893d 6b51 cdbc 2756 0d3d
00000170: f375 28bc 6827 95bc a4fa c7bd 71fb fbbc
00000180: 0944 86bc 6eae 59bb 784a 06bd dddf 28bc
00000190: 980b 973b f005 693c 0aad ddbb 3d12 323b
000001a0: adcc 223b 9d52 533d 16c5 433d 27b8 3ebd
000001b0: d303 96bd 211f 393c 99a2 02bd cfff b93b
000001c0: 2167 83bd dc93 5f3d ae55 463d 284c 633c
000001d0: 1f7d 5e3c 352b 953c 02ef 253c ff9d 0e3c
000001e0: c139 ed3d eafa 483c 626e 3f3d a498 78bd
000001f0: 1efc 963d c627 82bd d189 702f 7ced 543b
00000200: fed8 d33c 5439 3e3d 6b64 2c3d 565f a7bd
00000210: b8b8 94bc 2ed7 3f3d b436 9b3b 7d5b 993d
00000220: 2c45 18bb 334a 83bd 66c5 8b3d 602a 0a3d
00000230: 1182 2cbd d8d3 833d 8521 a53d 8788 41bd
00000240: e294 453d e9b6 8a3c 7f45 8c3d d273 123d
00000250: 0acb 5b3c 9e80 90bb cc59 303c 35e4 943c
00000260: 14b0 813d 9165 76bd 4a1c 14bb 3498 28bc
00000270: c277 a5bc 5b19 193d 8e6e 9c3d 7028 0d3d
00000280: 70a5 8cbd 2fa4 f5bc 6f94 573c 3e3f adbd
00000290: 506e 513d 36bb 05bb 332a 05bd 364f 8f3c
000002a0: 56cd 5d3d 6591 1fbd fbc6 dcbd 9926 f83c
000002b0: 6d7a 7c3d f32a 993d ba4f acbc eada 51bc
000002c0: 9abe 92bd 44c0 bcbb 07ee e3bc 2ba3 a1bd
000002d0: 8f19 613d ca24 eb3c 467a 76bc 3b29 01bc
000002e0: f477 f83b ae9b b13d 31d6 7b3d fbe6 83bd
000002f0: a88e f23c 69b8 903d bb70 39bd 3c52 983d
00000300: 2233 473d f835 a13d 2a48 7f3b 392c ae3d
00000310: 939f 76bd ca59 5e3c 0d20 19bc ed1e 213c
00000320: 1b15 103d 42db 013c 12fb 583d 933c b43d
00000330: b8c4 b0bc 7aeb 3e3d 02b0 82bd c183 5d3d
00000340: c07e cf3c 7b08 9e3c 5d25 f03c 15b7 9ebc
00000350: 7ea3 c73d b9a9 e9bc dae0 c3bc da18 7cbd
00000360: 9775 c23d d912 02be 4978 973d 525a a33c
00000370: dc48 a23c 12b4 f4bc f9cf 5cbd 98e6 0e3c
00000380: db2d efbc 60ad d9bc b820 2b3d 3d34 7bbd
00000390: 719d 59bc b5f8 94bd 5d6d 5fbd 06f3 a83d
000003a0: 2f78 16bb 5cf7 ecbc 7f63 013d e17c c0bb
000003b0: b7cb a73d 273c afbd 35b2 11bd 9df7 4c3d
000003c0: 893a a63d 3fc9 813c 797f 8c3d 5b68 5bbb
000003d0: a279 bbbd 31bb 653d 84fa 3fbd f78b 4e3d
000003e0: b667 043b fc0a 90bc be0e 36bd 7fca 0a3d
000003f0: fc81 4a3d 8ece 433c b891 d82e 0a00 3dbd

decoder_hidden_layer.bias f4 [128]
-0.074218154 0.0021343373 0.013976481 0.02481391 -0.0034926527 0.0050567216 -0.00021567322 0.060128976
-0.020432938 0.08519244 0.05362398 -0.10641006 -0.07534386 0.05956245 -0.002357837 -0.033387724
-0.035735257 -0.0066821817 -0.05354804 -3.6129956e-07 -0.0026545282 -9.948725e-05 0.012489594 -0.009287795
0.012582808 0.10291631 -0.048111707 0.017758336 0.12215578 0.10294368 0.12091026 -0.053536907
0.015943851 0.121127404 0.07468209 0.0835931 -0.035276055 0.047593646 0.010383493 0.078876935
-0.06482852 -0.07753314 0.028067306 0.08785082 0.008677421 0.016600326 0.018581605 -0.029276876
0.016375264 0.033159234 -0.0006614105 -0.012360922 0.049609967 0.029875329 -0.0027693245 0.010186825
0.1131184 0.020473137 -0.00014899274 -0.023802513 -0.01062387 0.07109549 0.008333015 -0.061000753
0.027749833 0.03325346 0.09064156 0.048467092 -0.05807074 0.053246427 -0.048414763 0.041057393
0.052618086 -0.0361488 -0.052075393 0.06837507 -0.044151634 0.0047587287 0.064824805 0.008001298
-0.023779735 -0.013588521 -7.9235025e-07 0.051882904 0.06516671 -0.020362956 -6.2749486e-08 0.00460782
-0.026607808 -0.0027865947 -0.037783723 -0.023856975 -0.048493925 0.049989786 0.0716641 0.08571848
-0.051626753 -0.008586174 0.018703623 -0.03967111 0.06276261 0.04698225 0.02371899 -0.06405675
0.05568455 0.01889186 0.012328422 -0.02449475 0.0013650444 -0.054538336 -0.029665573 -0.016490394
-0.041551866 -0.042501345 -0.046546932 0.018966205 -0.073612735 -0.039505407 0.01027909 0.026708916
0.07662893 -0.061048698 0.06728812 0.03495569 -0.07398034 0.008837825 -0.045549326 0.036504544
00000000: b0ff 97bd 3de0 0b3b 9cfd 643c 8a46 cb3c
00000010: fde4 64bb dbb2 a53b 5726 62b9 cd49 763d
00000020: fa62 a7bc 6079 ae3d d2a4 5b3d 84ed d9bd
00000030: e24d 9abd c1f7 733d f185 1abb 91c1 08bd
00000040: 225f 12bd 34f6 dabb 3155 5bbd a2f8 c1b4
00000050: 98f7 2dbb d0a3 d0b8 27a1 4c3c d62b 18bc
00000060: 1f28 4e3c c9c5 d23d c810 45bd ee79 913c
00000070: cf2c fa3d 23d4 d23d cc9f f73d 8449 5bbd
00000080: ae9c 823c a511 f83d ecf2 983d dc32 ab3d
00000090: a07d 10bd 8ef1 423d 871f 2a3c 3b8a a13d
000000a0: d1c4 84bd b2c9 9ebd 68ed e53c 21eb b33d
000000b0: be2b 0e3c 68fd 873c 7338 983c 0fd6 efbc
000000c0: 6b25 863c fad1 073d 8262 2dba 7785 4abc
000000d0: d233 4b3d 1bbd f43c 8e7d 35bb a4e6 263c
000000e0: 9faa e73d 48b7 a73c ef3a 1cb9 7dfd c2bc
000000f0: be0f 2ebc 839a 913d 3387 083c eddb 79bd
00000100: 9e53 e33c c834 083d 48a2 b93d 6e85 463d
00000110: 96db 6dbd ed18 5a3d 8f4e 46bd cc2b 283d
00000120: 1086 573d c410 14bd 024d 55bd 3b08 8c3d
00000130: 58d8 34bd 1cef 9b3b dec2 843d e017 033c
00000140: b8cd c2bc 63a2 5ebc e5b1 54b5 2b83 543d
00000150: 2076 853d 37d0 a6bc e5c0 86b3 32fd 963b
00000160: 9ef8 d9bc 4d9f 36bb 1bc3 1abd b46f c3bc
00000170: 91a1 46bd 17c2 4c3d a1c4 923d 2c8d af3d
00000180: 9376 53bd 06ad 0cbc 5738 993c 2d7e 22bd
00000190: af89 803d 7670 403d 544e c23c 2f30 83bd
000001a0: 7c15 643d 1ac3 9a3c 26fd 493c 37a9 c8bc
000001b0: 4aeb b23a 9763 5fbd 3705 f3bc dd16 87bc
000001c0: 4a32 2abd e415 2ebd ffa7 3ebd 045f 9b3c
000001d0: 46c2 96bd 6cd0 21bd a169 283c a8cc da3c
000001e0: a1ef 9c3d 330e 7abd 5bce 893d b32d 0f3d
000001f0: 0183 97bd 86cc 103c ee91 3abd ca85 153d

decoder_output_layer.weight f4 [128, 128]
-0.11406499 0.0400913 -0.042035516 0.051278926 0.03344086 -0.032578696 -3.7991607e-22 0.030130027
-0.04253164 -0.031715896 0.018187083 -0.008337669 0.0059806556 0.17319527 0.046342913 0.03078578
-0.0064601093 0.07857603 -0.003815904 2.1124616e-31 -0.002371089 1.3123105e-22 0.008652678 0.02300138
-0.07241852 0.0697637 -0.012027599 0.019515742 0.004152936 -0.024424985 -0.014926721 -0.06674606
-0.027618024 -0.02211669 0.043065697 0.060140166 0.081182644 0.022894464 -0.044942547 0.068604656
-0.018621368 -0.058829 0.02770191 0.016002959 -0.009638122 0.04202273 0.06075638 -0.0019888375
-0.030842273 -0.019332679 -0.014315005 0.06901211 0.042453777 -0.057169277 -2.9109202e-31 0.11263164
-0.002490443 -0.01919767 -0.035394084 -0.0040551983 -0.043458 0.018574556 -0.0036759316 0.023009852
-0.065752536 0.03627774 0.033090744 -0.017562592 -0.06959462 0.044347554 -0.015084125 -0.004918306
0.022955861 0.0024138326 0.011669626 -0.019116934 0.09443442 -0.044505186 -0.004884661 0.005959512
-0.044433456 -0.07613607 -2.1239621e-21 0.04376063 0.008866611 9.639253e-31 8.953803e-22 0.010719456
0.0034904534 7.867439e-29 0.035778094 -0.050763227 -0.0013025182 0.04215126 0.018024573 -0.010359942
0.096587345 0.03099802 -0.019882428 0.0069812965 -0.013017161 -0.010383356 -0.012892364 -0.050521486
-0.0066856714 -0.0047793845 -0.02435221 0.0049395044 -0.013507943 -0.03500284 0.048347186 -0.0037638035
-0.013193265 0.0068715652 0.01913155 0.050128017 0.024700424 0.057026573 -0.040813696 -0.037348043
7.454687e-05 -0.031128349 -0.027374584 -0.0542092 -0.12581591 -0.002149337 -0.01722624 0.055449728
-0.047552977 0.045182772 -0.042730138 0.032417722 0.023238838 -0.01321225 0.002799047 0.034599926
-0.037699737 -0.057696905 0.008142893 0.02302587 0.045758408 0.10179267 0.03408703 0.07622182
0.006341722 0.044740465 0.012867401 0.0005243814 0.007964722 0.0023883118 0.019892476 0.055314023
-0.048810583 0.037277073 0.0049504573 0.00071159494 0.023747977 -0.03224567 -0.006486492 -0.068563715
-0.04180433 -0.02829285 0.0211312 0.039764248 0.10701815 0.02654189 -0.028019901 0.05066603
-0.038237277 -0.0020138219 0.027470887 0.028104195 -0.027816676 0.029500853 0.03936613 -0.015065527
-0.069100395 -0.019200763 -0.042114273 0.025365395 0.014047622 -0.07360009 0.005393919 0.07201997
0.007875739 -0.009982673 -0.014684536 -0.0014973431 -0.054468982 0.018471794 0.004279964 0.04797553
-0.018329045 0.03741002 0.020213768 0.000963927 -0.036408614 0.056692917 -0.024021663 -0.012221673
0.026717708 0.010873865 0.0029653239 -0.022596555 0.06158492 -0.064890616 0.0027823595 0.030682962
-0.03687642 -0.071420185 -0.005905136 0.027045477 0.011761139 9.551051e-30 -1.2006952e-05 0.017016608
0.021103034 0.0018117725 0.02499091 -0.017323881 -0.0021663539 0.03665873 0.006765138 -0.016946435
0.058620922 0.028035134 -0.023888806 0.017473003 -0.0016892051 -0.00088057737 -0.031360477 -0.04183263
-0.013668769 -0.0083584655 -0.0038860338 -0.0038918774 -0.023901226 -0.07462908 0.030184796 0.011575624
0.0050389036 0.011245359 0.023236176 0.078307115 0.014216117 0.05562905 -0.020566707 -0.017845431
-0.006769429 -0.021705681 -0.029531797 -0.0254773 -0.08157195 0.007897643 -0.020599568 0.040554643
00000000: e89a e9bd c636 243d 6f2d 2cbd da09 523d
00000010: 49f9 083d 3d71 05bd 2aa5 e59b 3fd3 f63c
00000020: a835 2ebd 87e8 01bd 14fd 943c b89a 08bc
00000030: 60f9 c33b 1a5a 313e 11d2 3d3d 7632 fc3c
00000040: 53af d3bb 78ec a03d 3f14 7abb 4a1b 890c
00000050: 4664 1bbb 0ba6 1e1b f6c3 0d3c 646d bc3c
00000060: 2950 94bd 45e0 8e3d 680f 45bc 7adf 9f3c
00000070: 5a15 883b e816 c8bc 358f 74bc 29b2 88bd
00000080: 323f e2bc 102e b5bc a865 303d 8955 763d
00000090: 1643 a63d 2c8d bb3c ad15 38bd 9980 8c3d
000000a0: d78b 98bc adf6 70bd 1eef e23c a318 833c
000000b0: 37e9 1dbc 0720 2c3d afdb 783d 2857 02bb
000000c0: efa8 fcbc 915f 9ebc 7c89 6abc 3956 8d3d
000000d0: 03e4 2d3d 552a 6abd f5ed bc8c 6bab e63d
000000e0: b336 23bb 6f44 9dbc 63f9 10bd 78e1 84bb
000000f0: 0401 32bd ab29 983c e6e7 70bb 287f bc3c
00000100: 44a9 86bd f897 143d 298a 073d 6ddf 8fbc
00000110: a087 8ebd c8a5 353d 6823 77bc be29 a1bb
00000120: ee0d bc3c 6431 1e3b f631 3f3c 1e9b 9cbc
00000130: d566 c13d 124b 36bd 820f a0bb 0348 c33b
00000140: dbff 35bd 3aed 9bbd 677b 209d 593e 333d
00000150: 4345 113c e467 9c0d 594e 871c a8a0 2f3c
00000160: 17c0 643b 9976 c710 0d8c 123d 1aed 4fbd
00000170: 42b9 aaba cda6 2c3d 45a8 933c bfbc 29bc
00000180: 96cf c53d 8fef fd3c 79e0 a2bc 5cc3 e43b
00000190: ee45 55bc f41e 2abc 7e3a 53bc 9eef 4ebd
000001a0: 7a13 dbbb 629c 9cbb 497e c7bc 91db a13b
000001b0: 6b50 5dbc 235f 0fbd b307 463d 25aa 76bb
000001c0: 9028 58bc de2a e13b c5b9 9c3c 0953 4d3d
000001d0: 8b58 ca3c b294 693d 432c 27bd 43fa 18bd
000001e0: 0c56 9c38 e100 ffbc aa40 e0bc 770a 5ebd
000001f0: e3d5 00be e4db 0cbb 0b1e 8dbc 411f 633d
00000200: e9c6 42bd 9211 393d cc05 2fbd 72c8 043d
00000210: 605f be3c 3178 58bc 3770 373b a7b8 0d3d
00000220: 0a6b 1abd 9753 6cbd c569 053c c0a0 bc3c
00000230: 2b6d 3b3d ad78 d03d d79e 0b3d 301a 9c3d
00000240: 38ce cf3b c741 373d cbd1 523c a476 093a
00000250: 777e 023c 3985 1c3b 8cf5 a23c f590 623d
00000260: 9bed 47bd d8af 183d 7237 a23b 548a 3a3a
00000270: 1e8b c23c 0914 04bd a48c d4bb 226b 8cbd
00000280: 043b 2bbd 68c6 e7bc 571b ad3c d6df 223d
00000290: 552c db3d 616e d93c fe89 e5bc 2f87 4f3d
000002a0: b19e 1cbd 53fa 03bb a00a e13c c53a e63c
000002b0: ccdf e3bc c6ab f13c 613e 213d 66d5 76bc
000002c0: 8284 8dbd eb4a 9dbc 0480 2cbd 17cb cf3c
000002d0: ff27 663c a5bb 96bd 79bf b03b 357f 933d
000002e0: 3e09 013c 5e8e 23bc 6897 70bc 7f42 c4ba
000002f0: de1a 5fbd 2952 973c f13e 8c3b fd81 443d
00000300: cb26 96bc 403b 193d 5897 a53c 0cb0 7c3a
00000310: 3321 15bd d536 683d 14c9 c4bc 693d 48bc
00000320: 18df da3c 4c28 323c e155 423b 691c b9bc
00000330: 7840 7c3d 5fe5 84bd 3f58 363b d65a fb3c
00000340: bb0b 17bd bf44 92bd df7f c1bb 7a8e dd3c
00000350: cbb1 403c e4b7 410f 7771 49b7 6a66 8b3c
00000360: 45e0 ac3c ff78 ed3a bdb9 cc3c d0ea 8dbc
00000370: 63f9 0dbb 7727 163d 17ae dd3b 40d3 8abc
00000380: 7e1c 703d f0a9 e53c 75b2 c3bc 8b23 8f3c
00000390: 5168 ddba 8cd6 66ba d873 00bd b158 2bbd
000003a0: f9f2 5fbc f2f1 08bc d4ac 7ebb de0e 7fbb
000003b0: 81cc c3bc 22d7 98bd 1b46 f73c b0a7 3d3c
000003c0: 631d a53b 743e 383c cb59 be3c 7b5f a03d
000003d0: b7ea 683c 49db 633d 837b a8bc 9530 92bc
000003e0: 16d2 ddbb 1dd0 b1bc abec f1bc c5b5 d0bc
000003f0: 320f a7bd 1e65 013c 6dc0 a8bc a01c 263d

decoder_output_layer.bias f4 [128]
0.023967797 0.012298919 0.011990578 -0.02443682 -0.06165783 -0.018292041 -4.1995296e-05 -0.041215934
0.045408417 0.06535763 0.011506695 -0.011070586 0.05795079 0.110146664 0.009489285 -0.0022397765
-0.0023346604 -0.0018632285 0.0010114997 -0.032408834 -0.020186057 0.029673187 -0.0045800894 -0.028663784
-0.035501983 -0.033437945 0.054263286 0.014671973 0.023424359 -0.021947503 0.014685964 0.0031224217
-0.03302137 0.026782677 -0.0004597137 0.009089872 0.026593972 -0.0003319458 0.03660432 -0.014531004
-0.057149913 0.05047799 -0.041816756 -0.012631781 -0.027111918 0.0383727 -0.006508794 0.062348995
0.0155086545 0.06614586 0.012158635 0.042199835 -0.02029851 -0.030617379 -0.02952941 0.030298168
-0.0073211323 -0.02528902 -0.014358866 0.008119468 -0.00321814 -1.0478618e-06 0.005239523 0.016961273
0.0050035776 1.1412844e-18 -0.0056927204 -0.03527211 0.0049147094 -0.00086276536 0.0054932125 0.05813638
0.042548373 0.025639696 0.03148506 -0.05657546 -0.020086031 0.058753636 -0.054102577 -0.001928594
0.036649074 -0.065111965 -0.030634046 0.015227358 0.01819849 -0.0028862285 -0.015360622 0.029858213
0.010104441 -0.021244248 0.029757846 -0.0015692322 -0.0032774215 -0.055478644 -0.029797554 0.016597815
-0.0122199 0.03273215 0.01699004 0.06931144 0.021554513 0.06252174 0.020127479 0.029993508
0.015456268 -0.017566362 0.0026138017 0.025623143 0.019066358 0.05516255 0.0073323217 0.05385564
-0.017158473 0.005335991 0.016475176 0.013746046 0.004795404 0.0129131405 -0.06579878 -0.025297098
0.02907352 -0.032603778 0.014868218 -0.005079295 0.027748726 -0.04991963 -0.019903155 0.034685962
00000000: 1d58 c43c 6881 493c 2174 443c ba2f c8bc
00000010: ec8c 7cbd 31d9 95bc 1b24 30b8 0ad2 28bd
00000020: 2dfe 393d 39da 853d 9486 3c3c 6761 35bc
00000030: cf5d 6d3d 9394 e13d f278 1b3c 37c9 12bb
00000040: 1a01 19bb 9337 f4ba 4c94 843a 20bf 04bd
00000050: 3b5d a5bc 2f15 f33c 9314 96bb 50d0 eabc
00000060: 876a 11bd 3af6 08bd 2e43 5e3d b762 703c
00000070: 71e4 bf3c 40cb b3bc 669d 703c 8ba1 4c3b
00000080: 6b41 07bd 5867 db3c ba05 f1b9 b0ed 143c
00000090: 9adb d93c 0309 aeb9 69ee 153d 7313 6ebc
000000a0: 0716 6abd 02c2 4e3d 0c48 2bbd 88f5 4ebc
000000b0: d019 debc b12c 1d3d b947 d5bb a961 7f3d
000000c0: 0318 7e3c 7b77 873d 0335 473c bcd9 2c3d
000000d0: 1049 a6bc 4cd1 fabc a9e7 f1bc dd33 f83c
000000e0: 1ce6 efbb eb2a cfbc 7341 6bbc 8407 053c
000000f0: 6ee7 52bb 42a4 8cb5 4eb0 ab3b 5ef2 8a3c
00000100: 0df5 a33b 816c a821 008a babb 7d79 10bd
00000110: 920b a13b 342b 62ba 6800 b43b 6a20 6e3d
00000120: 3447 2e3d 570a d23c 7af6 003d abbb 67bd
00000130: 768b a4bc a7a7 703d aa9a 5dbd e0c8 fcba
00000140: 571d 163d 6c59 85bd 40f4 fabc 2b7c 793c
00000150: 0015 953c e126 3dbb 1eab 7bbc 3699 f43c
00000160: 198d 253c 6b08 aebc bac6 f33c b2ae cdba
00000170: 02ca 56bb 933d 63bd 001a f4bc 24f8 873c
00000180: fa35 48bc 2612 063d b22e 8b3c 28f3 8d3d
00000190: 1793 b03c 660b 803d 62e2 a43c f2b4 f53c
000001a0: 493c 7d3c 55e7 8fbc 514c 2b3b a0e7 d13c
000001b0: 0d31 9c3c 20f2 613d f943 f03b bb97 5c3d
000001c0: ed8f 8cbc 89d9 ae3b f3f6 863c 1937 613c
000001d0: c422 9d3b a391 533c 83c1 86bd dc3b cfbc
000001e0: 972b ee3c 8a8b 05bd d499 733c 3770 a6bb
000001f0: 4c51 e33c 8778 4cbd f10b a3bc de12 0e3d
