results/milestone/programming tutorials/GCP/params/AE/params8.pt (torch_old, 265742 bytes, 8 tensors)

encoder_hidden_layer.weight f4 [128, 128]
0.058739446 0.11441925 -0.056655314 -0.06266689 0.06509475 -0.0028145774 -0.029247217 -0.061153036
0.035193495 -0.025377316 0.086810134 0.014054971 -0.06259973 0.040333275 -0.027536768 -0.04061284
-0.067872494 0.051330063 0.058805525 0.08737072 0.08947695 0.010807467 0.067111515 -0.025753327
-0.01681655 0.0062072612 0.048208244 -0.030496404 0.058832143 -0.028544353 0.032611676 0.06481722
0.07816787 -0.050961494 0.034680266 0.09966471 0.045858573 0.071028315 0.06779517 0.09259227
0.0038907113 0.05445344 0.09323571 -0.03371046 0.026561445 -0.0036004565 -0.040204972 -0.0049097408
0.08959618 -0.018205754 -0.03627075 -0.0111291865 -0.06843401 -0.020525152 -0.007829179 0.017082097
0.0011895875 0.05893137 -0.033647146 0.0074212514 -0.061430328 -0.05570411 -0.053784423 0.029841762
0.040562466 -0.075318515 -0.06117663 0.045260247 -0.0039366 0.05791595 -0.045737438 0.0979654
-0.05730696 -0.024994263 0.084357865 0.0023470519 0.07946196 -0.02808344 0.016109804 -0.02003593
-0.02448452 0.0035136556 0.08884545 -0.06428274 0.044627365 0.083268054 0.08409346 -0.047880165
0.10060593 -0.003577415 0.056267235 -0.0013837299 -0.05894837 0.038239658 0.078988455 0.0154689215
-0.06494726 0.046230283 0.07905757 0.09821096 0.08281232 0.023178946 0.09091169 -0.013651442
-0.056256324 0.012825418 -0.054448366 0.022819811 -0.018099586 -0.06573126 0.0150781255 -0.03184462
0.066881135 -0.0222503 0.036494587 -0.038044572 0.0045470637 -0.016494405 -0.058896832 -0.07830863
-0.010956154 0.022081483 -0.057569172 0.050990634 0.089808516 -0.040639892 -0.012825403 -0.036057606
-0.07730161 -0.106584676 0.020168576 -0.08493161 0.05885463 0.064980656 0.08039513 -0.00047826095
0.036944274 0.08628931 -0.03119097 0.013805533 -0.027716676 -0.045543194 -0.12092003 -0.056854222
-0.06339837 -0.10015215 -0.06742256 -0.12013436 -0.12609303 -0.037822913 -0.09463148 0.013279047
0.00014054182 0.012722415 -0.0666978 -0.050296158 0.00758938 0.007976056 0.020770969 -0.034307163
-0.0141120665 0.016139286 0.097739816 0.034615465 0.11983335 0.07261425 0.06390321 0.08588327
0.037451625 -0.040194668 0.015065747 -0.0010319295 -0.03349341 -0.08170513 0.0026078806 -0.005476646
-0.038856935 0.03345686 0.10396046 0.12721609 0.09549171 0.025066435 0.09369611 0.09745299
0.09869392 0.083773755 0.019923175 0.0030423074 -0.10289331 -0.08848721 -0.15969662 -0.2155733
-0.058789793 0.004536912 -0.025065005 -0.023802325 -0.048711613 -0.016042268 -0.06329713 -0.04421964
-0.068943 0.000667194 0.026234105 0.024636848 0.037433982 0.10034071 0.040189184 0.03876607
-0.010525283 -0.023693327 0.059705157 -0.0268754 -0.048681475 -0.044409264 -0.08676334 -0.06827396
0.0015018223 -0.061901554 0.020672722 0.007558421 -0.051766686 -0.029087374 0.020928612 0.0077292924
0.08935207 -0.008604585 -0.0183261 -0.009532186 -0.019122053 -0.01646664 -0.019137744 0.044806857
-0.055658355 0.011250541 0.058046713 -0.0072677587 0.03128074 0.020888824 0.037752986 -0.034802448
0.011041107 -0.036860455 -0.050339106 -0.022898396 -0.05504418 -0.01745231 -0.01805735 -0.008365349
-0.065848604 -0.08197288 -0.008245082 0.011774592 -0.04661622 0.031068806 -0.1040144 -0.07609949
00000000: c698 703d a454 ea3d 670f 68bd 8057 80bd
00000010: 6550 853d c674 38bb dc97 efbc 9b7b 7abd
00000020: 0e27 103d 17e4 cfbc 83c9 b13d d246 663c
00000030: 4a34 80bd 8134 253d ca94 e1bc a659 26bd
00000040: bc00 8bbd 793f 523d 10de 703d 6cef b23d
00000050: b13f b73d cd11 313c c371 893d a4f8 d2bc
00000060: ddc2 89bc 4866 cb3b 0276 453d 98d3 f9bc
00000070: f9f9 703d d9d5 e9bc d293 053d e4be 843d
00000080: 7a16 a03d 00bd 50bd e50c 0e3d 031d cc3d
00000090: 33d6 3b3d 4b77 913d 32d8 8a3d 04a1 bd3d
000000a0: 4efb 7e3b 920a 5f3d 5df2 be3d fb13 0abd
000000b0: 6397 d93c a3f5 6bbb f8ad 24bd e4e1 a0bb
000000c0: 347e b73d 3c24 95bc a390 14bd 3157 36bc
000000d0: 2127 8cbd 5d24 a8bc f545 00bc c1ef 8b3c
000000e0: efeb 9b3a 0562 713d 97d1 09bd f82d f33b
000000f0: 5e9e 7bbd fe29 64bd 0e4d 5cbd b676 f43c
00000100: d424 263d 9840 9abd 5994 7abd cf62 393d
00000110: 98fe 80bb 4639 6d3d 2e57 3bbd 15a2 c83d
00000120: b4ba 6abd c5c0 ccbc d1c3 ac3d ffd0 193b
00000130: f4bc a23d 3e0f e6bc b5f8 833c 6422 a4bc
00000140: c393 c8bc 5c45 663b 9af4 b53d aba6 83bd
00000150: 2fcb 363d 7188 aa3d 3139 ac3d fe1d 44bd
00000160: 7b0a ce3d 1073 6abb 7978 663d 455e b5ba
00000170: d973 71bd 30a1 1c3d b3c4 a13d 5c71 7d3c
00000180: 1203 85bd f75b 3d3d efe8 a13d d422 c93d
00000190: 8199 a93d c6e1 bd3c e82f ba3d 4caa 5fbc
000001a0: 086d 66bd b421 523c 4005 5fbd 9df0 ba3c
000001b0: 9545 94bc 1c9e 86bd 3e0a 773c 816f 02bd
000001c0: faf8 883d 4346 b6bc 597b 153d a0d4 1bbd
000001d0: 89ff 943b 461f 87bc ce3d 71bd 4660 a0bd
000001e0: 7181 33bc 3ae4 b43c a7cd 6bbd 8edb 503d
000001f0: 87ed b73d 0476 26bd a421 52bc 24b1 13bd
00000200: 4e50 9ebd 1149 dabd 9238 a53c a0f0 adbd
00000210: 8d11 713d 9414 853d 34a6 a43d 19bf fab9
00000220: e152 173d 73b8 b03d 3584 ffbc 9a30 623c
00000230: 150e e3bc 808b 3abd eca4 f7bd f9df 68bd
00000240: 01d7 81bd 921c cdbd d714 8abd 0109 f6bd
00000250: 881e 01be 33ec 1abd 26ce c1bd 5c90 593c
00000260: 685e 1339 ad71 503c db98 88bd 5803 4ebd
00000270: 55b0 f83b 01ae 023c e127 aa3c ab85 0cbd
00000280: 4c36 67bc 8936 843c d02b c83d f2c8 0d3d
00000290: 306b f53d c8b6 943d b0df 823d 91e3 af3d
000002a0: e066 193d 2aa3 24bd 53d6 763c cf41 87ba
000002b0: 6330 09bd 0555 a7bd fae8 2a3b 7075 b3bb
000002c0: 7328 1fbd 0f0a 093d 39e9 d43d ef44 023e
000002d0: 2891 c33d 2058 cd3c bfe3 bf3d 6f95 c73d
000002e0: 0a20 ca3d 9391 ab3d ed35 a33c 7361 473b
000002f0: bab9 d2bd c838 b5bd 8387 23be 3fbf 5cbe
00000300: 91cd 70bd 60aa 943b 2055 cdbc 18fd c2bc
00000310: d485 47bd 136b 83bc eda1 81bd a71f 35bd
00000320: fd31 8dbd a2e6 2e3a e8e8 d63c 37d3 c93c
00000330: 6054 193d 6e7f cd3d 6a9d 243d 2cc9 1e3d
00000340: 3d72 2cbc 8218 c2bc 658d 743d cd29 dcbc
00000350: 3a66 47bd 7de6 35bd fab0 b1bd 38d3 8bbd
00000360: cbd8 c43a 7c8c 7dbd d759 a93c a2ac f73b
00000370: 4e09 54bd a548 eebc 7b72 ab3c 0146 fd3b
00000380: 38fe b63d 3ffa 0cbc 9e20 96bc e32c 1cbc
00000390: daa5 9cbc 0ce5 86bc c2c6 9cbc 6587 373d
000003a0: 04fa 63bd 3054 383c 64c2 6d3d 6126 eebb
000003b0: 3c20 003d 0a1f ab3c e0a2 1a3d 038d 0ebd
000003c0: c2e5 343c fdfa 16bd 6130 4ebd 6b95 bbbc
000003d0: 0276 61bd 26f8 8ebc 02ed 93bc d10e 09bc
000003e0: a2db 86bd 66e1 a7bd 6116 07bc 38ea 403c
000003f0: a6f0 3ebd 0284 fe3c 8005 d5bd 0dda 9bbd

encoder_hidden_layer.bias f4 [128]
0.0021810962 0.12523893 0.06071673 -0.031568114 -0.064684875 -0.030211367 0.13212383 -0.006801161
-0.013711038 -0.014607276 -0.0085018175 -0.06557017 0.0855474 0.054864008 -0.07115528 0.069896884
0.16099705 0.05820385 -0.0030085002 0.04474838 0.074115545 0.073728316 0.13101095 0.07138006
-0.004909588 0.21061915 0.049541213 0.07466982 0.26006725 0.026713166 0.05967521 -0.009839079
0.08531848 -0.006939467 0.048688952 0.008601248 0.06789851 0.10038456 0.15967119 0.20813419
0.07541123 0.06237397 -0.012943921 0.044453874 0.0776322 0.02752823 0.19936374 -0.02780736
0.09842208 0.08880495 0.020847054 0.038841657 0.11014368 0.113137476 0.096381076 0.095054656
0.04363784 0.2608297 0.05698738 -0.010357593 0.17619534 0.06949715 0.022234974 0.036101744
0.09088154 0.069789626 -0.051616475 0.017491007 0.20427299 0.1332309 0.21516196 0.056516863
-0.0661056 0.1256299 0.02846486 0.054818228 0.014476774 0.016396306 0.12766644 0.030233683
0.04053891 0.08534302 0.11566063 -0.030320894 0.03414038 0.19237405 -0.022405032 0.20110944
0.0749466 0.057759743 0.09667794 0.003666453 0.086484954 0.07933634 0.12028465 0.005123869
0.12780894 0.020789428 0.08233212 0.2110776 0.07724591 0.024566855 0.088401206 -0.06354053
0.010145926 0.13559632 -0.030368196 0.090048276 0.08547708 0.07238833 0.08524077 0.03825314
0.04955078 0.07302865 0.2384622 -0.067023516 -0.027550895 0.15516424 0.015302756 0.08272699
0.10400797 0.017457763 0.0781822 0.064316645 0.06005107 -0.001949079 0.13368444 0.085869834
00000000: b9f0 0e3b a23e 003e 1bb2 783d 914d 01bd
00000010: 8179 84bd d47d f7bc 784b 073e 46dc debb
00000020: 43a4 60bc 5b53 6fbc 354b 0bbc a749 86bd
00000030: 7a33 af3d 15b9 603d dcb9 91bd 1926 8f3d
00000040: 69dc 243e 2967 6e3d 422a 45bb 144a 373d
00000050: e4c9 973d dffe 963d bc27 063e b52f 923d
00000060: 9ce0 a0bb 8cac 573e baeb 4a3d 7eec 983d
00000070: 8927 853e 92d5 da3c fe6d 743d 1734 21bc
00000080: 75bb ae3d 7864 e3bb 116e 473d 40ec 0c3c
00000090: 600e 8b3d 6c96 cd3d d880 233e 2121 553e
000000a0: 3471 9a3d d97b 7f3d bd12 54bc 4415 363d
000000b0: a2fd 9e3d e282 e13c 0226 4c3e 43cc e3bc
000000c0: 8491 c93d 5fdf b53d 71c7 aa3c 6e18 1f3d
000000d0: 0293 e13d 9fb4 e73d 7163 c53d 04ac c23d
000000e0: 97bd 323d 788b 853e 996b 693d e5b2 29bc
000000f0: 8d6c 343e 8654 8e3d 1f26 b63c 6cdf 133d
00000100: 1a20 ba3d dded 8e3d cc6b 53bd 4d49 8f3c
00000110: f02c 513e ae6d 083e 6b53 5c3e 3a7e 673d
00000120: 5f62 87bd 20a5 003e 232f e93c 1489 603d
00000130: fe2f 6d3c 8c51 863c feba 023e a1ac f73c
00000140: 210c 263d 52c8 ae3d 7bdf ec3d 8663 f8bc
00000150: c8d6 0b3d b4fd 443e c28a b7bc a2ef 4d3e
00000160: 9a7d 993d 7b95 6c3d 15ff c53d e048 703b
00000170: 061f b13d 177b a23d cc57 f63d 21e6 a73b
00000180: 59e0 023e 974e aa3c be9d a83d ba24 583e
00000190: 1b33 9e3d 6e40 c93c b10b b53d 8a21 82bd
000001a0: 193b 263c c3d9 0a3e b9c6 f8bc 3b6b b83d
000001b0: 9b0e af3d 5540 943d b692 ae3d 53af 1c3d
000001c0: c2f5 4a3d 0b90 953d 6f2f 743e a043 89bd
000001d0: 6ab2 e1bc 60e3 1e3e 69b8 7a3c c56c a93d
000001e0: 2102 d53d 9503 8f3c fd1d a03d 72b8 833d
000001f0: 1cf8 753d 3d78 ffba 93e4 083e 86dc af3d

encoder_output_layer.weight f4 [128, 128]
-0.03817853 0.016352326 -0.079890504 0.029401217 0.048880238 0.019702593 0.109797366 0.06625861
-0.08562213 -0.03634772 -0.0070526535 -0.06693464 0.05462725 0.0121975485 -0.07820591 0.027115459
0.08053538 -0.024871966 0.016463224 0.052483335 0.072965614 -0.041895628 -0.03790172 0.038729
-0.06785537 0.1571572 -0.01847748 -0.020834746 -0.015355822 -0.006122007 0.046241418 -0.001126343
-0.099679485 -0.047534544 0.026682094 0.079065435 0.08029608 0.018540032 0.097446956 0.033432033
0.09140205 -0.024176976 -0.006580405 0.07777159 0.081554055 0.03043099 -0.017807433 -0.03791727
0.09471096 0.027970219 -0.019950429 0.06036736 -0.0018789853 0.040197253 0.050175983 0.012442949
-0.10329805 -0.096836515 -0.040353805 -0.028964983 0.04711017 0.07186429 0.0455178 0.059402384
0.017820407 -0.0022508455 0.05934957 0.08705429 0.0983151 0.054648608 0.013518879 0.034958135
-0.05629563 -0.021989604 0.026400398 0.05522344 0.039233197 -0.06576173 -0.053900324 0.018084997
0.065863945 -0.03755521 0.046608448 0.047257014 0.03150755 0.0650219 0.000994261 -0.038133472
-0.08128155 -0.058598798 0.04332975 -0.015773388 -0.029063862 -0.06577481 -0.003301085 0.1036468
-0.060958307 0.106427744 -0.025580203 -0.015805587 0.049439244 0.016370745 0.013437515 0.05692865
0.06477021 0.0317758 0.024267323 0.045814108 -0.054437276 0.047097016 0.0659456 -0.07220434
-0.0012656647 0.05273701 0.07524011 0.03894298 -0.02029012 -0.07017999 -0.06690706 0.0556915
-0.029471356 -0.035532184 -0.025576325 0.08606412 -0.03990592 -0.05176373 0.021276277 0.031844817
-0.038052905 0.0662652 0.030895831 -0.028098643 0.052430373 -0.019602206 0.070238836 0.028054595
0.08076817 0.041053783 0.05626511 0.011579934 -0.19268344 -0.030899186 0.021372048 0.101603925
-0.10344397 -0.020624436 -0.0007524228 -0.0042636013 -0.036549725 0.015550613 0.0058716144 0.045736253
0.04529673 0.10583781 0.13359736 0.0029956328 0.038057223 0.02956715 0.16087121 0.032725602
-0.008931558 0.079619095 0.23254554 -0.054287974 0.026915882 0.1011747 0.1515124 0.059707757
0.021079266 -0.03428877 0.1004225 -0.056556467 -0.049675755 0.020064026 0.094045915 -0.0422653
0.0019050938 -0.04457276 -0.02801757 -0.0402259 -0.030855244 0.14435467 -0.022097128 0.0065521514
-0.009030192 0.026420422 0.064516015 -0.033957638 0.030120993 0.040041354 -0.017707206 0.038174413
0.013625405 0.06691563 -0.0021508771 0.053281877 -0.16732877 -0.07781781 0.050160546 -0.0025751588
-0.004805094 -0.021768743 0.060806997 0.018633831 -0.031220872 0.06660521 0.089527495 0.04417128
-0.04416332 -0.026150892 -0.13625883 -0.022824978 0.01903462 0.10205057 0.043951977 0.027459815
0.018331062 -0.0056911604 0.01251686 0.014825917 0.043631133 -0.03115042 -0.10061217 0.12648278
0.048259567 -0.029649474 -0.0031935486 0.108487554 0.041767277 0.045791052 0.097816914 0.011693016
0.08687501 -0.02333605 0.04499076 0.031310093 -0.01471558 0.0052945926 0.057331115 -0.019646613
-0.05038852 -0.0666258 0.076210156 0.109980404 0.047321767 0.0024918648 -0.026224226 -0.016702794
-0.05067522 0.024491284 -0.10731595 0.05092059 -0.04511907 0.0005387583 0.084038675 -0.050510563
00000000: 1761 1cbd 50f5 853c a29d a3bd d2da f03c
00000010: a536 483d 5567 a13c 71dd e03d 98b2 873d
00000020: a85a afbd 59e1 14bd f219 e7bb 0715 89bd
00000030: d3c0 5f3d 3ad8 473c 6c2a a0bd 3d21 de3c
00000040: bcef a43d 4bc0 cbbc e2dd 863c c4f8 563d
00000050: ff6e 953d c09a 2bbd d53e 1bbd 4da2 1e3d
00000060: c2f7 8abd d1ed 203e 165e 97bc a1ad aabc
00000070: fc96 7bbc 1e9b c8bb a467 3d3d cda1 93ba
00000080: c224 ccbd 95b3 42bd 6894 da3c 0fed a13d
00000090: 4572 a43d 44e1 973c 4592 c73d 07f0 083d
000000a0: ff30 bb3d cb0e c6bc 70a0 d7bb b646 9f3d
000000b0: d005 a73d 694a f93c e5e0 91bc 244f 1bbd
000000c0: d2f7 c13d cd21 e53c 156f a3bc c443 773d
000000d0: 4948 f6ba e0a5 243d 5585 4d3d 83dd 4b3c
000000e0: ee8d d3bd 3952 c6bd 084a 25bd f947 edbc
000000f0: 98f6 403d 962d 933d df70 3a3d ea4f 733d
00000100: 1afc 913c ec82 13bb 8918 733d 8549 b23d
00000110: 6d59 c93d 38d7 5f3d 4a7e 5d3c 4330 0f3d
00000120: 3f96 66bd 8b23 b4bc a645 d83c f931 623d
00000130: fdb2 203d 16ae 86bd 96c6 5cbd fd26 943c
00000140: ade3 863d 7ed3 19bd 80e8 3e3d 9290 413d
00000150: 100e 013d 342a 853d dd51 823a d831 1cbd
00000160: f176 a6bd 4b05 70bd 897a 313d 3137 81bc
00000170: 5617 eebc f2b4 86bd 0457 58bb c644 d43d
00000180: 6baf 79bd caf6 d93d 938d d1bc b87a 81bc
00000190: ce80 4a3d f11b 863c 0629 5c3c 042e 693d
000001a0: 3ea6 843d 5727 023d 44cc c63c 93a7 3b3d
000001b0: 9ff9 5ebd cde8 403d 7d0e 873d dedf 93bd
000001c0: a9e4 a5ba c302 583d 7d17 9a3d ad82 1f3d
000001d0: 7737 a6bc 87ba 8fbd 9206 89bd c51c 643d
000001e0: ea6d f1bc 328a 11bd 7185 d1bc 6342 b03d
000001f0: 6474 23bd 3406 54bd 964b ae3c b66f 023d
00000200: 5ddd 1bbd 0db6 873d 4119 fd3c 202f e6bc
00000210: 3bc1 563d ce94 a0bc 61d9 8f3d c0d2 e53c
00000220: c869 a53d 0328 283d 3e76 663d c3b9 3d3c
00000230: cf4e 45be 4a20 fdbc 6f14 af3c b815 d03d
00000240: 6fda d3bd 94f4 a8bc 3d3e 45ba aeb5 8bbb
00000250: 2ab5 15bd 00c8 7e3c ac66 c03b f055 3b3d
00000260: 1089 393d 7ec1 d83d bfcd 083e 6152 443b
00000270: e4e1 1b3d cf36 f23c 6cbb 243e 480b 063d
00000280: ab55 12bc 560f a33d 6b20 6e3e 115d 5ebd
00000290: b27e dc3c ae34 cf3d 1126 1b3e 1f90 743d
000002a0: 6dae ac3c 6272 0cbd 50aa cd3d c1a7 67bd
000002b0: ce78 4bbd 505d a43c 259b c03d 611e 2dbd
000002c0: 57b4 f93a ed91 36bd 1a85 e5bc eac3 24bd
000002d0: 23c4 fcbc b6d1 133e 0905 b5bc 6eb3 d63b
000002e0: 5ff3 13bc a46f d83c f920 843d 2a17 0bbd
000002f0: 4dc0 f63c 6702 243d b40e 91bc c65c 1c3d
00000300: 173d 5f3c 100b 893d bbf5 0cbb 193e 5a3d
00000310: 3c58 2bbe f25e 9fbd 2575 4d3d ffc3 28bb
00000320: 0d74 9dbb 5d54 b2bc c210 793d faa5 983c
00000330: eac2 ffbc 5068 883d 315a b73d f2ec 343d
00000340: 99e4 34bd 653a d6bc 6f87 0bbe 73fb babc
00000350: 7eee 9b3c e4ff d03d fd06 343d 68f3 e03c
00000360: 062b 963c ea7c babb 8413 4d3c 67e8 723c
00000370: 8fb6 323d 2a2f ffbc c10d cebd b484 013e
00000380: d3ab 453d 74e3 f2bc db4a 51bb b92e de3d
00000390: 2a14 2b3d 668f 3b3d 3c54 c83d 1094 3f3c
000003a0: 86eb b13d 3e2b bfbc 3b48 383d 033f 003d
000003b0: 9e19 71bc 437e ad3b 08d4 6a3d eff1 a0bc
000003c0: 3164 4ebd 1c73 88bd 1214 9c3d 683d e13d
000003d0: 78d4 413d 8e4e 233b 30d4 d6bc 4cd4 88bc
000003e0: d290 4fbd f2a1 c83c 77c8 dbbd 1c92 503d
000003f0: c6ce 38bd 753b 0d3a 781c ac3d 2ae4 4ebd

encoder_output_layer.bias f4 [128]
0.09652236 0.022769587 -0.059706867 0.05587728 0.01863862 0.062109414 0.006590175 -0.005079002
0.054752357 0.062200855 0.017718265 -0.018007679 0.0740444 0.012404449 0.040916402 0.05834638
0.0418063 0.041764718 -0.01820126 -0.02785514 0.086809605 -0.0736231 0.09659915 0.017328402
0.0021617422 -0.01897449 0.037085135 0.039493978 0.092834495 -0.005031208 0.07591809 -0.012659557
0.030677138 0.029741688 0.09022286 -0.04557444 0.006281098 -0.061850324 -3.3260392e-05 0.034346476
0.09686998 0.056477662 0.1472722 0.06489463 0.019488644 -0.026029203 -0.070034 0.029906953
0.08917946 -0.024971832 0.04224291 -0.0043514767 -0.052676406 0.04315543 -0.016608443 0.0875653
0.06339184 0.027131831 0.05751824 0.034597848 0.014789502 0.0017360655 0.038368624 -0.018175773
0.07595529 0.05686616 -0.025708243 -0.054424476 -0.029359255 0.06525336 -0.077416904 0.05505608
0.026627135 0.12238163 0.030576082 -0.06022476 0.010455432 0.05824151 -0.04670403 -0.06212452
-0.035681378 0.028087208 0.024892919 -0.067739755 0.03469348 -0.0138105005 0.058813233 -0.018791562
0.108013295 -0.02325119 0.06887766 -0.008073856 0.07699531 0.0365696 0.07262914 -0.059238598
0.060276397 -0.017472832 -0.0017194513 -0.0678033 0.026737921 0.061940707 -0.045959204 -0.03684891
0.08590301 -0.036734164 0.08211041 0.09952929 -0.020940183 -0.019741435 -0.020270662 0.055926487
0.04020047 -0.037478104 -0.03987024 0.091988906 0.027217288 0.059511274 0.0701594 0.019966664
-0.045723733 0.025088057 -0.04349784 0.101412825 -0.0037475151 -0.004326613 -0.00029251704 0.11327333
00000000: 84ad c53d 4987 ba3c 308f 74bd 93df 643d
00000010: 05b0 983c 7166 7e3d 65f2 d73b c26d a6bb
00000020: 0244 603d 53c6 7e3d e525 913c d784 93bc
00000030: 97a4 973d 083c 4b3c f597 273d 9dfc 6e3d
00000040: 153d 2b3d 7b11 2b3d cf1a 95bc 7630 e4bc
00000050: 3cc9 b13d b5c7 96bd c6d5 c53d 4bf4 8d3c
00000060: 04ac 0d3b 6470 9bbc 95e6 173d 70c4 213d
00000070: 0320 be3d d5dc a4bb f27a 9b3d 086a 4fbc
00000080: 9f4e fb3c d7a4 f33c c3c6 b83d 44ac 3abd
00000090: abd1 cd3b c456 7dbd 1381 0bb8 e4ae 0c3d
000000a0: c563 c63d 1f55 673d 86ce 163e 7ae7 843d
000000b0: a6a6 9f3c 323b d5bc fc6d 8fbd 6dff f43c
000000c0: b9a3 b63d ba91 ccbc e706 2d3d d596 8ebb
000000d0: 37c3 57bd c0c3 303d 6e0e 88bc 7055 b33d
000000e0: 95d3 813d 9343 de3c 3f98 6b3d 79b6 0d3d
000000f0: ab4f 723c b18c e33a 6b28 1d3d 5ce5 94bc
00000100: 728e 9b3d 7eec 683d 189a d2bc 33ec 5ebd
00000110: d282 f0bc 8ea3 853d c18c 9ebd 7c82 613d
00000120: 2621 da3c 38a3 fa3d b17a fa3c 3dae 76bd
00000130: 434d 2b3c a68e 6e3d ba4c 3fbd 4876 7ebd
00000140: a326 12bd 2517 e63c 3cec cb3c 24bb 8abd
00000150: c01a 0e3d 7045 62bc 25e6 703d c3f0 99bc
00000160: 1336 dd3d 4879 bebc bb0f 8d3d 3548 04bc
00000170: b8af 9d3d 01ca 153d 96be 943d 2ca4 72bd
00000180: 62e4 763d 2f23 8fbc 365f e1ba 75dc 8abd
00000190: 7c09 db3c 8ab5 7d3d b83f 3cbd e2ee 16bd
000001a0: ebed af3d 9076 16bd 8129 a83d 03d6 cb3d
000001b0: bf8a abbc cab8 a1bc a90e a6bc 2c13 653d
000001c0: 3fa9 243d a482 19bd fa4e 23bd ae64 bc3d
000001d0: caf6 de3c 18c2 733d bbaf 8f3d 2191 a33c
000001e0: cf48 3bbd 7885 cd3c cb2a 32bd 87b1 cf3d
000001f0: df98 75bb 43c6 8dbb f95c 99b9 d9fb e73d

decoder_hidden_layer.weight f4 [128, 128]
-0.08372751 -0.009772779 -0.0004146098 0.023493577 0.117899634 -0.0014053464 -0.062307537 -0.013421851
0.023799818 -0.012841901 0.024939662 -0.038119152 -0.015121976 0.06413024 0.02736361 0.006702006
-0.05955282 0.017546188 -0.093488336 -0.060135916 0.07544729 -0.023947103 0.006766739 0.028510975
0.019966265 -0.08549784 -0.0027950539 -0.100879624 0.026263334 -0.014000635 -0.033219937 0.0735545
0.039557207 0.036478467 -0.06879502 0.0755677 -0.064298585 -0.01861478 -0.017056562 0.06707542
0.08451068 0.010525571 -0.0020132728 -0.09707885 0.076418035 -0.032176334 0.11227382 -0.10380508
0.070615724 -0.043172676 0.047614273 0.027764674 0.01707912 -0.04851061 -0.06733138 0.08237407
0.05111082 0.062926255 0.056254882 0.04242021 -0.066937394 -0.032292347 0.06981204 0.02351413
-0.002129867 0.019684592 0.03700003 0.07407266 0.024200516 -0.03836826 -0.006315913 -0.0007561783
0.07806868 0.06765472 -0.07126525 0.01384492 -0.012608681 -0.017518952 -0.023638237 0.02471878
0.030318575 -0.0061521544 0.11795442 0.040243156 0.056174498 -0.025431652 -0.045778714 -0.085449435
0.075479984 0.06832996 -0.024238026 0.027393706 -0.020102266 -0.027164105 -0.09764319 -0.032028038
-0.016927084 0.0009462863 -0.04109723 -0.007760445 -0.0068265474 0.01991647 -0.009550796 0.0027405678
0.009627371 0.053290147 0.047927212 -0.047379546 -0.07536984 0.009496116 -0.03101024 0.0015974058
-0.06666511 0.055362895 0.050988868 0.01632396 0.008824093 0.0020192773 0.012262432 0.0035100838
0.11040691 0.011143914 0.048158653 -0.06202705 0.07486802 -0.06293806 6.4517917e-07 -0.002307157
0.012149767 0.049102787 0.033658862 -0.079564855 -0.022534987 0.049285684 0.008684126 0.07926045
0.0019147237 -0.07075853 0.0720473 0.034182936 -0.03971619 0.06267003 0.07896369 -0.042628568
0.052162074 0.00992133 0.06741958 0.038238753 0.0063425796 0.00054174574 0.0060768463 0.017205838
0.064212225 -0.040561564 -0.0032070796 -0.012924551 -0.008447741 0.037436835 0.08339359 0.032495182
-0.068218164 -0.03265973 0.010079231 -0.08461457 0.051732194 -0.0045564086 -0.03350452 0.016700536
0.051418725 -0.040737327 -0.110788524 0.02370031 0.06264061 0.079796694 -0.029364502 -0.025600435
-0.07443088 -0.019015588 -0.028358562 -0.07647744 0.052451897 0.041251503 -0.011811862 -0.01767565
0.008938117 0.08513365 0.06428831 -0.06514515 0.003491359 0.07224527 -0.043504097 0.070836425
0.049623385 0.07923204 0.00429872 0.08342965 -0.06295641 0.01076002 -0.004584626 -0.01587285
0.058380395 0.00808965 0.05444448 0.084095016 -0.0007910232 0.051427662 -0.061051037 0.0569262
0.026071073 0.020719348 0.02309932 -0.023043152 0.08794067 -0.02702556 -0.025548635 -0.06458242
0.09310557 -0.124061696 0.0685145 0.019307993 0.026167741 -0.025069479 -0.055185113 0.0070560533
-0.028274957 -0.029815406 0.03442398 -0.06847868 0.006317256 -0.06733771 -0.059069723 0.081581384
-0.0015643956 -0.035454944 0.033641983 -0.0057158465 0.0844062 -0.086951755 -0.035446536 0.050272986
0.08435953 0.019272177 0.06899566 -0.0039197127 -0.093123905 0.05960183 -0.050293833 0.053296253
0.0026064548 -0.017165547 -0.05382155 0.03580448 0.05244876 0.008628033 -8.3134967e-07 -0.052892685
00000000: 5479 abbd 021e 20bc fc5f d9b9 9a75 c03c
00000010: 5d75 f13d 9a33 b8ba 3036 7fbd 53e7 5bbc
00000020: d6f7 c23c d666 52bc 434e cc3c d422 1cbd
00000030: 2ac2 77bc b756 833d a629 e03c 809c db3b
00000040: a8ed 73bd 06bd 8f3c d076 bfbd 1451 76bd
00000050: 1c84 9a3d b72c c4bc 85bb dd3b d98f e93c
00000060: 4b90 a33c 7e19 afbd 392d 37bb fa99 cebd
00000070: 3426 d73c eb62 65bc a111 08bd bea3 963d
00000080: bd06 223d 726a 153d 67e4 8cbd 3dc3 9a3d
00000090: faae 83bd 067e 98bc 34ba 8bbc d65e 893d
000000a0: ef13 ad3d 7273 2c3c 1df1 03bb 47d1 c6bd
000000b0: 0f81 9c3d 55cb 03bd d1ef e53d c297 d4bd
000000c0: fa9e 903d d5d5 30bd 2f07 433d be72 e33c
000000d0: 83e9 8b3c 10b3 46bd 09e5 89bd bdb3 a83d
000000e0: 9459 513d 7bdf 803d 856b 663d d0c0 2d3d
000000f0: 7916 89bd fb44 04bd 9df9 8e3d b4a0 c03c
00000100: 3d95 0bbb 9541 a13c 588d 173d 68b3 973d
00000110: 2940 c63c 0928 1dbd b8f5 cebb 443a 46ba
00000120: 79e2 9f3d 8f8e 8a3d 84f3 91bd ced5 623c
00000130: a494 4ebc e883 8fbc faa4 c1bc 0a7f ca3c
00000140: a95e f83c 0398 c9bb 1692 f13d 02d6 243d
00000150: 3b17 663d 0a56 d0bc 7682 3bbd 1d00 afbd
00000160: 4095 9a3d 94f0 8b3d d38e c6bc c468 e03c
00000170: 82ad a4bc 4287 debc 27f9 c7bd d52f 03bd
00000180: abaa 8abc 3310 783a 9255 28bd 554b febb
00000190: 3bb1 dfbb dd27 a33c f17a 1cbc 199b 333b
000001a0: 1fbc 1d3c c546 5a3d 534f 443d 0e11 42bd
000001b0: 815b 9abd 9995 1b3c 3009 febc 0b60 d13a
000001c0: b887 88bd 34c4 623d b4d9 503d d3b9 853c
000001d0: ee92 103c da55 043b 5ee8 483c 6f09 663b
000001e0: 051d e23d f794 363c 0242 453d 1310 7ebd
000001f0: 6854 993d abe5 80bd 6030 2d35 ac33 17bb
00000200: d10f 473c 0120 493d e0dd 093d e6f2 a2bd
00000210: 4b9b b8bc c9df 493d dd47 0e3c 4e53 a23d
00000220: 77f7 fa3a d9e9 90bd 898d 933d 6803 0c3d
00000230: 72ad 22bd 2559 803d b7b7 a13d 4b9b 2ebd
00000240: e6a7 553d 138d 223c 4713 8a3d 3da0 1c3d
00000250: 6ad5 cf3b f103 0e3a 4820 c73b 42f3 8c3c
00000260: b381 833d e223 26bd de2d 52bb 7fc1 53bc
00000270: 6568 0abc 5e57 193d 42ca aa3d ab19 053d
00000280: f7b5 8bbd 36c6 05bd 5c23 253c 674a adbd
00000290: 23e5 533d ed4d 95bb 093c 09bd 90cf 883c
000002a0: 719c 523d 2fdc 26bd 18e5 e2bd 2727 c23c
000002b0: b849 803d 736c a33d d38d f0bc 01b8 d1bc
000002c0: 386f 98bd 94c6 9bbc 3750 e8bc 34a0 9cbd
000002d0: cdd7 563d 56f7 283d 8a86 41bc 86cc 90bc
000002e0: 2e71 123c 8d5a ae3d 97a9 833d d26a 85bd
000002f0: 49cf 643b 54f5 933d 5a31 32bd b012 913d
00000300: e441 4b3d 6844 a23d 47dc 8c3b 2add aa3d
00000310: 4aef 80bd cc4a 303c a13a 96bb c707 82bc
00000320: 4820 6f3d 748a 043c 2d01 5f3d 023a ac3d
00000330: ab5c 4fba d0a5 523d a710 7abd 722b 693d
00000340: 0193 d53c 9fbb a93c c93a bd3c fec4 bcbc
00000350: 3d1a b43d b564 ddbc 5f4b d1bc ca43 84bd
00000360: 22ae be3d 0f14 febd 5551 8c3d cc2b 9e3c
00000370: bb5d d63c 825e cdbc c909 62bd 7736 e73b
00000380: e2a0 e7bc 703f f4bc 2900 0d3d 8d3e 8cbd
00000390: fc00 cf3b 5ae8 89bd 18f3 71bd 2414 a73d
000003a0: 680c cdba 3439 11bd 2dcc 093d ff4b bbbb
000003b0: 28dd ac3d c313 b2bd 6330 11bd 0ceb 4d3d
000003c0: b0c4 ac3d afe0 9d3c 994d 8d3d ef70 80bb
000003d0: bfb7 bebd 0c21 743d e800 4ebd 2c4d 5a3d
000003e0: 0ed1 2a3b c39e 8cbc fc73 5cbd b8a7 123d
000003f0: 83d4 563d 985c 0d3c ea29 5fb5 00a6 58bd

decoder_hidden_layer.bias f4 [128]
-0.07318063 0.0037777545 -0.00039564024 0.02822053 0.0067361947 0.0041772774 -0.0104392255 0.06250075
-0.020759592 0.08808399 0.054508004 -0.10107087 -0.06516153 0.023998795 0.0013042814 0.011975252
-0.037406467 0.0011681654 -0.04968163 -0.0017275563 0.0010219046 -0.014841459 0.0071558445 -0.0060242843
0.014843216 0.104527175 -0.05079918 0.0045244647 0.11596195 0.0963293 0.113005176 -0.059902713
0.01682841 0.12092131 0.07685428 0.08307269 -0.038958333 0.05035898 0.018349603 0.08156783
-0.05372041 -0.073552 0.033500478 0.089684695 0.006043666 0.018387906 0.024057522 -0.033966996
0.01765894 0.029887835 0.0011517304 -0.01676543 0.054026958 0.020434618 -0.0055072773 0.005968354
0.10788201 0.03941042 -0.002251522 -0.027169177 -0.00096548686 0.07948686 0.003448035 -0.05990262
0.03649621 0.03650604 0.088457964 0.04642108 -0.060097903 0.046933617 -0.051443152 0.030464176
0.05854738 -0.03833175 -0.040788535 0.06848507 -0.053134803 0.0052087293 0.06560637 0.011559368
-0.02234823 -0.009398855 -0.0108819185 0.05609838 0.071541205 -0.051580507 -0.0028197453 0.0090710595
-0.024855077 -0.006087431 -0.035689943 -0.014177069 -0.049287338 0.052225105 0.0739689 0.080239914
-0.05562752 -0.0037556433 0.020826746 -0.035164304 0.06353108 0.04583098 0.021845713 -0.0648768
0.047734678 0.01663485 0.013724099 -0.03207499 0.003056446 -0.045873452 -0.028628424 -0.025182264
-0.048737004 -0.03881793 -0.04803546 -0.0073682815 -0.07406698 -0.040658254 0.0074424786 0.034965437
0.0738523 -0.07143985 0.0679758 0.037490856 -0.043302804 0.008114561 -0.03880714 0.039423548
00000000: badf 95bd 3494 773b ef6d cfb9 be2e e73c
00000010: 4cbb dc3b 8be1 883b 4909 2bbc 6500 803d
00000020: 0510 aabc 6165 b43d c943 5f3d 3ffe cebd
00000030: 6973 85bd 1f99 c43c 6cf4 aa3a d933 443c
00000040: 8637 19bd 201d 993a f77e 4bbd 2c6f e2ba
00000050: 6ef1 853a 9729 73bc 937b ea3b 5c67 c5bb
00000060: f630 733c 5812 d63d cd12 50bd f641 943b
00000070: 757d ed3d 4c48 c53d 426f e73d 8c5c 75bd
00000080: bcdb 893c 97a5 f73d c765 9d3d 0422 aa3d
00000090: c692 1fbd 3845 4e3d e851 963c 090d a73d
000000a0: ef09 5cbd 6ea2 96bd cc37 093d 9cac b73d
000000b0: f209 c63b 3ca2 963c 4814 c53c fa20 0bbd
000000c0: 7ba9 903c 55d7 f43c a9f5 963a a857 89bc
000000d0: 5f4b 5d3d 8066 a73c 6476 b4bb 2f92 c33b
000000e0: 3ef1 dc3d d26c 213d 458e 13bb e591 debc
000000f0: ba18 7dba 02ca a23d 6ef8 613b 735c 75bd
00000100: 0d7d 153d 5b87 153d 7329 b53d 0824 3e3d
00000110: 3829 76bd 773d 403d 0eb6 52bd 0290 f93c
00000120: 61cf 6f3d c101 1dbd e111 27bd e641 8c3d
00000130: e1a3 59bd fdad aa3b a25c 863d 8163 3d3c
00000140: a313 b7bc a8fd 19bc 134a 32bc 6ac7 653d
00000150: 3284 923d 1546 53bd 7acb 38bb c89e 143c
00000160: e09c cbbc 1379 c7bb 9e2f 12bd f046 68bc
00000170: 85e1 49bd fee9 553d 027d 973d d354 a43d
00000180: afd9 63bd 3d21 76bb da9c aa3c 7208 10bd
00000190: 951c 823d 44b9 3b3d c8f5 b23c 21de 84bd
000001a0: 7085 433d cf45 883c 0bdb 603c 1161 03bd
000001b0: a84e 483b cde5 3bbd 2886 eabc 094b cebc
000001c0: 74a0 47bd 8dff 1ebd d5c0 44bd a071 f1bb
000001d0: 6eb0 97bd 4589 26bd 09e0 f33b eb37 0f3d
000001e0: e03f 973d 0e4f 92bd e536 8b3d 0390 193d
000001f0: 485e 31bd f0f2 043c 3cf4 1ebd 967a 213d

decoder_output_layer.weight f4 [128, 128]
-0.05111811 0.04052016 -0.06327968 0.039714094 0.004066721 -0.019472092 1.09721945e-11 0.039054483
-0.030298037 -0.030030578 0.015309577 -0.004502733 0.018649021 0.079246394 0.031329587 0.0008197883
-0.008305055 0.05388286 0.018116688 -3.6241113e-21 -0.0030046985 -1.4357656e-12 0.0121060265 0.05615988
-0.0457743 0.05366145 0.001740675 -0.0023406534 -0.006729266 -0.031999018 -0.01040057 -0.0443989
-0.02158781 -0.017356882 0.028410427 0.04879013 0.06205658 0.029786427 -0.031267673 0.035338525
-0.014532087 -0.012514287 0.027340798 0.0003680921 -0.013401916 0.035447285 0.03424528 -0.025170086
-0.03339799 -0.022480922 -0.012297367 0.028300537 0.022079445 -0.042586934 4.9939386e-21 0.07165087
-0.015271729 -0.0005124247 -0.021343444 -0.012600226 -0.043201018 0.022727234 -0.015998082 0.0151227955
-0.014424055 0.034337487 0.026309092 -0.006758759 -0.044226088 0.030150572 -0.010272096 -0.012446755
0.02937323 0.024439085 -0.00963605 -0.019112673 0.076636635 -0.04792081 -0.015154161 0.00052090705
-0.04260495 -0.049663026 -2.2249936e-11 0.03519348 0.017571215 -1.653694e-20 -2.3696592e-11 0.0256533
0.030745333 -1.3496594e-18 0.024526913 -0.023523109 -0.008884208 0.04788109 0.009443416 -0.01860497
0.07695786 0.035116777 -0.005971064 0.025919445 -0.017489428 -0.0019186625 -0.017606977 -0.03379287
-0.018497963 -0.012708781 -0.018784603 -0.0063960073 -0.034092978 -0.027350921 0.040842213 0.016687047
-0.016327323 0.0055445074 0.014055943 0.0093752025 0.0218414 0.053028505 -0.020092485 -0.03833122
-0.008290375 -0.015700797 -0.03899406 -0.033775628 -0.055410482 0.0082341945 0.00016709391 0.043630797
-0.05869355 0.050989985 -0.04847465 0.032337077 0.02764809 -0.017499011 0.009149475 0.0356381
-0.037376575 -0.059983604 0.009366722 0.03467769 0.050340086 0.12822159 0.03337292 0.07474338
0.0038793068 0.05645695 0.0021579564 0.0032116328 0.006183994 0.021017898 0.019688584 0.06400473
-0.056633513 0.04173013 0.006217346 0.00847134 0.018570619 -0.030264206 -0.009033776 -0.07248063
-0.045527067 -0.02492254 0.022586633 0.037803933 0.108232506 0.025170136 -0.03998619 0.05539685
-0.018260079 -0.012955479 0.024921264 0.039253093 -0.028269991 0.029063668 0.04364235 -0.0073641613
-0.07590711 -0.019935958 -0.031393107 0.02809484 0.01457261 -0.082112946 0.00771167 0.07590858
0.007848984 -0.013739843 -0.015414206 -0.0013779667 -0.059592422 0.014657375 -0.0022538921 0.048623417
-0.028819276 0.034912866 0.022113293 -0.0018798577 -0.04570549 0.06371522 -0.020002838 -0.0046517514
0.025791062 0.008527128 0.0043520737 -0.020130012 0.065780565 -0.0691162 0.0057305773 0.032476205
-0.037178397 -0.05867335 -0.01698478 0.030379917 0.01250801 -1.6385577e-19 -0.0028249836 0.01941479
0.017046763 0.0020529374 0.025602719 -0.028593827 -0.0017519547 0.035069782 0.006927965 -0.015265127
0.06267536 0.028437763 -0.025553871 0.011586936 -0.000812083 -0.0066717113 -0.022404008 -0.050030213
-0.009473813 -0.0024542632 -0.013545437 0.0051071784 -0.019812 -0.05909185 0.03253251 0.012919512
0.0052568587 0.011187866 0.018420951 0.08431398 0.015545541 0.05320109 -0.020929737 -0.02011189
-0.00040237326 -0.014224611 -0.03639015 -0.027204512 -0.111352615 0.0012953576 -0.019039735 0.04089028
00000000: 3961 51bd 78f8 253d c798 81bd 3fab 223d
00000010: 2142 853b f083 9fbc 5f06 412d 98f7 1f3d
00000020: 9733 f8bc b002 f6bc 05d5 7a3c a98b 93bb
00000030: d5c5 983c ef4b a23d 7453 003d 10e7 563a
00000040: ed11 08bc 46b4 5c3d 7369 943c 41ea 889d
00000050: 7aea 44bb e810 caab 5b58 463c e707 663d
00000060: d57d 3bbd 1ccc 5b3d 5c27 e43a a665 19bb
00000070: 2d81 dcbb 6711 03bd 2767 2abc 9fdb 35bd
00000080: ebd8 b0bc 0530 8ebc fcbc e83c 29d8 473d
00000090: 0a2f 7e3d aa02 f43c 8812 00bd 21bf 103d
000000a0: fe17 6ebc b908 4dbc cff9 df3c 7cfc c039
000000b0: b693 5bbc 2c31 113d c744 0c3d 7f31 cebc
000000c0: 55cc 08bd e929 b8bc e57a 49bc 87d6 e73c
000000d0: f4df b43c a36f 2ebd 69aa bc1d b1bd 923d
000000e0: 4636 7abc 3d54 06ba 72d8 aebc 2e71 4ebc
000000f0: 8df3 30bd 772e ba3c 690e 83bc 9ac5 773c
00000100: df52 6cbc 77a5 0c3d 2a86 d73c 9478 ddbb
00000110: 6a26 35bd 55fe f63c 4b4c 28bc 79ed 4bbc
00000120: 21a0 f03c 7a34 c83c 86e0 1dbc 2e92 9cbc
00000130: abf3 9c3d 9c48 44bd 2849 78bc 7b8d 083a
00000140: 8782 2ebd 756b 4bbd 67b6 c3ad 0a27 103d
00000150: 82f1 8f3c de2f 9c9e fb6f d0ad df26 d23c
00000160: a3dd fb3c b12c c7a1 aaec c83c 89b3 c0bc
00000170: 128f 11bc f61e 443d 8fb8 1a3c 7369 98bc
00000180: 159c 9d3d 9cd6 0f3d eaa8 c3bb 0455 d43c
00000190: fd45 8fbc a17b fbba 823c 90bc 646a 0abd
000001a0: 0a89 97bc 7e38 50bc 2be2 99bc 9995 d1bb
000001b0: 14a5 0bbd 0a0f e0bc 2a4a 273d 46b3 883c
000001c0: e1c0 85bc b3ae b53b e64a 663c 739a 193c
000001d0: bcec b23c 6b34 593d ff98 a4bc 3301 1dbd
000001e0: 5ad4 07bc f59e 80bc 3cb8 1fbd 5058 0abd
000001f0: 1af6 62bd b7e8 063c ee35 2f39 35b6 323d
00000200: a668 70bd e0da 503d 5b8d 46bd e273 043d
00000210: 3f7e e23c 165a 8fbc aee7 153c 42f9 113d
00000220: 2e18 19bd 5eb1 75bd e176 193c 320a 0e3d
00000230: 6831 4e3d 854c 033e 0bb2 083d 0f13 993d
00000240: f83b 7e3b 673f 673d 806c 0d3b 427a 523b
00000250: 1aa3 ca3b ba2d ac3c f449 a13c e914 833d
00000260: 8bf8 67bd 36ed 2a3d e1ba cb3b 60cb 0a3c
00000270: 6921 983c a4ec f7bc 6702 14bc b970 94bd
00000280: 977a 3abd 5b2a ccbc 9a07 b93c 4cd8 1a3d
00000290: 01a9 dd3d 9a31 ce3c 8fc8 23bd cfe7 623d
000002a0: 2996 95bc 3843 54bc ae27 cc3c dac7 203d
000002b0: 7896 e7bc ee16 ee3c 52c2 323d 104f f1bb
000002c0: 3075 9bbd bc50 a3bc 0f96 00bd 2627 e63c
000002d0: f5c1 6e3c d52a a8bd 2db2 fc3b f575 9b3d
000002e0: 0699 003c 141d 61bc de8b 7cbc e49c b4ba
000002f0: 2f17 74bd 7d25 703c 09b6 13bb 5929 473d
00000300: 6716 ecbc cb00 0f3d f026 b53c 8f65 f6ba
00000310: ae35 3bbd 207d 823d fedc a3bc b86d 98bb
00000320: c747 d33c 5eb5 0b3c d79b 8e3b b2e7 a4bc
00000330: f6b7 863d cb8c 8dbd 91c7 bb3b c505 053d
00000340: 6048 18bd 7753 70bd aa23 8bbc 4edf f83c
00000350: 65ee 4c3c 5e72 41a0 5c23 39bb c40b 9f3c
00000360: a7a5 8b3c 938a 063b cbbc d13c 9a3d eabc
00000370: d8a1 e5ba 55a5 0f3d fc03 e33b 951a 7abc
00000380: f05b 803d 50f6 e83c 5a56 d1bc 22d7 3d3c
00000390: f8e1 54ba 5f9e dabb 9c88 b7bc 7bec 4cbd
000003a0: 0d38 1bbc b4d7 20bb aeed 5dbc 1e5a a73b
000003b0: c74c a2bc 4c0a 72bd cf40 053d 5cac 533c
000003c0: ba41 ac3b 504d 373c 89e7 963c cfac ac3d
000003d0: bab2 7e3c 63e9 593d d774 abbc b1c1 a4bc
000003e0: a0f5 d2b9 580e 69bc d70d 15bd ffdb debc
000003f0: d70c e4bd fdc8 a93a 38f9 9bbc 917c 273d

decoder_output_layer.bias f4 [128]
-0.00130423 0.00937809 0.01374141 -0.01500024 -0.049150568 -0.011254767 -0.0006575723 -0.029914409
0.05890526 0.07144147 0.017821915 -0.02497449 0.04680122 0.09645799 0.0013961927 -0.0015152519
-0.0051069474 0.010334117 0.020878267 -0.022658503 -0.0024767644 0.036135063 0.006794687 -0.02884579
-0.034007937 -0.04554409 0.054239683 0.008084867 0.02298292 -0.027057162 0.025041973 0.008820469
-0.028956259 0.03714996 0.007292014 0.005313755 0.03503237 0.0025217568 0.04689463 -0.012001911
-0.0583972 0.056520212 -0.047029514 -0.013071089 -0.03637773 0.04336505 -0.0040458245 0.06951649
0.016676525 0.07587991 0.021112598 0.04636387 -0.020124909 -0.03717928 -0.027922332 0.032813616
-0.0059185256 -0.022551816 -0.02323942 0.01324682 0.00934738 -0.0006615289 0.0047569103 0.025671678
0.014542614 1.4172646e-08 0.007113572 -0.034949966 0.009752462 -0.0026795527 0.00092602 0.05780992
0.040338557 0.028698368 0.036423016 -0.05876784 -0.017156463 0.07775365 -0.05031977 0.0036833882
0.05615176 -0.049458545 -0.033495147 0.017684726 0.021918857 -0.008711198 -0.021481493 0.029107152
-0.0029387646 -0.034084596 0.025727663 -0.010337512 0.0018080359 -0.05757986 -0.025109692 0.03652117
-0.0015969621 0.039923307 0.028879378 0.073294744 0.024822092 0.062606804 0.01792765 0.027436301
0.014217306 -0.023693185 0.0060536414 0.023335844 0.021076018 0.06599374 -5.828967e-09 0.05982569
-0.020654006 -0.00055237376 0.013638697 0.011530335 -0.0077093435 0.026798392 -0.058833525 -0.018986052
0.0341495 -0.035867706 0.016842488 -0.005212029 0.03685241 -0.046777666 -0.013061672 0.051465057
00000000: b2f2 aaba 8fa6 193c a723 613c 91c3 75bc
00000010: 1b52 49bd ea65 38bc ee60 2cba 100f f5bc
00000020: a446 713d e84f 923d 44ff 913c 4d97 ccbc
00000030: a3b2 3f3d c48b c53d 7400 b73a 6b9b c6ba
00000040: 2e58 a7bb 6e50 293c e608 ab3c 539e b9bc
00000050: 3651 22bb 5c02 143d f7a5 de3b 024e ecbc
00000060: e84b 0bbd 718c 3abd 6e2a 5e3d 6476 043c
00000070: ad46 bc3c fba6 ddbc d324 cd3c ba83 103c
00000080: ad35 edbc 8e2a 183d d9f1 ee3b 021f ae3b
00000090: 1a7e 0f3d 0f44 253b 9514 403d aaa3 44bc
000000a0: e731 6fbd bd81 673d 05a2 40bd 1f28 56bc
000000b0: d100 15bd 8d9f 313d d692 84bb a95e 8e3d
000000c0: 359d 883c ed66 9b3d 54f4 ac3c 0be8 3d3d
000000d0: fedc a4bc 4d49 18bd 60bd e4bc 9267 063d
000000e0: 31f0 c1bb 96be b8bc 9960 bebc 3109 593c
000000f0: c125 193c 746a 2dba dbdf 9b3b 694d d23c
00000100: 2544 6e3c f57b 7332 f818 e93b b227 0fbd
00000110: cac8 1f3c 6f9b 2fbb 26c0 723a 18ca 6c3d
00000120: 0b3a 253d d718 eb3c 4d30 153d 8cb6 70bd
00000130: b68b 8cbc 4e3d 9f3d 1a1c 4ebd 0065 713b
00000140: 63ff 653d 0b95 4abd 3532 09bd 8fdf 903c
00000150: 2d8f b33c 6ab9 0ebc f5f9 afbc 1f72 ee3c
00000160: 4a98 40bb 4a9c 0bbd d2c2 d23c ab5e 29bc
00000170: 9efb ec3a dcd8 6bbd d7b2 cdbc 3997 153d
00000180: 2851 d1ba 9f86 233d 7294 ec3c 8e1b 963d
00000190: b357 cb3c ff37 803d 02dd 923c 18c2 e03c
000001a0: b4ef 683c 3618 c2bc a05d c63b d02a bf3c
000001b0: 9da7 ac3c ba27 873d 2348 c8b1 c80b 753d
000001c0: 9732 a9bc 2dcd 10ba d774 5f3c bbe9 3c3c
000001d0: a99e fcbb 4d88 db3c 6cfb 70bd a388 9bbc
000001e0: 59e0 0b3d 04ea 12bd 42f9 893c abc9 aabb
000001f0: 8df2 163d f099 3fbd a000 56bc 06cd 523d
