results/milestone/programming tutorials/GCP/params/AE/params13.pt (torch_old, 265742 bytes, 8 tensors)

encoder_hidden_layer.weight f4 [128, 128]
000000 af dc 86 3d af 91 ef 3d 44 a4 67 bd ed b2 85 bd
       0.06585061 0.11697709 -0.05655314 -0.06528268
000010 9d a9 78 3d ef 12 c2 bb 9e 2d f3 bc ad a1 73 bd
       0.06070863 -0.005922667 -0.029684838 -0.059480358
000020 2d 3c 0f 3d 3c 71 c9 bc d0 5c b4 3d 2e 15 8b 3c
       0.034969497 -0.024590127 0.08806765 0.016977873
000030 e9 09 77 bd 04 45 14 3d ad fd f4 bc fa fd 36 bd
       -0.060312185 0.03619863 -0.029906118 -0.044675805
000040 9e 7a 8e bd f6 93 4d 3d 1f f2 71 3d 56 93 b5 3d
       -0.06956981 0.050189935 0.059068795 0.08865993
000050 d8 9c b9 3d 79 6c 5f 3c 43 b3 89 3d ba f5 cf bc
       0.09063119 0.013636702 0.067236446 -0.025385726
000060 bd f1 8d bc 6a 9f af 3b 53 e1 41 3d e5 52 f8 bc
       -0.017327184 0.00535958 0.047334027 -0.030312965
000070 a7 f6 6f 3d c1 6e e5 bc 5e b4 fe 3c 56 7c 7e 3d
       0.058584835 -0.028006913 0.031091865 0.062130295
000080 19 74 9c 3d e6 df 47 bd 7a be 1a 3d 97 12 d2 3d
       0.07639331 -0.04879751 0.03777931 0.10257452
000090 27 1e 50 3d 5a e0 94 3d 59 23 90 3d 23 56 c1 3d
       0.050810006 0.07269354 0.07037992 0.094402574
0000a0 83 d0 c3 3b c6 89 60 3d c5 d1 bb 3d 24 5b 0a bd
       0.0059757843 0.05481889 0.0917087 -0.033778325
0000b0 a4 15 c3 3c 31 4b bd bb 72 7a 29 bd ef b0 c7 bb
       0.02381403 -0.005776786 -0.04137654 -0.00609409
0000c0 e1 fe b0 3d d1 3d 8d bc 31 8c 0e bd 5f 61 14 bc
       0.08642364 -0.01724139 -0.034801666 -0.009056418
0000d0 3b 75 85 bd 5a 46 95 bc eb 51 a0 bb 1e 90 9e 3c
       -0.065165006 -0.018222023 -0.004892578 0.01935583
0000e0 91 2f 13 3b da 56 74 3d de 1b ff bc ac 56 0e 3c
       0.0022458772 0.05965314 -0.031141218 0.008687656
0000f0 7f 17 75 bd 4a a2 60 bd 97 4b 5b bd 8f 3c e5 3c
       -0.05983686 -0.05484227 -0.053538885 0.027982978
000100 c7 e8 1c 3d d3 14 9c bd 9a d9 80 bd 6c 20 29 3d
       0.03830793 -0.076211594 -0.06291504 0.041290686
000110 39 89 d0 bb 2c 34 68 3d 08 5b 32 bd c7 32 cb 3d
       -0.0063640145 0.05669038 -0.043543845 0.099217944
000120 d4 c6 62 bd ae 67 ce bc e2 cb a8 3d 4e e0 d2 3a
       -0.0553654 -0.025195923 0.082420126 0.0016088577
000130 de 95 9e 3d 1d 19 e7 bc bc 8f 7d 3c 4a ab a9 bc
       0.07743429 -0.028210217 0.0154761635 -0.02071156
000140 b8 87 da bc b3 a8 5a 39 c4 f0 af 3d f3 f2 80 bd
       -0.026676044 0.00020852945 0.08590844 -0.06296339
000150 ca 9b 39 3d 63 94 ac 3d c9 0b af 3d 8f e9 33 bd
       0.045314588 0.0842674 0.0854717 -0.04392391
000160 16 08 d2 3d 84 94 44 bb 49 38 62 3d 0b 0f 0e bb
       0.102554485 -0.0029995749 0.05522946 -0.0021676447
000170 8a 91 72 bd 14 c0 14 3d 2f 01 9a 3d 36 25 55 3c
       -0.059220828 0.036315992 0.07519757 0.01300936
000180 45 dd 84 bd 08 57 3c 3d 7c be a2 3d c6 e5 cc 3d
       -0.06487516 0.045981437 0.07946488 0.10004763
000190 c8 39 ad 3d 24 83 ce 3c 55 7c bb 3d 81 30 3d bc
       0.084582865 0.025209017 0.09154574 -0.011547209
0001a0 1d 10 59 bd cd 1d 71 3c c1 0c 5c bd 12 c2 a9 3c
       -0.052993882 0.014716578 -0.0537231 0.020722423
0001b0 a3 e3 97 bc 7c 62 8a bd 03 d4 52 3c 49 35 09 bd
       -0.018541163 -0.06757066 0.01286793 -0.033498082
0001c0 74 cf 83 3d 77 25 bd bc b6 7d 0f 3d 20 b4 1d bd
       0.06436053 -0.023089154 0.035031997 -0.03850186
0001d0 7e 1b 65 3b e6 df 86 bc 3d fe 6f bd 30 44 9f bd
       0.0034959014 -0.016464185 -0.05859207 -0.077766776
0001e0 b8 4d 30 bc 35 3a bc 3c de 27 5d bd 91 2f 54 3d
       -0.010760717 0.022976974 -0.0539931 0.051803175
0001f0 52 81 b7 3d 6e 2a 1f bd 95 02 56 bc b3 f2 1d bd
       0.08960213 -0.038858823 -0.013062139 -0.038561534
000200 da 40 60 bd e1 b9 79 bd 6d a0 80 3c 42 e1 b7 bd
       -0.054749347 -0.060968284 0.015701497 -0.089785114
000210 a0 a7 10 3d f3 c1 57 3d 7c 0c 72 3d 99 9f 5d 3c
       0.03531611 0.0526752 0.059093937 0.013526821
000220 db 7a 56 3d f1 bd c8 3d 4a c3 80 bb 55 ab 26 3c
       0.052363258 0.098018534 -0.0039295303 0.010172685
000230 05 02 eb bc e5 ac 57 bd e5 63 f6 bd 22 0c 9a bd
       -0.028687486 -0.05265512 -0.12030772 -0.075218454
000240 28 e9 66 bd f6 88 ce bd 40 8b a3 bd 5b 97 ee bd
       -0.0563747 -0.10084717 -0.07985544 -0.116499625
000250 58 19 de bd ea ba e0 bc ab c2 7e bd c3 9b b0 3c
       -0.10844678 -0.027432878 -0.06219737 0.021558648
000260 54 ef 49 3c 7e fa bd 3c 2a 06 30 bd f7 ab 1f bd
       0.012325127 0.023190733 -0.04297463 -0.038982358
000270 ca 83 2d bc a6 e2 ba bc 40 ba b5 ba ae 9b 1e bd
       -0.010590503 -0.022813153 -0.0013864711 -0.038722686
000280 9c 20 68 bc 40 f7 e9 3c ca d0 c7 3d f5 db 3d 3d
       -0.014167931 0.02856028 0.0975662 0.046352345
000290 87 80 ee 3d 2b 05 9f 3d 1e 90 a4 3d d8 b8 ca 3d
       0.116456084 0.077646576 0.08035301 0.098985374
0002a0 96 eb 57 3d bb 3a a3 bc c8 4b 59 3a eb c0 73 bc
       0.052714907 -0.019925466 0.00082891854 -0.014877538
0002b0 11 11 36 bd ef 21 98 bd c0 89 8f bc ec 8a 10 bd
       -0.04444987 -0.07428347 -0.017521739 -0.035288736
0002c0 72 8d 8e bd c1 a4 90 3c 71 6d ba 3d 99 d1 0f 3e
       -0.06960572 0.017656686 0.091029055 0.14044799
0002d0 69 35 08 3e ad 71 4b 3d 38 3b fa 3d 60 06 04 3e
       0.13301624 0.049668957 0.12218326 0.12893057
0002e0 0c da ef 3d 2e 95 d4 3d d3 6e 00 3d 77 20 15 bd
       0.11711511 0.10380016 0.03135569 -0.036407914
0002f0 0e e6 f7 bd 7a 52 cd bd 69 68 1d be d2 eb 56 be
       -0.12104426 -0.10025497 -0.1537186 -0.20988396
000300 bc 13 55 bd 9d b6 ed 3c 1b 18 71 bc 4d ab 7e bc
       -0.052020773 0.02901774 -0.01471522 -0.015543771
000310 ee 50 dc 3a 51 ad f9 3a 58 28 69 bd 29 ae 8b bd
       0.0016808787 0.0019048845 -0.05692324 -0.06820328
000320 57 f0 ca bd 37 bd 1e bd d7 76 17 bb f2 c6 4f 3c
       -0.099091224 -0.038754668 -0.0023111606 0.01268171
000330 19 ae 03 3d be 96 b6 3d 47 ca 2b 3d dc 48 8e 3c
       0.032148454 0.089154705 0.041940954 0.017368726
000340 a1 d5 2c bd 77 37 4d bd a0 39 e8 3c f6 7b a5 bc
       -0.04219592 -0.050101724 0.02834779 -0.02020071
000350 67 64 2b bd 39 0d 3c bd 40 46 91 bd ce f0 40 bd
       -0.041843798 -0.045911048 -0.07093477 -0.04710465
000360 49 d5 4e bb 5d d1 94 bd 7d 4c 9f bb 22 63 61 bb
       -0.0031560233 -0.072664954 -0.004861413 -0.0034391363
000370 c8 cb 11 bd 5e 58 32 bc bb 70 ba 3c 7f 00 84 3c
       -0.03559473 -0.010885326 0.022758832 0.016113518
000380 2f 3b ae 3d 97 df 73 3a 84 65 5f bc e3 61 16 3b
       0.08507382 0.0009303032 -0.013635043 0.0022946529
000390 2e 91 1c bc 45 90 f3 bb 2e cd 72 bc 9c 75 03 3d
       -0.009556098 -0.0074329698 -0.014819426 0.032094583
0003a0 42 57 11 bd 19 a6 cd 3c 2b f6 49 3d 35 70 81 bc
       -0.035483606 0.025103616 0.04930703 -0.015800575
0003b0 d6 89 cc 3b 25 35 30 bb e9 38 8b 3c 42 3e 08 bd
       0.0062420173 -0.0026887145 0.01699491 -0.0332625
0003c0 4f 65 1a 3c 82 8d db bc d8 57 17 bd 6d 60 76 bc
       0.009423568 -0.026800875 -0.03694901 -0.015037638
0003d0 c8 82 33 bd c2 ef 75 bc d5 fd fe bc 91 cf 81 bc
       -0.043825895 -0.015010776 -0.031126896 -0.015846046
0003e0 28 ca 36 bd 59 a8 6c bd c0 2a f5 3b a3 c8 be 3c
       -0.044626385 -0.057777736 0.007481903 0.02328903
0003f0 48 d1 e3 bc 64 81 a1 3c b9 5c f8 bd e2 5c cb bd
       -0.027809754 0.019715019 -0.121270604 -0.09929825

encoder_hidden_layer.bias f4 [128]
000000 de 07 3f 3b 37 b5 23 3e cb fa 8e 3d 41 f2 00 bd
       0.0029148976 0.15987097 0.06981429 -0.03148103
000010 c8 20 80 bd 03 0f b5 bc 5d cd 00 3e ab 35 03 3b
       -0.062562525 -0.022101885 0.1257834 0.0020021002
000020 e7 bb 30 bc eb 79 d8 bb 51 a3 0d bc c8 1b 69 bd
       -0.010786987 -0.0066063306 -0.008644895 -0.05691126
000030 81 e5 f0 3d c9 59 93 3d 8d 1f 8a bd 99 1a a7 3d
       0.117625244 0.071948595 -0.06744299 0.0815937
000040 07 61 44 3e 16 9e 86 3d 80 77 1b 3d 72 d2 7a 3d
       0.19177638 0.06573121 0.03795576 0.061235853
000050 40 25 a1 3d d8 13 96 3d f5 a7 39 3e f4 86 ae 3d
       0.07868433 0.07328004 0.18130477 0.08521834
000060 02 dd d8 3b 26 35 93 3e ba ce 69 3d 63 e8 9b 3d
       0.006618143 0.28751487 0.057081915 0.076126836
000070 a2 2a 90 3e 26 3a c0 3d 94 0d 94 3d 77 19 2d ba
       0.28157526 0.09386091 0.07229152 -0.0006603221
000080 a3 d8 d3 3d d1 f4 08 3b 15 87 bd 3d d0 8e 50 3c
       0.103440545 0.0020897875 0.092542805 0.012729362
000090 14 7b c7 3d 74 21 01 3e a1 9e 36 3e b1 25 6a 3e
       0.09740272 0.12610418 0.1783395 0.2286594
0000a0 d6 db 4f 3e c6 23 c6 3d 26 b9 54 bc 02 f9 57 3d
       0.20298705 0.09674792 -0.012983596 0.052727707
0000b0 52 9e ef 3d eb e9 28 3d 21 1e 81 3e 87 b4 c3 bc
       0.11700119 0.041238707 0.252183 -0.023889793
0000c0 2d c3 fa 3d 28 4b fe 3d cf ec d1 3c 8f a8 34 3d
       0.12244258 0.12416679 0.025625614 0.044106063
0000d0 1d 05 08 3e 87 1c fc 3d fd 8a 0a 3e d0 1a 03 3e
       0.132832 0.12310129 0.13529582 0.12803197
0000e0 7d ea 36 3d f0 45 98 3e da 91 6f 3d f2 26 88 3b
       0.04465722 0.29740858 0.058488704 0.0041550333
0000f0 1a bc 86 3e a2 79 9b 3d 8f 18 cd 3c c0 20 18 3d
       0.26315385 0.07591559 0.025036125 0.037140608
000100 f9 52 20 3e fc aa 8c 3d 1b b1 2b bd d4 53 c7 3c
       0.15656652 0.0686855 -0.041916948 0.024331965
000110 77 85 7b 3e ef 40 39 3e 25 7c 71 3e 5d b8 78 3d
       0.24562632 0.18091176 0.23582514 0.060722698
000120 67 34 88 bd 5c 80 0e 3e 2f 28 fe 3c d4 ae e1 3d
       -0.0665062 0.13916153 0.03102502 0.11019674
000130 08 e6 e0 3c a9 4b 15 3d f1 25 14 3e 22 62 2d 3d
       0.027453437 0.03644911 0.14467598 0.042329915
000140 da 5a 63 3d 3a 04 ba 3d 77 90 17 3e f9 7a e8 bc
       0.055506565 0.090828374 0.14801203 -0.02837895
000150 3d 22 07 3d b6 8e 49 3e b0 52 52 bc 29 a2 63 3e
       0.032991637 0.19683346 -0.012837097 0.22229828
000160 a6 97 9b 3d ee be e3 3d 54 66 e0 3d af 7b 93 3c
       0.07597284 0.11120401 0.109570175 0.018003313
000170 62 0f bc 3d a3 b2 aa 3d b1 54 04 3e 74 b1 5a 3c
       0.091826215 0.083348535 0.12922932 0.013347972
000180 c8 c8 17 3e 79 47 ce 3c 84 c7 be 3d 47 d7 7e 3e
       0.14822686 0.025180565 0.09315398 0.2488681
000190 0f de 93 3d 0f bc de 3c 03 41 12 3e 12 02 67 bd
       0.07220089 0.027189283 0.14282613 -0.05639846
0001a0 26 0a 78 3d b5 89 0e 3e 15 00 ca ba 37 fd d5 3d
       0.060556553 0.13919719 -0.0015411401 0.104486875
0001b0 a2 84 ab 3d f2 85 bc 3d 5a 7c ee 3d ff 9f 46 3d
       0.08374907 0.092052355 0.11644812 0.048492428
0001c0 1c e2 50 3d 11 f9 a2 3d 21 32 8c 3e 94 b2 6e bd
       0.050996885 0.07957662 0.27381995 -0.058275774
0001d0 89 0a ce bc b2 ab 4c 3e 7c d4 67 3d d4 d5 a5 3d
       -0.025151508 0.19987372 0.056599125 0.08097425
0001e0 77 5b f5 3d d7 38 92 3c 47 1c c3 3d 4b 05 d2 3d
       0.11980336 0.017849369 0.09526878 0.10254916
0001f0 50 9d 7a 3d 0e 79 10 3c b1 85 06 3e b0 d8 c2 3d
       0.06118518 0.008817924 0.13136937 0.09513986

encoder_output_layer.weight f4 [128, 128]
000000 7d 5d 28 bd 0c b8 2a 3c 88 88 a2 bd 72 05 f1 3c
       -0.041104782 0.010419857 -0.079361975 0.029421542
000010 29 3f 4d 3d a3 80 8a 3c 55 ea e1 3d 2b 9b 83 3d
       0.050109062 0.016907042 0.110310234 0.0642608
000020 38 35 af bd 23 fa 12 bd d9 fb ba bb db 66 8a bd
       -0.085550725 -0.03588308 -0.005706292 -0.067578994
000030 9d d9 54 3d 22 7c 80 3c 2b 49 a1 bd 64 e9 fc 3c
       0.051965345 0.015684191 -0.07875284 0.030873008
000040 04 e0 90 3d 4e 4e bb bc e0 8a a5 bb 3c c3 68 3d
       0.070739776 -0.022864487 -0.0050519556 0.056826815
000050 4e 75 97 3d 1a 14 29 bd d9 94 d6 bc 03 e3 90 3c
       0.07395421 -0.041278936 -0.026194023 0.017686373
000060 9a aa 8a bd e2 4e 38 3e 59 07 8d bc b5 dc 9f bc
       -0.06770821 0.17998841 -0.017215418 -0.019514421
000070 3e 65 2c bc 44 c0 f7 3b b4 64 81 3d 3b 33 80 39
       -0.010522185 0.0075607616 0.06318036 0.00024452232
000080 5e ac c1 bd 67 58 39 bd 2d 68 2b 3d 8c 10 a4 3d
       -0.094567046 -0.045250323 0.041847397 0.080109686
000090 d6 8c 96 3d 6f 4b 7b 3c ea 05 c4 3d 4e 44 6a 3d
       0.07351081 0.015337809 0.095714405 0.057194047
0000a0 e8 ce e7 3d 7b de 53 bc 92 b8 77 bb 02 c7 9c 3d
       0.11318761 -0.012931461 -0.0037799221 0.07655145
0000b0 5b cd aa 3d 6c 18 f9 3c 61 46 85 bc bb 33 0b bd
       0.0833995 0.030407153 -0.01626891 -0.03398488
0000c0 70 c1 b5 3d 92 b2 58 3d e8 01 78 bc 95 4a 70 3d
       0.08874786 0.052904673 -0.015137173 0.058664877
0000d0 8b 42 e9 bb e0 84 36 3d 25 ef 39 3d 4f 58 9d 3c
       -0.0071185282 0.044560313 0.04539408 0.019207148
0000e0 08 f0 dc bd 32 1e db bd 12 79 20 bd 9b ce e2 bc
       -0.1078797 -0.10699119 -0.03917796 -0.027686408
0000f0 ef 76 67 3d b5 c4 9d 3d ba e4 3d 3d a7 99 7f 3d
       0.05650991 0.077035345 0.04636071 0.062402394
000100 6e 3d 58 bc 81 0b 01 bb 47 4d 69 3d eb 39 b7 3d
       -0.01319824 -0.0019690695 0.056958463 0.08946594
000110 e4 4d fa 3d 12 3c 5f 3d cc b3 2e bb 16 f8 36 3d
       0.12221888 0.054500647 -0.002665746 0.044670187
000120 c0 6e 69 bd c5 b9 d0 bc 5c 65 dd 3c 76 02 a7 3d
       -0.056990385 -0.025479207 0.027025871 0.08154766
000130 a5 2d fd 3c c3 5e 80 bd 8d 71 9e bd bb 78 ad 3c
       0.030905554 -0.06268074 -0.07736502 0.021175733
000140 d8 5a 80 3d 4a 52 1a bd e4 92 32 3d d8 37 38 3d
       0.06267327 -0.037676133 0.043597117 0.04497513
000150 64 3a fa 3c e0 57 8b 3d 96 27 c3 39 d8 45 3d bd
       0.030545421 0.0680387 0.00037222792 -0.046209186
000160 d1 cc a3 bd cb 4c 65 bd bd e1 2d 3d 61 73 40 3c
       -0.0799805 -0.05598144 0.04245161 0.0117462585
000170 59 18 e0 bc c6 52 7e bd b0 47 a2 bb 60 74 ce 3d
       -0.02735536 -0.062090658 -0.0049523935 0.100807905
000180 bf 84 7b bd c3 dd d2 3d d5 bf eb bc e9 43 97 bc
       -0.061405893 0.10296204 -0.028777996 -0.018465
000190 31 d6 49 3d 7c 24 2d 3c ac cf a6 3c 12 5e 67 3d
       0.049276534 0.010567781 0.020362698 0.056486197
0001a0 8b 57 4f 3d 87 f1 f3 3c 04 69 b5 3c 79 22 f7 3c
       0.050620597 0.029778255 0.022144802 0.030167805
0001b0 50 6e 61 bd df c3 18 3d 91 7d d7 3d c9 10 87 bd
       -0.055036843 0.037296172 0.10521997 -0.065949984
0001c0 59 c5 89 ba 9f 09 4b 3d 37 ea 97 3d 2c 35 06 3d
       -0.0010511085 0.049569722 0.0741772 0.032765552
0001d0 5b fa 8f bc 86 93 ab bd a5 e0 93 bd 7b 8d 6b 3d
       -0.017575433 -0.08377747 -0.07220582 0.057507973
0001e0 dc 0a f5 bc ca 88 10 bd 59 c3 e6 bc e5 7d d0 3d
       -0.029912405 -0.035286702 -0.02816932 0.101802625
0001f0 79 04 28 bd 56 f8 3f bd 3f be ce 3c 68 ee 07 3d
       -0.04101989 -0.04686769 0.0252372 0.033186346
000200 68 0d 34 bd fc 85 6d 3d 41 fb d5 3c b1 e5 e1 bc
       -0.043958098 0.057989106 0.026120784 -0.027575346
000210 88 4a 56 3d 67 29 a8 bc 56 58 a2 3d bb 0c 00 3d
       0.052317172 -0.020527555 0.07927005 0.03126214
000220 22 31 9c 3d 82 8c 22 3d dc 19 68 3d 2b 25 6d 3c
       0.07626559 0.03968478 0.056665286 0.014474194
000230 ba 80 37 be 43 d4 41 bd 9c 61 b4 3c 93 6c b3 3d
       -0.17920199 -0.04732157 0.0220192 0.08760943
000240 4d 45 9f bd 69 5b b1 bc cc 01 98 3c 3e e4 04 bd
       -0.0777689 -0.021650033 0.018555544 -0.03244423
000250 d4 27 03 bd b8 59 46 3c 92 e0 8a 3c 72 92 3e 3d
       -0.032020405 0.012106352 0.016952787 0.04652638
000260 6b 7e 4f 3d 2c 2c ac 3d 67 a3 07 3e 93 2d db ba
       0.05065767 0.084068626 0.13245927 -0.0016721956
000270 26 21 2a 3d 53 1e 4c 3d 1c 36 1d 3e df eb 1c 3d
       0.04153552 0.049833607 0.15352672 0.03831088
000280 d5 51 54 bc 1c 98 94 3d ec 7d 5d 3e fa ba 68 bd
       -0.012958963 0.07255575 0.21630067 -0.05681894
000290 bb 4b cd 3c dd 10 a8 3d 44 b9 11 3e 25 ea 5e 3d
       0.025060525 0.082063414 0.1423083 0.054422516
0002a0 b9 55 b7 bb 47 44 57 bd ab ee d6 3d bb c5 72 bd
       -0.0055949357 -0.05255535 0.10494741 -0.0592706
0002b0 cf 0e 83 bd 12 70 b4 3c 77 b9 c6 3d 8a a6 2a bd
       -0.06399309 0.022026096 0.09703343 -0.04166273
0002c0 f0 2d c0 ba 26 01 8b bd a7 62 f3 bc 6e e8 30 bd
       -0.0014662128 -0.067873284 -0.029710127 -0.043190412
0002d0 9e 1c 17 bd c1 3e 07 3e 9b ad 16 bc fe 3d 2a 3c
       -0.036892526 0.13207532 -0.009196664 0.010390757
0002e0 25 07 56 bc 9e 79 ed 3c 52 a6 7d 3d 26 1f 08 bd
       -0.013063227 0.028988656 0.061926194 -0.03323283
0002f0 1a 09 81 3d 13 ee 17 3d 25 ba 93 bc 36 4d 16 3d
       0.06300564 0.03709228 -0.018033097 0.036694728
000300 5c 5e 95 39 86 d6 84 3d 89 b5 8a bb ca a6 4f 3d
       0.00028489798 0.064862296 -0.0042330665 0.05069617
000310 cb 74 27 be 0b 2a d4 bd 69 3f 11 3d 78 ba 66 bc
       -0.16353147 -0.103595816 0.035460863 -0.014082544
000320 fe b6 ac bb 51 6a a1 bc eb b8 7e 3d 9f c1 39 3c
       -0.005270838 -0.019704016 0.06218807 0.011337667
000330 34 50 1b bd 89 28 98 3d 24 cd 46 3d 3a e0 4c 3d
       -0.037918285 0.074296065 0.04853548 0.050018527
000340 01 30 3e bd cb 82 d4 bc 3f ad 09 be 50 75 e9 bc
       -0.0464325 -0.025941273 -0.13444994 -0.028498322
000350 0b b6 92 3c 9a 69 ca 3d 4b e1 be 3c 2e 4a ec 3c
       0.01790907 0.09883423 0.023300787 0.028843965
000360 1d 8f 93 3c 32 2b 6c bb 63 b4 27 3c 02 a3 5f bc
       0.018012578 -0.0036036489 0.010235879 -0.013649704
000370 97 cb 2a 3d b8 01 f4 bc f7 74 c9 bd b5 7c f0 3d
       0.041698065 -0.029785976 -0.098367624 0.11742536
000380 a4 ff 55 3d 07 d2 0c bd d2 7f 8b bb b6 29 f8 3d
       0.05224575 -0.034379985 -0.0042571807 0.12117331
000390 50 3d 27 3d 24 3a 21 3d 30 4d eb 3d af 45 3b 3c
       0.040829957 0.039362088 0.11489332 0.011430188
0003a0 fd 10 b4 3d 24 62 b9 bc b2 fb 38 3d 98 7d ad 3c
       0.08792303 -0.022629805 0.04516191 0.021178052
0003b0 65 70 7f bc 87 aa 9f 3c a0 1a ae 3d f2 2e 9e bc
       -0.015590762 0.019490493 0.08501172 -0.019309495
0003c0 06 e6 5d bd 16 a7 75 bd 30 b6 b2 3d 4f 94 e0 3d
       -0.054174446 -0.0599738 0.08726156 0.109657876
0003d0 36 2d 47 3d f4 bd 8b 3b de 62 19 bd 16 96 87 bc
       0.0486271 0.0042645875 -0.037447803 -0.016551059
0003e0 82 26 3a bd 27 9f ab 3c 41 de df bd 1f 31 70 3d
       -0.04544688 0.020949913 -0.109310634 0.058640596
0003f0 93 c1 37 bd 41 03 c4 bb 96 e8 a5 3d b7 c1 56 bd
       -0.04486234 -0.005981833 0.08101003 -0.052430835

encoder_output_layer.bias f4 [128]
000000 01 75 cb 3d cb 67 ae 3c 8d 5f 7d bd 96 1f 7c 3d
       0.09934426 0.021289727 -0.061858702 0.06155356
000010 63 12 5c 3c 26 20 7d 3d fd 67 b5 3c 16 61 fe bb
       0.013432118 0.061798237 0.022144312 -0.0077630384
000020 20 66 68 3d 43 01 6d 3d b8 12 9f 3c 32 8a 90 bc
       0.05673802 0.05786253 0.019418105 -0.017644022
000030 51 70 b0 3d 95 74 1f 3c e2 8f 33 3d d6 2d 4d 3d
       0.08615173 0.009732385 0.04383839 0.05009254
000040 fe c5 4d 3d 2a 86 64 3d f1 62 81 bc 45 1e c6 bc
       0.05023765 0.05579201 -0.01579425 -0.024184356
000050 9a 6d b4 3d e0 0c 9e bd 85 12 d0 3d a8 d4 9a 3c
       0.08809967 -0.077172995 0.10159782 0.01890023
000060 1d 11 3e 3b 90 e3 8a 3c a5 14 09 3d b7 db 21 3d
       0.00290019 0.016954213 0.033466954 0.039516177
000070 ed 79 d3 3d 50 d9 e4 bb a5 e2 a1 3d 31 b1 1d bc
       0.1032599 -0.0069839135 0.07904557 -0.009624765
000080 74 71 05 3d 7f b8 ff 3c 1b 48 bd 3d c6 fb 30 bd
       0.0325789 0.031215904 0.09242269 -0.04320886
000090 9f 3a 61 3b 47 51 86 bd 46 9a 58 b9 f7 82 07 3d
       0.0034367216 -0.06558471 -0.00020656837 0.033083882
0000a0 e5 4a b7 3d d1 b4 56 3d 37 76 18 3e 7d a4 81 3d
       0.08949832 0.052418534 0.14888845 0.06330202
0000b0 bb 00 84 3c 49 3d a8 bc 71 e7 9c bd 23 ae 09 3d
       0.01611363 -0.020537036 -0.076613314 0.033613335
0000c0 ad 16 b1 3d 2b c1 33 3c 0b f8 22 3d 81 66 28 bb
       0.08646903 0.010971348 0.039787333 -0.0025695863
0000d0 8c 6b 54 bd 30 95 3f 3d d8 5a 85 bb 44 51 aa 3d
       -0.051860377 0.046773136 -0.0040696673 0.083162814
0000e0 1d 6c 8a 3d e5 b1 c2 3c 15 ea 69 3d 6f 4e 16 3d
       0.06758902 0.023766467 0.057108004 0.036695894
0000f0 47 9e bb 3c 2d 2e 99 38 6b cc 11 3d a3 a6 67 bc
       0.022902621 7.3042094e-05 0.03559534 -0.01413885
000100 11 83 96 3d d1 f3 6c 3d 7b ce 99 bc 3e 47 58 bd
       0.07349218 0.05784971 -0.018775215 -0.052802317
000110 0b df 02 bd 52 cf 84 3d d6 75 b7 bd 5b 29 5e 3d
       -0.03195099 0.06484856 -0.08958022 0.05423866
000120 f6 c3 f6 3c 2b f7 00 3e 72 b8 ee 3c 52 e3 76 bd
       0.030122738 0.12594287 0.029140685 -0.060275383
000130 45 78 cd bb 99 ce 58 3d b6 40 2e bd ae 7b 77 bd
       -0.0062704408 0.052931402 -0.042542182 -0.060420685
000140 95 91 11 bd 65 42 d0 3c 37 73 02 3d 83 a3 8e bd
       -0.03553923 0.025422284 0.03184816 -0.06964781
000150 a7 51 07 3d 96 4a 85 bc 2c 6e 87 3d c5 0b 92 bc
       0.033036854 -0.016270917 0.066128105 -0.017827878
000160 74 08 e8 3d 80 cb bf bc 0c 29 82 3d 1a 3e da bb
       0.11329737 -0.023412466 0.06355485 -0.006660235
000170 88 30 9f 3d 86 08 d8 3c e3 59 96 3d da 1a 7f bd
       0.077729285 0.026371252 0.07341363 -0.062281467
000180 d1 3a 80 3d d4 b2 b4 bb a6 57 31 3b 32 1f 78 bd
       0.06261218 -0.005514482 0.00270603 -0.060576625
000190 89 cc 2d 3d 82 13 78 3d a6 c3 34 bd 85 42 a9 bc
       0.042431388 0.06056548 -0.044131897 -0.020661602
0001a0 2c d1 b9 3d c6 f9 20 bd 98 42 a5 3d e9 c3 cd 3d
       0.090730995 -0.039300703 0.080693424 0.100471325
0001b0 bc 5f a1 bc a9 2e a7 bc b8 09 a9 bc 0e ff 5b 3d
       -0.01969897 -0.020407991 -0.020634517 0.053710036
0001c0 ec 3c 36 3d 77 ab 20 bd 81 62 25 bd 8a 54 bf 3d
       0.044491693 -0.03922602 -0.040377144 0.093422964
0001d0 92 c6 f0 3c 9b 4e 74 3d be 99 90 3d 96 38 e2 3c
       0.02939156 0.059645277 0.07060574 0.027614873
0001e0 40 cf 35 bd 78 de cd 3c 95 90 1d bd 34 5e d1 3d
       -0.044387102 0.025130495 -0.038467962 0.10223046
0001f0 58 11 f6 bb a4 cb bc bb 1b 64 a7 2f 15 ff e8 3d
       -0.0075093918 -0.0057615805 3.0448252e-10 0.11376778

decoder_hidden_layer.weight f4 [128, 128]
000000 86 cc 9d bd c2 97 d4 bb 7f 1a ef 3b 23 54 bf 3c
       -0.077050254 -0.0064878175 0.0072968598 0.02335555
000010 68 24 f4 3d 52 4e e3 ba 16 b4 b5 bd cf df 7d bc
       0.119210064 -0.0017342067 -0.08872239 -0.015495255
000020 d6 c6 a8 3c ca 8e 60 bc bf e3 25 3d c2 a5 1a bd
       0.020602625 -0.013705919 0.0405004 -0.037755735
000030 39 28 02 bc 62 c8 85 3d ca 72 03 3d 10 e1 85 3c
       -0.00794416 0.065323606 0.032091893 0.01634267
000040 75 4d 72 bd 8d 1e da 3c 94 00 b6 bd 91 76 4b bd
       -0.0591559 0.026625896 -0.08886829 -0.04967362
000050 65 89 a4 3d 70 e1 d2 bc 97 a9 13 3c 2b ad d4 3c
       0.080340184 -0.025742263 0.009012601 0.02596148
000060 40 fc 96 3c f1 fb ce bd 6c d8 9c bb 37 44 c8 bd
       0.018430829 -0.10106648 -0.0047865417 -0.09778636
000070 be 3a e8 3c fb 26 5e bc de e2 f0 bc af 84 9a 3d
       0.028348323 -0.013559098 -0.029405054 0.07544839
000080 db 24 2c 3d 66 8e 0f 3d be 10 8f bd 9e f4 a5 3d
       0.042027336 0.03504791 -0.06985615 0.08103298
000090 c0 8e 81 bd bf d8 8a bc 40 78 85 bc ed a2 89 3d
       -0.063260555 -0.016949056 -0.016292691 0.06720529
0000a0 24 02 b2 3d 84 cc b2 bb 44 13 fc ba 18 7c bd bd
       0.086918145 -0.005456509 -0.0019231816 -0.09252185
0000b0 61 52 a0 3d 1a 55 dd bc 45 55 e5 3d d6 bc bd bd
       0.078282125 -0.027018119 0.111979045 -0.09264533
0000c0 f1 d7 8f 3d f4 20 75 bd 15 ee 3c 3d 3b 5d f6 3c
       0.070236094 -0.05984588 0.04612549 0.030073753
0000d0 0f b2 97 3c a0 87 c9 bc 70 39 72 bd 97 b7 c3 3d
       0.018517522 -0.024600804 -0.059136808 0.09556501
0000e0 7c d3 58 3d c6 41 83 3d 86 f4 5d 3d 83 93 28 3d
       0.052936062 0.0640903 0.054188274 0.041156303
0000f0 a9 3e 8a bd f2 c7 08 bd d6 25 8e 3d f7 70 d1 3c
       -0.06750233 -0.033393808 0.069408104 0.025566561
000100 6f d7 96 bb 2f 21 92 3c 32 8e 12 3d 33 19 9e 3d
       -0.0046033184 0.017838089 0.03578014 0.0771965
000110 51 d5 be 3c be 6e 22 bd a6 ac 04 3c 51 97 4f 3b
       0.023295077 -0.039656393 0.008097803 0.0031675885
000120 52 5d b6 3d 9a a4 92 3d dd 5f 92 bd b7 21 8c 3c
       0.08904518 0.071603015 -0.07147191 0.01710592
000130 23 26 b5 bc 4c c5 c7 bc ba bd ac bc 99 a3 09 3d
       -0.022112912 -0.02438607 -0.021086562 0.033603285
000140 89 78 08 3d e8 7c bb bb c0 ce fc 3d 34 df 1d 3d
       0.033318076 -0.005721677 0.12344122 0.03854294
000150 c6 e4 5a 3d 3c e8 d1 bc ca b7 3f bd 59 a3 9d bd
       0.05344083 -0.025623433 -0.046806134 -0.07697172
000160 1f ff a0 3d 8d ae 8a 3d 2d e4 cb bc 19 47 02 3d
       0.078611605 0.06771574 -0.024889076 0.031806085
000170 8f 8f 38 bc a1 e4 9b bc cd 19 c8 bd 42 56 01 bd
       -0.011264696 -0.019029917 -0.09770546 -0.031576402
000180 fe 25 84 bc e6 3c 08 bb 7f 8a 0a bd 34 c0 03 bc
       -0.016131397 -0.0020788251 -0.033823486 -0.00804143
000190 91 e9 b2 3b 73 6d 7e 3c ca b5 02 bc 46 80 7d 3b
       0.005459972 0.015529024 -0.007977912 0.0038681193
0001a0 5c c8 b3 3b 53 5f 55 3d 34 5a 42 3d eb 12 3f bd
       0.005486531 0.05209286 0.047449306 -0.0466489
0001b0 5a 66 96 bd e4 09 2c 3c ff dd 02 bd 4c e1 93 3b
       -0.07343741 0.010500405 -0.031949993 0.0045129415
0001c0 c4 fc 84 bd 69 7e 5e 3d 4d d5 49 3d 71 b5 6b 3c
       -0.06493524 0.054319773 0.049275685 0.014386521
0001d0 73 8c 38 3c 88 d6 5a 3c 2c 81 25 3c f1 c7 01 3c
       0.011263954 0.013356812 0.010101598 0.007921205
0001e0 a7 f4 ea 3d 01 54 45 3c 53 f7 46 3d 40 40 80 bd
       0.11472445 0.012043954 0.04857571 -0.06262255
0001f0 3c 9e 96 3d 7b 96 81 bd 07 73 84 2d d8 a6 68 3a
       0.073543996 -0.0632753 1.5057745e-11 0.00088749593
000200 8f 30 aa 3c 34 71 3e 3d 81 26 29 3d a8 76 a5 bd
       0.020775108 0.046494678 0.041296486 -0.080792725
000210 df bf a3 bc 7b 5b 43 3d 82 89 84 3b b0 96 9d 3d
       -0.019988952 0.047694664 0.0040447125 0.07694757
000220 63 80 af ba fe 6e 88 bd 80 73 92 3d cd f4 08 3d
       -0.0013389703 -0.06661795 0.07150936 0.033436585
000230 48 01 27 bd fc c5 82 3d 5b c7 a5 3d d3 8c 41 bd
       -0.040772706 0.06385419 0.08094665 -0.04725344
000240 8a 5b 4c 3d 89 8d 97 3c d2 0d 8c 3d b2 65 15 3d
       0.049891986 0.018500106 0.068385735 0.036473937
000250 e8 fb 38 3c a7 30 37 bb 2e a7 23 3c 1d 04 8f 3c
       0.011290528 -0.0027952583 0.009988589 0.017458016
000260 a6 88 82 3d 20 39 85 bd 3d b4 2b bb c2 c9 33 bc
       0.0637372 -0.06505036 -0.002619996 -0.010973396
000270 bf 66 93 bc a5 ae 19 3d e7 68 a0 3d 4d c5 09 3d
       -0.01799333 0.03752007 0.078325085 0.033635426
000280 73 9b 8b bd 91 a3 fd bc e7 89 4d 3c ff bd ad bd
       -0.06816759 -0.030961784 0.0125450855 -0.084835045
000290 67 18 52 3d 09 43 3c bb 9a 55 06 bd 44 49 8f 3c
       0.051292803 -0.002872648 -0.03279648 0.01749099
0002a0 5c e6 59 3d bf 89 2a bd f8 1f de bd 76 84 e5 3c
       0.053198203 -0.04163527 -0.10845941 0.028017264
0002b0 ee 06 7e 3d e9 e0 9b 3d a8 bc b9 bc 6f f8 93 bc
       0.062018327 0.076112576 -0.022672966 -0.018062798
0002c0 96 df 94 bd 72 2e 30 bc d2 ce e6 bc 07 a0 9d bd
       -0.07269208 -0.010753261 -0.028174791 -0.076965384
0002d0 eb 79 5d 3d 81 d2 fb 3c 0f 92 95 bc 23 4b 19 bc
       0.05407135 0.030740025 -0.018258123 -0.009356293
0002e0 1d e1 0f 3c cb be b0 3d a6 17 7f 3d 2a e7 82 bd
       0.0087816985 0.08630141 0.062278412 -0.06391747
0002f0 47 24 b2 3c 08 5f 91 3d d8 59 36 bd e9 6e 95 3d
       0.021745814 0.07098204 -0.044519275 0.07296545
000300 7a 54 44 3d 21 f1 a1 3d 46 6e 80 3b a1 3a ac 3d
       0.047932126 0.0790732 0.0039193956 0.0840962
000310 f3 e1 78 bd ea 27 44 3c d5 ed 0c bc 4e ec 4a 3b
       -0.060762357 0.011972407 -0.008601625 0.0030963602
000320 5e d7 14 3d 8b f9 e7 3b 58 6d 5b 3d 41 87 b2 3d
       0.036338203 0.0070793084 0.053571075 0.08717204
000330 0e 50 6e bc 6a 56 48 3d 0e e8 80 bd 8d b3 65 3d
       -0.014545454 0.048910536 -0.06294261 0.056079436
000340 5c a2 ce 3c 96 33 a1 3c cc 29 df 3c 50 02 a5 bc
       0.025223903 0.019677918 0.02724161 -0.020142704
000350 91 ac c1 3d 55 8a e6 bc 06 b6 c8 bc 49 13 80 bd
       0.094567426 -0.028142134 -0.024500858 -0.06253678
000360 6b 4c c1 3d 47 93 01 be fb de 93 3d 73 2d 9c 3c
       0.09438404 -0.12653838 0.072202645 0.01906464
000370 8f 43 82 3c a7 92 f5 bc 5c ab 5e bd e1 4d 05 3c
       0.015901355 -0.029977156 -0.05436264 0.008136244
000380 0c bd ec bc 79 db e3 bc c4 5b 22 3d 81 04 7e bd
       -0.028898738 -0.027814614 0.039638296 -0.062016014
000390 c0 01 f8 bb af 3c 91 bd ab 3b 68 bd bb 99 a9 3d
       -0.007568568 -0.070916526 -0.05669753 0.08281275
0003a0 30 dd 22 bb 28 f6 f5 bc 25 dc 03 3d 1c 49 d6 bb
       -0.0024851076 -0.030024603 0.032192368 -0.006539477
0003b0 45 62 a9 3d 40 bd af bd 20 18 11 bd 26 d8 4d 3d
       0.082706966 -0.085810184 -0.035423398 0.050254963
0003c0 bf 7b a9 3d 4f 0d 87 3c 06 6e 8c 3d 2a 9e 74 bb
       0.08275556 0.016485838 0.06856923 -0.0037325718
0003d0 b6 03 bc bd 72 65 66 3d 80 f6 47 bd 0f 11 53 3d
       -0.09180395 0.05624909 -0.048819065 0.05152994
0003e0 61 c1 75 3b 74 8b 8c bc 8d de 3f bd 6c 8c 0e 3d
       0.0037499296 -0.01715634 -0.0468431 0.034801885
0003f0 64 dc 4e 3d b5 84 36 3c 9b 2d 90 2d 85 2e 44 bd
       0.05050315 0.011140038 1.6391158e-11 -0.047895927

decoder_hidden_layer.bias f4 [128]
000000 36 95 97 bd e3 df 3f 3b 4c 6b 03 3c c8 db d2 3c
       -0.074015066 0.0029277734 0.008021187 0.025739565
000010 3b 8f 24 3b c3 e1 8a 3b 22 e2 84 ba 38 b4 79 3d
       0.0025109786 0.0042383387 -0.0010138194 0.060962886
000020 38 63 a1 bc d1 39 af 3d 40 f4 5c 3d b0 36 d9 bd
       -0.019700631 0.085559495 0.053943872 -0.10606134
000030 31 26 92 bd 54 e0 4d 3d af f2 3e ba 92 d9 b8 bc
       -0.07136191 0.050262764 -0.00072840875 -0.022564683
000040 ba 4b 13 bd 5b 14 92 bb 45 82 56 bd c0 a3 41 b7
       -0.03596089 -0.004457993 -0.05237033 -1.15418225e-05
000050 1a 6f a5 ba 25 fc 41 ba c0 de 37 3c a1 6c 07 bc
       -0.0012621612 -0.0007399938 0.011222541 -0.008265645
000060 9f af 53 3c 5d 08 d3 3d 4b 61 48 bd 4e 27 58 3c
       0.012920289 0.103043295 -0.04892091 0.013192965
000070 6d 81 f7 3d 6e 13 ce 3d 63 4c f5 3d f5 ed 64 bd
       0.12085233 0.100623 0.1197746 -0.055890996
000080 7d 78 85 3c 40 4b f7 3d 75 a5 98 3d b9 d7 a9 3d
       0.016292805 0.120749 0.074534334 0.08293099
000090 36 2b 15 bd e0 ab 46 3d 30 e3 48 3c c8 50 a4 3d
       -0.036418162 0.048503757 0.012261197 0.0802322
0000a0 40 ba 7f bd 07 92 9c bd 2a 67 f5 3c 17 7f b6 3d
       -0.06243348 -0.0764504 0.029956419 0.08910959
0000b0 76 e6 ea 3b cd cb 8b 3c 07 a6 a7 3c 7b 09 01 bd
       0.0071685864 0.017064953 0.02046491 -0.031503182
0000c0 24 64 82 3c dd e6 03 3d 66 b4 81 3a 46 49 59 bc
       0.015916891 0.03220259 0.0009895682 -0.013262099
0000d0 18 57 4e 3d 8e f6 db 3c ef 0d 6e bb be 12 00 3c
       0.050376028 0.026850965 -0.0036324223 0.0078169685
0000e0 2d c4 e3 3d 68 a6 cc 3c 81 0b 5a ba b3 4a ca bc
       0.11121402 0.024981692 -0.0008317754 -0.024693822
0000f0 f4 34 ef bb 48 26 97 3d 43 df e3 3b ec 6b 78 bd
       -0.0073000137 0.073803484 0.006954105 -0.060649797
000100 1e 96 f9 3c d4 8e 0a 3d 91 5b b8 3d 50 24 42 3d
       0.03046709 0.033827618 0.0900184 0.04739791
000110 cb f7 71 bd cc 39 53 3d 8b 12 49 bd 1a e1 1b 3d
       -0.059074204 0.05156879 -0.04908995 0.03805647
000120 7a 92 5e 3d a8 df 16 bd cc ef 4d bd e8 1f 8c 3d
       0.05433891 -0.03683439 -0.050277516 0.06842023
000130 26 c8 3e bd 8f 19 ab 3b 17 fa 85 3d 2f ff 33 3c
       -0.046577595 0.0052215527 0.065418415 0.0109861335
000140 46 84 be bc 2a 5c 59 bc 83 d2 28 b8 5b 97 5a 3d
       -0.023256432 -0.0132666025 -4.0250376e-05 0.053367
000150 e5 50 88 3d 7c bc f0 bc e4 7f b6 b6 d5 4c cb 3b
       0.066560544 -0.029386751 -5.438911e-06 0.0062042275
000160 99 c1 d5 bc 3b 9b 78 bb 76 bb 17 bd 91 d3 ab bc
       -0.026093291 -0.0037934321 -0.03704401 -0.020974906
000170 aa 74 4a bd ba 68 4f 3d e1 66 94 3d 2f ae ac 3d
       -0.049427666 0.050636984 0.07246185 0.084316604
000180 69 5d 59 bd 61 b6 db bb ec ae 9c 3c e7 b8 1a bd
       -0.0530676 -0.006705091 0.019126378 -0.037773993
000190 c5 6e 80 3d 16 a7 3f 3d 92 06 c0 3c 77 ae 84 bd
       0.062711276 0.046790205 0.023440633 -0.06478589
0001a0 ff 0d 59 3d 86 1d 99 3c c1 a1 59 3c ba 6b e1 bc
       0.052991863 0.018690836 0.013283194 -0.027517188
0001b0 69 35 f7 3a 02 f6 5a bd e2 aa f3 bc 45 8f 9c bc
       0.0018860522 -0.053457268 -0.02974457 -0.019111285
0001c0 21 3c 35 bd 41 5a 29 bd 19 d6 3d bd 92 dd 5c 3c
       -0.044246797 -0.04134584 -0.046346758 0.013480561
0001d0 76 c1 97 bd d6 22 22 bd 0e e4 1d 3c 17 1f ef 3c
       -0.074099466 -0.039584003 0.009636892 0.02918963
0001e0 a5 90 9b 3d 9b 18 86 bd cf 04 8b 3d 3d 67 13 3d
       0.07595948 -0.06547662 0.067880265 0.035987128
0001f0 0c be 8a bd d6 5a 01 3c f9 3b 32 bd b9 58 19 3d
       -0.0677453 0.007895192 -0.043514226 0.03743813

decoder_output_layer.weight f4 [128, 128]
000000 13 f0 c8 bd f1 cd 36 3d ef f0 4c bd bf 51 42 3d
       -0.098114155 0.044629995 -0.05003446 0.04744124
000010 6d 0f c7 3c 12 41 e5 bc af 8f ff 21 79 1d 05 3d
       0.024299348 -0.02798513 1.7317505e-18 0.03249881
000020 47 0e 1e bd a5 6a ee bc aa 71 8c 3c 0d 44 40 bb
       -0.038587835 -0.029103586 0.017144043 -0.0029337436
000030 de d9 5a 3c 36 0a 17 3e a1 2c 2c 3d 95 11 d4 3c
       0.013357608 0.14749989 0.04203475 0.02588729
000040 cc 08 8d bb ba 99 8a 3d 67 5e 42 bb ab 63 7a 92
       -0.004304027 0.06767602 -0.002965832 -7.900894e-28
000050 35 54 30 bb c7 68 cd 20 6d 4d 11 3c 42 1f 14 3d
       -0.002690566 3.4797687e-19 0.008868557 0.036162622
000060 9c d6 86 bd b2 62 80 3d 9c 4c ca bb 34 42 64 3c
       -0.06583902 0.06268825 -0.0061736833 0.0139318
000070 83 8d 4e 3a 43 64 cf bc 88 16 60 bc 76 dc 75 bd
       0.0007879363 -0.025316363 -0.013677247 -0.0600247
000080 66 48 cc bc 41 6e a6 bc c4 6b 16 3d e7 f9 6b 3d
       -0.024936866 -0.020316245 0.036723867 0.057611372
000090 56 e2 9f 3d e9 de c8 3c f2 5a 29 bd 7f 09 73 3d
       0.07806842 0.024520354 -0.041346498 0.059335228
0000a0 e5 23 4a bc 6c 6c 30 bd e7 ca e9 3c e5 56 81 3c
       -0.0123376595 -0.04307215 0.028539134 0.015788505
0000b0 c2 82 16 bc 00 19 11 3d 14 5c 67 3d 09 64 db bb
       -0.0091864485 0.035424232 0.056484297 -0.0066952747
0000c0 9d 10 06 bd 3e f3 a3 bc 49 49 31 bc 1b 57 5e 3d
       -0.032730687 -0.020013448 -0.010820695 0.05428229
0000d0 ac b4 11 3d a6 7f 59 bd e5 83 ac 12 7b d5 ca 3d
       0.035572693 -0.05310025 1.0887241e-27 0.099039994
0000e0 08 c9 33 ba 0d 9f db bb d5 2e 01 bd 2f 46 ac bb
       -0.0006858264 -0.00670231 -0.031538803 -0.00525739
0000f0 ab c1 34 bd b1 4d 97 3c 03 f9 e7 bb f1 e0 9a 3c
       -0.04413001 0.018469663 -0.007079245 0.018906089
000100 15 ec 5b bd fa 89 10 3d 75 67 fe 3c a9 8f 4e bc
       -0.053691942 0.035287835 0.031055192 -0.012607493
000110 3c 04 77 bd e3 df 2e 3d e7 bb 64 bc 2e 06 8a bb
       -0.060306773 0.042693984 -0.013960815 -0.0042121625
000120 7a f9 d1 3c ff ed bb 3b c9 ce d4 3b 1f 44 95 bc
       0.025631655 0.0057351585 0.0064943773 -0.01822096
000130 bd e9 b5 3d c8 07 35 bd 93 3d af bb 26 d7 81 3b
       0.08882473 -0.044196874 -0.0053479164 0.0039624153
000140 dc e5 2c bd d8 4a 87 bd 29 4f d0 a2 12 e3 29 3d
       -0.0422114 -0.06606072 -5.6462327e-18 0.041476317
000150 20 ec 24 3c 21 d1 8e 93 a5 e8 7f a2 dc f3 69 3c
       0.010066062 -3.6052057e-27 -3.4682105e-18 0.014279332
000160 2a 8c 10 3c 71 1e b6 96 b2 9a 07 3d 4f cf 3b bd
       0.00882248 -2.9422897e-25 0.033106513 -0.045852
000170 03 b0 4f bb 26 fa 2d 3d 1e b3 8b 3c 29 47 54 bc
       -0.0031690605 0.04247489 0.017053183 -0.012956419
000180 31 8d b9 3d 13 f7 08 3d 4e d7 92 bc 0b 5f 2d 3c
       0.09060133 0.033438753 -0.01792493 0.010581742
000190 a7 10 4f bc 11 dc f6 bb df 32 51 bc 99 ba 3a bd
       -0.012638248 -0.007533558 -0.012768476 -0.04558811
0001a0 29 cb 14 bc da 2b cb bb 5d 56 a9 bc 68 9c e1 3a
       -0.00908164 -0.006200296 -0.020671064 0.001721275
0001b0 58 3e 8b bc 97 b8 ea bc ab b3 45 3d 6b ca d7 3a
       -0.016997501 -0.028652472 0.048267048 0.0016463523
0001c0 6b 06 78 bc 58 9e 59 3b ef f3 8a 3c c7 b8 1a 3d
       -0.015138249 0.0033205952 0.01696202 0.037773874
0001d0 a8 3e bf 3c b3 79 68 3d 47 21 00 bd a4 be 04 bd
       0.023345307 0.056756686 -0.031281736 -0.03240837
0001e0 52 6a b2 b8 de bc ce bc 8a ae 01 bd 8b cf 42 bd
       -8.507505e-05 -0.025236543 -0.031660594 -0.04756121
0001f0 c2 79 d2 bd 97 0d ad ba c9 b1 37 bc 10 71 4f 3d
       -0.1027713 -0.0013202903 -0.011211821 0.050644934
000200 02 01 55 bd db b6 38 3d b7 b3 30 bd 5c 33 06 3d
       -0.052002914 0.04509626 -0.04314014 0.032763824
000210 35 ce c5 3c 33 a2 6a bc 4c 78 92 3b b2 aa 0f 3d
       0.024146179 -0.014320898 0.004469907 0.035074897
000220 db 4f 21 bd 3a 0b 6f bd 80 41 21 3c 5d 9a b8 3c
       -0.039382797 -0.058360316 0.009842277 0.022534544
000230 a0 c1 38 3d 88 16 e2 3d 5f 3e 0c 3d eb f6 9a 3d
       0.04510653 0.11039454 0.03423917 0.07566627
000240 9e c4 a9 3b 48 37 4d 3d ef 25 2b 3c 3b e0 8c 3a
       0.0051809093 0.05010155 0.010446056 0.0010747978
000250 58 42 a7 3b 45 57 b9 3b 60 70 9e 3c 6a 05 62 3d
       0.0051043443 0.0056561553 0.019340694 0.055180945
000260 e3 53 55 bd c9 24 1e 3d 15 a2 ac 3b fa b6 94 3a
       -0.052081954 0.0386093 0.005268345 0.0011346035
000270 17 75 b9 3c bf 1c 01 bd 66 ac f2 bb 35 90 8e bd
       0.02263884 -0.031521555 -0.0074058054 -0.06961099
000280 99 4d 33 bd 3b e5 ed bc 69 f5 b6 3c 1c d0 20 3d
       -0.043775175 -0.02903997 0.022333818 0.03926097
000290 89 31 da 3d 91 da d8 3c 9f cc ef bc 5e f6 4f 3d
       0.10653979 0.026471408 -0.029272376 0.050772063
0002a0 67 0c 11 bd 9c 95 d5 bb d8 89 da 3c 70 07 02 3d
       -0.03541222 -0.006518079 0.026677057 0.031745374
0002b0 ca 7e f0 bc a3 5d f2 3c 76 b9 2e 3d 13 60 41 bc
       -0.029357333 0.029585665 0.042657338 -0.011802691
0002c0 bb 60 90 bd 36 74 9e bc 84 c9 25 bd 38 fd e3 3c
       -0.070497 -0.019342523 -0.040475383 0.027830705
0002d0 1b 9b 77 3c 1f 01 9d bd 95 7f cb 3b 6f db 96 3d
       0.015112664 -0.076662295 0.0062102773 0.073660724
0002e0 73 90 df 3b 06 79 3d bc e5 3e 69 bc 5a 65 0c bb
       0.0068226396 -0.011564499 -0.014236187 -0.0021422715
0002f0 07 43 61 bd f2 61 95 3c 4b 61 75 3b 27 cc 3d 3d
       -0.054995563 0.01823518 0.0037442024 0.046337273
000300 0d c4 af bc 59 6f 18 3d cc 60 b0 3c 4d 34 ff b9
       -0.021455789 0.037215564 0.021530531 -0.00048676357
000310 8e 8c 1b bd c3 ed 65 3d a1 88 c9 bc a9 3d 35 bc
       -0.03797584 0.05613495 -0.024601283 -0.011062064
000320 af 1e d8 3c 95 0c 33 3c 5e d7 39 3b 52 e2 b8 bc
       0.026381819 0.010928293 0.0028357129 -0.022568855
000330 27 dc 7f 3d 8e df 84 bd f8 17 62 3b 98 04 f4 3c
       0.062465813 -0.06487952 0.003449915 0.029787347
000340 3e 11 14 bd bd ae 8a bd 24 e0 12 bc 45 ab ec 3c
       -0.036149256 -0.0677161 -0.008964572 0.028890261
000350 3f 4d 50 3c fb e2 30 95 14 dd e1 b8 03 10 92 3c
       0.012713729 -3.5721973e-26 -0.00010770015 0.0178299
000360 7e c6 a3 3c 38 75 f9 3a e5 bb d1 3c 10 a0 96 bc
       0.01999211 0.0019032126 0.02560229 -0.01838687
000370 67 cc 15 b9 ba 0e 12 3d 65 ec ee 3b 2c fd 8c bc
       -0.00014285893 0.035658576 0.007291364 -0.017210566
000380 4a 58 73 3d f3 df e3 3c 83 5c c8 bc 3b 5c 84 3c
       0.05941037 0.027816748 -0.024458176 0.01615726
000390 de 3e 0d bb 43 24 08 bb 3f 99 e9 bc 1a df 3c bd
       -0.0021552364 -0.0020773567 -0.028515456 -0.046111204
0003a0 5f 90 4f bc e0 58 f8 bb 98 7d dc bb f4 ef 00 bb
       -0.012668698 -0.007578954 -0.006728839 -0.0019674273
0003b0 7f 67 bb bc e6 97 94 bd d3 14 ff 3c 42 5f 3c 3c
       -0.0228765 -0.07255535 0.03113786 0.011497321
0003c0 d6 97 c0 3b 42 53 58 3c 18 50 b8 3c 5b e1 9c 3d
       0.0058774753 0.013203444 0.02249913 0.07660171
0003d0 dc 68 75 3c f5 84 5f 3d f0 67 b8 bc 31 18 8e bc
       0.014978614 0.054570157 -0.022510499 -0.01734552
0003e0 5d 41 e2 bb 5f 14 b9 bc 16 a2 f2 bc 35 bb cf bc
       -0.0069047646 -0.022592722 -0.029618304 -0.025357822
0003f0 19 f5 b8 bd 69 63 e3 3b fa ab 9e bc d2 f2 26 3d
       -0.09031124 0.006939341 -0.019369114 0.040758915

decoder_output_layer.bias f4 [128]
000000 b0 49 98 3c af e6 41 3c de 54 55 3c e2 73 b2 bc
       0.018589824 0.011834784 0.013020722 -0.021783773
000010 f2 f9 6c bd 76 80 77 bc 29 3b 12 ba d3 dd 1a bd
       -0.057855554 -0.015106311 -0.00055782736 -0.037809204
000020 70 0e 4c 3d a6 28 8a 3d d7 72 50 3c 34 c5 80 bc
       0.049818456 0.06746034 0.012722692 -0.015719034
000030 dc f8 60 3d c1 27 db 3d ae 1a e3 3b e1 cd f7 ba
       0.05492483 0.10700942 0.0069306707 -0.0018905961
000040 94 65 50 bb 8b f2 f2 3a 7b 6f b3 3b 96 2e fd bc
       -0.0031798827 0.0018535418 0.005475936 -0.030906003
000050 f7 73 89 bc 06 12 fc 3c 81 77 96 ba 68 2f e9 bc
       -0.01677893 0.030770313 -0.0011479707 -0.028464988
000060 12 d6 0d bd 1b ef 16 bd 85 56 5c 3d db af 55 3c
       -0.03462798 -0.036849122 0.05379345 0.0130424155
000070 f1 be bf 3c ad e8 b8 bc 77 18 94 3c 03 b5 81 3b
       0.023406478 -0.022571886 0.018078072 0.003958346
000080 28 2e ff bc 1b 30 f5 3c 33 3f e0 3a 2a 37 00 3c
       -0.031149939 0.029930165 0.0017108679 0.007825652
000090 2b 79 e7 3c b1 5f f9 b9 02 f7 1a 3d b1 90 66 bc
       0.02825602 -0.00047564277 0.03783322 -0.014072583
0000a0 8f ec 6b bd cc 07 59 3d 22 ed 30 bd bb 84 44 bc
       -0.057598647 0.05298595 -0.043194897 -0.011994536
0000b0 23 14 f4 bc ac 32 21 3d 3f ec c8 bb b5 2b 84 3d
       -0.029794758 0.039354965 -0.0061316784 0.06453649
0000c0 de 0a 7a 3c 41 a9 8f 3d c3 ff 85 3c d3 5f 2c 3d
       0.01526138 0.070147045 0.016357308 0.042083573
0000d0 56 9f ac bc d0 61 07 bd 07 64 f4 bc 6c f7 fd 3c
       -0.021072071 -0.033052266 -0.029832853 0.031001769
0000e0 5a d6 09 bc a6 10 d3 bc ba ee 8c bc 44 72 3c 3c
       -0.008412922 -0.025764775 -0.017203677 0.011501852
0000f0 20 cb e2 3a e9 85 6d b7 a2 1e a3 3b 34 54 a8 3c
       0.0017302968 -1.4157479e-05 0.004978017 0.020547964
000100 f2 81 f8 3b 5b e6 42 a7 8a 68 36 bb 65 88 11 bd
       0.00758385 -2.7047784e-15 -0.0027833306 -0.035530467
000110 e2 a1 cb 3b 68 eb c5 39 05 78 a5 3b 70 14 6e 3d
       0.0062143663 0.0003775016 0.005049708 0.05812496
000120 36 49 2d 3d 71 46 df 3c b5 a2 04 3d 0f 36 6f bd
       0.042306148 0.027255269 0.032381732 -0.058401164
000130 3e ca 9e bc 5d ce 82 3d 6b f0 58 bd ca d9 de 3a
       -0.019383546 0.06387017 -0.052963655 0.0017002162
000140 a8 23 32 3d 89 56 79 bd 8f 88 fa bc e5 72 89 3c
       0.043491036 -0.060873542 -0.030582694 0.016778419
000150 a2 53 9c 3c 21 a4 91 bb 34 80 8c bc 53 6d ea 3c
       0.019082848 -0.0044446145 -0.017150976 0.028616583
000160 c5 e7 a3 3b 3c bc cf bc 90 33 eb 3c bd a3 10 ba
       0.0050019943 -0.025358312 0.02871111 -0.0005517563
000170 cc 6f 7e ba 6c a2 5f bd f7 bc e4 bc 6d 96 b9 3c
       -0.000970599 -0.054598257 -0.027922137 0.022654736
000180 d1 f4 28 bc 59 83 0d 3d e3 41 98 3c c3 df 8d 3d
       -0.010312275 0.03454909 0.018586105 0.06927445
000190 e8 46 b3 3c b2 43 80 3d 8f 8d 9f 3c 73 34 ee 3c
       0.021884397 0.06262912 0.01947668 0.029077744
0001a0 4f 35 6f 3c 4c e9 a0 bc 2c 4c 8f 3b a2 95 cc 3c
       0.014600112 -0.019642495 0.004373094 0.024973694
0001b0 c2 91 aa 3c e3 1c 77 3d 57 28 ce ba 0a 68 6a 3d
       0.020821456 0.060330283 -0.0015728575 0.057228126
0001c0 84 87 8c bc 11 08 29 3b bc 94 7f 3c 0e db 55 3c
       -0.017154463 0.0025792161 0.015599426 0.013052715
0001d0 0b 88 22 3b 5e 7c 9b 3c 1f 4a 81 bd e4 fd c9 bc
       0.0024800326 0.018980201 -0.063129656 -0.024657197
0001e0 80 0c f7 3c f2 e6 09 bd ea 49 77 3c 61 23 a8 bb
       0.030157328 -0.033667512 0.015093306 -0.0051311706
0001f0 60 34 fe 3c 90 b5 4e bd 32 74 97 bc 6e d1 20 3d
       0.031030834 -0.05046612 -0.018488023 0.039262228
