results/milestone/programming tutorials/GCP/params/AE/params7.pt (torch_old, 265742 bytes, 8 tensors)

encoder_hidden_layer.weight f4 [128, 128]
000000 83 8c 67 3d 5a ae e7 3d 69 32 6b bd 63 d0 80 bd
       0.056530487 0.11312552 -0.05742112 -0.062897466
000010 68 49 85 3d a8 7c 36 bb 2d 63 f0 bc 91 ec 7a bd
       0.06508142 -0.0027845297 -0.029344166 -0.061260764
000020 67 3f 11 3d 9b 8c ce bc 4c d7 b1 3d 70 6a 63 3c
       0.035460856 -0.02521353 0.08683643 0.013880357
000030 57 57 80 bd 8b f2 27 3d 91 3b de bc 31 79 23 bd
       -0.06266659 0.04100279 -0.027128013 -0.0399105
000040 b7 75 8a bd 61 c4 52 3d 6b a1 70 3d b5 cd b2 3d
       -0.067607336 0.051456813 0.05874769 0.08730642
000050 81 32 b7 3d 02 ba 2c 3c 6d 6c 89 3d cb 73 d3 bc
       0.0894518 0.010542395 0.06710134 -0.02581205
000060 de e1 88 bc 67 15 d2 3b 6e 25 46 3d 6c c4 f8 bc
       -0.016709264 0.0064112428 0.04837554 -0.030367099
000070 c0 eb 71 3d d3 c6 e8 bc 7e 54 07 3d 9b f0 85 3d
       0.05906272 -0.02841512 0.033039562 0.065400325
000080 97 b3 a0 3d de 95 52 bd a5 5f 0b 3d a0 e1 ca 3d
       0.07846754 -0.051412456 0.03402676 0.09906316
000090 37 35 38 3d ae 95 90 3d ee d9 89 3d bb 40 bd 3d
       0.044972625 0.07059799 0.0673102 0.09240862
0000a0 35 fc 7c 3b 79 13 60 3d c0 0b c0 3d b4 95 08 bd
       0.0038602476 0.05470607 0.09377241 -0.033345893
0000b0 ca 07 e0 3c bc 8b 39 bb 96 23 22 bd a5 d9 8f bb
       0.027347464 -0.0028312048 -0.03958472 -0.004389959
0000c0 d0 e6 b8 3d 52 10 94 bc 7f 72 14 bd df 70 38 bc
       0.09028399 -0.018074188 -0.036242004 -0.011257379
0000d0 4c e5 8c bd 7e 1e aa bc ae ab 04 bc 61 e9 8a 3c
       -0.068796724 -0.020766493 -0.008097572 0.016956987
0000e0 e6 e6 9c 3a d5 81 71 3d ba aa 0a bd 3f aa f1 3b
       0.0011970669 0.058961708 -0.033854224 0.0073750312
0000f0 93 1b 7c bd 1d 39 64 bd ae 8c 5b bd 0e d4 f8 3c
       -0.061549734 -0.05571853 -0.05360096 0.030374553
000100 2b 82 28 3d 4d b0 99 bd cc bf 78 bd 87 41 3d 3d
       0.041139763 -0.0750433 -0.060729787 0.04620507
000110 42 ad 51 bb ca 98 6f 3d 4d f1 3a bd b5 27 c9 3d
       -0.003199414 0.05849532 -0.04564028 0.09822027
000120 db f1 69 bd 78 29 c9 bc 5b f6 ad 3d 2b be 2d 3b
       -0.057115417 -0.024555907 0.08494254 0.0026511054
000130 0f b4 a3 3d fb 87 e4 bc 13 07 86 3c c9 23 a2 bc
       0.07993328 -0.027896872 0.016360795 -0.019792454
000140 bd 54 c4 bc d8 6d 89 3b 71 68 b7 3d 36 3d 83 bd
       -0.023966188 0.0041940026 0.089554675 -0.064081594
000150 69 6a 38 3d 7f 3c ab 3d b3 b4 ac 3d d2 f7 44 bd
       0.045023356 0.08361148 0.08432903 -0.048087902
000160 03 27 ce 3d 18 47 50 bb 39 e9 68 3d ac 25 88 ba
       0.10066035 -0.0031780656 0.056863043 -0.0010387204
000170 ff 89 70 bd c0 d8 1e 3d 93 b5 a3 3d cb fd 84 3c
       -0.058725353 0.038780928 0.07993617 0.0162343
000180 a5 43 84 bd 9d fb 3e 3d 8b 80 a2 3d 61 49 c9 3d
       -0.06458215 0.046626676 0.07934674 0.09828449
000190 e9 c1 a9 3d 95 37 bd 3c 5d 09 ba 3d e8 c1 65 bc
       0.082889386 0.023097793 0.09083817 -0.014023282
0001a0 49 9a 68 bd 4a 3a 4c 3c 17 bb 5f bd 7a 56 be 3c
       -0.056787763 0.012465069 -0.054621782 0.023234595
0001b0 e8 6e 92 bc 87 a6 85 bd 35 75 80 3c 61 14 00 bd
       -0.01787515 -0.06525903 0.015680889 -0.031269435
0001c0 9b 80 8a 3d 84 25 b2 bc d1 b9 17 3d 9e 64 1a bd
       0.06762811 -0.021746404 0.037042443 -0.037693612
0001d0 40 cf a2 3b dc 29 85 bc 62 8f 70 bd 57 fd 9f bd
       0.004968554 -0.016255312 -0.05873049 -0.078119926
0001e0 5c 09 2f bc f5 8f b5 3c e7 db 6d bd 8c 0c 50 3d
       -0.010683384 0.02216337 -0.058071043 0.050793216
0001f0 2a d3 b7 3d 40 8a 27 bd 0f 9c 4e bc f3 a6 10 bd
       0.08975823 -0.04090333 -0.012610449 -0.035315465
000200 95 30 b3 bd fb 0b f3 bd 0d 07 93 3c 19 ba b0 bd
       -0.08749501 -0.118675195 0.017947698 -0.08629245
000210 a7 be 7d 3d 74 e2 8f 3d 26 cc b4 3d eb c9 c7 39
       0.0619494 0.070256144 0.08828001 0.00038106678
000220 84 5d 1b 3d 96 4d b2 3d 53 d3 0a bd 8f 81 84 3c
       0.03793098 0.087062046 -0.03389294 0.01617506
000230 03 d5 c4 bc ca 26 26 bd e0 ec f1 bd d1 82 56 bd
       -0.024027353 -0.040564336 -0.118127584 -0.05237085
000240 be 12 86 bd 5e 8e c7 bd 41 1d 7e bd 07 88 ef bd
       -0.065465435 -0.09743951 -0.062039617 -0.11695867
000250 88 84 02 be ae ac 1b bd ba e8 ce bd d8 d0 5e 3c
       -0.12745869 -0.038006477 -0.10102983 0.013599597
000260 71 6f bd 38 b1 46 5c 3c 2e af 8a bd 91 ca 44 bd
       9.03298e-05 0.0134445885 -0.06771694 -0.048044745
000270 83 80 82 3c bb ce 95 3c 02 17 e5 3c 0c 01 01 bd
       0.01593042 0.018287053 0.027965073 -0.03149514
000280 58 cc 80 bc 5e 9b f0 3b 85 de b5 3d 27 ab c0 3c
       -0.015722439 0.00734274 0.08880333 0.023519112
000290 f7 f1 e6 3d cb 05 89 3d ed 4e 6b 3d 71 cd a9 3d
       0.1127662 0.06690558 0.057448316 0.08291138
0002a0 27 30 15 3d 99 9b 30 bd 6b 5a b0 3c f0 e6 b6 3b
       0.036422875 -0.04311714 0.02152749 0.005581729
0002b0 fb 2b d3 bc fc 98 9d bd fb fe 27 3c fd 94 f8 3a
       -0.025777807 -0.07695195 0.010253663 0.00189653
0002c0 24 4f 03 bd 7a d4 15 3d 6f f6 d4 3d a1 06 f8 3d
       -0.032057896 0.036579587 0.10398566 0.12110639
0002d0 e6 1d b0 3d 62 59 aa 3c 55 0e b8 3d 58 08 c1 3d
       0.08599453 0.020794574 0.089871086 0.094254196
0002e0 d4 ca d0 3d a6 74 b2 3d 69 be b0 3c 3b 6a 38 3c
       0.101949364 0.08713655 0.02157517 0.011255796
0002f0 ea 07 d3 bd 8d d9 bf bd 25 94 28 be 85 6a 5e be
       -0.10304244 -0.093676664 -0.16462763 -0.21720321
000300 17 ec 83 bd 42 1c 15 bc e5 93 01 bd 60 1a c5 bc
       -0.06441515 -0.0091009755 -0.031635184 -0.024060428
000310 c9 72 59 bd a8 73 24 bc e6 f4 61 bd e6 eb 13 bd
       -0.053087983 -0.01003734 -0.055165194 -0.036113642
000320 ab 1d 80 bd 62 cc 00 3c 62 fe 00 3d 53 15 d2 3c
       -0.06255659 0.007861229 0.0314926 0.025644934
000330 00 41 20 3d 47 be d3 3d 23 d5 2e 3d 55 af 45 3d
       0.03912449 0.10339027 0.04268373 0.048262913
000340 84 fa 56 3a 1c 97 76 bc e2 e2 8a 3d bc 8e d8 bc
       0.0008200782 -0.015050676 0.06781556 -0.026435249
000350 c3 da 3c bd 9e 98 26 bd 46 6a b5 bd 90 23 95 bd
       -0.046107065 -0.04067289 -0.08858161 -0.07282174
000360 d0 d0 36 ba 6c 45 70 bd 8b 67 d5 3c 20 6e 01 3c
       -0.00069738645 -0.058659956 0.02605035 0.007899791
000370 f7 e6 71 bd 8a 4c 19 bd 4b 0c 96 3c 4a 62 62 3b
       -0.059058156 -0.03742651 0.018316409 0.0034543448
000380 a1 8a b0 3d f8 a2 0a bc 8b a6 63 bc 98 0b 7c bb
       0.08620191 -0.008461706 -0.013894687 -0.003845906
000390 45 0f 69 bc 7a 1c 72 bc f9 95 a4 bc 25 d4 3e 3d
       -0.014224832 -0.014777297 -0.020091044 0.046589036
0003a0 7a e5 6e bd 06 bb 25 3c cc 3d 7e 3d 42 af d2 ba
       -0.058324315 0.010115391 0.062070653 -0.0016073959
0003b0 02 22 24 3d f9 36 e4 3c cd 6a 2d 3d 45 4f 0b bd
       0.040071495 0.027858244 0.04233818 -0.034011144
0003c0 b1 7f 4c 3c 6c 35 1d bd 8c da 59 bd 6f 68 c6 bc
       0.012481616 -0.038381025 -0.05318694 -0.02421972
0003d0 13 3b 69 bd c2 66 92 bc 31 56 92 bc cf 61 0a bc
       -0.056941103 -0.017871264 -0.017863365 -0.008446171
0003e0 3e 0e 8f bd 3a 0b b0 bd 56 5d 31 bc d2 f4 0b 3c
       -0.06985138 -0.08595891 -0.010825476 0.008542256
0003f0 11 66 5b bd 53 13 e8 3c 5c 4d d5 bd f4 94 9c bd
       -0.053564135 0.028329527 -0.10415146 -0.07645598

encoder_hidden_layer.bias f4 [128]
000000 83 3c 10 3b 25 39 e6 3d 9b f3 70 3d fb f4 00 bd
       0.0022008724 0.11241368 0.05882607 -0.03148363
000010 fc 56 85 bd a7 b3 04 bd 37 77 09 3e 26 16 1a bc
       -0.065107316 -0.032397892 0.13424383 -0.009404695
000020 23 7e 65 bc e2 c3 82 bc ae a8 07 bc b4 e7 88 bd
       -0.014007124 -0.015962545 -0.008279962 -0.06684819
000030 b0 a4 a4 3d 00 9d 57 3d 44 33 93 bd ce dc 8a 3d
       0.08039224 0.05263996 -0.071875125 0.067803964
000040 29 ad 20 3e b4 ea 69 3d 61 6a 61 bb 9f 83 24 3d
       0.15691055 0.057108596 -0.0034395682 0.040164586
000050 a3 9c 95 3d 85 8e 96 3d a0 a1 fa 3d e2 69 8c 3d
       0.07305267 0.07351402 0.12237859 0.06856133
000060 3d 08 dd bb 86 3d 3f 3e 05 06 49 3d 94 26 98 3d
       -0.006745367 0.18675813 0.049078006 0.07429233
000070 b5 99 82 3e e3 0a 9e 3c 9c 96 70 3d fe 85 5b bc
       0.25507894 0.0192923 0.058737382 -0.013398645
000080 ed 5a ac 3d b7 43 fe bb a6 51 34 3d ff c3 0d 3c
       0.0841578 -0.007759537 0.04402318 0.008652686
000090 0f 4b 85 3d b0 e0 c5 3d e4 94 22 3e c7 7d 4d 3e
       0.06508457 0.09661996 0.1587711 0.20067511
0000a0 67 18 76 3d f3 cd 69 3d bc 38 5c bc f6 66 2d 3d
       0.060081866 0.057081174 -0.013441261 0.04233452
0000b0 e4 bb 8f 3d 40 1d cc 3c 4d b9 3d 3e 13 5a e3 bc
       0.07018259 0.024916291 0.18527718 -0.027752912
0000c0 e4 dc bf 3d a5 43 ae 3d 24 cb 9c 3c fe 03 1a 3d
       0.093683034 0.08508996 0.019139834 0.037601463
0000d0 f7 e0 d5 3d 09 aa e6 3d 19 8a b8 3d 8e 32 ba 3d
       0.10443299 0.112629004 0.09010715 0.09091674
0000e0 96 ab 35 3d 65 54 81 3e c6 92 69 3d 28 fb 59 bc
       0.04435309 0.252597 0.05702474 -0.013304509
0000f0 71 5e 11 3e 8d fa 8e 3d 32 82 b2 3c 77 ed 14 3d
       0.14196183 0.069813825 0.021790598 0.036359277
000100 94 26 a6 3d 93 55 8f 3d f9 ca 5a bd 57 7b 87 3c
       0.08112827 0.06998744 -0.053416226 0.016538305
000110 2f 45 47 3e 20 47 f9 3d 53 94 56 3e 15 64 6d 3d
       0.19459985 0.12171769 0.20955019 0.057956774
000120 9d 8c 87 bd 61 79 fc 3d 26 13 df 3c ba 41 3c 3d
       -0.06618617 0.12327839 0.02723081 0.04596112
000130 fe d7 4e 3c 0f 13 59 3c 12 49 fd 3d ef 96 e2 3c
       0.012624739 0.013249173 0.12367453 0.027659861
000140 e6 19 1b 3d 10 f8 ad 3d 99 a1 e7 3d d3 97 f7 bc
       0.037866496 0.0849458 0.11310119 -0.030223763
000150 f5 d5 0a 3d 2b e0 43 3e 63 e3 be bc dd e3 4a 3e
       0.03389545 0.19128482 -0.023301786 0.19813485
000160 87 90 98 3d ed 25 2b 3d e1 44 c2 3d 28 ec a9 3a
       0.074494414 0.041784216 0.09485794 0.0012964057
000170 e3 a4 ae 3d b9 7d a0 3d e1 25 f3 3d 7f 1f 97 3b
       0.085275434 0.0783648 0.11872459 0.004611909
000180 a4 08 00 3e 27 0e bc 3c b9 82 ab 3d a9 6b 52 3e
       0.12503296 0.022955967 0.08374543 0.20548882
000190 0b 90 a0 3d 09 7d c6 3c a2 37 a4 3d 28 36 84 bd
       0.07839974 0.024229543 0.080184236 -0.06455642
0001a0 de a9 30 3b 63 86 09 3e 00 62 16 bd 62 fe b5 3d
       0.0026956717 0.1343017 -0.036714554 0.0888641
0001b0 a5 ad ae 3d 35 62 87 3d 3f 43 a1 3d e2 95 15 3d
       0.08529214 0.066105284 0.07874154 0.036519893
0001c0 fb a9 4b 3d dc e4 94 3d db 0f 6b 3e a4 b4 8a bd
       0.049722653 0.07270214 0.22955267 -0.06772736
0001d0 a4 2c e5 bc 12 3b 18 3e af 2e 31 3c 0a 77 a8 3d
       -0.027975388 0.14866284 0.010814353 0.0822583
0001e0 6d eb cd 3d 5e 42 90 3c b3 c6 98 3d 15 1b 6f 3d
       0.100546695 0.017609771 0.07459774 0.058375437
0001f0 48 2c 74 3d 42 b0 83 bb 72 87 09 3e 34 90 ad 3d
       0.059612542 -0.0040188143 0.13430575 0.0847477

encoder_output_layer.weight f4 [128, 128]
000000 f6 99 1a bd 8b 2b b0 3c 97 fc a3 bd cd 0d f1 3c
       -0.037744485 0.021505138 -0.08007162 0.029425526
000010 bd c2 47 3d 0e 78 a6 3c 5f 50 e1 3d be 56 88 3d
       0.0487697 0.020320918 0.11001658 0.0665717
000020 0e 1f b0 bd 1a 4d 16 bd 79 c6 f8 bb 6f e5 88 bd
       -0.08599673 -0.036694624 -0.007592019 -0.06684386
000030 f3 4f 6e 3d bb 40 3e 3c f2 b1 9f bd c6 19 da 3c
       0.058181714 0.011612113 -0.07797612 0.026623618
000040 c6 cc b2 3d 3a c9 d0 bc 3b 0c f4 3c c1 3a 4e 3d
       0.08730464 -0.025486577 0.029790988 0.050349
000050 f3 69 95 3d e5 16 2c bd 89 20 24 bd 1f 4f 38 3d
       0.07295599 -0.04201402 -0.04007009 0.04499733
000060 80 c1 85 bd 4c 1a 12 3e 46 9b 9b bc 1d 6a b0 bc
       -0.06531048 0.14267844 -0.018994939 -0.021534974
000070 a3 7c 83 bc 4d 5a 0e bc 46 4a 41 3d 3e 3a db ba
       -0.016050642 -0.008688522 0.047189973 -0.0016725732
000080 7a 71 cd bd 61 7c 47 bd 1b 2a c5 3c 46 3c a1 3d
       -0.100314096 -0.0487026 0.024067929 0.07872824
000090 6c 4a a9 3d 9b 77 a2 3c 71 bc c9 3d a5 57 e3 3c
       0.08266148 0.019832423 0.098503955 0.027751753
0000a0 fe 92 b0 3d 21 a2 a3 bc d3 86 f2 bb e6 e6 9e 3d
       0.086217865 -0.01997477 -0.007401326 0.07758884
0000b0 ad bc a4 3d 02 22 fb 3c 6c 7a 76 bc 59 bc 1d bd
       0.080437995 0.030655865 -0.015043836 -0.0385097
0000c0 46 f7 c2 3d 5a ed d7 3c b6 6a a7 bc 55 90 79 3d
       0.0951982 0.026358295 -0.020436626 0.06092866
0000d0 bd ce 68 3a 4c 3f 20 3d 0d e9 56 3d 4a 7f 3a 3c
       0.0008880904 0.039122865 0.05246835 0.011382887
0000e0 8f cb d1 bd 81 cc b8 bd ad fe 25 bd e1 c0 ed bc
       -0.10243904 -0.09023381 -0.04052608 -0.029022636
0000f0 50 9a 1e 3d 83 22 91 3d 09 52 3a 3d 3b 61 71 3d
       0.038721383 0.07086661 0.04548839 0.058930617
000100 dd e5 c2 3c 32 18 19 bb db 2b 75 3d 6e ab b1 3d
       0.023791248 -0.0023360369 0.059856277 0.08675276
000110 94 51 c2 3d d2 7d 52 3d 6d 4d 7e 3c c1 88 06 3d
       0.09488216 0.051389523 0.015521389 0.032845262
000120 eb 73 66 bd 3e d6 ae bc 2f 60 d8 3c b6 6e 69 3d
       -0.05626289 -0.021342393 0.026413051 0.056990348
000130 e9 cb 2f 3d 97 04 87 bd e7 56 4c bd 91 d6 8f 3c
       0.042919073 -0.06592672 -0.049887564 0.017558368
000140 92 5f 87 3d 15 a4 17 bd c6 4c 40 3d d2 c2 43 3d
       0.066100255 -0.037021715 0.046948217 0.047793217
000150 b4 54 01 3d 85 a3 83 3d 56 70 9a 3a 03 a4 16 bd
       0.03157492 0.06427673 0.0011782746 -0.036777508
000160 8a 4a a7 bd fa b0 6c bd 8f 09 32 3d 89 bc c1 bc
       -0.08168514 -0.057785966 0.043466147 -0.02364947
000170 dd 2a f1 bc 56 a9 87 bd c8 35 4c bb 02 3d d6 3d
       -0.029439384 -0.06624095 -0.0031159986 0.10460855
000180 57 ff 77 bd 8d bb e1 3d fc f4 cb bc 06 1d 76 bc
       -0.060546245 0.110221006 -0.024897091 -0.015021568
000190 38 9a 49 3d be 27 8e 3c 4a 58 33 3c ca 4e 6b 3d
       0.04921934 0.017352935 0.010946343 0.057448186
0001a0 ca 89 8c 3d e2 37 05 3d 7c a5 c6 3c 52 bf 41 3d
       0.06862219 0.032523997 0.024248831 0.047301598
0001b0 53 f4 5e bd e4 26 44 3d e9 03 81 3d 18 67 96 bd
       -0.054432224 0.04788865 0.06299574 -0.07343882
0001c0 f3 95 bd ba 29 79 59 3d c5 3f 9b 3d 94 70 21 3d
       -0.0014464244 0.053094063 0.075805224 0.039414003
0001d0 a5 21 a9 bc e1 59 80 bd 2b cf 89 bd b2 df 62 3d
       -0.020645926 -0.06267143 -0.06728967 0.055389114
0001e0 6d bd f1 bc 86 d3 11 bd d4 12 ce bc f9 14 ad 3d
       -0.02950927 -0.035602115 -0.025155462 0.08451266
0001f0 7a 1d 24 bd 7c 51 56 bd ba c3 a5 3c 05 0b 02 3d
       -0.040067174 -0.052323803 0.020234931 0.03174879
000200 23 b8 16 bd 5d 63 88 3d 8c 25 01 3d b7 84 e7 bc
       -0.0367967 0.06659577 0.031529948 -0.028261526
000210 f8 47 56 3d 4f 3b 99 bc 05 62 8b 3d c9 d4 de 3c
       0.05231473 -0.018705038 0.06805805 0.027201073
000220 c4 94 a4 3d 00 1f 28 3d 01 97 63 3d cd 51 36 3c
       0.08036187 0.04104519 0.05556393 0.011127901
000230 df 01 3f be 85 f7 e2 bc 52 ba b1 3c d5 d9 d3 3d
       -0.18653058 -0.027705917 0.02169529 0.103442825
000240 7d 5a d5 bd dd 9f a4 bc 85 cf 5b bb bd a6 fb 3a
       -0.1041765 -0.02009576 -0.003354044 0.0019199472
000250 59 fa 17 bd 44 f0 84 3c db bd 75 3b d6 0d 5a 3d
       -0.037103985 0.016227849 0.0037497196 0.05323585
000260 36 dc 1f 3d 5f a4 e1 3d a2 d9 09 3e a5 a4 34 3b
       0.03902837 0.110176794 0.13461927 0.0027563956
000270 2d d8 1b 3d 8d af d6 3c 5f 1b 27 3e a8 92 02 3d
       0.03804796 0.026206756 0.16319035 0.031878144
000280 f7 a6 23 bc 57 79 a5 3d ac a3 71 3e 8e db 5a bd
       -0.009988538 0.08079784 0.23597592 -0.05343204
000290 16 6a ff 3c 90 11 d1 3d b7 38 1b 3e 92 fa 90 3d
       0.031178515 0.10208428 0.15158354 0.070790425
0002a0 d8 b4 85 3c 87 09 bf bc a6 6a cb 3d 15 d4 65 bd
       0.016321585 -0.023319973 0.09932451 -0.05611046
0002b0 be 6e 08 bd 74 67 a0 3c 54 66 9b 3d 72 86 2c bd
       -0.033308737 0.01958058 0.07587877 -0.042120405
0002c0 f6 89 07 3b 16 f2 0c bd ad d7 e0 bc 94 7e 21 bd
       0.0020681596 -0.03441056 -0.027446592 -0.039427355
0002d0 14 fa e6 bc bf 0e 16 3e 9c 12 99 bc 19 54 cc 3b
       -0.028195418 0.14654063 -0.018685631 0.006235611
0002e0 7d 72 0d bc 4a 32 06 3d d8 38 84 3d 5e 3c 0b bd
       -0.008633253 0.032762803 0.064561546 -0.033993118
0002f0 ea 89 ad 3c e3 26 24 3d ad 33 8f bc 27 6f 1a 3d
       0.021183927 0.040076148 -0.017480696 0.03770366
000300 54 b3 8d 3c 79 ff 88 3d 66 77 0f bb 51 4c 5d 3d
       0.017297424 0.066893525 -0.0021891235 0.05402786
000310 a3 97 29 be 13 01 9a bd ff c7 4b 3d 67 6a fa ba
       -0.16561751 -0.07519736 0.049751278 -0.0019105197
000320 0b eb 96 bb 98 4c bb bc f6 eb 73 3d 86 47 a1 3c
       -0.004605656 -0.022863671 0.0595512 0.019687425
000330 43 bd dd bc 63 59 87 3d ac 32 c1 3d 4a 22 2f 3d
       -0.027067786 0.06608846 0.09433493 0.04275731
000340 85 e9 33 bd ff 38 d8 bc 01 16 05 be 0f a9 b9 bc
       -0.043923873 -0.026394365 -0.12996675 -0.022663621
000350 b0 07 9e 3c 71 e2 ce 3d ae ea 43 3d 48 55 e2 3c
       0.019290775 0.10101784 0.04783123 0.027628556
000360 da fc 97 3c 52 06 80 bb b4 35 4c 3c 4d d0 b1 3c
       0.018553186 -0.0039070034 0.012463976 0.02170577
000370 ab 86 34 3d a9 a0 fb bc d4 9b d3 bd 95 05 05 3e
       0.044073742 -0.030716257 -0.10332456 0.1299041
000380 a5 c0 49 3d 47 76 d5 bc 35 8f bf bb cf 6a d8 3d
       0.049255986 -0.026057376 -0.005845929 0.10567247
000390 ce ea 27 3d 12 1f 42 3d 6a 86 b3 3d 2f ee 46 3c
       0.04099541 0.047392912 0.08765872 0.012141748
0003a0 15 1b b1 3d 0f fd ce bc 00 4d 36 3d 97 b2 f5 3c
       0.086477436 -0.025267152 0.044507027 0.029992385
0003b0 33 7f 75 bc d0 44 69 bb 51 62 64 3d 89 cd 9c bc
       -0.01498394 -0.0035593994 0.055757824 -0.019140976
0003c0 28 9e 4d bd 97 91 8a bd f8 14 9a 3d f2 f4 df 3d
       -0.050199658 -0.0676605 0.07523531 0.109353915
0003d0 2c c2 3f 3d 12 51 cd 3b a8 67 ee bc 6d fd 88 bc
       0.046816036 0.006265768 -0.029102162 -0.016722405
0003e0 ef 44 54 bd a6 b1 cd 3c d2 15 d7 bd 77 05 45 3d
       -0.051823553 0.025109123 -0.10502209 0.048100915
0003f0 3f 57 39 bd 56 b3 1b ba e0 a3 ad 3d 35 25 4e bd
       -0.04524922 -0.0005939504 0.08478522 -0.050328452

encoder_output_layer.bias f4 [128]
000000 f9 cf c3 3d 9a e5 bb 3c 1f cc 6f bd 35 13 63 3d
       0.09561152 0.022936631 -0.058544274 0.05543824
000010 f9 81 a1 3c 37 b7 7e 3d 6b 95 5e 39 4d 22 93 bb
       0.019715296 0.062186446 0.00021227232 -0.004490173
000020 b1 21 62 3d 7b 4b 81 3d 36 b7 8d 3c 94 ce 8b bc
       0.055207912 0.06313225 0.017299276 -0.017066278
000030 8a 9b 94 3d 0a 06 47 3c 0e 75 2c 3d 32 30 76 3d
       0.07256229 0.012147436 0.04210382 0.060104556
000040 76 f0 21 3d 36 b1 32 3d 94 2a 9d bc 14 0f e2 bc
       0.039535962 0.043626033 -0.019185342 -0.02759508
000050 59 74 b1 3d fd f0 95 bd 28 23 c5 3d b4 44 89 3c
       0.0866477 -0.073213555 0.09625846 0.016756393
000060 25 26 d7 3a 29 c2 aa bc e9 00 17 3d 91 00 23 3d
       0.0016414566 -0.020844536 0.036866102 0.039795462
000070 84 05 bf 3d 0c 6b a4 bb fa 87 99 3d dd 9d 5c bc
       0.09327224 -0.005017644 0.074966386 -0.013465372
000080 c9 a7 f7 3c 39 c9 f3 3c c4 93 b9 3d ae ff 36 bd
       0.030231373 0.029759036 0.09061387 -0.04467743
000090 31 a5 d7 3b c4 57 7a bd c2 7e 45 b9 59 48 0d 3d
       0.0065809716 -0.061118856 -0.00018834605 0.034492824
0000a0 5c 16 c7 3d 44 ae 65 3d 40 25 17 3e 0c a4 84 3d
       0.097210616 0.056074396 0.14760303 0.06476602
0000b0 4e b4 a3 3c 58 3a e3 bc cb 52 8c bd 31 4f f3 3c
       0.019983437 -0.027737781 -0.06851729 0.029700847
0000c0 49 3c b7 3d 10 09 d7 bc fb 77 2f 3d 30 46 8d bb
       0.08947045 -0.026249439 0.04283903 -0.0043113455
0000d0 d7 1b 58 bd 8f 0c 32 3d 7f ed 87 bc a8 cf b9 3d
       -0.052760925 0.043469008 -0.01659274 0.090728104
0000e0 78 5d 81 3d a2 7b e3 3c fc a7 6d 3d 3c 7e 0c 3d
       0.06316656 0.027768914 0.05802153 0.034300074
0000f0 35 cb 45 3c 97 20 e8 3a 3c 8d 20 3d e6 b1 98 bc
       0.012072374 0.0017709908 0.03919719 -0.018639516
000100 d4 3d 9c 3d 8b c7 68 3d 38 1a d4 bc 8c 3d 5d bd
       0.0762898 0.056830924 -0.025891408 -0.054013774
000110 43 21 ed bc dd 62 82 3d f6 63 9d bd e9 11 64 3d
       -0.028946524 0.06366513 -0.07685082 0.055681143
000120 5e 37 c2 3c 40 f9 f8 3d ee 2a fc 3c d7 5e 74 bd
       0.023708042 0.12156916 0.03078219 -0.05966076
000130 bb 30 e5 39 8c c4 73 3d 93 88 41 bd 11 fe 7f bd
       0.0004371459 0.059513614 -0.047249388 -0.062498156
000140 f8 3f 11 bd 9e b7 f1 3c f9 23 c4 3c 88 05 8a bd
       -0.035461396 0.0295065 0.023942934 -0.06739336
000150 70 8a 0e 3d a7 26 55 bc de e7 74 3d 88 a6 a4 bc
       0.034799993 -0.013009704 0.05979144 -0.02009894
000160 c1 50 dc 3d ae 3b b7 bc 54 1d 8e 3d d8 c1 07 bc
       0.1075759 -0.022367325 0.06939188 -0.008285962
000170 fb da 53 3d c9 fc 19 3d 42 c5 94 3d d4 3d 72 bd
       0.051722508 0.03759459 0.072641864 -0.059140995
000180 de 1f 77 3d ae 77 9b bc d4 ba 36 bb ea 0a 8f bd
       0.060333125 -0.018977966 -0.0027882354 -0.069845036
000190 ca aa c2 3c b1 01 7f 3d bd e6 3e bd 5b da 19 bd
       0.02376308 0.062257472 -0.046606768 -0.037561756
0001a0 0e f1 ae 3d 7a 13 14 bd 69 17 a9 3d 5f 73 cb 3d
       0.08542071 -0.036151387 0.08256418 0.09934115
0001b0 cb 70 a8 bc f1 29 a0 bc df 02 a3 bc f3 b0 63 3d
       -0.020561596 -0.01955125 -0.01989883 0.055588674
0001c0 1a 8b 22 3d 0b 41 17 bd cb 67 23 bd af 5c ba 3d
       0.03968344 -0.036927264 -0.039893907 0.09099709
0001d0 2d b4 dc 3c 74 29 78 3d 8d 57 8f 3d 49 1b 93 3c
       0.026941383 0.060586408 0.06999121 0.017957347
0001e0 bf 00 36 bd 6d 8f d0 3c 80 a8 31 bd 50 54 cf 3d
       -0.044434305 0.025459016 -0.043373585 0.10123503
0001f0 32 75 56 bb 8c 8b 88 bb 0e 26 a5 ba b8 d4 e7 3d
       -0.0032723662 -0.004167026 -0.0012599842 0.1131987

decoder_hidden_layer.weight f4 [128, 128]
000000 61 22 aa bd 7c 92 23 bc a7 e2 74 3b 37 13 c9 3c
       -0.083073385 -0.009983655 0.003736654 0.024545295
000010 ae 96 f0 3d 46 50 9c ba 34 d5 59 bd 01 07 57 bc
       0.1174749 -0.0011925779 -0.053181842 -0.013124228
000020 b7 5e ca 3c c1 c4 43 bc eb ac d4 3c 4f 8e 1b bd
       0.024703367 -0.011948765 0.02596136 -0.037977513
000030 07 6e 77 bc d7 98 84 3d 67 4a de 3c 4c a1 ec 3b
       -0.015101916 0.064744644 0.027135087 0.0072213765
000040 e7 1d 70 bd d9 46 ad 3c 27 77 be bd 00 0e 7a bd
       -0.058622267 0.021151947 -0.0930007 -0.061048508
000050 cf 61 9b 3d 88 fd c0 bc 90 d4 e7 3b 3b c0 ec 3c
       0.07587015 -0.023558393 0.0070749 0.028900256
000060 9c 9d aa 3c 18 34 9a bd 85 f1 cc ba fc c6 ce bd
       0.020827107 -0.07529467 -0.0015635943 -0.10096547
000070 b3 72 df 3c 8a 71 64 bc e3 66 07 bd 16 e9 99 3d
       0.027276373 -0.013943085 -0.033057105 0.07515161
000080 ef fa 20 3d b9 ea 16 3d c0 29 8b bd 17 2d 98 3d
       0.03930181 0.036844943 -0.067950726 0.07430475
000090 fa 8c 83 bd 01 42 97 bc 19 4a 87 bc cb 40 89 3d
       -0.064233735 -0.01846409 -0.016514825 0.067018114
0000a0 be 99 ad 3d fe 58 88 3c f7 59 e3 ba bd 43 c7 bd
       0.084765896 0.016643997 -0.0017345537 -0.09729717
0000b0 ee d0 9b 3d 5e a4 01 bd aa 08 e5 3d 7e 1e cf bd
       0.076082096 -0.031650893 0.11183293 -0.10113238
0000c0 83 b0 90 3d 00 ea 19 bd a8 1b 43 3d b9 64 de 3c
       0.07064917 -0.037576675 0.047633797 0.027147638
0000d0 da a3 8b 3c b5 20 52 bd 6a c4 82 bd 9d d6 a7 3d
       0.017045904 -0.051300723 -0.06385119 0.08195231
0000e0 71 2f 50 3d 86 4a 80 3d c1 fb 65 3d da 66 32 3d
       0.050826494 0.06264214 0.056148294 0.04355512
0000f0 70 b1 85 bd 02 20 04 bd 74 0b 8f 3d 71 0e c0 3c
       -0.06527984 -0.032257088 0.069846064 0.023444386
000100 28 50 dd ba d5 c2 a3 3c 62 84 1b 3d 8b 97 97 3d
       -0.001688485 0.019990364 0.037968047 0.074019514
000110 0b 92 c7 3c 13 7d 18 bd ae 25 f8 bb f3 54 3d ba
       0.02436163 -0.037228655 -0.007572851 -0.0007222436
000120 ab 7a a4 3d ec c1 8a 3d ee 58 92 bd 6e a4 62 3c
       0.080312096 0.06775269 -0.07145868 0.013833148
000130 9b c4 1d 3b 9d 8b 84 bc 1b 1b c1 bc da c9 c3 3c
       0.0024073485 -0.016179854 -0.023572495 0.023899961
000140 ce aa f4 3c 85 17 cc bb 48 2a ef 3d c5 b9 25 3d
       0.029866602 -0.0062283897 0.116779864 0.040460367
000150 03 c2 69 3d 7e 72 d0 bc 09 26 3b bd 38 70 b0 bd
       0.05706979 -0.02544522 -0.04569057 -0.08615154
000160 b3 b2 9b 3d 94 b2 8b 3d 1a 04 c6 bc 4a f8 dd 3c
       0.076024435 0.068211704 -0.024171878 0.027095933
000170 e1 36 ca bc 40 00 d5 bc 47 c5 c7 bd c5 97 03 bd
       -0.024684371 -0.026001096 -0.097544245 -0.03212716
000180 3d ed 88 bc 5e a0 03 3b ea c2 1c bd 72 31 e9 bb
       -0.016714687 0.00200846 -0.038271822 -0.00711649
000190 33 ef 9c bb 9b 40 a9 3c db d0 01 bc 58 7a 0e 3b
       -0.004789257 0.02066069 -0.00792333 0.0021740403
0001a0 13 23 30 3c af 4a 5c 3d 4c 20 44 3d 48 be 3e bd
       0.01075055 0.05378216 0.047882363 -0.046568185
0001b0 cb 69 99 bd d9 8e 1d 3c a4 9f fd bc 8c 73 c4 3a
       -0.074908815 0.009616577 -0.030959912 0.0014988049
0001c0 3b 98 86 bd 83 34 64 3d 76 7d 51 3d 52 b6 8c 3c
       -0.065720044 0.05571414 0.05114504 0.01717678
0001d0 1e 95 17 3c c9 33 3f 3b c5 40 69 3c 16 e7 7a 3b
       0.009251861 0.0029175153 0.014236634 0.003828471
0001e0 ce bc e0 3d ec f5 32 3c 90 16 46 3d d7 65 7a bd
       0.10973512 0.01092289 0.04836136 -0.06113228
0001f0 82 c3 99 3d 93 11 81 bd bc d2 23 b7 c5 ba 6a ba
       0.07507993 -0.0630218 -9.7646225e-06 -0.00089542224
000200 4a e1 3e 3c fc fa 4b 3d 08 12 01 3d 48 19 a3 bd
       0.011650393 0.049799904 0.031511337 -0.079638064
000210 a1 c6 bc bc bf 4c 4a 3d 61 e7 31 3c c8 ab a2 3d
       -0.023043932 0.049389597 0.010858388 0.07942921
000220 2a 0e ef 3a 41 1e 92 bd 7f 31 94 3d f1 cf 0b 3d
       0.0018238474 -0.07134677 0.07236003 0.034133855
000230 9d ec 1f bd af 1a 81 3d 81 71 a0 3d 70 5c 2b bd
       -0.03904401 0.063039176 0.07834149 -0.041836202
000240 4c b3 56 3d 25 4d ce 3b f4 4c 8a 3d d7 eb 1e 3d
       0.052417085 0.0062958174 0.06752959 0.038799133
000250 e5 17 cb 3b 0a a4 20 3a 3e a4 bc 3b 3e 9b 90 3c
       0.006197917 0.00061279594 0.005756884 0.01765215
000260 bc 85 83 3d e6 66 04 bd 78 d9 5e bb 1a 68 53 bc
       0.06421992 -0.032324694 -0.0034004133 -0.012903238
000270 52 7c a8 bb 73 fb 18 3d 54 f4 af 3d 16 c9 06 3d
       -0.0051417733 0.037349176 0.08591524 0.032906614
000280 c8 50 8c bd 0d 8f 07 bd e5 bb 1c 3c 66 61 ac bd
       -0.06851345 -0.03309541 0.009566282 -0.08417015
000290 a2 7d 53 3d d2 7a 99 bb 3c 78 0a bd bf 9f 88 3c
       0.051633485 -0.004683831 -0.03380607 0.016677735
0002a0 20 c8 50 3d 0f 5b 23 bd d0 2a e4 bd 5f b2 c1 3c
       0.050972104 -0.039881762 -0.11140978 0.023644624
0002b0 ea 2f 80 3d b1 a9 a4 3d 1e 5a ff bc 74 cf cd bc
       0.06259139 0.080401786 -0.0311709 -0.025123335
0002c0 ac 29 99 bd 17 bc 7f bc ca da e7 bc a9 de 9e bd
       -0.074786514 -0.015608809 -0.028302569 -0.07757313
0002d0 66 7f 56 3d 6b cd 3a 3d be e4 41 bc 83 e0 8f bc
       0.05236759 0.045606058 -0.011834322 -0.01756311
0002e0 15 11 0d 3c a0 8c ad 3d 7a f1 83 3d 5a e7 85 bd
       0.00861003 0.08474088 0.064425424 -0.065382674
0002f0 ec 23 9b 39 a8 59 94 3d b7 fc 31 bd d8 fc 90 3d
       0.00029590668 0.07243663 -0.0434539 0.07079476
000300 11 4f 4c 3d 2a 37 a1 3d 8c ee a9 3b af 6f aa 3d
       0.04988009 0.0787185 0.0051859077 0.08322083
000310 d5 1f 82 bd 72 6a 35 3c 89 1a 5d bb a5 0c ae bc
       -0.06353728 0.011072742 -0.003373774 -0.021246264
000320 01 1a 8c 3d bf 3b 0e 3c 44 0a 5e 3d 77 68 aa 3d
       0.06840897 0.008681237 0.05420901 0.08320706
000330 9a 92 bb ba 3d 95 56 3d e8 1f 79 bd 0f 0d 69 3d
       -0.0014310658 0.05238842 -0.060821444 0.05689722
000340 ef 70 d6 3c d7 24 aa 3c c1 d6 b5 3c b8 a5 c1 bc
       0.026176898 0.02076952 0.02219713 -0.023638591
000350 a6 10 b2 3d 7c 13 dd bc 18 ea d6 bc 4b 63 84 bd
       0.08694582 -0.02698683 -0.026234671 -0.06464251
000360 09 15 be 3d 64 43 fe bd aa 51 8b 3d 70 65 a0 3c
       0.09281356 -0.124151975 0.068026856 0.01957962
000370 a3 f7 b7 3c 9c e9 c1 bc ca 3d 62 bd d7 ff e5 3b
       0.02245695 -0.023670964 -0.055234708 0.007019024
000380 fb de e8 bc df 4a ef bc ca 80 0d 3d 4b cb 8d bd
       -0.028426638 -0.029210506 0.03454665 -0.06923541
000390 05 ad 24 3c f2 7e 88 bd aa b1 71 bd 52 4d a6 3d
       0.010051017 -0.06664838 -0.059007324 0.081202164
0003a0 c4 74 a0 ba 7d 92 15 bd dc 2b 0a 3d ae 46 9b bb
       -0.001224183 -0.036516655 0.033733234 -0.0047386503
0003b0 fa 35 ac 3d cc 22 b2 bd 2b 5d 12 bd b8 c3 4d 3d
       0.08408733 -0.08698043 -0.035733383 0.05023548
0003c0 39 9b ad 3d 87 fd 9f 3c 0c 95 8d 3d 78 a1 82 bb
       0.08476872 0.019530071 0.06913194 -0.0039865337
0003d0 04 e8 be bd a3 2b 7a 3d c9 96 4e bd fd eb 5b 3d
       -0.09321597 0.06107677 -0.05043677 0.053691853
0003e0 72 66 fe 3a 3d 68 8d bc fb 0c 5e bd 05 5c 15 3d
       0.0019409193 -0.017261619 -0.054211598 0.03646471
0003f0 74 d6 58 3d 41 ca 08 3c 06 86 90 36 84 b9 58 bd
       0.052938893 0.008349002 4.307137e-06 -0.052911296

decoder_hidden_layer.bias f4 [128]
000000 91 7a 94 bd b7 dd 79 3b db c5 18 bb 2a 45 e8 3c
       -0.0724994 0.0038126537 -0.002331129 0.028353292
000010 c7 e3 8f 3b 77 f9 86 3b 63 b8 69 bc 9e 92 80 3d
       0.004391167 0.004119094 -0.014265153 0.06277965
000020 46 aa ae bc 9c 01 b4 3d 96 4a 62 3d 5f f3 cc bd
       -0.021321427 0.087893695 0.055246912 -0.10007357
000030 d4 6b 84 bd 08 e5 65 3c 53 13 b7 3a d4 fd 3a 3c
       -0.06465879 0.014031656 0.0013967551 0.011413056
000040 d0 e9 18 bd cb 01 8b 3a 62 1c 4b bd d3 41 59 bb
       -0.037332356 0.0010605393 -0.049587615 -0.0033150807
000050 78 1a 94 3a 98 c6 a9 bc 23 d9 fd 3b 78 96 bb bb
       0.0011299392 -0.02072458 0.007746832 -0.0057247244
000060 e3 8f 85 3c 44 7e d5 3d 38 fd 50 bd f9 9a 37 3b
       0.016303962 0.10424474 -0.05102274 0.0028015955
000070 e2 b5 eb 3d ed 02 c5 3d ed b7 e6 3d cb 7b 71 bd
       0.11509301 0.09619699 0.1126555 -0.05895595
000080 12 d8 90 3c f8 16 f8 3d 6f 0d 9e 3d be 81 a8 3d
       0.017681155 0.12113756 0.07717406 0.08227871
000090 9e fe 21 bd c3 f7 4e 3d ad f3 a0 3c 0b 26 a8 3d
       -0.039549462 0.050529253 0.019647444 0.08210381
0000a0 19 23 59 bd 7f e2 94 bd 2f 42 0a 3d 78 1f b8 3d
       -0.053011987 -0.07269763 0.033754524 0.08990377
0000b0 11 fc c4 3b 35 a7 93 3c 9a b6 c9 3c 52 c1 0b bd
       0.006011494 0.018024066 0.024623204 -0.03411991
0000c0 65 e8 9e 3c 63 eb f2 3c 22 e3 64 3a 56 95 8d bc
       0.019397924 0.029653257 0.0008731355 -0.017283123
0000d0 7a 3f 60 3d 01 f4 a7 3c 11 f5 be bb 12 fb b8 3b
       0.054748036 0.020502092 -0.005827554 0.0056451643
0000e0 df c6 dc 3d c1 3a 2a 3d 71 fc e3 ba 58 9d da bc
       0.10780119 0.04155994 -0.0017393959 -0.026686355
0000f0 40 35 99 38 e2 f5 a4 3d 31 2c 23 3b 76 3b 79 bd
       7.305527e-05 0.08054711 0.0024898166 -0.060847722
000100 50 22 1b 3d d2 eb 16 3d bf 49 b5 3d 47 64 3f 3d
       0.03787452 0.03684599 0.088519566 0.04672649
000110 19 f5 71 bd 2d a4 3b 3d 0c 7e 53 bd e4 d5 00 3d
       -0.059071634 0.045810867 -0.05163388 0.031453982
000120 e0 8e 72 3d 1b ae 1d bd 87 1b 19 bd e5 50 8c 3d
       0.059218287 -0.038496118 -0.037379768 0.06851367
000130 94 b0 5d bd f5 36 b5 3b aa f4 85 3d a7 1a 1b 3c
       -0.054123476 0.005530233 0.065408066 0.009466804
000140 4d 2e b2 bc ca 73 0c bc 0b 6b 9f bc 3a 4e 67 3d
       -0.021750594 -0.008572528 -0.019460222 0.056471087
000150 97 30 94 3d 43 0f 64 bd 25 65 cd bb ee 15 16 3c
       0.0723583 -0.055678617 -0.006268161 0.009160502
000160 7f 8a c9 bc ce b3 d4 bb e6 60 10 bd e8 cb 49 bc
       -0.024602173 -0.006491161 -0.03524866 -0.012316681
000170 24 c7 46 bd f5 8d 55 3d 46 81 97 3d a7 6b a3 3d
       -0.04852976 0.052137334 0.07397704 0.079795174
000180 16 57 66 bd f2 ea 5e bb 6d 11 a9 3c 6b af 0e bd
       -0.056235395 -0.003401455 0.020638192 -0.03483526
000190 ea c0 81 3d 3f 9f 3e 3d c7 f0 b1 3c ac bb 82 bd
       0.063356236 0.046538588 0.021721257 -0.06383452
0001a0 99 4e 40 3d fb a0 87 3c 0d 35 55 3c d3 6a 08 bd
       0.046949957 0.016556254 0.013013137 -0.033305
0001b0 55 83 92 3b 24 de 38 bd cb cf e9 bc 8a 13 cd bc
       0.0044712224 -0.045133725 -0.028541466 -0.025033731
0001c0 59 04 47 bd 34 d8 1d bd 8e 5c 44 bd 66 9e 2a bc
       -0.04858813 -0.038536265 -0.04793983 -0.010413742
0001d0 09 09 97 bd 2d 72 27 bd 01 56 fb 3b 96 da 14 3d
       -0.0737477 -0.04088037 0.0076701646 0.036341272
0001e0 f8 c7 97 3d 29 db 8f bd b1 57 8c 3d 48 2e 1c 3d
       0.07411188 -0.07024223 0.06852663 0.038130075
0001f0 1b 8d 0b bd 14 9c 0b 3c ea 17 1c bd fe 12 22 3d
       -0.034070116 0.008521099 -0.038108744 0.039568894

decoder_output_layer.weight f4 [128, 128]
000000 89 87 02 bc 68 c0 03 3c d0 a2 bb bc 4c 1f b8 3c
       -0.007966884 0.008041479 -0.022904783 0.022475861
000010 4b 39 b3 bb 76 b9 cc bb fa 71 ff ad 0f 95 c6 3c
       -0.0054694763 -0.0062476946 -2.904076e-11 0.024240999
000020 46 24 55 bc fe 76 6d bc ab 5d a9 3c 88 a3 cd bb
       -0.013009137 -0.014493702 0.020674547 -0.006275598
000030 f5 fa 17 3b 50 61 d3 3c c9 b1 be 3c dc e6 9d bb
       0.0023190354 0.025803238 0.023278134 -0.0048187803
000040 66 4c 2a bc 22 35 bb 3c db 3a a7 3c 12 50 78 1f
       -0.010394191 0.022852484 0.020413807 5.2582275e-20
000050 41 f8 06 bc 2c 16 b4 ad df 9a 2e bb 9e d6 4d 3c
       -0.008237899 -2.0473477e-11 -0.0026642603 0.012563376
000060 2c 85 5f bc 7e b4 c9 3c 3f 9b 9e bb 1a d1 34 bc
       -0.0136425905 0.024622198 -0.004840284 -0.011036182
000070 7c 89 25 bc b2 56 77 bc 88 83 1f bc 17 1d 6e bc
       -0.01010358 -0.015096353 -0.009735949 -0.014533303
000080 dc 03 44 bc 4e d3 42 bc 8e f3 a8 3c f7 96 ba 3c
       -0.011963811 -0.011891199 0.020623948 0.022777064
000090 d2 b0 40 3c 3a a3 bb 3c f1 fe d4 3a 1b 73 53 3a
       0.011760907 0.02290498 0.0016250295 0.0008066163
0000a0 cf 45 0b bc c8 e2 90 ba 85 e3 af 3c e1 e6 6d bb
       -0.00850053 -0.0011053914 0.021470794 -0.0036300945
0000b0 a6 59 34 bc ad 2c c1 3c 9f 45 b4 3c fa c2 19 bc
       -0.011007702 0.023580873 0.022005854 -0.009384865
0000c0 58 fb 5c bc 36 15 49 bc 8a 78 31 bc c0 d3 aa 3c
       -0.013487659 -0.0122731235 -0.010831961 0.020852923
0000d0 14 6f ac 3c aa 29 76 bc a0 15 ab 9f e8 72 ce 3c
       0.02104906 -0.015024582 -7.245709e-20 0.025201276
0000e0 b1 f2 3b bc 93 b7 ab bb 70 5d ec 3b a6 2a 0f bc
       -0.011471436 -0.0052403896 0.007213287 -0.0087381955
0000f0 55 ec 33 bc 28 80 b5 3c 51 31 4f bc aa 07 1b 3b
       -0.010981639 0.022155836 -0.012646035 0.0023655691
000100 01 28 84 3c 70 06 c2 3c cd 50 ae 3c 4f e7 a4 bb
       0.016132357 0.02368471 0.021278763 -0.005032457
000110 28 95 2f bc c2 e4 99 39 72 55 34 bc bf 32 29 bc
       -0.010716714 0.00029352872 -0.0110067 -0.01032704
000120 8c 50 bc 3c 83 6e b9 3c c7 ee 42 bc 4d 35 48 bc
       0.022987626 0.022635704 -0.011897749 -0.012219739
000130 65 a7 d7 3c 42 e1 78 bc a5 e9 34 bc 21 1f c7 bb
       0.026324937 -0.015190424 -0.011042033 -0.006076709
000140 c0 04 f1 bb bb f0 7f bc eb 11 3e af 3b aa ba 3c
       -0.0073553026 -0.015621359 -1.7286765e-10 0.02278625
000150 dd f3 a5 3c e5 a1 8d 20 27 60 c8 af b1 61 ba 3c
       0.020257885 2.3993462e-19 -3.6448108e-10 0.022751661
000160 28 f5 bb 3c 72 9c b4 23 56 54 80 3c 65 18 ae 3a
       0.022944048 1.9581896e-17 0.015665215 0.0013282417
000170 9f 95 f5 3b d2 98 c6 3c 37 33 1f 3c 9b d4 48 bc
       0.007494643 0.024242792 0.0097168 -0.01225772
000180 38 eb ce 3c 64 a1 c1 3c 97 88 e2 bb c6 01 be 3c
       0.025258645 0.023636527 -0.0069132554 0.023194205
000190 04 95 45 bc 2b 5e f7 3b ab 9e 50 bc 2f 63 43 bc
       -0.012059454 0.0075490675 -0.012733142 -0.011925503
0001a0 f6 af 51 bc c2 33 35 bc 38 9c 23 bc 89 76 59 bc
       -0.0127983 -0.011059703 -0.009985976 -0.01327289
0001b0 39 36 3b bc 62 97 44 bc 9e 04 c3 3c 6c 38 d0 ba
       -0.011426502 -0.011998983 0.023805913 -0.0015885956
0001c0 fd 6d 94 3a 60 01 71 3c 8e 0d 47 3a ea 12 a4 bb
       0.0011324283 0.0147098005 0.00075932674 -0.0050071375
0001d0 cf 1b a5 3c f7 11 89 3c c5 56 1a bc 68 e7 0d bc
       0.020154862 0.0167322 -0.0094201015 -0.008661129
0001e0 ab 09 36 bc 21 1f 1b bc f3 1b d4 bb 76 69 04 bc
       -0.011110703 -0.009467871 -0.0064730584 -0.0080817845
0001f0 fa 90 82 bc 46 c0 a8 3c e8 11 92 3c ac 17 ca 3c
       -0.01593827 0.020599496 0.017830804 0.02466949
000200 c2 3c 6f bd 6b 64 5a 3d b7 a9 4b bd 68 2a 01 3d
       -0.058407553 0.053318422 -0.0497224 0.031534582
000210 d7 09 da 3c f0 ac 9d bc 22 30 25 3c 21 f9 0c 3d
       0.02661602 -0.019247502 0.010082277 0.034417275
000220 d3 f6 11 bd d7 29 7c bd 93 f8 e5 3b 2f c0 13 3d
       -0.03563578 -0.06156334 0.0070181577 0.036071952
000230 63 e2 53 3d 73 3a 03 3e 96 93 fd 3c 16 b6 8c 3d
       0.05172957 0.12815265 0.030954164 0.06870668
000240 f4 10 ae 3b a4 e0 65 3d 0e 19 b7 3a b8 0b 74 3b
       0.0053120796 0.056122437 0.0013969259 0.003723843
000250 6d a6 1f 3c 7b ac c6 3c ad 41 b8 3c 80 74 89 3d
       0.009744269 0.024252167 0.022492254 0.06711674
000260 9c a9 6a bd e5 a7 2b 3d ed 90 04 3c e9 20 4e 3c
       -0.05729066 0.041908164 0.008091194 0.012581089
000270 98 fa a8 3c 60 ac f9 bc 7b a8 f0 bb 13 92 94 bd
       0.020627305 -0.030477703 -0.007344303 -0.07254424
000280 1f 68 36 bd 46 3a ac bc 98 36 a2 3c 52 b0 19 3d
       -0.04453289 -0.02102388 0.019801423 0.037521668
000290 89 82 e1 3d c0 20 bf 3c c3 dc 33 bd 2a 91 6c 3d
       0.11011226 0.023331046 -0.043911707 0.057755627
0002a0 4a a1 88 bc 0e 4f 43 bc 95 bf b8 3c 3b b8 1f 3d
       -0.016678471 -0.011920704 0.022552291 0.038994055
0002b0 39 a9 d6 bc 19 ff e2 3c b4 79 26 3d f2 20 16 bc
       -0.026203739 0.02770953 0.04064341 -0.009163128
0002c0 62 d1 9f bd e3 a0 9c bc db 18 f0 bc 03 88 d3 3c
       -0.078036085 -0.019119686 -0.029308727 0.025821691
0002d0 11 96 46 3c 43 76 a9 bd cb 1f 02 3c a5 86 9b 3d
       0.01212074 -0.0827451 0.00794215 0.07594041
0002e0 7b 52 d8 3b d3 ab 51 bc 26 05 96 bc 94 19 2a ba
       0.0066016293 -0.012797314 -0.018313002 -0.0006488797
0002f0 84 03 7b bd 2f e6 4d 3c 05 d3 96 ba cd 17 4e 3d
       -0.06128265 0.012567087 -0.001150698 0.050315667
000300 99 fe f7 bc af 74 05 3d 53 f3 a1 3c 2a 22 56 ba
       -0.030272769 0.03258198 0.019769346 -0.0008168543
000310 4f aa 45 bd 02 c2 88 3d 4f 96 4c bc b8 0e 79 bb
       -0.048258122 0.06677629 -0.012487008 -0.0038003158
000320 ce 0b c6 3c c8 e2 e9 3b 6c 2c bb 3b 03 4b 93 bc
       0.02417555 0.00713763 0.0057120826 -0.017980104
000330 2f c6 8a 3d 40 49 94 bd 71 04 b3 3b af 6e 16 3d
       0.06776082 -0.07240534 0.005463176 0.03672665
000340 54 24 21 bd 87 0b 74 bd 10 77 91 bc 6e 4f e8 3c
       -0.039341286 -0.059581306 -0.017756969 0.028358188
000350 68 3c 2b 3c 75 6b 2f 22 de c9 8e bb b0 92 92 3c
       0.010451414 2.377381e-18 -0.0043575605 0.017892212
000360 62 19 88 3c 7a ef 07 3b 9b 7b c8 3c 6b 20 02 bd
       0.016613666 0.0020742104 0.024473002 -0.031769197
000370 f3 1a a0 bb d9 9e 10 3d 0f 17 a7 3b a7 f8 5a bc
       -0.004886025 0.03530774 0.0050991843 -0.013364947
000380 a4 de 83 3d 9b c3 dd 3c c9 53 b7 bc 83 5a 26 3c
       0.0643895 0.027070811 -0.022378819 0.010153416
000390 d5 39 d4 b8 f4 05 fc bb 5d 2a b3 bc 27 33 46 bd
       -0.0001011972 -0.0076911394 -0.021870786 -0.048388626
0003a0 92 3a 02 bc 9d 68 36 38 b6 ea 69 bc 47 8a 51 3c
       -0.007948535 4.348961e-05 -0.014277151 0.012789316
0003b0 f4 fb b5 bc 8c a9 6a bd a3 fe fe 3c 95 b6 83 3c
       -0.022214867 -0.0572906 0.03112728 0.016078273
0003c0 41 e0 70 3b b0 21 0e 3c 78 81 9c 3c d3 94 bd 3d
       0.003675476 0.008675024 0.019104704 0.092569016
0003d0 04 d7 66 3c 06 76 5a 3d eb 2b a4 bc 3a a5 cb bc
       0.01408935 0.053335212 -0.020040473 -0.02485906
0003e0 f1 a3 3f 3b 65 e0 33 bc be f1 1f bd b0 48 fc bc
       0.0029242004 -0.010978793 -0.039048903 -0.030796379
0003f0 26 b6 e6 bd 03 5b b3 ba 20 dc b3 bc 5f 0d 22 3d
       -0.11265211 -0.001368374 -0.02195555 0.039563533

decoder_output_layer.bias f4 [128]
000000 d7 3c b4 bb 82 62 02 3c 15 7b 57 3c 2b 02 5a bc
       -0.0055004167 0.007958056 0.013151904 -0.013306181
000010 19 3e 41 bd 7c fc 2b bc 37 a7 90 ba df 8f ee bc
       -0.04717836 -0.010497209 -0.0011036162 -0.029121337
000020 fc 3b 74 3d 7b b0 94 3d 66 44 95 3c c6 b6 d9 bc
       0.059627518 0.072602235 0.018221091 -0.026576411
000030 01 45 3a 3d 7a 7f c3 3d 81 32 b8 3a bc 5b e4 ba
       0.045475964 0.095457986 0.0014053137 -0.0017422359
000040 66 76 b2 bb f0 82 36 3c e0 49 c2 3c fe f1 a8 bc
       -0.005446243 0.011139616 0.023716867 -0.020623203
000050 74 45 82 39 65 9f 1a 3d 59 00 07 3c c5 7b e3 bc
       0.0002484728 0.037749667 0.008239829 -0.027768979
000060 bd 79 09 bd ce f1 3f bd 3c 9d 5d 3d eb f0 cc 3b
       -0.033563364 -0.046861462 0.05410503 0.0062543056
000070 fa f0 b9 3c 1f 06 e9 bc 03 a8 d0 3c 84 a4 19 3c
       0.022697914 -0.028445302 0.02547074 0.0093776025
000080 7c b7 e7 bc e0 99 1d 3d 0d b1 09 3c c8 9c aa 3b
       -0.028285734 0.038476825 0.008404029 0.005206678
000090 07 f8 14 3d 10 a3 77 3b b8 94 49 3d ce 0c 3b bc
       0.03636935 0.0037786402 0.049214095 -0.011416627
0000a0 b6 b5 6c bd 08 27 6f 3d 6c 6f 3f bd 9a 2a 5c bc
       -0.05779048 0.058386832 -0.04673712 -0.013437891
0000b0 1e cd 1b bd ec 71 33 3d 41 a8 6e bb 74 96 8e 3d
       -0.038037412 0.043809816 -0.0036416205 0.069622904
0000c0 c3 f1 87 3c d4 09 9c 3d 6d 84 ad 3c 1b c8 40 3d
       0.016594773 0.07619062 0.02118131 0.047065835
0000d0 4b 05 a4 bc 9f be 1a bd 47 34 d8 bc bc a9 0b 3d
       -0.020022055 -0.037779447 -0.026392115 0.03409742
0000e0 60 87 93 bb c8 22 b1 bc bb e3 c4 bc 6b 18 65 3c
       -0.004502222 -0.02162303 -0.024034372 0.0139828725
0000f0 b3 44 31 3c 5f fa 8f ba 5f 98 8a 3b 49 51 d4 3c
       0.010819602 -0.001098465 0.00422959 0.025917666
000100 7c 82 7f 3c f5 71 64 b4 aa 4b 0d 3c b6 1f 0c bd
       0.015595075 -2.1275612e-07 0.008623997 -0.03420993
000110 54 2a 30 3c 7b fe 50 bb e8 2a 38 39 eb 00 6f 3d
       0.010752279 -0.0031889963 0.00017563591 0.058350485
000120 b1 34 26 3d b9 cc f1 3c 26 dd 19 3d d2 91 6f bd
       0.040577594 0.029516565 0.03756442 -0.058488674
000130 eb 6d 8e bc 48 1b a2 3d e0 ef 4d bd 76 72 3d 3b
       -0.017386397 0.0791536 -0.05027759 0.0028907335
000140 e4 f7 6c 3d 81 ca 47 bd cb 1d 11 bd 73 b5 8e 3c
       0.057853594 -0.048777107 -0.035428803 0.017420506
000150 d7 92 b7 3c 13 52 16 bc 88 40 b3 bc 8b c1 ef 3c
       0.022408886 -0.009174841 -0.021881357 0.029267093
000160 a0 c0 6e bb 56 63 07 bd dc c4 e1 3c 65 ca 39 bc
       -0.0036430731 -0.03305372 0.02755969 -0.0113397585
000170 8a a3 a8 3a da 2d 6f bd 3d 18 d7 bc 0b 0d 1a 3d
       0.0012866121 -0.058393337 -0.026256675 0.037610095
000180 dd eb bf b8 c2 12 23 3d fc 1e f4 3c c1 f9 96 3d
       -9.151523e-05 0.03981281 0.02979993 0.073718555
000190 8f 75 cc 3c df 45 80 3d 23 d6 8e 3c 85 2d db 3c
       0.0249584 0.06263327 0.017436093 0.026755104
0001a0 28 b6 62 3c a4 06 c3 bc c9 19 c0 3b 77 d4 ba 3c
       0.013837375 -0.023806877 0.005862449 0.02280639
0001b0 50 4b b0 3c 11 d9 8a 3d 35 73 13 34 a9 5e 7a 3d
       0.021520287 0.067796834 1.3732354e-07 0.06112543
0001c0 aa 08 b0 bc ea df 50 bb 92 a2 59 3c fb 77 33 3c
       -0.021488506 -0.0031871744 0.013283389 0.010953899
0001d0 1e c4 3e 30 aa 59 e2 3c 71 8d 6d bd a5 93 99 bc
       6.9400297e-10 0.027630646 -0.057996217 -0.01874716
0001e0 90 88 0e 3d 2c 91 14 bd a7 81 99 3c dc 26 ab bb
       0.034798205 -0.03627126 0.01873858 -0.0052231383
0001f0 00 9d 1e 3d 15 f9 3a bd 43 56 3f bc d6 2c 58 3d
       0.038723946 -0.0456477 -0.011678281 0.052777134
