results/milestone/programming tutorials/GCP/params/AE/params11.pt (torch_old, 265742 bytes, 8 tensors)

encoder_hidden_layer.weight f4 [128, 128]
0.06281652 0.116415426 -0.056383383 -0.06398162 0.06265536 -0.0046160123 -0.029463496 -0.060185187
0.034822214 -0.02509562 0.08745678 0.015744142 -0.061378375 0.037279166 -0.029272642 -0.043243863
-0.06891219 0.050778124 0.059158932 0.08842263 0.09040934 0.012758668 0.06745317 -0.025262808
-0.01691767 0.0057298793 0.04767241 -0.03057405 0.058308873 -0.028528137 0.03142565 0.06302739
0.07720427 -0.049263515 0.037095424 0.10212281 0.049569096 0.07271424 0.06990827 0.093984984
0.0051658633 0.05462118 0.092095494 -0.033935755 0.024732232 -0.005097736 -0.04107932 -0.0058427765
0.08752175 -0.017704675 -0.035372958 -0.00978435 -0.066309735 -0.019031031 -0.0059407502 0.018489037
0.0018550878 0.059410907 -0.032031626 0.00828913 -0.06035312 -0.055059202 -0.05363869 0.028669367
0.039237376 -0.07571689 -0.062208034 0.04259852 -0.005657686 0.056910805 -0.04466087 0.09842995
-0.05645214 -0.025424244 0.0829899 0.0018341009 0.07808163 -0.02821656 0.015676865 -0.020499578
-0.025993029 0.0012710898 0.08684039 -0.063648395 0.044854708 0.0837749 0.08488922 -0.04541273
0.10189296 -0.0031944448 0.055738967 -0.0015751215 -0.058814596 0.03735769 0.07677425 0.01398528
-0.064810015 0.045979355 0.079033606 0.09909514 0.083760045 0.02444785 0.091559306 -0.012078778
-0.05393107 0.014293412 -0.05384601 0.02147743 -0.018498085 -0.06711083 0.013291869 -0.0332987
0.064947054 -0.023006348 0.035377283 -0.038557254 0.003700734 -0.016601298 -0.05878466 -0.07810593
-0.011069751 0.022376806 -0.055493686 0.05131229 0.08947263 -0.0397944 -0.01353896 -0.038415305
-0.060483117 -0.07335995 0.020057498 -0.08743677 0.044273905 0.056072902 0.06560402 0.007580746
0.04527488 0.09220688 -0.014830455 0.009182932 -0.03177364 -0.05484577 -0.12590764 -0.071652025
-0.059212487 -0.1003256 -0.07477691 -0.116656296 -0.113518424 -0.029735552 -0.07162066 0.018044624
0.007997847 0.017621038 -0.054049533 -0.0470524 -0.01108209 -0.01848067 0.0030692902 -0.03842731
-0.0109654525 0.031081105 0.103767134 0.049509156 0.12498882 0.08103665 0.07851464 0.09505042
0.04563994 -0.026300404 0.0032424757 -0.012876003 -0.043673743 -0.07852077 -0.010175027 -0.023838803
-0.056585826 0.028222052 0.1048797 0.14704785 0.12691349 0.04119331 0.107938856 0.11173601
0.10454523 0.09369246 0.028735673 -0.020831125 -0.111151695 -0.089688845 -0.15024622 -0.2088859
-0.04917351 0.02712782 -0.016275398 -0.020239482 -0.013941365 -0.0037860088 -0.05938983 -0.0584815
-0.087750785 -0.025421297 0.008254105 0.018587377 0.03546953 0.094748445 0.040666413 0.020980308
-0.034740057 -0.042908255 0.038381483 -0.02237129 -0.046009023 -0.047610797 -0.077293515 -0.05434954
0.0004819019 -0.06982429 0.004140496 0.0014752115 -0.03972329 -0.015332921 0.021904306 0.014425799
0.09050707 -0.0036586584 -0.01947601 -0.004738735 -0.012517034 -0.006238218 -0.008730608 0.04333466
-0.036000505 0.02696426 0.056037236 -0.012821887 0.0147568835 0.004096704 0.02212793 -0.03686742
0.008835536 -0.030135354 -0.040853884 -0.018066566 -0.04845367 -0.016624533 -0.028003694 -0.01630042
-0.05629707 -0.071657576 -0.003096799 0.016400758 -0.03511496 0.022678487 -0.11716489 -0.091493
00000000: f3a5 803d 366b ee3d 43f2 66bd cc08 83bd
00000010: 7451 803d eb41 97bb 6e5d f1bc be84 76bd
00000020: bda1 0e3d 5495 cdbc 8a1c b33d dcf9 803c
00000030: e467 7bbd 0ab2 183d 2ecd efbc 7a20 31bd
00000040: d621 8dbd b9fc 4f3d a350 723d ed16 b53d
00000050: 8828 b93d bb09 513c e324 8a3d f3f3 cebc
00000060: ed96 8abc b6c1 bb3b 2544 433d 6e76 fabc
00000070: 49d5 6e3d d7b3 e9bc 2fb8 003d 8114 813d
00000080: 461d 9e3d 8ac8 49bd 5ff1 173d c425 d13d
00000090: f708 4b3d 34eb 943d 112c 8f3d 337b c03d
000000a0: 6746 a93b 75ba 5f3d 909c bc3d 3800 0bbd
000000b0: 409b ca3c e90a a7bb ca42 28bd c374 bfbb
000000c0: 9a3e b33d 6509 91bc 3ce3 10bd 8a4e 20bc
000000d0: 66cd 87bd f7e6 9bbc a0aa c2bb 5276 973c
000000e0: 6b26 f33a da58 733d 9833 03bd 22cf 073c
000000f0: d534 77bd c285 61bd 3eb4 5bbd 05dc ea3c
00000100: 5fb7 203d 7511 9bbd dacd 7ebd c97b 2e3d
00000110: 1c64 b9bb 4e1b 693d 51ee 36bd a495 c93d
00000120: 5c3a 67bd 8146 d0bc 9cf6 a93d 3766 f03a
00000130: 43e9 9f3d 6a26 e7bc c56c 803c bbee a7bc
00000140: 55ef d4bc b29a a63a 60d9 b13d 175a 82bd
00000150: 92b9 373d 2d92 ab3d 66da ad3d b302 3abd
00000160: 42ad d03d e459 51bb 8b4e 643d 4f74 ceba
00000170: 93e7 70bd 6104 193d d13b 9d3d 8422 653c
00000180: 1dbb 84bd d954 3c3d 5fdc a13d 65f2 ca3d
00000190: 638a ab3d dc46 c83c 7283 bb3d 11e6 45bc
000001a0: d3e6 5cbd ea2e 6a3c a28d 5cbd 6ff1 af3c
000001b0: 4c89 97bc 6771 89bd 24c6 593c 3864 08bd
000001c0: f602 853d cf77 bcbc c5e7 103d 36ee 1dbd
000001d0: 0488 723b 72ff 87bc 2fc8 70bd 00f6 9fbd
000001e0: e75d 35bc 904f b73c 594d 63bd d62c 523d
000001f0: 6d3d b73d 74ff 22bd 84d2 5dbc 5e59 1dbd
00000200: 25bd 77bd be3d 96bd 9f4f a43c 0d12 b3bd
00000210: 8e58 353d b3ac 653d 675b 863d e867 f83b
00000220: 2772 393d f6d6 bc3d 70fb 72bc 0274 163c
00000230: 1425 02bd f5a5 60bd efed 00be 4cbe 92bd
00000240: cb88 72bd 8277 cdbd a324 99bd 7fe9 eebd
00000250: 597c e8bd f997 f3bc daad 92bd 52d2 933c
00000260: 6709 033c ff59 903c 0b63 5dbd 04ba 40bd
00000270: a891 35bc c664 97bc 2526 493b f465 1dbd
00000280: 71a8 33bc cd9d fe3c dd83 d43d 1dca 4a3d
00000290: 23fa ff3d 8bf6 a53d 49cc a03d cba9 c23d
000002a0: f2f0 3a3d f273 d7bc b77f 543b dff5 52bc
000002b0: 3de3 32bd 7fcf a0bd 28b5 26bc 9849 c3bc
000002c0: 8ac6 67bd ef31 e73c 2bcb d63d b693 163e
000002d0: 9cf5 013e 51ba 283d 0c0f dd3d d9d5 e43d
000002e0: cf1b d63d d5e1 bf3d 1367 eb3c 09a6 aabc
000002f0: 80a3 e3bd c9ae b7bd 25da 19be 2fe6 55be
00000300: 2a6a 49bd 293b de3c fc53 85bc 45cd a5bc
00000310: 536a 64bc b01e 78bb c042 73bd 4c8a 6fbd
00000320: afb6 b3bd 5340 d0bc 3a3c 073c 8e44 983c
00000330: 7f48 113d 790b c23d d391 263d e5de ab3c
00000340: 974b 0ebd 91c0 2fbd e735 1d3d ff43 b7bc
00000350: f573 3cbd 8a03 43bd 104c 9ebd a09d 5ebd
00000360: c7a7 fc39 0a00 8fbd ffac 873b e25b c13a
00000370: e3b4 22bd ef36 7bbc a970 b33c 305a 6c3c
00000380: c55b b93d 1ac6 6fbb 278c 9fbc 6447 9bbb
00000390: 3f14 4dbc f769 ccbb d30a 0fbc af7f 313d
000003a0: 4475 13bd 27e4 dc3c 4d87 653d e412 52bc
000003b0: dbc6 713c a53d 863b a245 b53c 4b02 17bd
000003c0: edc2 103c 6bde f6bc 6756 27bd 5600 94bc
000003d0: 5b77 46bd 2c30 88bc 0168 e5bc 7588 85bc
000003e0: c297 66bd 35c1 92bd aaf3 4abb e25a 863c
000003f0: b4d4 0fbd 3cc8 b93c 25f4 efbd af60 bbbd

encoder_hidden_layer.bias f4 [128]
0.0023717582 0.15242805 0.06659014 -0.03146676 -0.063235 -0.024320096 0.1281318 -0.0013165299
-0.012031083 -0.009259306 -0.008474223 -0.061699107 0.108534135 0.06570068 -0.0689858 0.077844344
0.1868342 0.06299331 0.022106519 0.055017065 0.07646586 0.07382606 0.1673867 0.08033893
0.0029888519 0.26909214 0.05397302 0.07559083 0.27453014 0.06861227 0.06935326 -0.0037521506
0.0968224 -0.0018276146 0.07830597 0.011287403 0.08742279 0.11627581 0.17229114 0.22659035
0.16240542 0.08625826 -0.012622401 0.05032047 0.10657581 0.03659647 0.23571703 -0.025160111
0.11610915 0.11505669 0.023535939 0.04213585 0.12782627 0.11940903 0.123994194 0.11746271
0.043607492 0.2896522 0.05757173 -0.001745358 0.24252082 0.07318014 0.024323665 0.036751594
0.13161059 0.069080204 -0.04621635 0.022145702 0.23425208 0.16704002 0.230125 0.05927997
-0.06628456 0.13407704 0.030459134 0.09413011 0.023093767 0.029444408 0.1392269 0.0404008
0.050171778 0.08884469 0.14047931 -0.028986879 0.0333974 0.19552088 -0.017122906 0.21473931
0.07575855 0.10096866 0.10375023 0.015498072 0.09039163 0.08169059 0.12668216 0.011142413
0.14165129 0.024825295 0.08697667 0.23612359 0.07377235 0.025609637 0.12572518 -0.05875339
0.045934223 0.13832538 -0.009854269 0.09757619 0.084330566 0.0868768 0.106265806 0.04501759
0.050674003 0.07717291 0.26369154 -0.061752502 -0.025934193 0.18238866 0.039335206 0.08180893
0.11443394 0.017471682 0.091070466 0.08803542 0.06103152 0.0048527797 0.13226064 0.09232586
00000000: 806f 1b3b 1916 1c3e 6960 883d 4ae3 00bd
00000010: 5a81 81bd f03a c7bc fc34 033e 6a8f acba
00000020: 051e 45bc 58b4 17bc 78d7 0abc 34b8 7cbd
00000030: 2547 de3d 148e 863d 6d48 8dbd db6c 9f3d
00000040: 7751 3f3e a302 813d bb18 b53c 9359 613d
00000050: 229a 9c3d 1e32 973d 6b67 2b3e bd88 a43d
00000060: 9de0 433b 72c6 893e d012 5d3d 5dcf 9a3d
00000070: 378f 8c3e 9784 8c3d 1509 8e3d a4e6 75bb
00000080: d34a c63d 928c efba e15e a03d cdee 383c
00000090: b80a b33d 0322 ee3d 176d 303e 4d07 683e
000000a0: 9b4d 263e 2ca8 b03d 30ce 4ebc d61c 4e3d
000000b0: 6b44 da3d 2ee6 153d ce5f 713e 941c cebc
000000c0: a2ca ed3d d8a2 eb3d 71ce c03c a496 2c3d
000000d0: e4e4 023e b98c f43d abf0 fd3d 4a90 f03d
000000e0: c59d 323d 4b4d 943e 56d0 6b3d 7fc4 e4ba
000000f0: 6157 783e 78df 953d 6c42 c73c d788 163d
00000100: edc4 063e ec79 8d3d 5b4d 3dbd e76a b53c
00000110: c7df 6f3e 8a0c 2b3e e3a5 6b3e 8ecf 723d
00000120: 33c0 87bd 7e4b 093e 6f85 f93c 4ac7 c03d
00000130: 242f bd3c 6635 f13c 7f91 0e3e 4f7b 253d
00000140: ec80 4d3d 34f4 b53d cfd9 0f3e e475 edbc
00000150: b6cb 083d a036 483e 5645 8cbc 9fe4 5b3e
00000160: 4c27 9b3d a8c8 ce3d 007b d43d a0eb 7d3c
00000170: 3f1f b93d 654d a73d f8b8 013e ab8e 363c
00000180: 090d 113e 6b5e cb3c d320 b23d 62ca 713e
00000190: f515 973d 4dcb d13c 1abe 003e 65a7 70bd
000001a0: 8625 3c3d 2ba5 0d3e cd73 21bc 07d6 c73d
000001b0: 81b5 ac3d 77ec b13d e3a1 d93d 5d64 383d
000001c0: 8b8f 4f3d d50c 9e3d 9402 873e 31f0 7cbd
000001d0: f273 d4bc 18c4 3a3e f41d 213d 718b a73d
000001e0: 575c ea3d c620 8f3c 2783 ba3d ea4b b43d
000001f0: 30fc 793d 1104 9f3b 556f 073e 5715 bd3d

encoder_output_layer.weight f4 [128, 128]
-0.040130015 0.008258858 -0.07940824 0.029520847 0.04977838 0.017706085 0.10549333 0.06488026
-0.085078135 -0.03557192 -0.00582813 -0.06744441 0.055127677 0.0145454435 -0.07884304 0.029199162
0.06997643 -0.023504874 -0.0030707943 0.057587773 0.07355282 -0.041243166 -0.026590403 0.024510873
-0.07040699 0.17836583 -0.01744894 -0.01935126 -0.0119967 -0.0011780651 0.06108209 0.00058093824
-0.096528776 -0.04573518 0.04029155 0.079947785 0.07620735 0.016144658 0.09918761 0.05255362
0.11012482 -0.020286307 -0.0044321124 0.077429436 0.08173236 0.030075898 -0.0153070055 -0.03526295
0.09117631 0.047206167 -0.01684826 0.05898509 -0.006803546 0.045584057 0.046420567 0.016821912
-0.10630915 -0.10830592 -0.039590724 -0.028330537 0.055088576 0.07624227 0.04631714 0.061649125
-0.0021029566 -0.0019040946 0.057868823 0.08854826 0.117956765 0.056817632 0.007131775 0.040683165
-0.056633037 -0.024001408 0.026874647 0.072773084 0.030551173 -0.06365278 -0.0705675 0.020443292
0.064047985 -0.037863284 0.046503227 0.04601115 0.031074 0.067730606 0.0006608057 -0.04308282
-0.0803792 -0.05385115 0.043072805 0.0039591338 -0.027889345 -0.06316228 -0.003919064 0.10148167
-0.061554305 0.10605879 -0.027105844 -0.018109646 0.049229946 0.012565047 0.020077543 0.056338336
0.05846234 0.02999803 0.022949217 0.03630808 -0.054524586 0.0396023 0.08972127 -0.06782607
-0.0007853605 0.050815884 0.0771209 0.03516393 -0.018318417 -0.07502781 -0.06914877 0.05691381
-0.029406605 -0.035294488 -0.027405651 0.09484631 -0.040413946 -0.04775811 0.024579057 0.032739773
-0.042560518 0.06315455 0.02798156 -0.027852139 0.052490767 -0.02052521 0.07575607 0.030010697
0.07811905 0.039986998 0.056802914 0.012931902 -0.18200554 -0.04266631 0.020725662 0.090824105
-0.089643374 -0.022122072 0.017830107 -0.024752717 -0.03360418 0.012923487 0.013507402 0.044709984
0.053283375 0.08814742 0.13225529 -0.0001512942 0.040087286 0.04329482 0.1571707 0.037039638
-0.0113535235 0.07517548 0.2217419 -0.05650864 0.024471072 0.08574715 0.14590922 0.05348589
0.0035063345 -0.051640287 0.103243865 -0.05881229 -0.06652207 0.0212071 0.099464394 -0.042940445
0.00037595964 -0.059476953 -0.029844433 -0.04243545 -0.031633712 0.13801509 -0.0144515745 0.009244472
-0.011646195 0.026202247 0.06258519 -0.034187566 0.053242814 0.03769435 -0.018236294 0.036646895
0.0069994554 0.065385625 -0.004063931 0.050766025 -0.16604494 -0.09517583 0.04739488 -0.013739581
-0.0051928503 -0.021551836 0.061969142 0.019730365 -0.038740132 0.07139516 0.058132287 0.048103936
-0.045946866 -0.026708018 -0.13935007 -0.026546454 0.01815338 0.09958019 0.02789283 0.027320463
0.018081712 -0.003962357 0.010444747 -0.0040500625 0.041710388 -0.030693522 -0.09926572 0.12018498
0.04994356 -0.033382885 -0.004522816 0.11649383 0.04105438 0.04087588 0.115118794 0.011196169
0.096441865 -0.023647383 0.046038788 0.025116822 -0.015295972 0.01738143 0.07693566 -0.019019073
-0.053074718 -0.06289445 0.08403459 0.109658726 0.04832674 0.0062077674 -0.0341363 -0.01685257
-0.046781763 0.021867294 -0.10986796 0.0618073 -0.045108784 -0.0042925044 0.08175272 -0.051867705
00000000: 5f5f 24bd 2950 073c caa0 a2bd b4d5 f13c
00000010: 6ae4 4b3d 5a0c 913c e30c d83d f1df 843d
00000020: 723d aebd ddb3 11bd e6f9 bebb 4b20 8abd
00000030: 8fcd 613d 0350 6e3c 7678 a1bd 1533 ef3c
00000040: cd4f 8f3d 4b8d c0bc 613f 49bb 28e1 6b3d
00000050: dca2 963d 98ee 28bd 1ed4 d9bc 07cb c83c
00000060: 8a31 90bd 88a5 363e 14f1 8ebc 8986 9ebc
00000070: cf8d 44bc 4e69 9aba 3731 7a3d 1b4a 183a
00000080: e1b0 c5bd d054 3bbd c108 253d aabb a33d
00000090: 9912 9c3d cd41 843c e022 cb3d 7742 573d
000000a0: 1f89 e13d 782f a6bc 413b 91bb 5393 9e3d
000000b0: 4c63 a73d bb61 f63c 3cca 7abc e26f 10bd
000000c0: a5ba ba3d 415b 413d 5d05 8abc 5a9a 713d
000000d0: 48f0 debb 59b6 3a3d 7e23 3e3d 1bce 893c
000000e0: 9db8 d9bd 7fcf ddbd e229 22bd 7115 e8bc
000000f0: 8fa4 613d e824 9c3d 0bb7 3d3d cb83 7c3d
00000100: c2d1 09bb d092 f9ba dc07 6d3d ca58 b53d
00000110: 5193 f13d 9bb9 683d aab1 e93b 64a3 263d
00000120: 0bf8 67bd 9a9e c4bc 3828 dc3c 0e0a 953d
00000130: 7446 fa3c 645c 82bd b285 90bd b178 a73c
00000140: 972b 833d 8816 1bbd 2b7a 3e3d 3076 3c3d
00000150: e78e fe3c 58b6 8a3d eb39 2d3a 9c77 30bd
00000160: da9d a4bd 0693 5cbd 1c6d 303d 9fbb 813b
00000170: 3278 e4bc 3a5b 81bd 7e6b 80bb 9fd5 cf3d
00000180: 5e20 7cbd 5a35 d93d 130d debc ae5a 94bc
00000190: 57a5 493d a0dd 4d3c a979 a43c 07c3 663d
000001a0: 3576 6f3d 6ebe f53c ffff bb3c c8b7 143d
000001b0: 2c55 5fbd 0536 223d c9bf b73d 65e8 8abd
000001c0: a7e0 4dba 5124 503d 90f1 9d3d 0e08 103d
000001d0: 8110 96bc 2ea8 99bd df9d 8dbd 751e 693d
000001e0: 1fe6 f0bc f490 10bd d181 e0bc c83e c23d
000001f0: 1889 25bd 029e 43bd 055a c93c 241a 063d
00000200: f053 2ebd 2c57 813d 9639 e53c 2b2a e4bc
00000210: 8f00 573d 7c24 a8bc 0026 9b3d fed8 f53c
00000220: e1fc 9f3d 68c9 233d 2caa 683d 54e0 533c
00000230: a95f 3abe dec2 2ebd ddc8 a93c fd01 ba3d
00000240: f296 b7bd 5939 b5bc 7210 923c 36c6 cabc
00000250: 89a4 09bd 09bd 533c 264e 5d3c d121 373d
00000260: ab3f 5a3d a286 b43d ee6d 073e baa4 1eb9
00000270: 9132 243d e955 313d 5bf1 203e e0b6 173d
00000280: 2104 3abc 9af5 993d 4f10 633e 9b75 67bd
00000290: 8f77 c83c 349c af3d 3a69 153e 0514 5b3d
000002a0: 88ca 653b c484 53bd 8571 d33d 28e5 70bd
000002b0: b93c 88bd 83ba ad3c fdb3 cb3d 52e2 2fbd
000002c0: 731c c539 1b9e 73bd 507c f4bc cbd0 2dbd
000002d0: 5a92 01bd d453 0d3e 4cc6 6cbc 2076 173c
000002e0: afcf 3ebc 18a6 d63c aa2c 803d 4308 0cbd
000002f0: 2315 5a3d 6465 1a3d 4864 95bc 0e1b 163d
00000300: b05b e53b e6e8 853d b92a 85bb 09f0 4f3d
00000310: af07 2abe 8ceb c2bd 2221 423d fb1b 61bc
00000320: c928 aabb 7a8d b0bc 5bd3 7d3d 93a1 a13c
00000330: f9ad 1ebd a037 923d 1f1c 6e3d a208 453d
00000340: c832 3cbd c6ca dabc c9b1 0ebe f377 d9bc
00000350: 66b6 943c b3f0 cb3d 817f e43c 2acf df3c
00000360: 1920 943c a9d6 81bb 7220 2b3c 63b6 84bb
00000370: 83d8 2a3d fb70 fbbc d34b cbbd 8b23 f63d
00000380: 9e91 4c3d 7ebc 08bd 2134 94bb 5194 ee3d
00000390: a328 283d 776d 273d 67c3 eb3d 2370 373c
000003a0: 5083 c53d 28b8 c1bc 2b93 3c3d cbc1 cd3c
000003b0: f59b 7abc 8063 8e3c 7190 9d3d e3cd 9bbc
000003c0: e064 59bd cece 80bd 541a ac3d c194 e03d
000003d0: 42f2 453d 876a cb3b 81d2 0bbd 670e 8abc
000003e0: 3c9e 3fbd 0a23 b33c 7402 e1bd a729 7d3d
000003f0: fdc3 38bd 23a8 8cbb f86d a73d 3b73 54bd

encoder_output_layer.bias f4 [128]
0.09931269 0.021734167 -0.061067697 0.05966714 0.015592062 0.061887365 0.018696489 -0.0067117773
0.05548788 0.059063304 0.01916386 -0.018464604 0.08147136 0.0110691255 0.04402828 0.053714685
0.048212986 0.05071435 -0.01596006 -0.025870305 0.08770217 -0.07608757 0.099959254 0.018718867
0.0026243615 -0.0040172995 0.034841284 0.03942099 0.09946036 -0.006029641 0.07798433 -0.010498786
0.0326152 0.03134952 0.09175687 -0.04430766 0.0047457623 -0.06377633 0.00034616402 0.03338695
0.09220556 0.053923268 0.14849336 0.06449213 0.017125983 -0.021909717 -0.074042454 0.032453116
0.08753299 -0.0026806665 0.04067068 -0.003301526 -0.05216901 0.04429265 -0.007815089 0.08495662
0.0663928 0.024801053 0.0566139 0.03577277 0.023105536 0.0008986831 0.036453836 -0.016051171
0.07436225 0.057480842 -0.021561014 -0.05351005 -0.031027636 0.06563447 -0.084081404 0.055281684
0.028926704 0.12480091 0.029670155 -0.060561974 0.00048142657 0.055231888 -0.044339262 -0.06070346
-0.035673734 0.02652097 0.03151875 -0.0686601 0.034163985 -0.016037887 0.063755855 -0.018084245
0.11162348 -0.023243928 0.06602206 -0.008097306 0.08102096 0.030082682 0.07344939 -0.061183807
0.06129208 -0.011116945 0.0018487249 -0.06282055 0.038420238 0.061042804 -0.045039136 -0.026200125
0.08899945 -0.037616484 0.08105913 0.1001669 -0.019995391 -0.019985922 -0.020653423 0.05443054
0.04302012 -0.038788427 -0.040203884 0.09344901 0.028367298 0.058590513 0.07034481 0.024359478
-0.04411935 0.025073437 -0.04011843 0.10191302 -0.005975937 -0.005021771 -1.2710306e-07 0.113673024
00000000: 7464 cb3d da0b b23c 1f22 7abd 8865 743d
00000010: d975 7f3c 9b7d 7d3d 6129 993c 78ee dbbb
00000020: 4247 633d 5dec 713d 87fd 9c3c 1543 97bc
00000030: 75da a63d 475b 353c ff56 343d ee03 5c3d
00000040: fb7a 453d dab9 4f3d acbe 82bc f6ed d3bc
00000050: 329d b33d cdd3 9bbd 70b7 cc3d 4f58 993c
00000060: 7bfd 2b3b 8da3 83bb bcb5 0e3d e777 213d
00000070: e0b1 cb3d 4b94 c5bb 40b6 9f3d 1a03 2cbc
00000080: 8497 053d 5b68 003d 07eb bb3d f37b 35bd
00000090: 5782 9b3b 2a9d 82bd 597d b539 c1c0 083d
000000a0: 45d6 bc3d a5de 5c3d a50e 183e 7314 843d
000000b0: ca4b 8c3c 027c b3bc 92a3 97bd 8fed 043d
000000c0: 7f44 b33d 1fae 2fbb 4d96 263d 6a5e 58bb
000000d0: 2caf 55bd 366c 353d dc0a 00bc bdfd ad3d
000000e0: f3f8 873d 942b cb3c fae3 673d 7886 123d
000000f0: d247 bd3c 9a95 6b3a 9e50 153d bf7d 83bc
00000100: 3c4b 983d 0871 6b3d b9a0 b0bc 5b2d 5bbd
00000110: ab2d febc 5d6b 863d df32 acbd 0c6f 623d
00000120: b2f7 ec3c 9f97 ff3d d30e f33c d50f 78bd
00000130: fb67 fc39 d53a 623d 169d 35bd 31a4 78bd
00000140: 9f1e 12bd 8142 d93c ce19 013d ab9d 8cbd
00000150: 89ef 0b3d e361 83bc 6e92 823d 6925 94bc
00000160: da9a e43d 0d6a bebc 9336 873d 90aa 04bc
00000170: 51ee a53d f56f f63c a26c 963d df9b 7abd
00000180: 670d 7b3d d923 36bc ea50 f23a 0fa8 80bd
00000190: 8a5e 1d3d 0508 7a3d f57a 38bd a5a1 d6bc
000001a0: 5845 b63d be13 1abd 5402 a63d 4e24 cd3d
000001b0: 60cd a3bc 84b9 a3bc 5e31 a9bc 8ff2 5e3d
000001c0: de35 303d 9de0 1ebd d4ac 24bd 3262 bf3d
000001d0: 8962 e83c 9bfc 6f3d f110 903d 878d c73c
000001e0: 7eb6 34bd cf66 cd3c 3953 24bd c6b7 d03d
000001f0: cbd1 c3bb ab8d a4bb d379 08b4 67cd e83d

decoder_hidden_layer.weight f4 [128, 128]
-0.0794577 -0.0076353457 0.0046699354 0.023884077 0.11918824 -0.0014261553 -0.08080949 -0.01484223
0.021629214 -0.013551506 0.03385807 -0.03768749 -0.010581016 0.06539569 0.029784985 0.012541798
-0.05900376 0.022826023 -0.09055023 -0.053656027 0.07834891 -0.0252215 0.007547158 0.026741024
0.019028964 -0.10168513 -0.004307823 -0.09890744 0.029671969 -0.013707577 -0.030793061 0.074698605
0.04108141 0.035527058 -0.069171764 0.08020685 -0.06377174 -0.017770905 -0.016570352 0.0671375
0.08581955 -0.00021386686 -0.0018016015 -0.09431195 0.077762075 -0.02891731 0.11231116 -0.09726467
0.07031893 -0.05616821 0.04672318 0.029472679 0.018230641 -0.030651115 -0.059721544 0.09038667
0.052602362 0.06360399 0.055132214 0.04211446 -0.066292524 -0.03272425 0.06975603 0.02542327
-0.0036604411 0.018890286 0.036360174 0.07626218 0.023702594 -0.039406426 0.0052552694 0.000960579
0.08017699 0.07080698 -0.07116844 0.015787596 -0.01662465 -0.024430847 -0.0220597 0.030458936
0.032391623 -0.0061032427 0.123478375 0.039053436 0.054218143 -0.025145058 -0.046301764 -0.079466805
0.077599555 0.06843856 -0.024635887 0.02968222 -0.01573791 -0.021102285 -0.09783749 -0.031738043
-0.016525224 -0.0017909433 -0.038805626 -0.007937264 -0.0004244944 0.016859211 -0.009257151 0.0041142483
0.0068371124 0.052293736 0.04758661 -0.047436632 -0.07414935 0.009790318 -0.031663302 0.0035683396
-0.065687746 0.054700326 0.04999517 0.014544459 0.009895045 0.008832605 0.010203235 0.0068250913
0.11360006 0.011927294 0.048742615 -0.063346684 0.0736404 -0.06298362 3.585441e-11 -0.0009839635
0.017446233 0.0463042 0.0387377 -0.07984606 -0.02091192 0.04826501 0.0063240905 0.07810585
-0.0007197602 -0.06835901 0.07249532 0.033562217 -0.039945666 0.063447915 0.08042472 -0.046328437
0.050782323 0.018428005 0.06834995 0.036843337 0.009564757 -0.001938204 0.009006392 0.017481701
0.063953914 -0.057156794 -0.0029538728 -0.011760978 -0.015780874 0.037465777 0.080189854 0.0334938
-0.06810439 -0.03156202 0.011984234 -0.08482447 0.051465675 -0.003374853 -0.03297077 0.017349582
0.052591078 -0.04099677 -0.109281845 0.026370123 0.062243547 0.077160984 -0.024979584 -0.019672899
-0.07337259 -0.012190898 -0.028367708 -0.076467164 0.053303137 0.033238657 -0.01848577 -0.011299146
0.009312051 0.08584021 0.06304807 -0.06378915 0.016322426 0.07155555 -0.044189908 0.07183485
0.04821816 0.07933783 0.004638355 0.08369488 -0.06116919 0.011525469 -0.006992255 -0.0025600598
0.04360401 0.0067076217 0.053854275 0.08563749 -0.010759452 0.048602253 -0.06283126 0.056235302
0.025303364 0.020061785 0.025287846 -0.020874377 0.09229678 -0.027939696 -0.024758141 -0.06336854
0.094151914 -0.12618624 0.07117544 0.018841838 0.013393302 -0.029127974 -0.054534405 0.0077970615
-0.028625077 -0.028451074 0.039377864 -0.06342841 0.0014687941 -0.06955742 -0.057805818 0.083003305
-0.0017409872 -0.03148601 0.032642487 -0.005876883 0.08345467 -0.08619405 -0.035308514 0.050173014
0.08394119 0.01704149 0.068792194 -0.003983186 -0.09191476 0.056931477 -0.049548607 0.052208558
0.003805059 -0.016993819 -0.048736557 0.035357006 0.051122047 0.010592089 4.3712402e-11 -0.049067568
00000000: b8ba a2bd ec31 fabb 4206 993b 8aa8 c33c
00000010: f718 f43d d5ed baba 727f a5bd d32c 73bc
00000020: c02f b13c 2307 5ebc c2ae 0a3d 335e 1abd
00000030: ff5b 2dbc 2dee 853d a4ff f33c 1d7c 4d3c
00000040: edad 71bd a4fd ba3c 6672 b9bd 6cc6 5bbd
00000050: 6575 a03d 529d cebc 264e f73b fe0f db3c
00000060: a1e2 9b3c 4b40 d0bd a328 8dbb fc8f cabd
00000070: a112 f33c bf95 60bc bb41 fcbc 95fb 983d
00000080: fb44 283d d284 113d eda9 8dbd 7d43 a43d
00000090: c29a 82bd 4a94 91bc 8cbe 87bc 637f 893d
000000a0: 29c2 af3d 7341 60b9 b723 ecba a026 c1bd
000000b0: b941 9f3d ffe3 ecbc 6503 e63d b332 c7bd
000000c0: 5f03 903d a310 66bd ce60 3f3d b070 f13c
000000d0: 6d58 953c 0c18 fbbc 949e 74bd a51c b93d
000000e0: 9375 573d cf42 823d 51d2 613d 3680 2c3d
000000f0: 60c4 87bd dd09 06bd 40dc 8e3d 7644 d03c
00000100: 03e4 6fbb cdbf 9a3c 68ee 143d 592f 9c3d
00000110: f12b c23c a268 21bd 6534 ac3b 5ecf 7b3a
00000120: d533 a43d 4003 913d c2c0 91bd fd54 813c
00000130: 6b30 88bc 3323 c8bc 8bb6 b4bc 0585 f93c
00000140: 14ad 043d b6fd c7bb 3be2 fc3d 7ff6 1f3d
00000150: d813 5e3d 02fd cdbc eba6 3dbd 7ebf a2bd
00000160: 84ec 9e3d 8429 8c3d 33d1 c9bc 2128 f33c
00000170: caec 80bc b3de acbc 065f c8bd c0ff 01bd
00000180: e85f 87bc 16be eaba a6f2 1ebd 4c0b 02bc
00000190: ad8e deb9 541c 8a3c 4eab 17bc d1d0 863b
000001a0: db09 e03b f531 563d 2dea 423d ea4c 42bd
000001b0: 9ddb 97bd 9267 203c 61b1 01bd ceda 693b
000001c0: 4c87 86bd 730d 603d bcc7 4c3d e24b 6e3c
000001d0: d41e 223c a1b6 103c 782b 273c 04a5 df3b
000001e0: 26a7 e83d b26a 433c 56a6 473d e8bb 81bd
000001f0: c7d0 963d 8efd 80bd 7ab0 1d2e 56f8 80ba
00000200: 67eb 8e3c 79a9 3d3d 6cab 1e3d 5586 a3bd
00000210: 7a4f abbc 88b1 453d 513a cf3b f6f5 9f3d
00000220: 4aae 3cba cfff 8bbd 6d78 943d 8978 093d
00000230: 119e 23bd fbf0 813d b7b5 a43d e3c2 3dbd
00000240: 2001 503d 54f6 963c 0ffb 8b3d 0ae9 163d
00000250: 80b5 1c3c 560b feba 8c8f 133c c935 8f3c
00000260: 45fa 823d 3e1d 6abd c395 41bb 1eb1 40bc
00000270: e446 81bc b775 193d 943a a43d cb30 093d
00000280: 507a 8bbd 2d47 01bd 8559 443c 74b8 adbd
00000290: accd 523d a32c 5dbb 5c0c 07bd b620 8e3c
000002a0: be69 573d 3bec 27bd 29cf dfbd 2806 d83c
000002b0: 17f3 7e3d 9406 9e3d fca1 ccbc 0f29 a1bc
000002c0: 5e44 96bd 55bc 47bc 6563 e8bc d19a 9cbd
000002d0: 6454 5a3d 4225 083d 786f 97bc 0e20 39bc
000002e0: 9391 183c fecc af3d 591f 813d e3a3 82bd
000002f0: 9cb6 853c b78b 923d 7a00 35bd 261e 933d
00000300: 6880 453d df7b a23d 58fd 973b 3968 ab3d
00000310: 8b8c 7abd 52d5 3c3c 491f e5bb adc6 27bb
00000320: 1e9a 323d 9ccb db3b 4d96 5c3d b562 af3d
00000330: 6a48 30bc 2813 473d adad 80bd fd56 663d
00000340: 0049 cf3c 9d58 a43c 7528 cf3c be00 abbc
00000350: 1806 bd3d cae1 e4bc 96d1 cabc 5dc7 81bd
00000360: b8d2 c03d f736 01be 6ec4 913d 335a 9a3c
00000370: 956f 5b3c ca9d eebc 785f 5fbd 7e7e ff3b
00000380: 237f eabc 3a12 e9bc af4a 213d c1e6 81bd
00000390: 8d84 c03a 1f74 8ebd cbc5 6cbd a3fd a93d
000003a0: d631 e4ba 79f7 00bd 21b4 053d de92 c0bb
000003b0: 48ea aa3d 8286 b0bd a99f 10bd 3882 4d3d
000003c0: 5ce9 ab3d 989a 8b3c ece2 8c3d 6385 82bb
000003d0: ce3d bcbd fb30 693d 7bf3 4abd a4d8 553d
000003e0: 4c5e 793b 9f36 8bbc fc9f 47bd 82d2 103d
000003f0: 5a65 513d 718a 2d3c ca3f 402e 13fb 48bd

decoder_hidden_layer.bias f4 [128]
-0.073845044 0.0034204845 0.0035971606 0.026576323 0.004583821 0.003941024 -0.0024934614 0.06143045
-0.019903049 0.08647016 0.054207657 -0.105592534 -0.06851819 0.04445925 0.00014716768 -0.008292422
-0.03605715 -0.0021783912 -0.051272325 -8.209791e-05 -0.00063989114 -0.0023628906 0.009612352 -0.0072122444
0.013329484 0.10327309 -0.04940546 0.009573941 0.11924489 0.09930291 0.11753014 -0.057028368
0.016244242 0.120788336 0.07514328 0.08262689 -0.036965065 0.048940856 0.01481301 0.08088455
-0.059427492 -0.07568109 0.031230833 0.08995828 0.0065148594 0.017737793 0.021857817 -0.03139335
0.015648073 0.031148039 0.00197634 -0.013906261 0.05150944 0.024203511 -0.0042604464 0.0063686976
0.1095039 0.030350067 -0.0019236526 -0.025310488 -0.0044830884 0.07597353 0.0068079564 -0.059988435
0.032718215 0.034741655 0.08904883 0.046867806 -0.05987453 0.05034518 -0.04999437 0.034704812
0.055779614 -0.037267663 -0.04834794 0.068623886 -0.048950955 0.0053838054 0.06596336 0.013021359
-0.022711096 -0.011448449 -0.00036480694 0.054571386 0.068205446 -0.036456037 -6.4474734e-05 0.0071300226
-0.02576458 -0.0045473184 -0.036246743 -0.018536469 -0.04966414 0.051064946 0.07367418 0.08294192
-0.05409103 -0.0052383975 0.020280866 -0.036658935 0.06300005 0.0464713 0.023478113 -0.06488462
0.05120607 0.017988237 0.014368799 -0.028498035 0.0023503727 -0.050935704 -0.02885611 -0.021554835
-0.04646013 -0.039304443 -0.04640847 0.0075102476 -0.07418562 -0.03979573 0.008666194 0.031876218
0.07541587 -0.06889874 0.06883278 0.03693804 -0.061857753 0.007596167 -0.041829962 0.038451217
00000000: 123c 97bd 352a 603b 57be 6b3b 97b6 d93c
00000010: e133 963b b523 813b 5769 23bb 7f9e 7b3d
00000020: b80b a3bc 4417 b13d d908 5e3d e640 d8bd
00000030: 4453 8cbd e71a 363d 0651 1a39 f0dc 07bc
00000040: aab0 13bd 57c3 0ebb ee02 52bd fb2b acb8
00000050: 5ebe 27ba bada 1abb 207d 1d3c b154 ecbb
00000060: e863 5a3c d880 d33d 615d 4abd 05dc 1c3c
00000070: aa36 f43d 535f cb3d a4b3 f03d 9496 69bd
00000080: a512 853c e05f f73d b8e4 993d 4938 a93d
00000090: ae68 17bd 3576 483d 44b2 723c cda6 a53d
000000a0: 3e6a 73bd b0fe 9abd ced7 ff3c 0c3c b83d
000000b0: 9a7a d53b d94e 913c 2a0f b33c 5096 00bd
000000c0: 6330 803c 2c2a ff3c 7c85 013b 16d7 63bc
000000d0: 90fb 523d 7146 c63c 379b 8bbb 82b0 d03b
000000e0: 9543 e03d b4a0 f83c 1223 fcba f157 cfbc
000000f0: dfe6 92bb 0398 9b3d 4715 df3b 6fb6 75bd
00000100: 8903 063d 444d 0e3d 3c5f b63d 75f8 3f3d
00000110: ff3e 75bd bf36 4e3d e6c6 4cbd a226 0e3d
00000120: 2a79 643d faa5 18bd 7d08 46bd ae8a 8c3d
00000130: cc80 48bd a26a b03b cc17 873d 8a57 553c
00000140: 9f0c babc 4792 3bbc 8f43 bfb9 3f86 5f3d
00000150: 4caf 8b3d ed52 15bd 9c36 87b8 f7a2 e93b
00000160: 3e10 d3bc ac01 95bb 7777 14bd cbd9 97bc
00000170: a06c 4bbd 7a29 513d 7de2 963d 74dd a93d
00000180: 8e8e 5dbd dda6 abbb 0f24 a63c ae27 16bd
00000190: 2c06 813d b158 3e3d 2c55 c03c 3ae2 84bd
000001a0: 75bd 513d 115c 933c 1c6b 6b3c b674 e9bc
000001b0: b608 1a3b f5a1 50bd a663 ecbc c493 b0bc
000001c0: fa4c 3ebd b2fd 20bd cf16 3ebd 8618 f63b
000001d0: a1ee 97bd d900 23bd a7fc 0d3c a390 023d
000001e0: a373 9a3d c81a 8dbd 33f8 8c3d 584c 173d
000001f0: 8e5e 7dbd 44e9 f83b e555 2bbd 067f 1d3d

decoder_output_layer.weight f4 [128, 128]
-0.086163394 0.046283495 -0.056219034 0.044099648 0.020243898 -0.025058916 -1.0555229e-16 0.033701893
-0.03500075 -0.027447876 0.015399391 -0.00047632103 0.017753134 0.1272422 0.03926255 0.022607904
-0.0034500249 0.05961311 -0.0009758283 -7.5903414e-26 -0.0018494652 -1.7003502e-17 0.008376645 0.044368744
-0.060550787 0.0584419 -0.002696059 0.009580049 -0.0010278629 -0.026513759 -0.013003287 -0.056357503
-0.022679485 -0.018836219 0.03203388 0.055765737 0.07595415 0.02524361 -0.04024262 0.053726688
-0.009267481 -0.032494668 0.028412925 0.013409086 -0.008803531 0.033245668 0.050887253 -0.011418198
-0.033595696 -0.020231636 -0.009618738 0.04479324 0.030890279 -0.04925759 1.0459295e-25 0.08992433
3.0321651e-05 -0.0013786209 -0.028737567 -0.0061702156 -0.045150258 0.018098738 -0.009109928 0.018840732
-0.044128403 0.03476998 0.028543128 -0.01052711 -0.0544339 0.04257429 -0.013060463 -0.005858455
0.026704682 0.00880264 0.0027609032 -0.017501114 0.08562479 -0.044419512 -0.005975473 0.0039702933
-0.04271759 -0.060811654 1.013127e-15 0.039734557 0.009952691 -3.4634928e-25 9.973846e-16 0.01640135
0.012694336 -2.826412e-23 0.030756205 -0.042249728 -0.0061298623 0.04289536 0.017465202 -0.0143319
0.08592306 0.034873098 -0.016198084 0.01340098 -0.012348574 -0.0052669817 -0.012607914 -0.0407855
-0.010694629 -0.0067308377 -0.018007943 -0.00010667225 -0.02150205 -0.025273226 0.04643895 0.0067216163
-0.017074047 0.0024519123 0.017517168 0.030588025 0.021267887 0.05618423 -0.026003819 -0.032180075
-7.0077745e-05 -0.02119401 -0.036424294 -0.042933352 -0.0873235 -0.0007594555 -0.008572129 0.04725071
-0.054893903 0.046809647 -0.044783574 0.032995593 0.024100615 -0.0147331 0.0058833635 0.035736997
-0.040205628 -0.059253935 0.010465947 0.025250083 0.046256557 0.118596144 0.03427014 0.0741846
0.004071118 0.054123525 0.008111475 0.0016365143 0.0037495163 0.00936782 0.019670056 0.057677
-0.054219607 0.039853387 0.0068169483 0.003161553 0.021165615 -0.03127736 -0.0072992803 -0.070283
-0.045188285 -0.028918484 0.023743885 0.039262503 0.10669517 0.026622968 -0.03191473 0.05187066
-0.030556202 -0.009331704 0.026602397 0.03439665 -0.029909555 0.03018387 0.043976735 -0.009847574
-0.07300295 -0.019967077 -0.03815213 0.028452002 0.015675642 -0.07947522 0.0067471815 0.0752672
0.0063404366 -0.012228352 -0.013947757 -0.0029601415 -0.05642543 0.017719183 0.0012410057 0.045488816
-0.02373939 0.0368469 0.022659324 -0.00080238783 -0.039679166 0.057223126 -0.023782967 -0.008418467
0.026525475 0.0107620675 0.0027808289 -0.02256874 0.06351436 -0.06599993 0.0038628057 0.02804143
-0.036160037 -0.06486853 -0.011454979 0.029783329 0.013429033 -3.43176e-24 -0.00038216487 0.01904641
0.01956197 0.0019591898 0.025378758 -0.02056447 0.00032374723 0.035666805 0.007080767 -0.0175211
0.06085878 0.028115345 -0.02453513 0.015089532 -0.0025442685 -0.0033422145 -0.026324162 -0.04991349
-0.012231685 -0.006928868 -0.008922235 -0.00035113134 -0.021855354 -0.06947306 0.032150146 0.012234888
0.0061688405 0.013132 0.020610075 0.07288459 0.015719749 0.054443337 -0.023217235 -0.01726544
-0.006268153 -0.020622395 -0.031251114 -0.026065886 -0.098238274 0.0055806204 -0.01840814 0.0412981
00000000: 6f76 b0bd c393 3d3d ee45 66bd d5a1 343d
00000010: 88d6 a53c 5b48 cdbc 1363 f3a4 ff0a 0a3d
00000020: f25c 0fbd 5eda e0bc ba4d 7c3c baba f9b9
00000030: 056f 913c c74b 023e c5d1 203d 3634 b93c
00000040: d019 62bb e02c 743d bbce 7fba 81ed bb95
00000050: c169 f2ba 62d4 9ca3 323e 093c 00bc 353d
00000060: 1a04 78bd c660 6f3d 5db0 30bb a3f5 1c3c
00000070: 5bb9 86ba 6233 d9bc bd0b 55bc 20d7 66bd
00000080: 54ca b9bc 6a4e 9abc f535 033d 9d6a 643d
00000090: d98d 9b3d b0cb ce3c 72d5 24bd 8410 5c3d
000000a0: a2d6 17bc 2119 05bd 39c2 e83c c8b1 5b3c
000000b0: af3c 10bc 9c2c 083d 276f 503d 6513 3bbc
000000c0: a49b 09bd d1bc a5bc e997 1dbc 1e79 373d
000000d0: 9c0d fd3c 54c2 49bd d47a 0116 3f2a b83d
000000e0: 405b fe37 d7b2 b4ba 0c6b ebbc 852f cabb
000000f0: 7aef 38bd ce43 943c cf41 15bc e157 9a3c
00000100: fcbf 34bd f76a 0e3d 47d3 e93c e679 2cbc
00000110: 15f6 5ebd 6162 2e3d 8dfb 55bc 48f8 bfbb
00000120: c7c3 da3c f338 103c 45f0 343b 7f5e 8fbc
00000130: 0d5c af3d 3cf1 35bd e7cd c3bb 3c19 823b
00000140: a4f8 2ebd a415 79bd ca01 9226 b4c0 223d
00000150: 9d10 233c 3c61 d696 ffbc 8f26 205c 863c
00000160: e7fb 4f3c 49ad 089a 70f4 fb3c 0d0e 2dbd
00000170: 03dd c8bb 0cb3 2f3d 2f13 8f3c 58d0 6abc
00000180: 6ef8 af3d 18d7 0e3d d8b1 84bc c98f 5b3c
00000190: ac51 4abc a596 acbb 6d91 4ebc b20e 27bd
000001a0: 8638 2fbc 5c8e dcbb 6585 93bc 3ab5 dfb8
000001b0: 1125 b0bc cc09 cfbc c536 3e3d 0141 dc3b
000001c0: dfde 8bbc 43b0 203b 2a80 8f3c bd93 fa3c
000001d0: fe39 ae3c 6f21 663d f605 d5bc 41cf 03bd
000001e0: b4f6 92b8 0f9f adbc a431 15bd e2da 2fbd
000001f0: aad6 b2bd 3216 47ba 1d72 0cbc f689 413d
00000200: 6ed8 60bd 79bb 3f3d fb6e 37bd 6326 073d
00000210: a76e c53c 1a63 71bc 3bc9 c03b f560 123d
00000220: a8ae 24bd 41b4 72bd 5d79 2b3c 43d9 ce3c
00000230: 8477 3d3d 89e2 f23d d95e 0c3d 18ee 973d
00000240: 0367 853b a1b0 5d3d fee5 043c 4f80 d63a
00000250: 72ba 753b 7c7b 193c 1923 a13c b83e 6c3d
00000260: 6115 5ebd 4e3d 233d b560 df3b 0f32 4f3b
00000270: 8363 ad3c b01c 00bd cd2e efbb 89f0 8fbd
00000280: 5a17 39bd 75e6 ecbc 8982 c23c b8d1 203d
00000290: ff82 da3d 6918 da3c 05b9 02bd 5476 543d
000002a0: 0051 fabc 01e4 18bc 45ed d93c 80e3 0c3d
000002b0: e204 f5bc 2a44 f73c f320 343d b857 21bc
000002c0: 9282 95bd ff91 a3bc 6845 1cbd 2c14 e93c
000002d0: 346a 803c e7c3 a2bd 7617 dd3b b125 9a3d
000002e0: 70c3 cf3b 6d59 48bc 2285 64bc effe 41bb
000002f0: 5a1e 67bd d227 913c 3ea9 a23a 7b52 3a3d
00000300: 1c79 c2bc c6ec 163d 0ca0 b93c 5657 52ba
00000310: 9f86 22bd cc62 6a3d 7fd4 c2bc 9ced 09bc
00000320: f44b d93c 6253 303c 913e 363b 14e2 b8bc
00000330: d113 823d f92a 87bd 2027 7d3b 24b7 e53c
00000340: 8c1c 14bd cbd9 84bd aaad 3bbc 2bfc f33c
00000350: 7205 5c3c 81c2 8498 4d5d c8b9 3807 9c3c
00000360: 6d40 a03c c065 003b 1de7 cf3c d276 a8bc
00000370: 9ebc a939 5b17 123d c705 e83b 6988 8fbc
00000380: 0e47 793d 2752 e63c e6fd c8bc 163a 773c
00000390: bebd 26bb 0e09 5bbb c5a5 d7bc 1672 4cbd
000003a0: 6867 48bc 8f0b e3bb 912e 12bc 0d18 b8b9
000003b0: 000a b3bc e447 8ebd dfaf 033d d774 483c
000003c0: fc23 ca3b 9a27 573c 76d6 a83c 8444 953d
000003d0: b4c6 803c faff 5e3d 1232 bebc 4170 8dbc
000003e0: 1465 cdbb 4cf0 a8bc 2b01 00bd 2088 d5bc
000003f0: 2631 c9bd a3dd b63b abcc 96bc 3228 293d

decoder_output_layer.bias f4 [128]
0.013723357 0.01131331 0.013635323 -0.019464264 -0.055331923 -0.014543183 -5.963777e-05 -0.035513815
0.052755523 0.06790068 0.013858948 -0.019128077 0.05212549 0.10386712 0.0048009264 -0.0030240056
-0.0038130113 0.0047847885 0.010535496 -0.028319862 -0.012261342 0.032057628 0.0007093845 -0.029715063
-0.03552607 -0.040195007 0.05422209 0.011416357 0.022976996 -0.022920351 0.021548554 0.005921783
-0.03013391 0.03218616 0.0029052254 0.0067222673 0.030000312 -0.00072721695 0.039599728 -0.0138992565
-0.058421887 0.053955913 -0.044815496 -0.011968257 -0.031248508 0.041462697 -0.005515371 0.066593096
0.015506878 0.07274002 0.01851316 0.04329111 -0.02116693 -0.03457511 -0.030473918 0.03107829
-0.008632887 -0.025207065 -0.019562604 0.013054562 0.004789749 -6.313097e-05 0.0051788767 0.022890935
0.009819457 8.703435e-13 0.0005287802 -0.035648506 0.0070301183 -0.0006328021 0.0032897978 0.05704241
0.041328743 0.027540488 0.032899503 -0.059083827 -0.018594874 0.06935398 -0.050944008 0.0033749084
0.04803001 -0.05612838 -0.030414391 0.017317075 0.019427665 -0.0071399095 -0.02008859 0.027765635
0.0015614992 -0.029676666 0.027186085 -0.0033471603 0.0011210049 -0.05525791 -0.025804305 0.028521663
-0.007913868 0.035602942 0.02118611 0.068870924 0.021215726 0.061859112 0.018906621 0.027783241
0.014142234 -0.022073386 0.0053084437 0.02475219 0.022084134 0.06205838 -5.956264e-14 0.057752457
-0.018164298 -0.00079611357 0.014463863 0.012085803 0.00032290944 0.0223332 -0.061322797 -0.02254095
0.031165387 -0.03504297 0.014876698 -0.005161968 0.031864688 -0.050327934 -0.01648099 0.043439798
00000000: eed7 603c 765b 393c b166 5f3c 8573 9fbc
00000010: baa3 62bd 8846 6ebc 9123 7ab8 ef76 11bd
00000020: 2d16 583d 830f 8b3d a410 633c 7cb2 9cbc
00000030: 8a81 553d 49b8 d43d 1751 9d3b 652e 46bb
00000040: b7e3 79bb b7c9 9c3b 139d 2c3c 0eff e7bc
00000050: cce3 48bc dc4e 033d fdf5 393a 016d f3bc
00000060: c983 11bd 85a3 24bd fb17 5e3d ac0b 3b3c
00000070: 413a bc3c 76c3 bbbc 9886 b03c 840b c23b
00000080: 64db f6bc a3d5 033d 9865 3e3b 7746 dc3b
00000090: 37c3 f53c b4a2 3eba 5333 223d b5b9 63bc
000000a0: ca4b 6fbd e000 5d3d 7490 37bd 8216 44bc
000000b0: dffc ffbc cad4 293d 49ba b4bb f661 883d
000000c0: 8f10 7e3c b8f8 943d e9a8 973c 0552 313d
000000d0: 4566 adbc a19e 0dbd 70a4 f9bc e697 fe3c
000000e0: f470 0dbc 0c7f cebc c141 a0bc cde2 553c
000000f0: 54f3 9c3b 2e65 84b8 91b3 a93b c585 bb3c
00000100: cae1 203c dcfa 742b d79d 0a3a 2b04 12bd
00000110: e85c e63b a1e2 25ba a699 573b 4da5 693d
00000120: 5448 293d 979c e13c a1c1 063d e201 72bd
00000130: 4754 98bc 7609 8e3d aaaa 50bd 912d 5d3b
00000140: 1ebb 443d dfe6 65bd 9a27 f9bc 8adc 8d3c
00000150: c426 9f3c e7f5 e9bb d490 a4bc c274 e33c
00000160: 38ab cc3a 7b1c f3bc 5ab5 de3c 085c 5bbb
00000170: afee 923a 1e56 62bd 8d63 d3bc 43a6 e93c
00000180: 2ba9 01bc 64d4 113d 7e8e ad3c 330c 8d3d
00000190: 9acc ad3c fb5f 7d3d 0fe2 9a3c ae99 e33c
000001a0: d4b4 673c 3fd3 b4bc 74f2 ad3b 1bc5 ca3c
000001b0: c9e9 b43c ee30 7e3d 861f 86a9 d78d 6c3d
000001c0: 4bcd 94bc 47b2 50ba d7f9 6c3c 8803 463c
000001d0: 2c4c a939 1df4 b63c 9d2d 7bbd cca7 b8bc
000001e0: 8e4e ff3c 3889 0fbd 65bd 733c ba25 a9bb
000001f0: 8c84 023d aa24 4ebd 2403 87bc eeed 313d
